ppo_algorithm/checkpoints/ppo_critic_None_lumberjacks.pth (torch, 135568 bytes, 5 tensors)

critic.0.weight f4 [128, 128]
000000 0e bd 6b bd 10 dd ad bd dc e3 4f 3d 34 5e b4 bd
       -0.057553343 -0.0848943 0.050754413 -0.0880703
000010 d2 44 09 bc 71 04 88 bd e1 e6 96 bd a3 ca 4d 3d
       -0.008378224 -0.06641472 -0.073682554 0.050242078
000020 c1 2f 5a bd 85 ea 5e bb f2 3e af bd 84 4f 89 3b
       -0.053268198 -0.0034014296 -0.08556928 0.004190387
000030 c1 ee b2 3c fe 06 c8 bb c5 b5 72 3d 16 5e 94 bd
       0.021842362 -0.006104349 0.05925538 -0.07244508
000040 5c 16 57 bc 41 3c 16 bd 29 74 8d 3d ff 4f a6 3d
       -0.0131278895 -0.036678556 0.069069214 0.08120727
000050 08 90 84 3d 1b c2 8f 3d a2 5a 7c bd 6c 27 a0 3c
       0.06472784 0.070194446 -0.06160987 0.019550048
000060 75 93 b0 bd f7 42 89 3c 6b e9 a1 3d 30 c6 fd 3c
       -0.08621875 0.016755564 0.07905849 0.030978292
000070 77 7d e8 3c 7a 28 f9 bb b6 6f 9e 3c 45 71 3b bd
       0.028380139 -0.007603702 0.019340377 -0.04576232
000080 7b b3 ff 3c 67 c4 9d 3d fc e9 07 bc 90 15 a1 bc
       0.031213513 0.077034764 -0.008295532 -0.019663602
000090 c3 03 32 3d 0f 6e 8a bd c3 e2 f4 3b e4 39 68 bd
       0.04346062 -0.06759273 0.007473321 -0.056695834
0000a0 aa fe be bb a5 36 f0 bc 65 bb a9 bd c3 1e b3 3d
       -0.005828698 -0.029322932 -0.08287696 0.08746102
0000b0 4d be ca 3c 7d 1b ce 3c 72 e0 d1 ba d2 fd 65 bc
       0.024748946 0.025159592 -0.0016012324 -0.014037566
0000c0 00 2a 1f bd 55 89 98 3c d5 24 94 bc e5 b0 1c bd
       -0.038858414 0.018620173 -0.01808397 -0.038254637
0000d0 0e 45 f8 3c 4f a3 8a bd dc ac 6f bd 48 a2 8e bd
       0.030306365 -0.0676943 -0.05851446 -0.069645464
0000e0 d1 d8 46 3d dc 0b 5e 3d 13 58 be 3c 60 f3 5d 3d
       0.048546616 0.05421053 0.023235356 0.05418718
0000f0 ff ab 5c bd 2f 1f 32 bd 5b ff d2 3c 53 d7 74 3d
       -0.053874966 -0.04348677 0.025756529 0.05977566
000100 fc 9a be bc 97 2a 20 3d 65 5b a8 3b 40 80 b5 3c
       -0.023267262 0.039103117 0.005137848 0.02215588
000110 79 6f 85 bd 26 9e 3b 3d df ec 4e bd ac c9 47 bd
       -0.06515402 0.04580512 -0.050518867 -0.048776314
000120 7b 39 3e bd 2a a1 22 bc 37 97 6b 3d b6 ea cb 3c
       -0.046441536 -0.00992612 0.057517257 0.024892192
000130 0d 42 6b 3d 14 ed 83 3c 36 c2 0f 3c 33 6c f2 bb
       0.057436038 0.016104259 0.008774331 -0.0073981523
000140 15 95 ed bc a1 98 c1 bc be 86 89 3d 80 13 b3 3d
       -0.029001752 -0.02363235 0.06715153 0.08743954
000150 9e 63 8a 3c ae a8 92 3d 7e 4c 6f 3d 79 90 9b bd
       0.016893204 0.07161079 0.058422558 -0.07595915
000160 0d e2 6c bd 12 ad 2b bd 50 86 2b bc 0b 20 56 3d
       -0.057832766 -0.0419131 -0.010469034 0.052276652
000170 d5 d7 af 3c 6c 9c 14 bd 53 e4 64 bd 89 f6 68 bd
       0.021465221 -0.036281988 -0.05588181 -0.05687574
000180 0f 51 8d 3d b9 91 99 ba 4d d3 1c bd 11 ee af bd
       0.06900226 -0.0011716402 -0.03828745 -0.085903294
000190 2b 9a 2b 3d cd c7 b1 3d e7 45 9b 3d af 9a 9b 3b
       0.041895073 0.08680687 0.07581692 0.0047486643
0001a0 50 1e a1 3d d9 37 b3 3d 66 9d 3b bd c1 53 96 3d
       0.0786711 0.087508865 -0.045804404 0.073401935
0001b0 b6 e2 25 bc 8b e3 1a 3d 0c 79 57 3d 0c 94 66 3d
       -0.010124853 0.037814658 0.052605674 0.056293532
0001c0 63 8d a1 bd 3c cc 58 bc ec 9c 48 bd bb eb 8b 3b
       -0.078882955 -0.013232287 -0.048977777 0.0042700446
0001d0 e9 d1 84 3d 7b 2d 7e 3d b9 c2 99 bd 44 45 a9 bd
       0.0648535 0.062055092 -0.075078435 -0.082651645
0001e0 a1 75 32 bd f5 20 8f 3d 1a fb f6 3b 9d 4c ac 3c
       -0.04356921 0.06988708 0.007537258 0.021032626
0001f0 12 78 8a 3d f2 6b a8 3c 9d be da b9 2f 6b 4e bd
       0.06761183 0.020559285 -0.00041722218 -0.050395187
000200 8e 24 64 3d 91 6f 20 bd 1c b5 54 3d 87 39 31 3d
       0.055698924 -0.039168898 0.05193053 0.043267753
000210 81 14 87 bc 39 87 b4 bd 9e b4 64 3c b1 9a 91 3c
       -0.01648927 -0.08814854 0.013959078 0.017773958
000220 3c 31 9b bc f8 35 6c bd 4f 98 fe bc ad aa d3 3c
       -0.018944375 -0.057668656 -0.031078486 0.02583822
000230 5f b4 49 bd 5d d9 8b bd 71 5a ad bc 89 a8 f0 3b
       -0.04924428 -0.06828568 -0.02116129 0.0073443097
000240 3f a9 0e 3d 35 80 87 bc 8a f1 14 bc 3b 5d b3 bd
       0.034829374 -0.016540626 -0.0090907905 -0.08758017
000250 73 bd 26 bd 4f 9b 46 bd 18 36 78 3d 57 3f b2 3d
       -0.040708017 -0.048487958 0.060598463 0.08703487
000260 16 67 af bd 61 cf 5d bd c3 f6 54 bd ab 03 09 3d
       -0.08564584 -0.05415285 -0.051993143 0.033450764
000270 04 38 92 3d 40 70 80 3d 8c 86 68 3d 6e 4f fe bc
       0.071395904 0.0627141 0.05676894 -0.031043734
000280 b2 be 7b 3d 42 dd 5f 3d fc 09 9c 3d 19 82 48 bd
       0.061461158 0.054654367 0.07619092 -0.048952196
000290 2e 7f 50 bd 03 fb 5d 3d d6 7d 8a 3d 4c 35 74 3d
       -0.050902538 0.05419446 0.067622826 0.05962114
0002a0 de a7 f5 3c 44 16 3f 3d 3e 43 3d 3d cf 1c 4f 3c
       0.029987272 0.046652094 0.046206705 0.012641146
0002b0 ba 42 43 bd 1d df 88 3d 72 00 45 3b f3 b7 ad 3d
       -0.047671057 0.066831805 0.003006008 0.08482351
0002c0 a6 ac 5a 3d 61 0e ed bb 2a c9 3f bd b0 91 ac 3d
       0.053387307 -0.00723438 -0.046822704 0.08426225
0002d0 ec de 27 3d 8a ae 9d 3d c8 e3 62 bc 0e ef 6a bc
       0.04098408 0.07699306 -0.013848253 -0.014339222
0002e0 2f ef 62 bd 09 4c 5f 3d be f4 82 bd 31 b1 75 3d
       -0.055403885 0.054515872 -0.06394337 0.059983436
0002f0 80 bc 91 3c 3a 25 7c 3d 16 de a1 bd c2 d2 cf 3c
       0.01779008 0.06155894 -0.07903688 0.025369052
000300 d7 4f 81 bd a3 99 a1 bc 90 66 af 3c c8 28 a3 bd
       -0.06314056 -0.01972658 0.02141121 -0.07966763
000310 1b 2b 38 bd e6 d6 69 bd 59 d8 71 bd 32 c1 a5 bd
       -0.044962984 -0.05708971 -0.059044216 -0.0809349
000320 3d ea 5b 3d 1d f2 3e bc 14 0a 8e 3d 87 d6 89 bc
       0.053690184 -0.011654404 0.06935516 -0.016825927
000330 34 bb ba bc 39 b5 de bc 66 ad ac 3d 96 68 78 bd
       -0.022794344 -0.027186023 0.084315106 -0.060646616
000340 d5 a9 10 3c 3b 96 6b bd 02 02 9c bb e9 c6 19 3d
       0.008829554 -0.057516318 -0.0047609815 0.03754321
000350 4d c6 85 bd 04 18 95 bd af 43 63 bb df 91 05 bc
       -0.065319635 -0.07279971 -0.0034677794 -0.008152454
000360 2d 55 ae bc 61 88 cf bb 75 50 2c 3d ec bb 99 3d
       -0.02128085 -0.0063333963 0.042068917 0.075065464
000370 0b 16 a9 bd e5 09 b2 bb e2 b2 81 3d b5 15 51 bd
       -0.082561575 -0.0054333084 0.06332947 -0.051046092
000380 03 f7 88 3d 46 d0 e6 bc a0 d1 a9 bd 38 cf fe 3c
       0.06687739 -0.028175484 -0.08291936 0.031104669
000390 fa c8 7e bd d0 9a fc bc 6f f7 04 3d c2 d8 68 bd
       -0.062203385 -0.03083554 0.032462534 -0.05684734
0003a0 5c 8d 23 3d 49 99 8a 3d d8 0a 9a bd d9 ed a5 3c
       0.039929733 0.06767518 -0.075215995 0.020255016
0003b0 4d 34 ba bc 81 e7 7e 3d f1 e4 9d bd bc 0f 26 3d
       -0.022730017 0.062232498 -0.07709683 0.04054235
0003c0 84 7d 19 3d 48 80 85 3d 1f a5 e9 3c 4f 19 af 3c
       0.037473217 0.06518608 0.028521119 0.021374373
0003d0 32 b1 59 bd 5b 0f f0 bc 45 ca 0e bd de 67 6e 3d
       -0.053147502 -0.029304197 -0.034860868 0.058204524
0003e0 75 a8 9e 3c ef 38 91 bb ef 59 4a 3c 7f cd 6b bd
       0.019367436 -0.004431836 0.012350543 -0.057569023
0003f0 0b c9 85 3d 0e e3 a4 3d fa c5 83 3d 00 04 24 39
       0.065324865 0.0805112 0.064342454 0.00015641749

critic.0.bias f4 [128]
000000 cd 51 94 bd 2a fb 96 bd 58 51 1f 3c d3 eb eb 3c
       -0.07242165 -0.073721245 0.009723984 0.028798973
000010 b9 8b b0 3c dd 9b 4e 3d 5e 26 62 3b 07 d0 45 3d
       0.021551 0.05044161 0.0034507732 0.048294093
000020 cf da 8b bd e9 35 49 bd e9 6c 8a bd e0 7f df 3c
       -0.06828844 -0.04912368 -0.06759054 0.027282655
000030 34 30 ac bd 9f 0c 02 3c 62 03 78 3c 96 2e 91 3d
       -0.084076315 0.007937579 0.015137525 0.07088964
000040 a2 4e 48 bd 6d 88 03 3c 1a 11 70 3d d6 e9 49 3d
       -0.048903115 0.008028132 0.05861006 0.04929527
000050 7a 56 8e 3d 7e e2 51 bd a4 db a2 3d bf ec 29 bd
       0.06950088 -0.05124139 0.079520494 -0.041485544
000060 38 c0 3a 3d fd 4f a9 3c df 34 36 3c 33 c6 b1 bd
       0.04559347 0.020668024 0.011121004 -0.086803816
000070 74 e2 a5 3d 9e a0 04 3b 24 4d ce bc 72 a8 11 3d
       0.08099833 0.0020237337 -0.025183268 0.035561033
000080 fb 01 b1 bd e9 04 b0 3d a0 22 f0 bc bb 5a 13 bb
       -0.08642956 0.085946865 -0.029313385 -0.00224845
000090 0b 52 98 3c f0 e1 36 3d 1e e9 1b 3d 80 0a 2a 3d
       0.018593809 0.044649065 0.038064115 0.04151392
0000a0 bb 09 cd bc e1 de ab bc 7b b8 b3 bd 0a 19 9a 3d
       -0.025029054 -0.0209803 -0.08775421 0.07524307
0000b0 6e 6c b3 3d 9a 91 02 bc 45 c9 fb 3c e9 5b 64 3d
       0.08760916 -0.007969284 0.030735621 0.055751715
0000c0 d0 00 f1 bc 53 6e 9a bd ff 7c e0 bc 61 84 34 3d
       -0.029419333 -0.07540574 -0.027403353 0.04407156
0000d0 b5 ad 98 3d f8 ce 16 3d 89 2b 83 bd e5 e9 53 bc
       0.07455007 0.036818475 -0.06404788 -0.012934183
0000e0 b7 ca 64 bc 0a de 86 bd 39 be 50 3d 7a b3 8e bd
       -0.013964347 -0.06585319 0.05096266 -0.06967826
0000f0 ea 1b 0e 3d ff a7 bb 3c 2c 5e a7 bd 80 f7 bf bc
       0.03469459 0.022907255 -0.08172259 -0.023433447
000100 ee 9c b0 3d c6 56 8d bd 01 2d ae 3d 25 d6 17 bd
       0.08623682 -0.06901316 0.085046776 -0.03706946
000110 6e 25 64 3d 3f de 89 3d 72 fb 81 3d 7a af 97 b9
       0.05569976 0.06731843 0.063467875 -0.00028931705
000120 7e b9 ea bb 33 fb 91 3d 75 6f 57 bc 66 1c 34 3d
       -0.0071632257 0.071279906 -0.013149132 0.043972395
000130 6f 2c d7 3c 62 e5 84 bc f2 3d b8 bc e7 a1 ad 3c
       0.026266305 -0.01622266 -0.022490475 0.021195365
000140 2d 24 82 bd f8 d7 99 3c 14 f4 71 3d 38 84 69 3c
       -0.06354556 0.01877974 0.05907066 0.014252715
000150 25 11 9f 3d 5f 47 01 3d 5b e5 2f bd 82 ca 37 bd
       0.07766942 0.031562205 -0.04294334 -0.04487086
000160 50 3e 07 3d 55 f6 19 3d 71 45 8f bd 85 f4 a0 bd
       0.03301841 0.037588436 -0.06995667 -0.078591384
000170 81 47 7d 3d 11 7b 92 3d 9b a3 df ba 62 f7 9f ba
       0.06183577 0.07152379 -0.0017062308 -0.0012204463
000180 9c 49 96 bd 50 1a a4 3d 16 24 ac bd 13 02 aa bd
       -0.073382586 0.08012831 -0.0840532 -0.08301177
000190 19 84 35 3c 5b 61 94 3c 88 bb 1f bd b0 c1 98 bd
       0.011078858 0.018112829 -0.038997203 -0.07458818
0001a0 63 f7 ad 3d 37 8f 9f 3d b7 83 8d bd 0c e6 92 bd
       0.08494451 0.07790988 -0.06909888 -0.07172784
0001b0 4b fe ca 3c b0 05 9f 3d 4b cd 1e 3d e1 9a 90 bd
       0.02477946 0.07764757 0.03877 -0.07060791
0001c0 da 3a af ba f5 bf 4e bc df 8a 58 bc a7 66 ee bc
       -0.001336898 -0.012619008 -0.013216703 -0.029101683
0001d0 a8 5c af 3d a3 42 a8 bd fa 71 ce bc 9d 6b 02 bd
       0.08562595 -0.08215835 -0.025200833 -0.03184091
0001e0 3c 7c 08 3d 7a d0 7e 3d 6e b3 ac 3d 9a d6 b2 bd
       0.033321604 0.062210537 0.08432661 -0.08732338
0001f0 19 8b ec bc ea 75 7c bd 5e 04 8a bd 96 d1 40 3d
       -0.02887492 -0.06163589 -0.06739114 0.047074877

critic.2.weight f4 [128, 128]
000000 6c 79 fd 3c 6e f4 15 bc ef 4b 2b 3d e5 fd a4 3d
       0.030941688 -0.009152515 0.041820463 0.08056239
000010 52 3a 01 bd 46 ac 0e 3d e2 b3 7c 3d f0 45 09 bd
       -0.03154976 0.03483226 0.061694987 -0.033513963
000020 62 55 26 bd 6c 72 97 bc dc 4b b4 bd 5f b0 47 3c
       -0.04060877 -0.018487178 -0.088035315 0.012188046
000030 92 56 3c 3d db 1a af 3c d7 93 33 3a 31 b9 36 3c
       0.045980997 0.02137511 0.0006850338 0.0111525515
000040 aa 69 42 bc 67 67 2f ba b5 f7 59 3d a6 87 60 bb
       -0.011866013 -0.00066911284 0.053214747 -0.003426054
000050 37 2a 96 3b 49 03 32 bd 40 4a eb bc ce 40 b6 bc
       0.004582669 -0.043460164 -0.028721929 -0.022247698
000060 0f f3 83 bd 01 ff 9f bc 31 6f a4 3d 44 c5 6b bc
       -0.06442844 -0.019530775 0.080290206 -0.0143902935
000070 f0 ea a9 3d 13 40 bf 3c ac 4a 49 3c ec 7e 7f 3d
       0.08296764 0.023345983 0.01228587 0.0623769
000080 1b 32 4c bb ba 76 8d 3d c7 3b 8f 3d 62 c8 94 bd
       -0.0031157795 0.06907411 0.069938235 -0.072647825
000090 9c ae 7d bd 07 ea a7 bd 94 78 ed bc 4e 96 11 3d
       -0.0619341 -0.08198934 -0.02898816 0.035543732
0000a0 bb b9 86 3d aa 4b 7c bb bb 09 87 bd 62 1e 7f 3d
       0.06578394 -0.0038497248 -0.06593653 0.062284835
0000b0 29 45 94 bc 51 9f 8f bd 65 c5 37 3d 6b f1 83 3d
       -0.018099384 -0.07012809 0.044865984 0.06442531
0000c0 85 05 8f bd ab 64 90 bc 7f d7 8e 3c cb f4 93 3c
       -0.06983475 -0.017626127 0.01743674 0.018061062
0000d0 be 1a 9b bc 60 56 1a bd 7e 20 6a bb eb 88 0e 3d
       -0.01893365 -0.03768003 -0.0035724933 0.034798544
0000e0 bb d9 b1 3d f2 e3 00 bc 72 a3 d4 bc 49 82 74 bc
       0.08684107 -0.007866846 -0.025956843 -0.0149236405
0000f0 28 f4 b0 bc 2f bb 31 bd bb 68 24 bd d8 6c a5 3c
       -0.021600798 -0.043391403 -0.04013894 0.020193502
000100 98 67 45 3c 0f 2f ab 3d b9 9c b3 bc d2 33 69 3d
       0.012048624 0.08358585 -0.021925317 0.056934185
000110 95 3d 3e 3c ae 0c 94 3c 9b 27 81 3c d6 43 51 bd
       0.011611362 0.018072452 0.015765956 -0.051090084
000120 a3 97 ea ba 3b 00 9a bd bc 88 72 3d 7c db 77 bd
       -0.0017897974 -0.07519575 0.05921243 -0.06051205
000130 e7 3a c7 3c d6 1a c8 bc 8d 4c 34 3d 45 45 12 3d
       0.024320079 -0.024426859 0.044018317 0.03571059
000140 56 d7 76 3d 74 b5 bf 39 51 d3 11 bd 25 fd 8f bc
       0.060263954 0.00036565552 -0.035601918 -0.017576763
000150 66 b3 f1 bc d2 b3 e4 bb 8e 80 b4 bd 1f 24 9d 3d
       -0.02950449 -0.006979444 -0.08813582 0.07672905
000160 a2 30 ae 3d 5d 3f 24 bd ec 26 9c bd b3 e1 13 bc
       0.0850537 -0.04009949 -0.07624611 -0.009025979
000170 b8 31 4a bc 8e 11 9c bd 57 61 95 3d 4f 60 55 bd
       -0.012340955 -0.07620536 0.07293957 -0.0520938
000180 55 75 ad bd 67 db 39 bd dc 24 19 3d 92 91 b2 bc
       -0.08469645 -0.045375254 0.037388667 -0.021797929
000190 e2 70 0d bd 10 3b 1a bd 86 dd 7a 3d 67 0f 70 3c
       -0.03453148 -0.037653983 0.061246417 0.01465211
0001a0 16 62 96 3d 34 46 3b 3d 0f 39 ac 3c 1f a3 11 bd
       0.07342927 0.045721248 0.021023301 -0.035555955
0001b0 e1 c8 9f bd 7b f5 6d bd 93 29 98 bd 0d 49 55 bd
       -0.078019865 -0.058095437 -0.07429805 -0.05207162
0001c0 5c d7 eb 3c 3e 59 58 bd cd 97 9c bd 47 44 40 bd
       0.028789215 -0.052819483 -0.07646141 -0.046940114
0001d0 20 13 a7 3d f3 cb 83 bd 53 6f 44 3d 49 bd 3d bb
       0.08157945 -0.064353846 0.04795773 -0.0028951934
0001e0 e1 50 b3 3d 6c e7 22 3d c5 d0 8e 3d 9a 3a 65 3d
       0.08755661 0.039771482 0.069734134 0.05596409
0001f0 7f 07 49 3d fd 98 84 bd d9 2e 98 bd e0 5e 15 3c
       0.049079414 -0.06474493 -0.074308105 0.009116858
000200 29 6a 77 bc d4 7f 95 3d 1a 98 4f bd 40 d1 bb bc
       -0.015100994 0.07299772 -0.050682165 -0.022926927
000210 10 2e f2 bb 27 b7 17 3d 95 69 86 ba 32 f3 5a 3d
       -0.007390745 0.037039902 -0.0010254855 0.053454585
000220 9c ff 83 3d c4 82 a5 bd cc ae 6a bc e4 2f 66 bd
       0.06445238 -0.08081582 -0.014323901 -0.056198016
000230 c9 f8 71 3d 03 21 09 3d db c2 89 bd 74 f4 dc 3c
       0.05907515 0.033478748 -0.06726619 0.026972033
000240 df 00 74 3d b0 9e 42 bd 75 56 3b 3b da 46 ea 3c
       0.059571143 -0.047514617 0.0028585468 0.028598238
000250 9a b6 4e 3d e6 5b 14 3c d2 86 95 bd d0 3e ae bc
       0.05046711 0.009055113 -0.073011056 -0.021270186
000260 d7 48 68 3d 78 98 88 3d 7e 6b bf 3c 39 0d 66 3d
       0.05671009 0.06669706 0.023366686 0.056164954
000270 87 7a 05 bd 8c 3f 4f 3d a9 49 a4 bd 0f 50 81 bd
       -0.032587554 0.050597712 -0.08021862 -0.06314098
000280 0e 11 ab bd 46 8f 95 bd bd 0d e4 bc b3 21 0f bd
       -0.08352862 -0.07302718 -0.027838582 -0.034944247
000290 e4 e5 49 3d 23 47 8a 3d e4 63 e1 bc f8 52 8c bd
       0.049291506 0.067518495 -0.027513452 -0.068517625
0002a0 5b 37 a6 3d d0 86 a0 bd 44 8a 69 bd ed 53 13 3c
       0.08116027 -0.078382134 -0.057016626 0.008992177
0002b0 6f 9c 3c 3c 91 35 69 3d d0 fc 5b 3c 06 28 8d bd
       0.011511906 0.05693585 0.013426974 -0.068923995
0002c0 93 4f 08 bd 92 81 7e 3c b2 7c 82 bc a2 26 bc bc
       -0.033279013 0.015533822 -0.0159286 -0.02296764
0002d0 31 e5 f8 3c 9a e9 81 3d e8 2f 4a 3c dd 0b 46 3c
       0.030382724 0.06343384 0.012340523 0.012087789
0002e0 66 dc 39 3d 2d 75 e0 bc 15 8b 8b bd b8 b9 49 bd
       0.045376204 -0.027399624 -0.06813637 -0.04924938
0002f0 13 39 31 3c 2e 7b b3 bd 39 05 81 3c 3c da 7e bd
       0.01081683 -0.08763729 0.01574956 -0.062219843
000300 04 e3 54 3b af a5 a0 bc 47 8a 8a bd bd 73 9c bd
       0.0032483945 -0.019610254 -0.067646556 -0.07639263
000310 41 e7 25 bd e9 83 61 bc 16 0f 25 bd 3b f4 6d bc
       -0.040503744 -0.01376436 -0.04029759 -0.014523561
000320 3f 0f ce bc 70 a6 b0 bd f6 f5 83 bc 77 3a 98 3d
       -0.025153754 -0.086254954 -0.016108494 0.07433026
000330 e3 4d 9c 3d 76 fc 2c bc 56 88 1c 3d 9d 05 63 bd
       0.07632043 -0.010558238 0.038215958 -0.055425275
000340 cc 2c 8a 3d 2e bc 52 bc 83 20 ae bd 91 99 3d 3d
       0.067468256 -0.012862248 -0.08502295 0.04628903
000350 4d 63 9c 3d 6b 0d 86 bc 39 bf 08 3d 38 b8 94 bb
       0.076361276 -0.01636382 0.03338549 -0.004538562
000360 b9 7f ad bd cd f2 09 bd c7 43 8c 3d ff 98 40 bd
       -0.08471627 -0.03367882 0.06848865 -0.04702091
000370 be 17 b3 bb f3 74 cc 3c c5 5c a5 3d 7b 70 ac 3d
       -0.005465477 0.02495811 0.08074335 0.084198914
000380 b7 da 85 3d a9 8d 7d 3c 34 8a 91 3d f1 d9 70 3b
       0.06535857 0.015475669 0.07106438 0.0036750997
000390 d6 37 75 bc 2a 28 9d bb 6c a4 7d 3c 46 0e 5f bc
       -0.014966926 -0.0047960477 0.015481096 -0.013614243
0003a0 7f dc 91 bd 82 bc b4 bd a6 8c 2a bd 92 80 8f 3d
       -0.071221344 -0.088250175 -0.04163804 0.07006945
0003b0 50 b2 5f bd e3 34 8a bd 91 a7 34 bc 28 db b2 3d
       -0.05461341 -0.067483686 -0.011026279 0.08733207
0003c0 e3 fb d6 3b 9c 58 72 3d 39 0b cf bb 3f a3 f1 3c
       0.006560789 0.059166536 -0.0063184765 0.029496787
0003d0 9e a9 76 3d be e5 9d bd 29 1f 6f bc b5 10 52 3c
       0.060220353 -0.077098355 -0.0145948315 0.012821366
0003e0 fe 2b 7f bd 03 93 5d 3d e4 d4 a6 3d e3 45 36 3d
       -0.062297814 0.05409528 0.081460744 0.044500243
0003f0 2f e2 aa 3d bb 37 6b bd e0 15 a0 bd 21 a1 86 bd
       0.08343922 -0.057426196 -0.07816672 -0.06573702

critic.2.bias f4 [128]
000000 4c ef 2f 3c b7 08 ab 3c 86 2c 7f bd 9d d2 e2 3c
       0.010738205 0.020878179 -0.06229832 0.027688319
000010 bd 70 ad bb 52 c6 5b bd 25 1b 2b 3c ad 10 71 bd
       -0.0052929805 -0.05365593 0.0104434835 -0.058853794
000020 e3 67 51 bd 42 00 83 3d 57 32 da 3b c2 62 6f 3d
       -0.051124465 0.063965335 0.006658833 0.058443792
000030 7b 4b a5 3c f4 03 98 3d 18 1e 94 bd 60 6b 92 3c
       0.020177593 0.07422629 -0.072323024 0.017873466
000040 30 1c 52 bd d5 ed 22 bd 91 d6 ab bd 95 ea 42 3d
       -0.051296413 -0.039777596 -0.08390535 0.047586996
000050 b9 95 b1 3d 29 2a 98 bb d8 42 3d 3d dc 27 a8 bd
       0.086711355 -0.0046436978 0.046206325 -0.082107276
000060 4b 82 1c bd 30 ae 2f bd f6 e5 7d 3d 53 f4 85 3d
       -0.038210195 -0.042890728 0.061986886 0.06540742
000070 7b fe 91 3c 2c fb e4 3c 7f d5 e4 bc 40 c4 34 bd
       0.017821541 0.0279518 -0.027933834 -0.04413247
000080 f5 64 66 bd 45 55 ad bc 89 dc 3a bd d4 b6 42 bc
       -0.056248624 -0.021158824 -0.045620475 -0.01188441
000090 59 06 91 3d fc 1c 73 3d f3 bc 9b 3d 5d ff 2b 3d
       0.07081289 0.059353814 0.076043986 0.04199158
0000a0 ca f0 db 3a f6 d1 14 bd 67 8f 54 3c 0c d5 8d 3d
       0.0016780135 -0.036333047 0.012973643 0.06925401
0000b0 d0 06 77 3d a2 cf 86 bd 23 2b c1 3c 2d d6 92 bd
       0.06030923 -0.065825716 0.02358014 -0.07169757
0000c0 bc e4 57 3d 9f 0c 06 bd ea 89 23 bd 5a b5 24 bc
       0.052708372 -0.03272688 -0.039926447 -0.010053003
0000d0 7c 51 3f 3c 9d 33 7b 3d 43 7f 38 3d ef d5 ab bd
       0.011677142 0.06132852 0.04504324 -0.08390414
0000e0 72 ea b6 bc f4 eb a0 3c 8b 5a 92 3d 29 14 ab 3b
       -0.02232859 0.019643761 0.07146176 0.005220909
0000f0 f7 3d 10 bd 64 dc 3a 3d a1 1a f8 3b e5 27 44 bb
       -0.035215344 0.045620337 0.007571534 -0.0029931006
000100 67 f9 43 bb f8 2f aa 3d ce c6 9e bd b9 09 48 bd
       -0.0029903294 0.083099306 -0.07752763 -0.048837397
000110 7b ee e6 3c 9c ff 19 3d 58 8b af bd c4 89 a6 bb
       0.028189888 0.037597284 -0.085714996 -0.005082341
000120 e5 db bc bc 75 13 39 3d b0 df 85 3d c6 57 a3 3d
       -0.023054073 0.04518457 0.06536806 0.07975726
000130 f7 58 54 3d 94 97 ad bd a0 7b 2a bd 6b ac 73 3d
       0.051842656 -0.08476177 -0.041621804 0.059490602
000140 41 9c b1 3d 2e 93 24 3d 62 c6 83 bb 8e 27 81 3d
       0.08672381 0.040179424 -0.004021452 0.063063726
000150 bc 00 47 3d 5b 1e 21 bd 00 d8 d2 bc a5 f6 01 bd
       0.048584685 -0.03933559 -0.025737762 -0.03172936
000160 9f 6a 41 bd ae ac 76 bd ef 58 82 3d 53 5f 27 bd
       -0.047220822 -0.060223274 0.06364619 -0.040862393
000170 be f6 a1 3d 1e b8 a1 bd 60 21 fb bc d3 08 96 bd
       0.079083905 -0.07896446 -0.030655563 -0.07325902
000180 88 67 ac 3d b4 d7 54 3d 57 18 4a 3d 0a 22 ee bc
       0.084181845 0.051963523 0.04933962 -0.029068965
000190 ad ca 35 bd 28 45 2a 3c ba 2b 60 3d d6 18 98 3c
       -0.04438274 0.010392465 0.0547292 0.01856653
0001a0 14 0a 97 bc 16 db 08 3d 02 1f 3c bc 41 99 11 3d
       -0.018437423 0.03341206 -0.011482002 0.035546545
0001b0 bf 9f 7b bc c5 b5 35 3c 13 39 55 3d 1b 40 ac 3c
       -0.015357911 0.0110907005 0.052056383 0.021026662
0001c0 f8 56 0a 3d 8d 87 0e bd 48 7d 2a bc 1f 94 ac 3b
       0.033774346 -0.03479724 -0.010405846 0.005266681
0001d0 1f 3d 22 bd d5 21 ab 3d 10 d7 d0 bc 0a ba 8e 3c
       -0.03960907 0.08356062 -0.025493175 0.017422695
0001e0 fa cc 9b 3c 89 38 37 bd 20 56 a6 3c b8 6b 95 3d
       0.019018639 -0.04473165 0.02030474 0.07295936
0001f0 54 ab b7 bc fe 30 5a 3d 4c ed 55 bd 53 83 97 3d
       -0.022420563 0.05326938 -0.052228257 0.07398095

critic.4.weight f4 [1, 128]
000000 7f 55 86 bd 9e b9 a8 bb 91 ff 00 3c 62 e8 37 3d
       -0.06559276 -0.0051490804 0.007873432 0.044899352
000010 fe 5a 57 bb ef d5 9e bc 56 43 bc 3a 3b 3c 91 bd
       -0.0032860632 -0.01938912 0.0014363329 -0.07091566
000020 e5 f4 dc bc 8d e8 91 bd 2b d9 98 3c 64 df 9e 3d
       -0.026972244 -0.07124434 0.018658241 0.07757452
000030 88 fc 23 3c 59 68 94 3d df 61 ac bd 3a 4a 56 3b
       0.010008939 0.07246465 -0.08417105 0.003269805
000040 5d 6b 58 3c fb 0d 34 3d 89 2c d9 3c 4c d4 63 bd
       0.013209191 0.043958645 0.026510494 -0.055622384
000050 42 55 98 3d 6b 0b 8f bd 46 00 0b bd fb db 7c 3d
       0.07438137 -0.069846 -0.033935808 0.061733227
000060 7f fb 6e 3c 0c 2d 7a bc 41 d6 8d bd 6a 15 97 bd
       0.0145863285 -0.015269529 -0.06925631 -0.07377131
000070 b4 bb b0 bd ca 75 93 3d 46 26 74 bc 0a 05 5f bb
       -0.086295515 0.07200201 -0.014901703 -0.0034030103
000080 4f eb 2b 3d 02 a4 b3 3d f4 88 ba bb d3 4e 67 3d
       0.041972455 0.087715164 -0.0056925956 0.056471657
000090 ba fc 56 3d 5f ea ac bd 70 7f 86 3c 80 81 b3 3c
       0.052487113 -0.0844314 0.016418189 0.021912336
0000a0 96 70 f4 bc 0e ff 4e bd 65 20 aa bd b9 11 7e bd
       -0.029838841 -0.050536208 -0.0830696 -0.06202862
0000b0 0b 81 be 3c 35 b6 e4 3a 6b b0 47 3c b6 c1 86 3d
       0.023254892 0.0017449321 0.012188057 0.06579916
0000c0 48 35 58 3d 58 34 7d 3c 2c 81 fe 3b 34 38 d9 3b
       0.052785188 0.015454374 0.0077668633 0.0066290144
0000d0 9e 59 11 bd ea a9 b2 bd a1 0c 3f bc 63 90 25 bd
       -0.035485856 -0.08723815 -0.011660726 -0.0404209
0000e0 9c 35 3b 3d f5 30 2a 3d a6 92 17 3d cb 75 34 3d
       0.045705423 0.041550595 0.03700509 0.04405765
0000f0 c5 62 6a bd b2 a8 a4 3d ee 07 85 3d 1d 55 a1 3c
       -0.0572231 0.080399886 0.06495653 0.019693905
000100 1e 9d 77 bc 40 70 ae 3d 4c 37 84 3d 6d a3 93 3d
       -0.015113143 0.08517504 0.064558595 0.07208905
000110 c6 da fa 3c 03 d6 3d 3d 9d 2d 6f bd ba 2d a8 3d
       0.030621897 0.046346676 -0.05839311 0.08211847
000120 92 55 d0 bc da 79 70 bd 4f 92 36 bd a3 13 ad 3d
       -0.025431428 -0.058709957 -0.044573124 0.08451011
000130 df a1 c4 bb c5 28 5b 3d c7 79 a3 bd 09 32 d5 ba
       -0.006000742 0.053505678 -0.079822116 -0.0016265522
000140 47 a0 98 3d 83 04 b8 3a 38 a2 6f bd ba 2f 14 bd
       0.074524455 0.001403943 -0.058504313 -0.036178328
000150 21 68 86 3d 97 64 60 bd b9 a7 8c 3d 83 05 c0 3c
       0.0656283 -0.05478343 0.06867928 0.023440128
000160 10 53 ce bc 17 5d 90 3c e0 5a 8d bd 96 34 66 bd
       -0.025186092 0.017622514 -0.06902099 -0.056202494
000170 3c e6 0a 3c 74 de a9 3d 27 9b 55 3d 7c c0 89 3d
       0.008477744 0.08294383 0.052149918 0.067261666
000180 b5 9c 66 3d 74 90 f3 bc f3 cc 37 bd 3b 5f 6d 3d
       0.05630179 -0.029731967 -0.04487319 0.057952147
000190 1c 3c 27 bd 0d 88 24 bb f5 b5 33 3c a8 fd d6 bb
       -0.04082881 -0.0025105507 0.010968675 -0.006561
0001a0 c0 9b 09 3c 2d 28 ab bd 63 30 a5 bc 2c 66 8b bd
       0.00839895 -0.08357272 -0.020164674 -0.06806597
0001b0 87 43 a4 3d 39 c0 df 3c 79 78 2f 3d d1 5c 72 3d
       0.08020692 0.027313339 0.0428395 0.059170548
0001c0 86 82 4b 3d b9 d2 1b 3a 1a 82 0e bd d7 6b fb bc
       0.049685024 0.0005944181 -0.034792043 -0.03069107
0001d0 82 49 9a bd 06 81 d7 3c d9 62 a9 bd 2d 53 ac bc
       -0.07533552 0.02630664 -0.08270807 -0.021035755
0001e0 18 1a ba 3c d1 3f 0b 3d ed fb b1 3c 90 de 7c 3b
       0.02271752 0.033996407 0.021726573 0.0038584806
0001f0 df 95 55 bc 8f dd 65 bd ad da 13 bc 07 c1 b1 bd
       -0.01303622 -0.056119498 -0.009024304 -0.08679395
