ippo_algorithm_belief/checkpoints/ppo_actor_1env_comp_exp_2_run_0_lumberjacks.pth (torch, 178928 bytes, 8 tensors)

actor.0.weight f4 [128, 78]
000000 9d f1 82 bb 57 72 4a bc 4d 41 26 bd 5d 3d 7e 3d
       -0.0039960877 -0.012356362 -0.04058962 0.06207024
000010 40 8e 51 bd 2a 31 e3 bb bd 3e da 3c 43 4b 2a be
       -0.05116105 -0.006933351 0.026641244 -0.16630273
000020 89 6c 7d 3c c0 c9 0d 3b 43 a2 7e 3d 91 77 39 3d
       0.015467771 0.0021635145 0.062166464 0.045280043
000030 d3 3a 08 be 27 62 15 3e 1d ca 83 bc 29 da 38 3b
       -0.1330369 0.14588223 -0.016087586 0.0028206205
000040 8f 46 4f bd dd 27 a1 bd d7 54 f2 bc 5d 65 a3 3d
       -0.0506044 -0.078689314 -0.02958147 0.07978318
000050 59 4a c7 bc c1 f1 2b be e1 3a ec 3c a1 60 63 bb
       -0.024327444 -0.1679144 0.02883667 -0.0034695046
000060 40 de 88 3b 9c f3 d5 bd f5 34 78 bd cf eb ff bd
       0.004176885 -0.104468554 -0.06059738 -0.12496149
000070 05 b3 af 3d 43 d4 67 3a fa 91 a7 bd f7 fe c6 bb
       0.08579067 0.000884358 -0.0818214 -0.0060728746
000080 ee 55 db bb 9e 00 c6 3c 30 01 f9 3d c1 83 51 bd
       -0.006693593 0.024170216 0.121584296 -0.05115104
000090 f3 e0 ed bd b3 d9 28 be 07 1e 85 3e 65 47 87 3e
       -0.11615171 -0.16489296 0.25999472 0.26421657
0000a0 1b ea e8 3c d4 9f 72 be 15 5f 37 be 29 25 34 3e
       0.028431943 -0.23693782 -0.17907365 0.175923
0000b0 64 9a fe 3d e0 7c 2e 3e 37 85 a1 bd c8 2e d8 bd
       0.124317914 0.17039824 -0.07886737 -0.10555798
0000c0 ab 6d 13 3e f2 cb 17 3e ff 34 f8 3d 2e ca 3f 3c
       0.14397304 0.14823893 0.12119483 0.011705918
0000d0 39 4b 13 be 07 51 c8 3d cb 6c 33 bd d4 6a 45 3d
       -0.14384164 0.0978108 -0.043804925 0.048197582
0000e0 fd e0 94 3c e4 15 f2 3c be b9 34 3d e0 2c 44 bd
       0.018173689 0.029551454 0.04412245 -0.04789436
0000f0 7f 95 4c 3d bc 67 db bc a4 47 e7 bd ca 70 69 3c
       0.049947258 -0.026782863 -0.11292961 0.014248082
000100 76 9b ae 3d 81 fe 99 3d 89 d1 b1 bd 6b fe 83 bd
       0.085257456 0.07519246 -0.08682544 -0.06445011
000110 a1 72 9a 3d de d3 a4 3d 4e 75 c2 bb 04 36 71 3c
       0.07541395 0.08048223 -0.005934394 0.014722351
000120 f6 6d b6 bd 0b c1 63 bd 62 f9 ff 3c d0 5a 04 3d
       -0.08907692 -0.055604022 0.031246845 0.032313168
000130 ee e3 af bd ba b6 1c 3d 80 2a 40 3d 0e 2c 1d 3d
       -0.08588396 0.0382602 0.04691553 0.038372092
000140 2e 82 43 3d de 14 c2 bd d7 c4 af 3d 26 83 19 3e
       0.04773157 -0.09476636 0.08582466 0.14991435
000150 3e 41 e4 3d 39 05 ae 3d 64 e2 90 bd 67 86 6d bd
       0.111452565 0.0849709 -0.070744306 -0.057989504
000160 df e5 3a bd 96 3b 94 3d 9b c1 3e 3e 04 79 aa bd
       -0.04562938 0.072379276 0.18628542 -0.08323863
000170 e8 82 7b 3d b6 8b b2 bd 15 91 23 bc f4 c1 0c 3e
       0.06140414 -0.08718054 -0.009983321 0.13745862
000180 3b 20 a2 3a e6 90 1f 3d c4 8b 15 be 04 ef 93 bd
       0.0012369225 0.038956545 -0.14604098 -0.07223323
000190 91 3d e2 3c 42 3b 13 3d d4 90 30 3e 80 f0 85 3d
       0.027617248 0.035945185 0.17242748 0.06540012
0001a0 fa 2d 38 3e 51 36 ca 3d 83 57 51 3d 5e cb 8d 39
       0.17986289 0.09873641 0.05110885 0.00027045136
0001b0 67 64 37 bd 70 32 bc 3d dc 5f 21 bd f4 7e 91 bd
       -0.044773486 0.09189308 -0.03939806 -0.071042925
0001c0 03 f9 9c 3c 9a c7 44 3d 14 97 19 bd 00 6b b8 3d
       0.019161707 0.048041917 -0.037497595 0.09004784
0001d0 3a 3f 70 be d8 5c 85 be 82 44 c0 bd 17 68 f3 bd
       -0.23461619 -0.26047397 -0.09388067 -0.11885088
0001e0 fa ec a1 bd 20 d8 9a bd dd dc 80 3d e9 89 46 3e
       -0.07906528 -0.07560754 0.06292126 0.19388546
0001f0 83 f6 1d 3e 0f ae d2 bd 23 56 bb 3c 92 42 29 3e
       0.15426068 -0.10287105 0.022868222 0.16529301
000200 1b 45 75 3e 4e 54 83 3d 38 23 19 3e 5d 12 f7 bc
       0.23952143 0.06412564 0.14954841 -0.030160123
000210 de f1 f6 bc a4 6d d1 bd 03 ff 02 bc 96 ed cd 3d
       -0.030144628 -0.102259904 -0.00799537 0.100550815
000220 71 22 a0 bd 18 d7 56 bd d3 54 f4 3d 1f f8 65 bc
       -0.07819069 -0.052451223 0.119302414 -0.014036207
000230 9b 5c 19 3d 88 51 ba bd 59 cf f2 bc f3 28 0e bc
       0.03744183 -0.09097582 -0.029639887 -0.008676755
000240 e5 04 88 3d 41 dd f1 3b 30 91 1c 3d 7c 8e 52 bd
       0.066415586 0.007381112 0.0382244 -0.051405415
000250 9c eb 2e 3c a8 98 bb 3b 7b ce 6a 3d 02 3c eb bd
       0.010676291 0.005724985 0.05732582 -0.11486055
000260 74 b9 06 3d 1f 55 9e bd 94 52 99 bd dc 8a e0 3c
       0.032891706 -0.07731079 -0.07486454 0.027409963
000270 5b da f3 3d 29 13 27 3b 17 79 11 bb d9 08 1e bd
       0.119068824 0.0025493598 -0.002219742 -0.038582657
000280 33 17 7a 3d 90 a6 b8 bc bb 9c b2 bc 4f e0 bf bd
       0.06105728 -0.02254036 -0.02180325 -0.09368955
000290 82 d1 9e 3d 4f cc 71 bd 7f b5 da bd 68 f1 a2 bd
       0.07754804 -0.059032734 -0.10679149 -0.07956201
0002a0 83 d0 8a 3c f2 5e e0 3d 28 0c 04 be b5 1c 38 bd
       0.01694513 0.109556094 -0.12895262 -0.044949252
0002b0 d1 8e cf bd f6 b1 24 bb 28 ba f7 b9 7c fa a2 bd
       -0.10134662 -0.0025130487 -0.00047250208 -0.07957932
0002c0 4c bf 18 be 6f 13 e5 bd eb ce 25 bd b1 99 eb bb
       -0.14916724 -0.11185347 -0.040480535 -0.0071899523
0002d0 10 18 e1 3d 57 45 e9 bb c3 67 e9 3d ba 8b 9a 3d
       0.10990918 -0.0071188617 0.11396744 0.07546182
0002e0 16 2e 89 3d 99 e3 c2 3d 08 08 2f 3c ed d0 0c 3d
       0.06698243 0.09516067 0.010683067 0.034378935
0002f0 66 fe e2 bd f4 f3 58 bd dd ef b4 3c f6 3e 4b 3d
       -0.11083679 -0.052967027 0.022087032 0.04962059
000300 ef 13 05 be ba c6 ce 3b 69 6f 2d bd 2e ab 8e ba
       -0.12995885 0.006310311 -0.042342577 -0.0010884756
000310 b1 39 c8 bd 33 13 a2 bd d7 ab 2c be 11 56 b3 bc
       -0.09776629 -0.07913818 -0.16862427 -0.021891626
000320 ca 0d b2 bd 5c 7d cc 3d 48 17 cc bc 42 b3 de bd
       -0.08694036 0.09984848 -0.024913445 -0.108740345
000330 e9 b5 b4 bc 80 e0 a4 bd 8f ab 02 3e ee d7 31 be
       -0.022059398 -0.080506325 0.12760757 -0.17367527
000340 9d 41 35 be a9 71 c0 bd 3b b7 9e bc c9 53 66 bd
       -0.1770081 -0.09396679 -0.01937448 -0.056232248
000350 a0 81 9f bd 70 c3 e5 3c cd 97 85 3d bc 2c 9c bd
       -0.07788396 0.028047293 0.06523094 -0.0762572
000360 7c b6 1d 3d 4e bf 80 bd 61 ba f0 3c 1c 8e ba bd
       0.03850411 -0.062864885 0.029385747 -0.091091365
000370 c0 b9 9f 3c b7 58 06 3d e0 53 a6 3d 48 c6 6e 3d
       0.019497752 0.03279945 0.08121467 0.058294564
000380 58 88 ed bd e3 f9 9e bd 15 06 36 bd 2a bc ba bd
       -0.11598271 -0.07762506 -0.044439394 -0.09117921
000390 1a c1 ba 3c e8 eb 6d 3d 69 19 4c 3d 38 4b be 3d
       0.022797156 0.058086306 0.04982892 0.092916906
0003a0 43 fe 07 3d 16 2b 72 3d 5b 24 a9 3c 5b 29 f8 bc
       0.033201467 0.05912312 0.020647218 -0.030293157
0003b0 3d d6 9c 3d 4f 88 ab bd 8e f1 97 bd 79 12 e7 3c
       0.0765805 -0.08375608 -0.0741912 0.02820705
0003c0 72 d3 78 3d 62 2c e6 3c c6 3d 29 bd 2c 76 99 bc
       0.060748525 0.028097335 -0.041318677 -0.018733107
0003d0 1a e6 57 3d 6f a1 ce 3d 9d ed 89 bd 18 a7 37 3c
       0.052709676 0.10089385 -0.06734774 0.011209272
0003e0 40 38 00 bd 29 a6 68 3d 90 e8 b8 bd 7f b9 b2 3d
       -0.031303644 0.056799088 -0.09028733 0.08726787
0003f0 6b c4 85 bd 99 ac 13 3d c7 88 cd 3d 03 b1 fb 3c
       -0.065316044 0.036053274 0.10035854 0.030724054

actor.0.bias f4 [128]
000000 42 c2 58 bb d6 1f 3c bd dd b0 f3 bc a1 51 55 bd
       -0.003307477 -0.0459288 -0.02974742 -0.0520798
000010 d8 c1 0c 3d cd fc ff bc 11 88 96 bd e1 e9 85 3c
       0.03436455 -0.031248474 -0.07350171 0.016346874
000020 56 f3 54 3d 3a 58 90 bd f3 80 de 3d 06 1e e3 3c
       0.051989876 -0.07048078 0.10864439 0.027724277
000030 49 84 6b bd f1 a8 fc bb cb 5f 03 3d 41 94 87 3d
       -0.057499204 -0.007710569 0.032073777 0.06620074
000040 93 72 09 3c 7f e0 a2 bd 7c 19 1b 3d 3a a2 ac 3d
       0.008389133 -0.079529755 0.0378661 0.0842938
000050 f9 cd 20 3c fc ef 39 bb 83 8c 47 3d 07 bb 61 3d
       0.009814733 -0.0028371802 0.048717987 0.055110004
000060 db e8 77 3c 46 2f 0c bd 38 60 5e bd e1 43 e6 3d
       0.015131201 -0.03422477 -0.05429098 0.112434156
000070 6e 6e 96 bd 98 48 f2 bc 26 e3 92 3d 47 50 ed bc
       -0.073452815 -0.029575631 0.071722314 -0.028968943
000080 3e 24 71 3d 3b 48 d5 bd ee 2d 44 3d 60 c1 63 ba
       0.058872454 -0.104141675 0.047895364 -0.0008688178
000090 a6 9a bc 3d e0 0a 60 bd 33 90 7a 3d de b0 32 3d
       0.09209184 -0.05469787 0.061172675 0.043625705
0000a0 48 62 5f 3c 21 29 90 bd dd 53 87 3d 64 41 b4 bd
       0.013634272 -0.07039095 0.066077925 -0.08801535
0000b0 cc 3c b0 3d 58 3a 71 bd 8a 8d cd bb 3d 95 a1 3d
       0.08605346 -0.05889353 -0.0062729763 0.07889793
0000c0 d6 e6 04 3d f5 9a aa 3d f4 86 80 bc 42 e6 82 bd
       0.032446705 0.08330337 -0.01568935 -0.063915744
0000d0 43 14 2a 3d ad 8a 11 bd 8f b1 89 bd 56 64 46 bd
       0.04152323 -0.035532642 -0.0672332 -0.04843553
0000e0 ca 44 81 3d cd 90 16 3d 0b a1 0b 3d bf 80 6f 3d
       0.063119486 0.036759187 0.03408913 0.05847239
0000f0 6f 17 e9 bc fb ff 8a bd 5f b6 7c bd 8e 0a 55 3c
       -0.028453557 -0.06787106 -0.06169736 0.013003005
000100 22 bc 41 bc 97 46 45 bd 61 4b c8 3c c5 85 1e 3d
       -0.0118246395 -0.048163023 0.024450006 0.03870179
000110 82 0f bd bd 72 de 21 3d 34 fe 3b 39 24 f6 82 bc
       -0.092314735 0.03951878 0.00017928408 -0.01598651
000120 4d 24 43 3d 0e b9 9b bd bc 9d 5f bd 85 b9 71 bd
       0.04764204 -0.07603656 -0.054593787 -0.059014816
000130 13 21 5e 3d cd c4 cf bd e6 8f a9 3d 74 52 9d bd
       0.05423076 -0.10144959 0.082793996 -0.07681742
000140 db 22 15 3c 8e 89 8e bd b4 b2 8c bd 1f 4a 6c 3d
       0.0091025485 -0.0695983 -0.068700224 0.057687875
000150 c9 90 a0 3d be 68 92 3d d5 57 1e 3d 8d 3b 3c 3d
       0.078401156 0.07148884 0.038657982 0.04595523
000160 9f 4c b6 3b a9 14 ce 3d f2 2a ce bd 0c 09 99 3d
       0.005563333 0.10062534 -0.10066785 0.07472429
000170 37 e7 9a bd ae 87 16 3d 01 bb f8 bd 47 9f e6 3c
       -0.07563632 0.036750488 -0.12145043 0.028152121
000180 5c 63 d9 bc 30 03 43 bd d4 70 71 bd 92 9c 40 bd
       -0.026536636 -0.04761046 -0.058945492 -0.047024317
000190 bb c4 b8 bd 5e f1 a0 bd 88 b3 92 3d d1 ce 75 3d
       -0.09021898 -0.07858537 0.07163149 0.06001169
0001a0 c2 91 41 bd 9f f7 aa bd 8a c3 e9 bc 58 04 08 3d
       -0.047258146 -0.08348011 -0.028535623 0.033207268
0001b0 a3 62 92 bd 30 b5 56 3d 49 62 b1 b9 89 07 bf 3d
       -0.0714772 0.052418888 -0.000338333 0.09327609
0001c0 4f 95 92 3d 9b bd 4a 3c e1 d2 22 3d 2d c1 d6 bc
       0.071573846 0.012374307 0.03975189 -0.02621516
0001d0 78 37 86 3c 09 62 9b bb ec c5 97 3d 6d 56 aa bd
       0.016383871 -0.0047419113 0.074107975 -0.08317266
0001e0 23 5f 11 3d 66 f2 cd bd 18 57 a0 bd d4 85 8d bd
       0.03549112 -0.100559995 -0.07829112 -0.06910291
0001f0 7e 2e 5f bb f3 a9 4e bc 8b ae 0e bd 50 4a 30 bd
       -0.003405481 -0.012613761 -0.034834426 -0.04303962

actor.2.weight f4 [128, 128]
000000 46 34 06 3e fe 86 55 3b 98 f7 8e bd 64 ef c9 3d
       0.13105878 0.0032581682 -0.069808185 0.09860113
000010 43 63 f2 3c 8e 44 9b bd 06 84 09 3d f4 c5 32 bc
       0.029588347 -0.07581435 0.033573173 -0.0109114535
000020 c2 13 6c 3d 06 79 bc 3c ed 06 9b 3d d4 69 8f bd
       0.05763603 0.023006927 0.0756968 -0.07002607
000030 72 6a ff 3c c1 1c b2 bc d7 0d 04 bc 45 9b 98 3d
       0.031178687 -0.021742227 -0.00805994 0.0745149
000040 88 eb fa 3c 1f f4 a6 3d e5 d9 a9 bd a6 04 f9 bb
       0.030629888 0.08152031 -0.08293513 -0.007599431
000050 40 21 a2 3c 87 41 8c 3d 44 20 af 3d ef 7c 7c 3d
       0.019791245 0.06848436 0.08551076 0.061642583
000060 12 d6 0c bd 84 a7 95 bb 1a 31 e7 3a 9b 86 c7 3d
       -0.03438384 -0.0045670886 0.0017638535 0.09742471
000070 77 7d b5 3b bd e7 63 bc 9c d2 96 bd c6 27 77 3d
       0.005538638 -0.013910231 -0.07364389 0.060340665
000080 ea 7c 3d 3c bb 56 7d 3c 3e 12 31 3d 5c 08 b1 39
       0.011565426 0.015462573 0.043230288 0.000337663
000090 60 31 47 3d e5 57 ff 3d a5 83 cd bd 4a 79 c0 3d
       0.048631072 0.124679364 -0.10034875 0.09398134
0000a0 8e 59 83 3d c3 a6 85 bd 29 42 8e bd c1 0f 5e 3d
       0.064135656 -0.06525948 -0.06946213 0.054214243
0000b0 e0 ae 53 bd 7b 44 96 bd 74 df 2a bd e4 f3 07 bd
       -0.051680446 -0.0733728 -0.041717008 -0.033191577
0000c0 9d 79 87 3d e5 61 a4 3d 91 12 97 bd 17 fa 42 3d
       0.06614993 0.080264844 -0.07376588 0.047601786
0000d0 c3 df 62 3d 2d ed 98 3d c5 2f 4e ba b4 b8 fb 3a
       0.055389177 0.07467113 -0.00078653946 0.0019204826
0000e0 57 aa ac bb 17 4c d5 3d 84 39 84 3d ae 11 8c 3d
       -0.0052693295 0.104149036 0.06456283 0.0683931
0000f0 eb 6b 08 3d 46 a7 df bb 54 29 8d 3c 64 45 93 bd
       0.033306044 -0.0068253605 0.01723162 -0.071909696
000100 73 15 1e bd bd 0e 04 3d 19 fc 8a bd 85 29 04 3d
       -0.038594674 0.032240618 -0.06786365 0.03226616
000110 45 97 36 bd 4d 14 cf 3c 9f c1 bd bd 51 b4 2c bd
       -0.044577856 0.025278235 -0.09265446 -0.04216415
000120 22 00 79 3c a4 e7 93 3d af 02 1d bd b2 68 03 3d
       0.015197786 0.07221916 -0.038332637 0.032082267
000130 dc 5b c4 bc 0a b9 a2 bd db 37 51 bd 9b b2 7a bd
       -0.023969583 -0.0794545 -0.05107866 -0.061205488
000140 cc 53 08 3d f0 58 a8 3d 0a ea b9 bd 8e a2 39 bc
       0.03328304 0.082200885 -0.090778425 -0.01133026
000150 b4 e8 34 bd c0 cb 3e bd 69 e5 4f bd 25 2c 50 bd
       -0.044167235 -0.04658103 -0.050755892 -0.05082335
000160 a0 5f a6 bd b8 d4 83 3d f9 3a b7 bc f3 8e cf bd
       -0.08123708 0.06437057 -0.022366988 -0.10134687
000170 47 87 be bd e5 b4 25 3d b0 f2 8a bd 89 f5 38 3b
       -0.09303146 0.040455718 -0.0678457 0.0028222522
000180 b1 ee 0a bd 4a 77 81 bd 43 a3 14 bc 27 c0 6f bd
       -0.03391904 -0.06321581 -0.009072128 -0.05853286
000190 f9 7a 3c bd db 5c b4 bd 6c b4 30 3c 51 56 b9 3d
       -0.046015713 -0.08806773 0.010785203 0.09049667
0001a0 83 da 61 bd 18 07 dc 3c 5b 15 08 bd dd 20 ca 3b
       -0.05514003 0.026858851 -0.03322349 0.0061684684
0001b0 b4 ff e6 bd 9d 90 25 3d 25 7d 2c bd a6 e1 77 3c
       -0.1127924 0.040421117 -0.042111535 0.015129482
0001c0 b1 08 e9 bd 68 3c 07 bd 34 27 71 3c f5 a5 12 bd
       -0.11378611 -0.033016592 0.014718819 -0.0358028
0001d0 7d 08 1d bd 34 60 a6 3d 13 04 10 3d 95 75 80 3d
       -0.038338173 0.08123818 0.035160135 0.06272427
0001e0 89 7b ac 3c 67 1f df 3c a4 f6 1a 3d cc f7 6d bd
       0.021055 0.027236653 0.03783287 -0.058097646
0001f0 c4 b8 03 3d ae 42 f4 bc f6 e6 75 bd 75 5e 09 bd
       0.032158628 -0.029816952 -0.060034715 -0.033537347
000200 8a 6a a5 bc 34 36 f1 bc ce 1c 46 bd c6 78 d8 bd
       -0.020192403 -0.029444791 -0.048367314 -0.10569911
000210 f1 39 ad 3d 3f ff 91 3d d9 7f fb 3c ac f7 ea bd
       0.08458317 0.071287625 0.030700611 -0.11473021
000220 b0 d1 cd bd 6a 7b a3 3b fe 5d e9 bd 04 e8 d3 3c
       -0.1004976 0.0049890773 -0.11394881 0.02586747
000230 9f cb 42 3d c6 d5 ec 3c 62 c8 21 3c 81 84 64 3d
       0.04755747 0.028910529 0.009874435 0.055790428
000240 2f f2 9c 3d 70 41 87 bc 56 f0 7c 3d c4 11 ce 3b
       0.0766338 -0.016510695 0.06175264 0.006288739
000250 bd 21 f3 bc 85 b5 62 bd 2b 6f 87 3d 9d ba 0d bd
       -0.029679174 -0.05534889 0.066130005 -0.034601796
000260 8f 7e ef 3c f3 f8 86 bd 7d d0 84 3d 66 ee 5c bd
       0.029235153 -0.06590452 0.064850785 -0.053938292
000270 ae a2 30 bd 30 31 8f 3d 9c 0d 81 3d 70 dd 64 3c
       -0.043123893 0.06991804 0.06301424 0.01396881
000280 f4 1f 9e 3d 7c 25 96 bd a0 4a 5b 3c 85 55 ed 3a
       0.07720938 -0.07331368 0.013384491 0.0018107152
000290 39 e9 30 bd fb 11 30 3d 25 2e 9a 3d 42 57 19 3b
       -0.04319117 0.042985898 0.075283326 0.0023397957
0002a0 69 0d 50 bc 4a 94 d9 3c 69 e9 18 bc 41 d2 be bd
       -0.01269851 0.026559968 -0.009332993 -0.093174465
0002b0 52 00 e1 bd 34 09 05 bb 01 d7 17 bd f2 c2 da 3b
       -0.10986389 -0.0020299675 -0.037070278 0.0066760713
0002c0 c1 ed 3a 3c ae ae ba bd 05 b3 76 3d 98 35 99 bb
       0.011409224 -0.09115349 0.06022932 -0.0046755783
0002d0 a5 09 a6 3d e4 01 aa 3b 9a ad 1e bd 88 b6 ab bc
       0.08107308 0.0051882137 -0.038739778 -0.020961061
0002e0 57 69 81 3d d0 70 13 bd 1c e6 27 3a 67 22 47 3c
       0.0631892 -0.03599626 0.00064048334 0.012154198
0002f0 39 12 96 3d fb 1f 8d bc 92 06 7e bd b4 1a a4 3d
       0.073276944 -0.017227164 -0.062017985 0.08012906
000300 04 7e 0b 3d 2e ea 0e bd 19 9a 3b bd 2e 36 cb 3c
       0.034055725 -0.0348913 -0.045801256 0.024806108
000310 39 82 65 bd fe 93 92 3b 6f 5a d2 3c 67 1f 13 bd
       -0.056032393 0.0044732084 0.025677888 -0.03591862
000320 8e 18 0d bd 1f a3 1d 3d 44 50 4c 3d e8 dd 5a 3c
       -0.034447245 0.038485643 0.049881235 0.013358571
000330 d3 b9 ae 3d b2 44 f9 3d 50 0f 32 3b 41 f1 24 bc
       0.08531537 0.12171306 0.0027169771 -0.010067285
000340 d2 96 14 bb 32 ac 8e bd 25 0f fe bc f9 be a5 bb
       -0.0022672904 -0.069664374 -0.03101308 -0.005058166
000350 63 db ca 3d 15 c9 28 3c 3e 71 80 bd 44 86 bc bc
       0.09905126 0.010301848 -0.06271599 -0.023013242
000360 14 83 15 3d af 85 02 bd 4a b1 fd bb f9 a9 7e bd
       0.03650196 -0.03186577 -0.007742082 -0.062173817
000370 5e 8b 35 3d dc ab ba 3c 3a c0 c4 3c 08 f2 a5 3c
       0.044322364 0.022787027 0.024017442 0.020257011
000380 ff d5 9c bd 51 11 1b 3b b1 42 d4 3c a3 5d 56 bd
       -0.07658004 0.0023661444 0.025910707 -0.052335393
000390 23 65 18 bd 53 59 6d 3d c9 52 05 bc ba 11 b4 3b
       -0.037205826 0.057946514 -0.008137413 0.0054952772
0003a0 08 ae 59 bd 49 25 7a bd a3 67 8a bd e5 96 af bc
       -0.053144485 -0.061070714 -0.067580484 -0.021434257
0003b0 61 71 2f 3d c7 b2 04 bd e9 c2 97 bc e2 0c 7c 3d
       0.042832736 -0.032397058 -0.018525558 0.061535724
0003c0 a3 99 97 3d 56 6f 59 bd 4f 51 63 3d 52 6f 6a 3d
       0.07402351 -0.053084694 0.055497464 0.05723507
0003d0 d5 2d 6c bb 18 c2 44 3d cc 6e 80 3d d1 d0 af 3d
       -0.003603806 0.048036665 0.06271133 0.085847504
0003e0 0f 72 33 3d ad 46 51 3d e4 cc 03 bd 4f 82 8d bd
       0.043809947 0.051092792 -0.03217782 -0.0690962
0003f0 9c 54 7c bd 53 9b ca bc b5 c6 27 bd 14 0c 1a 3d
       -0.061604127 -0.024732267 -0.040960986 0.037609175

actor.2.bias f4 [128]
000000 57 2d 7d bc 83 18 00 bd 44 ce 9e 3c 0c a7 15 bd
       -0.015452704 -0.031273376 0.019385464 -0.03653626
000010 a5 34 7d bd 62 50 e1 3b fb d5 0b 3d 43 56 28 3c
       -0.061817784 0.0068760375 0.034139615 0.010274473
000020 ae ae 99 bd be 02 83 bd 88 e2 41 3d 82 3b f7 3c
       -0.07504021 -0.063970074 0.047335178 0.030179743
000030 c5 ac 20 3c 4e 17 4f bd 3e d0 35 3d 3a 4d 9a 3d
       0.0098068165 -0.050559334 0.04438805 0.07534261
000040 10 b0 4f 3d 9e 41 4a 3d a8 19 ca 3b 85 1b 4f bd
       0.050705016 0.049378984 0.0061676092 -0.050563354
000050 23 41 34 bd ed ba 02 3b 7f 4a 26 3d 8b 55 57 3d
       -0.04400743 0.0019947842 0.04059839 0.052571815
000060 30 8a d0 bc 56 9b 26 bd 62 48 95 3c be 7c c8 3c
       -0.025456518 -0.040675484 0.018222991 0.024473544
000070 a7 fa 56 bd 98 3a dc bc 77 6e 80 bd a3 f9 a2 bd
       -0.052485134 -0.026883408 -0.062710695 -0.07957771
000080 b7 d9 09 3d ba cd 9e 3c 66 66 13 3d f8 63 81 3c
       0.033654895 0.019385207 0.035986327 0.01579474
000090 c5 28 d8 bc 96 f6 0e bd a1 bd f8 bc 34 2a 70 bc
       -0.026386628 -0.03490313 -0.03036386 -0.0146584995
0000a0 00 ba 21 3d 8d 94 75 3d 99 49 16 3d b7 00 61 3d
       0.039484024 0.059956122 0.036691282 0.054932322
0000b0 37 e1 b8 3a 33 fb 7e bd e2 00 3c 3d 03 42 e1 3c
       0.0014105205 -0.06225128 0.04589928 0.027497297
0000c0 93 99 97 3d 3d cd 08 bd d4 ec 5b 3d c9 ed 99 3d
       0.07402339 -0.033398855 0.053692654 0.07516057
0000d0 ce e1 3d 3d 11 af 03 3d 2b 61 2f 3d 76 46 a1 bd
       0.046357922 0.03214938 0.042817276 -0.078747675
0000e0 e8 4a 6f bc 8f 18 ca 3c 53 53 cb 3c a8 34 3e bd
       -0.014605261 0.024669914 0.024820006 -0.046436936
0000f0 78 6a 51 3b 05 76 35 bc 3e 96 27 3c 83 14 d4 3c
       0.003195433 -0.011075501 0.010228692 0.025888687
000100 e3 33 07 bd 53 37 92 3c 61 90 8e bd 21 a7 ab bc
       -0.033008467 0.017848646 -0.06961132 -0.020953717
000110 36 a3 6a bd df 2f 32 3d 7a e4 ad bc 4f 0a d5 bc
       -0.057284556 0.043502685 -0.02122711 -0.026005892
000120 c1 d3 40 3d 33 37 60 3d b7 c1 82 3d 03 60 2e 3d
       0.047076944 0.054740142 0.063846044 0.042572033
000130 f8 fc f6 3b 2f e8 c2 bc 6b 9e 64 3c 8d c8 6b 3c
       0.0075374804 -0.023792354 0.013953785 0.014391077
000140 88 af 25 bd 25 da bb bc c6 54 8f 3d 9f 39 44 3d
       -0.040450603 -0.022931168 0.06998591 0.047906514
000150 d7 db d1 3c 7a b7 d3 bc 6f fd 4e 3d 11 fa 26 bd
       0.025617523 -0.025844324 0.05053466 -0.040765826
000160 9c 31 04 bd 3a f1 f3 bc bd e3 ab 3c 9e 2a 76 bd
       -0.032273874 -0.029778112 0.020982618 -0.060099237
000170 0a d6 41 bd f1 74 9d bc b0 90 59 3d 1b 0f 5d 3d
       -0.047323264 -0.019220801 0.0531165 0.053969484
000180 77 df d6 bc 92 75 92 bc c4 75 8e 3c a7 4b 68 3d
       -0.026229603 -0.017878328 0.01739014 0.056712773
000190 90 6c f3 3c 37 3c 82 bd 77 29 d4 3c 73 c1 06 bc
       0.029714853 -0.06359141 0.025898678 -0.008224833
0001a0 18 df 86 bd 10 46 2c 3d 94 a8 94 3d d2 13 7a bd
       -0.065855205 0.042059004 0.07258716 -0.06105406
0001b0 11 5a 1d 3d 1e d2 0b 3d 2d d7 45 3c 73 62 5d bd
       0.038415972 0.03413593 0.012075228 -0.054048967
0001c0 9d fb 1b 3d 49 46 00 3c 09 f6 d9 3c 78 a4 24 3d
       0.038081754 0.007829257 0.026606577 0.040195912
0001d0 b4 9b dd 3c 67 ea 94 3d 87 cf 8e 3c 73 2c 41 3d
       0.027051784 0.07271271 0.017432941 0.04716153
0001e0 6d 46 0f bd be 9c 84 bd d1 f4 6d bc ec 96 aa bb
       -0.034979273 -0.06475209 -0.014523701 -0.0052059796
0001f0 3a 9d f3 3c 17 32 9d 3b 3d c8 11 bb 5b f4 51 bd
       0.029738057 0.004797231 -0.0022244595 -0.051258426

actor.4.weight f4 [128, 128]
000000 c4 8f 85 3c 34 5e b0 bc 43 59 a2 bd de 95 a1 bc
       0.016303904 -0.021529295 -0.079271816 -0.019724783
000010 4e ca 00 bd 34 45 57 bd eb 6c a8 bc f6 38 55 bd
       -0.031442933 -0.05255623 -0.020559749 -0.052056275
000020 98 72 b3 3d d3 49 49 bd 02 17 94 3d 0b 72 ce bd
       0.087620914 -0.04914267 0.07230951 -0.10080346
000030 a4 08 c6 3c 78 90 41 bd 7c 80 28 3d 7b 5c 4e 3c
       0.024174042 -0.047256917 0.041138157 0.012595291
000040 9b 84 83 bd 14 5d b1 bd 64 0d 74 bc e6 22 aa bc
       -0.06421777 -0.08660331 -0.014895771 -0.020768594
000050 c6 d2 70 3d aa 58 4e 3c 7a 64 d9 3d c8 7c 73 bd
       0.05879476 0.012594381 0.106148675 -0.059445173
000060 27 80 41 3d d9 e8 8f bd f2 cc 26 bd 42 0a 29 bd
       0.047241356 -0.07026834 -0.040722795 -0.04126955
000070 3b a8 7a bd 29 58 4c 3d e7 d9 99 bd 81 2e 18 3d
       -0.061195593 0.049888764 -0.07512265 0.037153725
000080 b9 54 08 bc 53 17 13 3a d2 c6 b6 3d 7b 12 37 bd
       -0.008320981 0.00056110806 0.08924641 -0.04469536
000090 1d 14 3a 3c b9 20 de bc ff 4b 50 3c d1 43 ad bd
       0.011357334 -0.027115213 0.012713431 -0.084602006
0000a0 0c 66 a3 3c bb f8 50 3b 5a 37 93 3d ef f5 09 bd
       0.01994612 0.0031886536 0.07188292 -0.033681806
0000b0 60 3f 11 3d b4 15 45 3c db 85 9b bd d6 ce 88 3d
       0.03546083 0.0120291 -0.0759389 0.06680076
0000c0 16 07 95 3d b8 0d 84 3d 4b 00 9b 3d 77 e1 3a bd
       0.07276742 0.06447929 0.07568415 -0.045625176
0000d0 20 8b 8b 3d 4d ce 31 bb ae d7 61 bd 4d 74 83 3d
       0.06813645 -0.0027131021 -0.05513733 0.06418667
0000e0 9b 5f 93 bd 3b 31 f5 3c 66 6c c2 bc 55 40 33 3d
       -0.0719597 0.029930701 -0.023733329 0.043762524
0000f0 2f 40 8e bc 6d 3d b2 3d 90 b2 12 bc 52 71 98 bc
       -0.01736459 0.08703122 -0.008953705 -0.018608723
000100 38 e7 97 bc a2 6d c5 bc 76 62 a1 bd 4b 74 cb 3c
       -0.01854287 -0.024100129 -0.07880108 0.024835726
000110 36 2c f7 3c e8 4d aa 3d 20 2c 2f ba 8b 04 99 3d
       0.030172449 0.08315641 -0.00066822954 0.0747157
000120 04 55 8e bd fa cb 4f bb 7c fb a7 bd 4c 9d 74 3d
       -0.06949809 -0.0031707273 -0.08202264 0.059720322
000130 29 fe a9 3d 9e de 88 3c 5c 15 72 bd 5c 7c 3f 3d
       0.0830043 0.016707715 -0.0591024 0.046749458
000140 30 89 11 bd 6f a8 97 3d 6f 79 26 3d 03 e6 5e 3b
       -0.035531223 0.07405173 0.04064315 0.003401161
000150 c7 f0 54 3d 93 d5 d7 3d 2e 60 3b bd 51 7c aa 3d
       0.051987436 0.10538783 -0.04574602 0.08324493
000160 95 63 62 bd fb a9 45 3d cc 19 c6 3c 31 24 9c 3d
       -0.05527075 0.04825781 0.024182223 0.076240905
000170 46 b7 56 3c 80 5d 27 bc 40 e0 ed 3c 04 1f 88 ba
       0.013105219 -0.010215163 0.029037595 -0.001038522
000180 2c 41 6b bd 15 be 81 bd da 81 26 bd 58 6b 97 bd
       -0.0574352 -0.063350834 -0.04065118 -0.07393521
000190 90 01 9b 3c 5e d7 44 bd 7b 81 d5 bd f0 4c 24 3d
       0.018921643 -0.048056953 -0.10425087 0.040112436
0001a0 1a 2b 8b 3c f8 3c 66 bb 38 a0 61 bd 92 f1 87 3d
       0.016988326 -0.0035131555 -0.055084437 0.06637873
0001b0 bf ca fa ba a0 27 97 bb be 59 2f bc 84 50 98 bc
       -0.0019133909 -0.004612878 -0.010702549 -0.01859308
0001c0 19 e1 29 bd fb 87 12 3d 1f af 28 bd f5 75 16 bd
       -0.041474435 0.035774212 -0.041182633 -0.036733586
0001d0 3d da c6 3d df 1b 3c bc 45 36 4e 3d af e9 95 3d
       0.097095944 -0.011481254 0.050344724 0.07319962
0001e0 34 eb 49 3d de ea e1 3c c7 7d 9f bd a0 c8 c2 bd
       0.049296573 0.027577814 -0.07787662 -0.095109224
0001f0 87 39 b1 bd bf 28 20 3c f0 85 d3 3b 36 8c db 3c
       -0.086535506 0.00977534 0.0064551756 0.026800256
000200 64 86 2c 3d 23 cc 03 3c ac a9 99 3c 3a fb 57 bd
       0.042120352 0.008044275 0.018757664 -0.052729823
000210 97 ce d4 bc a7 bf a5 3d 9d c2 a8 bc b2 64 27 3d
       -0.025977416 0.080931954 -0.020600611 0.040867515
000220 49 53 cf bd 9b 2a 94 3d 30 6d 99 3c 3f 22 a1 bd
       -0.10123307 0.07234689 0.018728822 -0.0786786
000230 bf 89 67 bc ca ab f9 3b 03 71 60 3d fd ed 63 bb
       -0.014131962 0.007619356 0.054795276 -0.0034779303
000240 2a a8 60 bd 4b 2d 03 3a c9 ee f5 3c 79 71 a3 bd
       -0.054847874 0.00050040026 0.030021088 -0.079806276
000250 ea 88 b4 bd d8 03 96 bd 23 e9 cf 3d 3c f7 cc 3d
       -0.08815177 -0.07324952 0.10151889 0.10008094
000260 4d 67 1e bd 27 55 30 3c e8 f6 f9 3b fb 78 02 bd
       -0.038672734 0.010762489 0.0076283105 -0.031853657
000270 e5 ab c4 3c a4 4f 41 3d 54 87 dd 3d 44 af f4 3d
       0.024007747 0.04719509 0.108168274 0.11947492
000280 5b 90 47 bd cb 84 16 3c 17 fb 5e bd 73 a8 72 3d
       -0.048721652 0.009186934 -0.054438677 0.059242677
000290 ab 33 f9 3d 48 65 08 3c 9c f2 63 3c 43 2c 9b 3d
       0.12168058 0.008324929 0.013912823 0.07576802
0002a0 28 40 89 bb 4e 31 35 3b bd 4c 65 3d 1a a2 77 3d
       -0.004188556 0.0027647796 0.055981386 0.060457326
0002b0 d0 3d 02 3d f3 fc 34 bc b3 2f 57 3b 24 00 38 3d
       0.03179723 -0.011046636 0.0032834827 0.04492201
0002c0 8b d2 89 bd 8b a1 8b 3d ad 53 bc bd 02 d7 90 bc
       -0.06729611 0.06817921 -0.091956474 -0.017680649
0002d0 85 52 63 bd cc 59 7f bb fe 75 ad bd 21 84 f1 bc
       -0.05549862 -0.0038963435 -0.08469771 -0.02948195
0002e0 2e c3 b1 bd ea 21 89 3b e9 92 c4 3c d8 dd b4 3c
       -0.08679806 0.004184951 0.023995833 0.02207844
0002f0 75 9b 26 bc 6d e0 38 bd 91 ac 0c bd d7 32 a6 3d
       -0.0101689 -0.045135904 -0.03434426 0.08115166
000300 10 96 83 3d 23 76 12 bd 10 8f a1 bc e3 19 a7 bd
       0.064251065 -0.035757195 -0.019721538 -0.081592344
000310 42 cb 84 3c 29 df a2 3c 0f 08 42 bd 01 2e 8b bd
       0.016210202 0.019881802 -0.047370967 -0.06795884
000320 26 0f e4 3d 62 fc 2c bd 0c 0d df bc 28 e5 bb bc
       0.11135702 -0.04223288 -0.0272279 -0.022936419
000330 5e 62 20 3d 85 8d be bc 3c fa 77 bc 92 ca ff 3d
       0.03915631 -0.023260841 -0.015135344 0.12489809
000340 a7 c0 b5 3d 49 df d1 bd 64 5e d5 bd 82 ce c1 3c
       0.08874636 -0.102476664 -0.10418394 0.02365804
000350 51 9b a9 3d 48 63 2d 3d 88 9f 8d bd 12 94 86 3d
       0.082815774 0.04233101 -0.06915194 0.06571211
000360 c4 22 39 bc 18 42 bc bc c8 e4 16 bc 6b 92 fa bc
       -0.011299793 -0.022980735 -0.009209819 -0.030587396
000370 01 55 b2 bc 4d e7 40 3d c7 c1 d7 3c 1e d3 2c 3d
       -0.021769049 0.047095586 0.026337517 0.042193525
000380 ac 26 54 3d 34 6d f0 bb c0 e6 22 bd 7a 8d 38 bd
       0.051794693 -0.007337237 -0.03977084 -0.045056798
000390 b6 73 05 bd 9f ab b1 3d b4 cd 9d 3d 3b 2f 35 bd
       -0.032581054 0.08675312 0.077052504 -0.044234496
0003a0 e7 f2 95 bd 02 c4 9b 3b 94 49 9f bd 5c 4a 09 bd
       -0.073217206 0.0047535906 -0.07777706 -0.03351818
0003b0 e0 4c 89 bd 23 ba 89 bd ca ab 7c bc 79 7c 9a bd
       -0.06704116 -0.06724956 -0.015421817 -0.075432725
0003c0 17 ec 0e 3d 79 c6 33 3a e9 6b 42 bd e0 a1 7b 3d
       0.03489312 0.0006857883 -0.047466192 0.061433673
0003d0 1a 36 77 bc 50 c3 3f 3d d5 7d 26 3c 6d e2 ed 3c
       -0.015088582 0.046817124 0.010161837 0.029038632
0003e0 2b f3 68 3d cc fa 84 3d e2 6b 70 bc 41 16 19 bc
       0.056872528 0.06493148 -0.014674159 -0.009343685
0003f0 12 34 9b bd 75 fa bb 3c ac 8f ef bc 4a c1 96 3d
       -0.07578291 0.022946576 -0.029243313 0.07361086

actor.4.bias f4 [128]
000000 92 10 22 3d 24 f3 6c 3d 32 41 ba bc 3b 78 7e bd
       0.039566584 0.057849064 -0.022736166 -0.06212638
000010 fd 29 8f 3d c8 15 6c 3d af 36 51 bd 24 1f 7a 3d
       0.069904305 0.05763796 -0.05107754 0.061064854
000020 f5 52 90 3c a7 1a 69 bd 6b aa 2c bd 16 64 c9 bc
       0.017617682 -0.056910183 -0.04215471 -0.024583858
000030 d1 12 8f 3d ee de af 3d 3c 73 86 3c 9b e3 a1 bc
       0.06986011 0.08587442 0.01641237 -0.019761851
000040 f2 97 aa bd 2a b5 93 3d d7 3d 0c 3d b0 9a 90 3d
       -0.083297625 0.07212289 0.034238663 0.07060754
000050 93 fa 9d bd cd e6 46 bd 31 5a 9d 3d cb 98 48 3d
       -0.07713809 -0.048559953 0.07683218 0.04897384
000060 9e 7f 1b bd 2c 87 61 3d 02 f6 51 3c 3b ef 27 bd
       -0.037963502 0.05506055 0.0128150005 -0.040999632
000070 07 7c 9c bd 23 8d 46 3c 09 6a 3f 3d ef dc 3d 3d
       -0.07640844 0.012118611 0.046731982 0.046353277
000080 e0 d6 dd bc 80 ab 57 3d 7f 94 2f 3b aa b5 64 bd
       -0.02708 0.05265379 0.0026791391 -0.05583731
000090 66 ed 35 3d 02 97 50 bd d1 0e 43 3d a8 6e 12 3d
       0.044415854 -0.050925262 0.047621552 0.03575006
0000a0 05 e0 3d 3d d5 10 c8 bc 3d be 88 3d c0 9a c1 bd
       0.04635622 -0.024422089 0.0667691 -0.09453344
0000b0 6a 5a 1a bd c0 72 b3 bd 7d 72 ae bd a0 51 6e bd
       -0.03768388 -0.08762121 -0.08517931 -0.058183312
0000c0 64 6e b1 3c 81 e9 ae bb 96 b3 18 bd 22 65 e1 ba
       0.021659084 -0.0053378944 -0.03728064 -0.0017196278
0000d0 5d 21 14 3d 52 3a 6a bd c0 c1 95 bd ec 64 dd bc
       0.03616463 -0.057184525 -0.073123455 -0.027025662
0000e0 2d f1 a0 bd 49 dc a6 bd 31 9d 26 3d 31 09 88 3d
       -0.07858501 -0.08147485 0.040677253 0.06642378
0000f0 1d 94 50 3c 2b 5f 3f 3d 5a 52 98 39 36 cb 08 bd
       0.012730625 0.04672162 0.00029053056 -0.033396922
000100 6e 48 fb 3c 96 39 45 3d ab 88 83 bd 97 34 81 3b
       0.030674186 0.04815062 -0.06422552 0.003943037
000110 62 4b 6f bd 19 9d 77 bd e9 3a 84 bd 75 a4 30 bd
       -0.0584215 -0.060452554 -0.06456549 -0.04312559
000120 65 98 88 3d 24 16 75 3c d6 ca db 3b 22 71 47 bc
       0.06669692 0.014958892 0.0067075295 -0.012172969
000130 4d 4a ab bc fc 95 2f 3c 9e 0b 4d bd 04 9c 19 3d
       -0.020909453 0.010716911 -0.050059907 0.037502304
000140 1d e5 c3 bc f8 2d 94 3d 33 7a b8 bb 37 1e c5 3c
       -0.02391296 0.0723533 -0.0056298017 0.02406226
000150 5b ca 26 3d e7 3c cd bb ae 97 51 3d b5 6f 72 bb
       0.040720325 -0.0062633636 0.051170044 -0.0036992852
000160 b2 04 ba bd 68 89 92 bc d8 ea 00 3d 1c 60 c9 bd
       -0.09082927 -0.017887786 0.031473964 -0.098327845
000170 ad 20 57 bd 77 58 e5 3c 65 dc b8 bd 79 e9 79 bc
       -0.052521396 0.027996285 -0.09026412 -0.015253418
000180 4a ac 8d 3d e1 d8 43 3d 57 fc 12 3d 58 07 a6 3d
       0.06917627 0.047814254 0.03588518 0.081068695
000190 49 0d a8 3c a8 30 48 bd bb da f2 bb 29 f1 6c bd
       0.020514147 -0.048874527 -0.0074113286 -0.057847176
0001a0 00 de dc bc 08 5e fa bc e2 19 8b 3d c2 c3 0c 3d
       -0.026961327 -0.030562416 0.06792046 0.034366377
0001b0 ea fe 9f 3d 6a 8c aa bc 7c f4 80 3d 88 64 25 bd
       0.07812293 -0.020818908 0.06296632 -0.040379077
0001c0 6d f2 8a 3c 75 3d e8 3c ac ee bf 3c a5 03 5c 3d
       0.0169613 0.028349617 0.023429237 0.053714413
0001d0 5a c9 6a bc 9d 85 7a 3b e5 d5 77 3d c7 f7 3f 3d
       -0.0143302325 0.0038226612 0.06050672 0.04686716
0001e0 50 fd 28 bd 97 70 c5 3b 10 81 c5 3a e7 45 a8 3d
       -0.041257203 0.0060253846 0.0015068371 0.08216458
0001f0 15 3b 2e 3d 6f b1 8c 3d 01 11 b5 3c 3f e5 80 3d
       0.042536814 0.0686978 0.022102835 0.06293725

actor.6.weight f4 [5, 128]
000000 79 cc 39 3d ec 1e 42 3d f9 b0 55 bd 99 01 6d bd
       0.045361016 0.04739277 -0.052170727 -0.05786285
000010 74 66 ee 3c 88 2d f2 bc 62 e8 5a bc 8f a1 17 bd
       0.029101588 -0.029562727 -0.013361068 -0.03701931
000020 a4 8c b0 3c 0c f8 91 3d 46 cb 1c 3c 02 b2 c4 3c
       0.021551438 0.07127389 0.009569949 0.024010662
000030 53 57 e0 bc 51 a1 a1 bc 89 2a 36 3d 2a ec 12 3d
       -0.02738539 -0.019730242 0.04447416 0.035869755
000040 6a 72 57 3d a7 e8 ab 3c 8c 05 34 bd ca 48 76 bd
       0.052599348 0.02098496 -0.043950602 -0.06012801
000050 64 ac 1d 3d 46 eb 1e 3d 89 e5 1e bd ad f9 85 3c
       0.038494483 0.038798593 -0.03879312 0.016354406
000060 ff 25 47 3d f2 70 10 bd 9a 40 2c 3c 24 db 30 3d
       0.04862022 -0.035263963 0.010513449 0.04317774
000070 ff 88 26 bc d3 39 53 3d c5 9f b4 bb ae f4 f1 3a
       -0.010164498 0.051568817 -0.00551221 0.0018459761
000080 af 8e 56 bc d3 34 4b bd 20 07 e6 bc 18 ae fa bb
       -0.013095542 -0.049610924 -0.02807957 -0.007650148
000090 9c 1f f3 3c 9c 66 8e 3d 11 5c bb bc c9 7d fd bb
       0.029678158 0.06953165 -0.02287105 -0.007735942
0000a0 ed ca 35 bc 3a f3 0e ba 11 db 1e bd fd e2 1d 3d
       -0.011095745 -0.00054531137 -0.038783137 0.03854655
0000b0 21 60 bd bb 31 75 41 3c 69 2c 31 3d 2c 52 d5 3a
       -0.0057792817 0.011807726 0.043255243 0.00162751
0000c0 95 0a f5 3c d6 9e ab bc 4c fa 5e 3c f6 75 18 3d
       0.029912272 -0.020949762 0.01360948 0.03722187
0000d0 ee e4 2f 3c f5 07 8f 3d 16 35 2a 3d 97 e4 6d bb
       0.010735733 0.069839396 0.041554533 -0.003629958
0000e0 04 dc 31 3d 54 8c 74 bc 26 24 11 3d 65 2b 0c bc
       0.043422714 -0.014926035 0.035434864 -0.008555268
0000f0 7a 8a 0d 3d f7 92 42 3b 4d dd 1d 3d 10 8c b5 bc
       0.03455589 0.0029689649 0.038541127 -0.022161514
000100 ea 69 20 3d ff dd 22 3d f6 3a 38 bd eb 88 09 bc
       0.039163508 0.039762493 -0.044978105 -0.00839446
000110 91 25 1b bd 9a ed 21 bd 53 9e d7 3c 9d 97 00 3d
       -0.037877623 -0.039533235 0.026320612 0.03139459
000120 0f 36 3f bd 3d d1 28 3d fc d6 ce 3c de 87 79 ba
       -0.046682414 0.04121517 0.025248997 -0.0009518842
000130 42 0f be 3c 1a 81 21 bd 3c 6b f7 bc f4 df 01 3c
       0.023200635 -0.03942976 -0.0302025 0.00792693
000140 94 f0 ef 3b c5 60 c9 3c ae 72 bd 3b 42 92 d7 3b
       0.0073223803 0.024582276 0.005781493 0.0065787146
000150 5f 3b bd 3c f5 17 8b bc be 16 77 bc b8 9f 83 bc
       0.0230996 -0.016979197 -0.015081106 -0.01606737
000160 c7 5f 86 3d 7a 18 81 3d 3e 44 3b bd 0c 85 c1 3d
       0.06561237 0.06303497 -0.045719378 0.09449205
000170 0a df 4c 3d e8 b4 a8 3c d9 40 0a 3c cc 12 9f bb
       0.050017394 0.020594075 0.008438312 -0.0048545357
000180 33 41 fc bc 29 a5 1b bc 60 65 7f 3d db 76 71 3c
       -0.030792808 -0.0094998265 0.062352538 0.01473781
000190 00 7a 82 bc 06 3a 34 bd 78 0c 82 3d 41 30 54 3d
       -0.015927315 -0.044000648 0.063500345 0.05180383
0001a0 a7 a8 a3 bc e6 ba 7a bd aa c4 03 bd 82 45 0c 3d
       -0.01997788 -0.061213396 -0.032169975 0.034245975
0001b0 1e 3b 6c bd 70 82 97 3d 3c 96 41 bc 6c af bf bc
       -0.057673566 0.07397926 -0.011815604 -0.023399077
0001c0 f6 0e 58 bb 0e 5b 06 3c 55 52 9f bb 0f 6d e0 3c
       -0.0032967902 0.00820042 -0.0048621097 0.027395753
0001d0 be d4 a2 3c c8 7e 60 3d c7 fd 2c bd b2 93 5d 3b
       0.019876834 0.054808408 -0.04223421 0.0033809957
0001e0 6b a7 95 bc 87 3b 12 3d 99 3b 8a bd 88 3d 5f bd
       -0.018268308 0.0357013 -0.067496486 -0.05450204
0001f0 85 8a 1c bd f4 be 81 bc 0a 72 ef ba 63 5b 7a 3d
       -0.03821804 -0.015838124 -0.0018268239 0.06112231
000200 8e be 8d bd c7 7e 88 3d bb e4 57 3d 6c bf 9f bc
       -0.06921111 0.06664806 0.05270837 -0.019500457
000210 68 35 03 3d 83 bd 55 bc a6 09 94 3b 32 33 cb 3c
       0.032033354 -0.013045671 0.0045177517 0.024804685
000220 a7 b4 37 bd 5e 81 4f bd dc 22 c4 3c ae df 5b bd
       -0.044850018 -0.050660484 0.023942403 -0.053680114
000230 72 27 d5 bb 54 5b 82 bd db b5 da 3c 6f 48 6e 3d
       -0.0065049464 -0.06365076 0.026698044 0.058174547
000240 2e 11 86 bd 48 ba 00 bd 3f 13 a1 bd b8 39 42 3d
       -0.065462455 -0.03142765 -0.07864999 0.047418326
000250 74 a9 88 3d 67 be 70 3d b6 b0 a8 3c 27 4a 7a 3d
       0.066729456 0.05877533 0.020592075 0.061105873
000260 52 d5 49 3d 16 61 a1 bd c1 d0 ba 3d 53 83 54 bd
       0.049275704 -0.07879846 0.09121848 -0.051883053
000270 d3 c5 75 3d 79 2d 3a bd 5d e8 77 3b 7a 45 cc 3d
       0.060003113 -0.045453522 0.0037827708 0.09974189
000280 52 7e 0b ba 50 21 3a 3b 39 f7 9a b8 86 15 89 ba
       -0.00053212524 0.0028401203 -7.389341e-05 -0.0010458685
000290 b8 78 10 3d 3d 82 f3 bb 79 8e c6 3d 58 dd 05 bd
       0.035271376 -0.007431297 0.09695143 -0.032681793
0002a0 91 8b 0f 3c b3 52 8e bd ca bd 4c 3d e7 3d ae 3c
       0.008761303 -0.069493674 0.049985684 0.021269752
0002b0 d9 f9 11 3c 66 de ce bc 7f 7f d2 3a cc 31 9f 3b
       0.008909666 -0.025252532 0.0016059725 0.004858231
0002c0 ec a9 b9 bd 0e 72 1f 3d 90 49 8d bd ff 23 a2 3c
       -0.09065613 0.03892713 -0.068987966 0.019792555
0002d0 a4 00 48 bd 27 b2 97 3d e4 d1 1f 3d 60 b9 00 bd
       -0.048828736 0.07407027 0.039018527 -0.031426787
0002e0 da 3a 63 bd fc c1 d6 bd 08 58 a7 3c 3b ab 49 bd
       -0.055476047 -0.10486218 0.020427719 -0.049235564
0002f0 07 70 a2 3b c7 11 78 ba 24 7f 1d bd b0 99 6e bd
       0.0049572024 -0.0009463098 -0.03845133 -0.058252037
000300 c2 29 25 3d f9 f8 a2 3c f3 87 99 3c 52 4f 1e bc
       0.040323026 0.01989411 0.018741583 -0.009662466
000310 f8 7c 80 bd 02 9c 58 bc 72 92 a8 3c 5e 1c 8e 3c
       -0.06273836 -0.013220789 0.020577643 0.01734751
000320 6e f4 07 bd cb e1 c3 3c 32 4d 96 bc 9d 0c 0c 3d
       -0.03319209 0.023911377 -0.018347356 0.034191716
000330 6e 3e d8 3c b3 54 4d bd 58 31 8c bc f9 f0 7c bd
       0.026396956 -0.050129604 -0.017113373 -0.061753247
000340 10 fc 33 3c 5e 86 36 bd e4 2b 9c 3c 87 f5 85 bd
       0.010985389 -0.044561736 0.019063897 -0.06540971
000350 eb 80 01 3d 6a d4 dd 3c 32 9a bd bb 09 66 16 3b
       0.031617086 0.027078826 -0.005786204 0.0022949001
000360 be 34 eb 3c f1 3e 54 bd 19 7d b1 bd 54 f1 be 3c
       0.028711673 -0.051817838 -0.086664386 0.023308434
000370 00 50 97 3d 38 49 19 bd 4a 28 30 3d 4d 66 a8 3b
       0.07388306 -0.037423342 0.043007173 0.0051391483
000380 40 3c 86 b9 ce dc 53 3d 9b e5 3f 3c ef 38 cf bc
       -0.0002560336 0.051724248 0.011712457 -0.025295703
000390 a5 33 cc bc bb 22 8c bd 19 ea d8 3c fe 97 84 3d
       -0.02492697 -0.06842562 0.026478814 0.06474303
0003a0 00 82 48 bb 28 21 4f bc 6e bc 07 3b ca 50 fb 3b
       -0.0030595064 -0.012642182 0.0020711678 0.007669543
0003b0 9d 37 db bc 36 c0 60 3d 77 1d 95 3c c1 85 ac bd
       -0.026759917 0.054870807 0.018202526 -0.08423949
0003c0 d4 4d 7d 3b ee 11 d2 3b 57 89 0d bd bc 11 ac bd
       0.0038651126 0.006410829 -0.034554806 -0.0840182
0003d0 6d cb 06 3c 16 01 62 bd 69 0c 5d bc 5f ef 08 3a
       0.008227211 -0.055176817 -0.013491728 0.00052236574
0003e0 f1 0e 24 bd 4d 38 4b 3d 9f 22 3c bd 89 8b 7d 3d
       -0.04005331 0.04961424 -0.045931455 0.06190065
0003f0 46 6e 6a 3b d4 78 42 bd 0b fd 8b ba 50 53 93 bd
       0.0035771294 -0.047478512 -0.0010680271 -0.07193625

actor.6.bias f4 [5]
000000 8f b4 d1 bc 89 d3 a7 3d 5e b3 36 bb 4a 98 cb 3c
       -0.025598792 0.08194644 -0.0027877907 0.02485289
000010 28 d2 21 bc
       -0.009876765
