ippo_algorithm_belief/checkpoints/ppo_actor_0comm_rad_exp_1_run_0_lumberjacks.pth (torch, 178928 bytes, 8 tensors)

actor.0.weight f4 [128, 78]
000000 1d 23 79 bd 96 8f 63 bd 6f 86 2b 3c c4 76 17 be
       -0.060824502 -0.055556856 0.010469063 -0.14791399
000010 d5 56 82 3c 09 c3 af bc aa 09 2f bd cd 17 89 3d
       0.015910545 -0.021455305 -0.042733826 0.06693993
000020 01 27 e4 3c 61 fd 0c be 0e 83 13 be 50 6c ae bc
       0.02785063 -0.13768531 -0.14405462 -0.021291882
000030 ae 54 ee bc 81 dd 0b be 37 fc 12 3d 6b c5 d2 bc
       -0.029093113 -0.13658716 0.035885062 -0.025728902
000040 00 9c 4c bc 5d aa e4 3d 80 0c 1f bd 0a 6c 89 3d
       -0.012488365 0.11165307 -0.03883028 0.0671006
000050 dd a2 3a 3d 64 5d d9 3d a4 c8 06 3e 7f e3 20 3c
       0.045565475 0.10613516 0.13162476 0.009819864
000060 51 b6 ba 3d ab bf f7 3d 3a 7b 5f 3e 0d 6b 07 bd
       0.09116805 0.12097105 0.21824351 -0.033061076
000070 72 a0 69 bd fb 84 88 bc ea 2c 1a be 20 34 a6 3b
       -0.05703778 -0.016664973 -0.15056196 0.0050721318
000080 24 11 fe 3c 07 7a e5 bd 3d 93 cb bd 48 67 89 be
       0.031014033 -0.112049155 -0.09940193 -0.2683661
000090 ea 4c 2e 3d f6 c3 ba bd 3a 0a 83 bc f7 a5 71 be
       0.04255382 -0.09119408 -0.015996087 -0.23598467
0000a0 22 49 0f bc 4a a3 47 3e a2 4b fc 3d 1d 7c 55 bb
       -0.008745464 0.19495884 0.12319113 -0.0032575198
0000b0 02 ef 47 bd b3 8b 56 3e 22 ce 0f 3d 82 6a 1b 3e
       -0.04881192 0.20951729 0.035108693 0.15177348
0000c0 c5 38 20 bd 6a b2 39 3d e8 5c 48 3d e7 0d b1 3c
       -0.03911664 0.045336165 0.048916727 0.021613074
0000d0 36 85 d6 bc a0 b9 58 3d 41 44 fb bd c7 ad 72 3d
       -0.026186567 0.0529114 -0.12268878 0.05924776
0000e0 3f c4 79 bd bc ef 0b bd 4b ee 43 3d 09 35 dc bd
       -0.06097817 -0.034164175 0.047834676 -0.10752303
0000f0 43 5a b3 3c 9a 23 a3 bd 17 03 35 bc 75 7a 57 3d
       0.021893626 -0.07965775 -0.0110481 0.05260702
000100 c7 94 92 bc 3f 57 98 3b 3c ca df bc b7 f2 4b bd
       -0.017893208 0.0046490724 -0.027318113 -0.049792018
000110 e1 eb be bc 2d a2 0f 3e 0f 48 18 3e 26 5f 4a bd
       -0.023305835 0.14026709 0.14871238 -0.049407147
000120 63 99 49 bd 57 10 81 3d 83 6d c6 3d 9e 78 22 bc
       -0.049218547 0.06301945 0.096888565 -0.009916453
000130 ce 10 50 3d 51 c5 06 3e 83 b2 8c bd aa 96 c3 b9
       0.050797276 0.13161208 -0.06869986 -0.00037305552
000140 b7 ab bf 3b 93 03 8e 3d 27 1b 47 3d 31 f1 4c bc
       0.0058493274 0.069342755 0.04860988 -0.012508676
000150 3e 99 19 bd c2 d4 e4 3c 9c 5e 5d bd 9d 5a fb 3c
       -0.03749966 0.027933482 -0.054045305 0.030682856
000160 1f e8 29 3d ca dd 19 3d 71 05 d7 3c 8a da 03 be
       0.041481134 0.03756503 0.026247712 -0.12876335
000170 61 00 2c 3e 71 95 80 bc a3 18 1e 3e bc d8 d9 3d
       0.1679702 -0.01569626 0.15439086 0.10637042
000180 98 1a d1 bd 7b 7f d5 bd 03 20 67 3d 2f b1 a3 bc
       -0.102101505 -0.104247056 0.056427013 -0.019981949
000190 d1 21 b5 3d ec 7f 66 bd 1e c8 41 be 76 42 db bd
       0.088443406 -0.05627434 -0.18923995 -0.10706036
0001a0 c2 7d 36 be c9 1c 00 3d d3 04 9d 3d 88 66 ec 3d
       -0.1782141 0.03127745 0.07666936 0.11542994
0001b0 3c 60 fb 3d 19 99 d9 bd 5c cf fb 3c df a8 40 bd
       0.122742146 -0.10624904 0.030738525 -0.047036048
0001c0 8e 2d c7 3d 94 b1 21 3e aa c0 c2 3d ef d7 8c 3b
       0.09725486 0.15790397 0.09509404 0.004298202
0001d0 da 7d a0 bd e6 45 1a 3e ad 6f 90 bd e2 44 e5 3d
       -0.07836504 0.15065727 -0.070525505 0.11194779
0001e0 97 89 8b 3d f1 b9 68 bd 1b 52 d8 bd 5e 97 5b bd
       0.068133526 -0.056817953 -0.105625354 -0.053611152
0001f0 8e 45 59 bd ac f5 cf 3d e3 cf 5e 3d aa 12 25 3d
       -0.05304485 0.1015428 0.054397475 0.040301003
000200 23 13 33 be 16 a9 bd bd fa 5c e4 3d 5c 1a 30 bd
       -0.17487769 -0.09260766 0.11150546 -0.04299389
000210 d8 00 a6 bd 14 15 a1 3d 68 ab e2 3b 68 20 3c 3d
       -0.0810563 0.078653485 0.006917406 0.045929343
000220 22 f1 92 bd cb ad 64 bb 7b c6 c8 3c 8f eb 62 3d
       -0.07174899 -0.0034893628 0.024508705 0.055400427
000230 99 13 08 3d 2a 21 9c 3d ca a5 67 bd 29 f6 31 bd
       0.033221815 0.07623513 -0.056554593 -0.043447647
000240 1b 02 7a 3d 1f 31 bb 3d 04 b5 21 3d 30 25 c1 3c
       0.061037164 0.091402285 0.03947927 0.023577303
000250 47 bd 0d be 5e 69 0d 3d 72 c9 f1 3d b3 0c b3 3d
       -0.13841735 0.034524314 0.11806001 0.087426566
000260 f0 e8 11 3c b3 c9 98 3d 07 ca 09 be 17 3e 63 bd
       0.008905634 0.07460346 -0.13455974 -0.055479135
000270 bc 22 ab bd 82 3d 0b 3c 3a db f2 3c cf c9 7f 3d
       -0.083562344 0.008498551 0.029645551 0.06244832
000280 e9 5a 14 3e ee 4f 93 bd 61 70 e0 3d 2c 7a b2 bc
       0.14487804 -0.0719298 0.109589346 -0.021786772
000290 5e 16 8e 3d 1d 81 53 3d e6 e2 dd 3d ae 8a 0e 3c
       0.0693786 0.051636804 0.10834293 0.008700056
0002a0 8d 19 d3 3c c9 14 67 3c 83 9b 1e bd 26 24 79 bd
       0.02576902 0.014104077 -0.038722526 -0.06082549
0002b0 f9 f5 e3 bd 51 4f b0 bd 6e e8 da bc 14 61 1d 3d
       -0.111309 -0.086088784 -0.02672216 0.03842266
0002c0 48 a8 01 3d a4 ef 3c 3d a0 37 8d 3c ce e9 ad 3d
       0.031654626 0.046126977 0.017238438 0.0849186
0002d0 80 88 fa 3d 05 a9 cb bd 2e 64 eb bc 1d b5 0a 3e
       0.122330666 -0.09944347 -0.028734293 0.13545652
0002e0 ae d2 c0 bd 48 b7 89 3d 33 8e 31 3e 9a 22 03 3e
       -0.09415184 0.06724411 0.17339401 0.12806168
0002f0 0e 3c 8f 3c 75 0c cc 3d 6c 26 c0 bd b1 36 8b 3e
       0.017484691 0.099633135 -0.093823284 0.27190164
000300 2f 0d 95 bd a8 4b b7 bd 27 b1 f1 bd 00 33 31 be
       -0.07277905 -0.08949977 -0.11801367 -0.17304611
000310 05 ac 38 bd b9 0b 4a be 8b 71 cf 3c e4 5c 7f bc
       -0.045085926 -0.19731034 0.025322696 -0.015586112
000320 75 26 bb 3d e0 e4 a6 3d dc 27 01 bc 9b 5a 27 3d
       0.091381945 0.08149123 -0.007883038 0.040857892
000330 9f 5b 00 bd ca 98 a8 3c aa 0f 10 bc de 2f e9 bd
       -0.031337377 0.020580668 -0.008792797 -0.11386083
000340 d0 8f bd bd 80 fb f0 bd 4a 7f 5e bd 68 38 86 3c
       -0.09255946 -0.1176672 -0.05432061 0.016384318
000350 88 9e df 3c d4 47 3d bd 42 5f d8 3b c2 49 b6 bd
       0.027297273 -0.04621108 0.0066031525 -0.08900787
000360 b0 ce 06 3e 5c bd ac 3d eb e7 9c 3c 48 a8 93 bc
       0.13164783 0.08434555 0.019153556 -0.018024579
000370 68 94 e5 bc e3 95 a3 bb b7 69 ea bd 23 c0 d0 3c
       -0.028024867 -0.004992233 -0.11445945 0.025482243
000380 0d a1 40 3d 01 2e aa 3d 8e 07 e8 3d 7d e7 87 3a
       0.04702859 0.08309556 0.11329566 0.0010368672
000390 49 9e 67 bd 4b a1 26 3c 34 f9 83 bd 8f 39 9d 3d
       -0.056547437 0.010170291 -0.06444016 0.07676994
0003a0 08 6d 19 bd 2c e5 9b bd c7 56 a3 3d 60 ad 60 bc
       -0.037457496 -0.076120704 0.07975536 -0.013713211
0003b0 f9 66 ec 3b 93 69 0b 3e cb ce b0 bd 7b 4f 13 be
       0.0072144237 0.13614492 -0.08633193 -0.14385788
0003c0 11 90 00 be 78 d2 38 be 2f db b0 3d f3 57 01 be
       -0.12554957 -0.18049037 0.08635556 -0.12631206
0003d0 d7 c2 e6 3c e9 25 d5 3c 3b d1 f2 3c ca 4a 56 3d
       0.028169079 0.026019054 0.029640784 0.05231742
0003e0 ee ba 46 bc 07 97 5b 3d 4d d4 95 3c 9a 08 a6 bd
       -0.012129528 0.053610828 0.01828971 -0.08107109
0003f0 4d 50 5a 3e 3c f6 98 bc 7e 0d 78 bd 6e 6b c7 bd
       0.21319695 -0.018672101 -0.060559742 -0.097372875

actor.0.bias f4 [128]
000000 fa b2 6e bc 83 31 4b bd a7 a7 af bd 82 23 59 3d
       -0.0145690385 -0.049607765 -0.08576899 0.05301238
000010 dc 1b 24 3a 4e 0e 9e bb d2 bf 9f bd 55 36 94 bd
       0.0006260255 -0.0048234826 -0.07800259 -0.072369255
000020 8e f2 50 bd 56 d4 4a bd 09 2c 51 3c f8 eb ed 3d
       -0.05101257 -0.049518906 0.012766846 0.11617273
000030 77 8a ac bc 79 91 72 bd 65 90 81 bd e2 cb 06 bd
       -0.021062119 -0.059220765 -0.06326369 -0.03290928
000040 23 aa c1 3c 01 de 0f 3b 0c 24 0d bd 8e 39 fe bc
       0.023640698 0.0021952393 -0.034458205 -0.031033304
000050 2b 7b 11 3d a1 8d 01 bd 37 06 18 3d 54 ab bc 3d
       0.035517853 -0.03162921 0.037115302 0.09212366
000060 08 6b 8d 3d 84 2d ae 3c 81 5e 83 3c e6 28 23 bd
       0.0690518 0.021261938 0.016036274 -0.039833926
000070 8d 6b fc 3b 92 bf 5d 3b 23 ba 80 bd 0f cc a2 3c
       0.0077032507 0.0033836109 -0.06285503 0.019872693
000080 e5 7f 8c bd 53 3a 13 3e a7 ba d4 bb 1b e0 ae 3d
       -0.068603314 0.14377718 -0.0064919773 0.085388385
000090 d3 f1 77 bd 70 6d 4a bd c0 01 96 bd da 49 e4 3c
       -0.060533356 -0.049420774 -0.073245525 0.027867246
0000a0 36 91 0f bc fa 1f a1 bd 3a b7 e2 bd e9 a0 07 bd
       -0.008762648 -0.07867427 -0.11070104 -0.03311244
0000b0 13 da a6 bc c7 09 a4 3d 5c bd 82 3d 57 89 2d 3c
       -0.020367658 0.080096774 0.06383774 0.010591826
0000c0 6d 40 c4 3b 29 8b 85 bb 8b 84 14 bd 1a ae 4b 3d
       0.0059891255 -0.004075427 -0.036259215 0.049726583
0000d0 52 09 26 3d 47 90 4c bc be f7 a9 3b 75 78 60 bd
       0.040536232 -0.01248557 0.005187004 -0.054802377
0000e0 26 b7 25 3d 07 8e a4 3d c5 b2 53 3c b9 14 8d ba
       0.040457867 0.08034902 0.01292104 -0.0010763622
0000f0 c3 0e bd 3d b3 80 01 bd 6b 31 b0 3d f4 72 81 3d
       0.09231331 -0.031616878 0.08603176 0.06320754
000100 83 6f d9 3d af b0 7a bd 96 bf a1 bd e6 ad 7f bd
       0.10616972 -0.061203655 -0.0789787 -0.0624217
000110 20 7a 9e bc 67 8a b6 3d 3a 61 df bb 55 78 81 3d
       -0.019345343 0.08913117 -0.00681701 0.0632178
000120 0e 9b 77 3d 80 62 eb 3c 23 46 88 bc f5 00 86 3c
       0.060450606 0.028733492 -0.016635006 0.016357878
000130 67 4c 7a 3d 87 61 83 bc 3f 2e 25 bd 95 12 2d 3d
       0.06110802 -0.016037716 -0.040327307 0.04225405
000140 8a 0a dd 3b e6 99 d6 bd 87 1c b2 bd 68 1b 09 bd
       0.006745641 -0.104785725 -0.086968474 -0.033473402
000150 a8 d8 b6 bd dd fd 89 3d 8f 34 2d 3d 7a 76 6f 3c
       -0.08928043 0.06737874 0.042286452 0.014615649
000160 bd d4 07 bc f5 c5 61 bb bf 3e 17 3d c9 50 ac bd
       -0.008290467 -0.0034450267 0.036925074 -0.08413846
000170 db 1c c9 3d 59 0a 97 bc c7 b0 22 bc 47 01 d7 3d
       0.09819957 -0.018437551 -0.009929842 0.104982905
000180 77 64 ab 3b 63 8d 9b bd 12 0b b9 3c 1b 4b f4 3c
       0.005230482 -0.07595327 0.022588287 0.02982097
000190 7b b5 65 3d 60 6f 5e bd 9a 65 1d 3d 7c 3d 91 bd
       0.056081276 -0.054305434 0.038426973 -0.07091805
0001a0 50 ac 0c 3c 2e 6d 85 bd eb ed 3b bd db 30 65 3c
       0.008586004 -0.06514965 -0.045881193 0.013988699
0001b0 3c 12 82 bd 23 fb 49 bd a2 ec 30 3b 52 40 18 bd
       -0.06351134 -0.04931177 0.0026996513 -0.037170716
0001c0 97 44 af bd da 5a 54 3d 65 1b 87 bd 36 c2 6d 3d
       -0.08558004 0.051844455 -0.06597022 0.058046542
0001d0 29 5c 04 3e 19 bd 13 3d dc b1 41 3d e9 46 c8 bc
       0.12925781 0.03606901 0.04728876 -0.024447875
0001e0 dd e7 25 bb 60 4e db 3c 4d c1 d0 3d fa 92 86 3d
       -0.0025315203 0.02677077 0.10193119 0.06571002
0001f0 0a c7 fa bd 65 6f 53 3d 4f a2 95 bd 29 09 07 be
       -0.12244995 0.051619906 -0.073063485 -0.13187088

actor.2.weight f4 [128, 128]
000000 94 3d fc bc 0f fd 9c 3d e4 d7 ba bd 25 d5 c2 bd
       -0.030791081 0.076654546 -0.09123209 -0.0951331
000010 d6 3f 20 bd fb 0d 06 3d 20 95 7b 3d be 87 b7 3c
       -0.03912338 0.032728177 0.061421514 0.022403594
000020 8d c8 8d bd 07 1f 02 3d 57 51 6d 3c 92 8d f3 3c
       -0.06923018 0.03176787 0.014484725 0.029730592
000030 f6 bc 6a bd dc 7e 44 bd 8e 0b 7a bc 2d 19 c4 bc
       -0.057309113 -0.047972545 -0.015261544 -0.023937786
000040 72 20 7d 3d dc d4 40 3d aa 65 80 3c 9b 6a 5b 3c
       0.06179852 0.047078 0.015673477 0.013392116
000050 f6 ac e5 bd 00 e6 72 3c 17 1e 4e bd 90 7e 1a bd
       -0.1121463 0.014825344 -0.050321665 -0.037718356
000060 f3 87 aa bd 3c 2a a8 3d 2a d9 8f bc ab f3 4c bd
       -0.083267115 0.082111806 -0.017559607 -0.050037067
000070 f9 47 84 bd 25 1b ed bc 53 05 3f 3d e6 94 ca 3c
       -0.0645904 -0.028943608 0.046635937 0.024729203
000080 6b 28 e0 bb 20 f9 a1 bc 1e 58 10 bd ed e1 de 3c
       -0.0068407557 -0.019772112 -0.035240285 0.02720734
000090 8e 31 cf 3c 7c a9 fb bc 49 58 de 3b 5c 55 51 3d
       0.025292184 -0.030720465 0.0067854268 0.051106796
0000a0 24 b0 97 3d 16 45 25 bd c9 84 3f 3d f0 3d a8 3c
       0.07406643 -0.04034909 0.046757493 0.020537347
0000b0 ee 2f 8f 3d 14 a5 13 3c bc d6 96 bc 2f 27 53 bc
       0.06991564 0.009011526 -0.01841294 -0.01288776
0000c0 56 e0 83 3d 42 f9 c8 3d 95 2d a2 3b b6 82 66 3d
       0.06439273 0.09813167 0.0049492815 0.056277
0000d0 92 2d 3b bd ac f4 5f bd 6b 82 77 bc 98 2c 69 3c
       -0.045697756 -0.054676697 -0.015106778 0.014231823
0000e0 04 ee 83 3c ff 92 8d 3d d4 a5 9c 3d 06 80 8b bd
       0.016104706 0.06912803 0.07648817 -0.06811528
0000f0 e8 11 04 3d 2d fc 91 bd d4 97 a4 3d db 0b 3d 3d
       0.03224364 -0.07128177 0.080367714 0.046153884
000100 62 d4 b4 3d d7 32 ad 3c b0 03 86 bc 39 ec 37 3d
       0.08829571 0.021142406 -0.01635918 0.044903014
000110 95 ff 28 bd 71 46 69 bd b2 7d 8b 3c 27 3a 7a 3d
       -0.041259367 -0.056951944 0.01702771 0.061090615
000120 1b ab 8c bd bd 59 19 3c 70 7e 4c bd 1c 84 41 3d
       -0.06868573 0.009359774 -0.049925268 0.04724513
000130 07 03 ae bc ad f9 56 3d 20 c7 d3 bc 48 ac ed bd
       -0.021241678 0.052484203 -0.025851786 -0.11605126
000140 6e 2b a0 bd 6b 9f 82 bd 70 b8 b7 3d 15 b7 80 3c
       -0.078207836 -0.06378063 0.089707255 0.0157123
000150 59 20 74 bb e5 69 b0 bc b0 ab 55 bd 7e 7a 8b bd
       -0.0037250726 -0.02153487 -0.052165687 -0.06810473
000160 dd d6 fe bc c3 0c a2 3c 7f a9 9c 3c 13 e9 54 3d
       -0.031108314 0.019781476 0.01912379 0.05198009
000170 81 4c 06 be 05 96 b4 bd ab ba b3 3d 6f 2f 8a 3d
       -0.13115121 -0.088176765 0.087758385 0.067473285
000180 8e 85 42 3d ea c1 98 3c d0 17 42 3d f0 59 03 bd
       0.04749065 0.018647153 0.04738599 -0.032068193
000190 42 ff a6 bc 6e 21 89 bd ad 7a b0 bd e5 71 17 bd
       -0.020385388 -0.06695829 -0.086171485 -0.036973853
0001a0 67 5d 3d 3d 66 56 57 bd 18 0a 8c bd 18 fd a4 bc
       0.046231654 -0.05257263 -0.06837863 -0.020140216
0001b0 30 c2 7b 3d 77 16 8d bc ae 1b df 3b ca 39 46 bc
       0.06146449 -0.017222626 0.0068087196 -0.012098739
0001c0 23 7c 36 bc bd 10 2a bd 82 8b 30 bd 5d c3 23 bc
       -0.011137995 -0.04151987 -0.043101795 -0.009995309
0001d0 16 29 99 3c 1c bc b9 bd 80 09 c4 bb bb f7 a3 bd
       0.01869635 -0.09069082 -0.005982578 -0.08006235
0001e0 03 f8 5b bc 1e af 51 3d 5c f2 59 3d 51 fb 6f 3c
       -0.01342583 0.051192395 0.053209648 0.014647321
0001f0 2e 02 d4 3d 7f 81 64 bc 92 03 2f bc 1b af 51 bd
       0.10351978 -0.01394689 -0.010682004 -0.051192384
000200 a4 61 c8 3d c1 4e 9e bd 64 ef 31 bd 2f 95 af 3b
       0.097842485 -0.07729865 -0.04344119 0.0053583602
000210 0e 24 22 3d 1d 19 a9 bd 73 9a 37 3d b0 09 56 bd
       0.039585166 -0.08256743 0.04482503 -0.052255332
000220 79 b6 90 bc 7e ba fa 3d e6 fa 77 bd fc 34 c6 bb
       -0.017665135 0.12242602 -0.06054201 -0.0060487967
000230 af 51 a0 bd 34 a3 94 3d 0e f6 7c 3c e2 15 a1 bd
       -0.0782808 0.07257691 0.015439523 -0.07865502
000240 8f bf 87 bc 12 bf 36 3d 0b b4 96 3d ca ff ab 3c
       -0.016570834 0.044615813 0.07358559 0.020995993
000250 d3 02 28 bd 6f f5 95 3d b7 93 e3 bc b0 60 8a 3d
       -0.04101832 0.07322203 -0.027780397 0.06756723
000260 15 5c 0d 3e da ce ce bd b8 eb ff 3d d3 7f ad 3c
       0.13804658 -0.100980476 0.12496132 0.021179115
000270 0d 6d a6 3d 70 03 12 3d b8 ce 27 3c 0b d4 ed bd
       0.081262685 0.03564781 0.010242157 -0.116127096
000280 ff ed 39 3d 3f 6f bb 3c 75 e7 86 3c b7 b2 6b bd
       0.045392986 0.022880195 0.01646779 -0.057543483
000290 9b 36 87 3d a5 85 61 3c bf d5 06 3d 40 96 ff bd
       0.06602212 0.0137647735 0.032918688 -0.1247983
0002a0 df 0c 59 bd 44 8d 0d bd 12 64 2b bd 37 ab e7 bd
       -0.05299079 -0.03455855 -0.04184348 -0.113119535
0002b0 8c 9a 1c 3e 66 fa 1a 3d 9c 63 17 3d d1 81 93 3c
       0.1529333 0.037836455 0.03696023 0.018006237
0002c0 53 04 2c bd 5a 60 2d 3d f8 89 d9 bc 1e 07 25 bd
       -0.04199631 0.042328216 -0.026555046 -0.04028999
0002d0 36 b8 c3 3a 56 da 3f bc fb 63 57 3c a8 05 6f 3d
       0.0014932218 -0.01170977 0.013146396 0.058355004
0002e0 07 f5 0d bd a5 17 a6 3d 9d 32 e5 bb c5 af 06 be
       -0.034657504 0.081099786 -0.006994559 -0.13152988
0002f0 98 ff 3b bd 49 4b 24 ba fb 2d f2 bd b0 03 0d 3e
       -0.04589805 -0.0006267322 -0.11825176 0.13770938
000300 d3 d7 f4 3d fc 6e 27 3d 3d 06 9b bd c4 d3 84 bd
       0.11955228 0.040877327 -0.07569549 -0.064857036
000310 46 40 7d bb 43 be ff 3b 70 4c 26 bd 49 52 56 3c
       -0.0038643046 0.0078046634 -0.04060024 0.013081142
000320 bb 30 c7 3d ed 84 dd 3c ea e7 29 bd 1a 32 9a bd
       0.097260915 0.027040923 -0.041480936 -0.07529087
000330 78 1f a1 3d e4 42 42 3a 75 ae 75 3d ac 7f a0 3c
       0.0786733 0.000741048 0.05998083 0.019592129
000340 15 cf 2c bd 4e 3c c7 bd 2c 94 f5 3d 68 87 7e 3d
       -0.042189676 -0.09728299 0.11991152 0.062140852
000350 98 3b 90 3d 4d 98 24 bd 30 00 1f bd 6a 30 78 3d
       0.070426166 -0.040184308 -0.03881854 0.060593046
000360 e3 17 e4 3d a6 f2 d6 bd a7 f0 9a 3c af 53 bd bc
       0.111373685 -0.104955 0.01891358 -0.023111193
000370 99 33 74 3d 18 ee 57 3d f1 12 0e bd a9 8d 20 bd
       0.05961952 0.0527173 -0.034686033 -0.039197598
000380 47 6c ab 3c 6e e5 a6 3d e0 92 9d bd 03 e8 92 bc
       0.020925654 0.08149229 -0.0769403 -0.017932897
000390 e9 dc b7 3c d1 0b f6 3c ba f4 60 bd 3e d3 a8 3c
       0.022444205 0.030034931 -0.05492089 0.02060854
0003a0 44 a3 5d bd 9c 12 0b 3d 68 d9 ff 3d 4e 64 89 bc
       -0.05411078 0.033953294 0.12492639 -0.016771462
0003b0 f6 12 6a 3d 56 73 b0 bd 0c 2d f9 3d 3a 49 6e 3d
       0.05714699 -0.086157486 0.12166795 0.058175303
0003c0 03 c2 c4 3d b4 30 97 bc ac f2 91 bd 28 e6 81 bd
       0.09607317 -0.01845584 -0.07126364 -0.06342727
0003d0 2f 3c 4c 3d ba 0b 2c 3c 69 61 ac bd 88 26 fe 3d
       0.049862083 0.010500843 -0.08417017 0.12409693
0003e0 9b 37 fe 3c b1 5a 32 3c c0 d0 09 3c b9 1d 93 3c
       0.031032374 0.01088588 0.008411586 0.017958509
0003f0 f8 b7 7b 3c a7 32 dd bb 1e 62 26 bd 5c 3b 06 3e
       0.015363686 -0.006750423 -0.040620916 0.13108581

actor.2.bias f4 [128]
000000 1c f0 51 bd 4b 1a 3e 3d c9 1e 73 3c 47 bd 11 bd
       -0.051254377 0.046411794 0.014838883 -0.0355809
000010 ae 1f a4 bc 48 06 07 bc 89 3c 6c 3d 66 d4 f8 bc
       -0.020034637 -0.008241244 0.05767492 -0.030374717
000020 dd 91 82 bd 06 d5 71 3b eb 8e d9 3b cb fd 82 bd
       -0.063754775 0.0036900654 0.0066393516 -0.063960634
000030 2e f4 f0 3b e3 ad d9 3c 47 a1 27 3a 1c 0a 20 bd
       0.0073533272 0.026572173 0.00063945766 -0.03907214
000040 95 a4 4d bd 4e 7d 94 bb 13 fb 89 bc 10 cd 03 3d
       -0.050205786 -0.004531539 -0.016843354 0.032177985
000050 f1 e2 77 bd cc f3 44 bc 62 fe 42 bc 0c dd 1d 3d
       -0.060519163 -0.012021016 -0.01190147 0.038540885
000060 97 d4 97 bb 1b 9a 97 3d a9 90 3c 3b b5 ad 2d b9
       -0.004633497 0.0740244 0.0028772748 -0.00016563277
000070 4e f6 90 3d 6f 7f 9b bb 75 c1 cb bc 1c 84 69 bd
       0.07078229 -0.004745416 -0.024872521 -0.057010755
000080 f9 61 a6 3c 97 c9 5a 3d f2 4e 0a 3c ee 56 1b 3d
       0.020310389 0.053414907 0.008441674 0.0379247
000090 8c 8d 08 bd 4c a2 25 3d 0c 22 05 bc 4b b1 c8 bc
       -0.033338115 0.04043798 -0.008125793 -0.024498602
0000a0 09 44 a3 3d 79 4c 5c 3d 93 b3 21 bd 3f d1 4b 3c
       0.07971961 0.053783868 -0.039477896 0.012440025
0000b0 f5 8a 3c bd 07 ca 89 3c 71 25 1c 3d 01 e7 b9 bc
       -0.046030957 0.016819967 0.038121644 -0.022693159
0000c0 c5 28 66 bd 51 35 51 3d cc ab c7 bc 64 f7 0d 3d
       -0.056191225 0.051076237 -0.024373911 0.03465976
0000d0 37 e4 65 ba 6f ee ca bc 7f 83 0f bd bd b2 06 3c
       -0.00087696634 -0.024771897 -0.035037514 0.008221325
0000e0 a7 46 57 3d 93 9a 1f bd 76 c2 7c bd cd 75 3e 3d
       0.052557614 -0.038965773 -0.06170889 0.046499062
0000f0 cb dc 0b bc 8f e0 62 3d 14 29 fd bc 69 06 5f bd
       -0.008536528 0.055389937 -0.030903377 -0.054449473
000100 71 aa 03 bd 45 fa a1 3d 61 e7 2a bd 72 7d 29 3d
       -0.032144967 0.07909063 -0.041724566 0.0413794
000110 b1 de 89 3d ba a6 08 3d bc 60 5a bd 79 0d 7c 3d
       0.06731928 0.033362128 -0.05331491 0.061536286
000120 be 7f 06 bd ef a1 74 3d 52 f3 14 bd e5 ab 08 3d
       -0.03283667 0.059724744 -0.03636486 0.033367056
000130 98 8f 62 3d 54 63 a2 3c c0 fd 71 bd 6d 91 15 3c
       0.055312723 0.019822754 -0.059079885 0.0091289105
000140 66 6b 96 3c f8 0f f8 bb 16 f3 12 3c 4f 4e ad bc
       0.018361758 -0.007570263 0.008969089 -0.021155505
000150 11 e8 51 bd 92 8e 3e 39 60 c5 2f 3d 1b b9 57 3d
       -0.051246706 0.00018172924 0.04291284 0.052666765
000160 12 76 52 bd c1 08 45 3a 11 98 b1 3d 8a 37 24 3c
       -0.051382132 0.0007516258 0.086715825 0.010023007
000170 4b 16 3b bd 92 f8 3d bd 15 9c 60 bc de fb 7c bb
       -0.045675557 -0.046379633 -0.013709088 -0.0038602273
000180 47 b3 fe bc 36 b8 74 bd 93 1c 38 bd c9 0b cb bc
       -0.031091345 -0.05974599 -0.044949125 -0.024785893
000190 ed bc 0f bc cd f4 89 3c fb b7 07 3d 42 64 34 3d
       -0.008773071 0.016840363 0.03313444 0.044040926
0001a0 d0 52 bf 3c 9c c8 3b bb 50 e2 7b 3c 40 a1 ca 3b
       0.023354918 -0.0028653508 0.015373781 0.0061837733
0001b0 d6 29 37 bd 90 b1 87 bc 2f df 80 3d 43 21 44 3d
       -0.044717632 -0.01656416 0.06292569 0.047883283
0001c0 d2 38 bb 3d 0a e5 98 bc bb 79 ca 3c 05 89 80 bd
       0.09141697 -0.018663902 0.024716249 -0.062761344
0001d0 a2 d6 1d 3d 07 86 7d 3d 6a da 7e 3a 01 83 00 3c
       0.038534768 0.061895397 0.0009721877 0.007843734
0001e0 83 d3 17 3d 7a 60 35 3d 2b 73 75 bd 4b a8 88 bd
       0.037066948 0.04428146 -0.059924286 -0.06672724
0001f0 ef 71 11 bd f2 3e 5a bd 43 a7 83 bd 1f ae 19 3b
       -0.035509046 -0.053282686 -0.06428387 0.0023449732

actor.4.weight f4 [128, 128]
000000 a5 85 07 3d 44 0d 25 bd 50 17 0c be ad c7 b7 3b
       0.033086438 -0.040295854 -0.13680768 0.00560852
000010 31 be 88 3d ff 2a 1f 3b 36 62 43 bd c0 e8 1b 3d
       0.06676901 0.0024287102 -0.047701083 0.038063765
000020 18 a1 c1 3c 18 34 20 3d 1b e4 aa bd df a5 87 3c
       0.023636386 0.03911218 -0.08344289 0.016558586
000030 25 f3 ec bc 43 aa 01 bd 8d fe e0 bd 84 74 2c bd
       -0.028924534 -0.031656515 -0.10986052 -0.042103305
000040 fb e0 86 bd 0c 58 c7 3c e2 21 4f 3d ca b5 1e 3d
       -0.0658588 0.024333976 0.050569423 0.038747586
000050 db 47 a1 3c 51 9f 86 3d 77 24 8d 3d 95 8f d7 bd
       0.019687584 0.06573356 0.06891721 -0.10525433
000060 c0 ee 11 3d 22 84 b6 bc 54 55 d6 bc 62 3e 28 3d
       0.03562808 -0.022279803 -0.026163734 0.041075118
000070 55 a0 6b bd 78 8a 3d 3d 70 4e 72 bd cc 41 64 bd
       -0.05752595 0.046274632 -0.059156835 -0.05572681
000080 7a 23 4a bd d9 cc 9c 3c ed 28 9f bd 27 46 c3 3d
       -0.04935024 0.019140648 -0.07771478 0.09534865
000090 84 84 6c 3d e4 94 19 bc c4 b5 89 bd a8 62 58 3d
       0.057743564 -0.009373877 -0.06724122 0.05282846
0000a0 0e f7 8d bd 39 fd 42 3d 5e 8f 58 3d 18 71 1f bd
       -0.069318876 0.047604773 0.0528711 -0.038926214
0000b0 35 d0 e2 bd 67 72 38 3d 1b 91 9d 3d 11 5d b6 bd
       -0.110748686 0.045030978 0.07693692 -0.0890447
0000c0 64 af 64 bc 93 d9 31 3d de 37 86 39 07 db 87 3c
       -0.013957832 0.043420386 0.00025600096 0.016583933
0000d0 37 71 87 bc 51 9f 1a bd af bf 8f bd c7 1e 7f 3d
       -0.016533477 -0.037749592 -0.070189826 0.06228521
0000e0 f5 ad 80 bb fc f1 01 3d d7 14 45 bd 0c 59 c5 3c
       -0.0039269873 0.031724915 -0.048115578 0.024090312
0000f0 43 ea 85 bc 39 f3 bd 3d 65 37 72 3d 36 df e1 3b
       -0.016347056 0.09274907 0.05913486 0.006893064
000100 0e 3e 68 3d c8 15 88 3d 2b 06 52 bd 3e 2a b0 3d
       0.056699805 0.066447794 -0.051275413 0.08601807
000110 1d 11 db 3d b6 d1 2e bd a1 50 48 bd 25 3a b7 3d
       0.106966235 -0.042680465 -0.04890502 0.08946637
000120 84 80 bd bd b9 ba 73 3d 73 02 a6 3d a6 9f ce 3d
       -0.09253028 0.059504244 0.08105936 0.10089044
000130 e8 2f 9a 3c e4 95 6d bd b7 7d 93 bc eb 84 68 bd
       0.018821672 -0.058004275 -0.018004281 -0.056767385
000140 b6 c1 73 bd 4d 91 8e bd 56 f4 d3 3b f4 dc dc bc
       -0.05951091 -0.06961308 0.006468336 -0.026960827
000150 7f 98 8e 3b a7 ee 23 3d 7d 44 a4 3c 9b 46 8b 3d
       0.004351675 0.04002252 0.020052189 0.06800576
000160 bd 27 7d 3c 72 78 2b 3d 95 c2 d9 3d 1f 2e 5f 3d
       0.015451369 0.041862912 0.10632817 0.054487344
000170 d5 a9 27 bd 00 04 29 3d 30 e5 43 3d 55 bd fb bb
       -0.04093345 0.04126358 0.047825992 -0.0076824822
000180 ca f3 5e 3d c7 e9 c8 3c 8a e6 4c bd 23 94 0b 3d
       0.054431714 0.024525536 -0.050024547 0.03407682
000190 c4 67 3c bc 6b 40 2b bd 4e 24 0e 3b 0e b4 51 3d
       -0.011499349 -0.04180948 0.002168912 0.051197104
0001a0 fa d7 10 bd a8 d5 55 bd 0a 71 ac 3a 26 15 78 b9
       -0.03536222 -0.05220571 0.0013156247 -0.00023659001
0001b0 ce 9c 0d 3d 28 35 9c 3c 9c 10 a3 3d da 97 f8 bc
       0.03457337 0.019068316 0.07962152 -0.030345846
0001c0 7e eb fc 3c 69 2c 72 3a cd b8 5b 3c 17 b4 9e bd
       0.03087401 0.0009238185 0.013410759 -0.07749193
0001d0 c7 86 c4 bd cf 4e d9 bc 32 3c cc bd 68 15 20 bd
       -0.09596019 -0.026526837 -0.09972419 -0.039082915
0001e0 8e 17 ae 3d bd cc f2 3b b8 4c d4 3c 05 fb 50 bd
       0.085005865 0.0074096606 0.025915489 -0.05102064
0001f0 94 14 8d bd 7b a0 08 bd 6a ea 3d 3c 40 f1 24 3d
       -0.068886906 -0.03335617 0.011591533 0.040269136
000200 dd 82 78 3d 13 1e b4 3d 6b fb 28 bd 58 30 03 bd
       0.060671676 0.08794799 -0.041255396 -0.032028526
000210 9a 96 15 bd 47 32 6a bd ce ae ab bd 19 26 43 3d
       -0.036520578 -0.057176854 -0.08382951 0.047643755
000220 c0 94 88 bc 6b 9b af 3c 34 92 80 3d 3a af 32 3d
       -0.016672492 0.021436414 0.06277886 0.04362414
000230 6e dd 39 bd 9a 33 96 bd fb de 00 bd 1d 68 98 bd
       -0.045377187 -0.07334061 -0.03146265 -0.07441733
000240 4d 4e 8e bc a6 62 fc bd 05 aa 05 3d 6b fd 0f bd
       -0.017371321 -0.12323503 0.032632846 -0.035153788
000250 5e b3 b8 3d 71 38 4c bd 0c 36 ea 3b c6 eb a7 3d
       0.090185866 -0.049858514 0.007147556 0.08199267
000260 54 af bd 3d 57 e1 d1 3c e2 fe 20 bd a7 e6 55 bd
       0.09261957 0.025620146 -0.039305575 -0.05222192
000270 49 9a d0 bd ee 52 ff 3c 71 db a7 3d a1 84 0a bd
       -0.101856776 0.031167474 0.08196152 -0.03381789
000280 ce 4d e0 bc 55 20 c8 bc 00 c7 b8 bd a4 c5 bb bd
       -0.02738085 -0.02442948 -0.09022331 -0.09168556
000290 89 aa 89 bd 21 cc b8 bd 2b f0 8d bd bf a0 4c bd
       -0.0672198 -0.090233095 -0.06930574 -0.049957987
0002a0 35 22 6b 3c 3d 24 91 3a db bd 09 3d 7c 0c c2 bc
       0.014351417 0.0011073422 0.033628326 -0.023687594
0002b0 68 36 18 3d 6e 0c 1e 3d 61 8c 46 bd c4 68 cd 3b
       0.03716126 0.038586073 -0.04847372 0.0062685926
0002c0 a8 bd d4 3c be 81 dc bd 73 09 71 3d d8 02 82 3d
       0.025969341 -0.10766934 0.058846902 0.06348199
0002d0 12 36 2c 3d 5c b1 61 3d bd 8c 7a bd 43 10 4d 3c
       0.042043753 0.055100784 -0.061169375 0.012516084
0002e0 54 32 cd bc af 93 40 3d e2 1b a5 3c 3d f1 16 bd
       -0.025048412 0.047015842 0.020154897 -0.036851157
0002f0 41 74 64 3d 83 3e 18 3d a2 c7 11 bc 4a 70 9f bb
       0.05577493 0.03716899 -0.008897694 -0.004865681
000300 c3 07 51 3c ff 15 6d bd 68 92 fc 3c 37 e7 26 bc
       0.012758198 -0.057882305 0.03083153 -0.010186962
000310 f8 23 9a 3c 0f 94 20 bd 73 1a be bc 55 e7 d2 3b
       0.01881598 -0.0392037 -0.023205971 0.0064362683
000320 04 76 33 bd cc 18 87 3d 9f 19 0f 3d 0c 40 14 3c
       -0.04381372 0.065965265 0.034936544 0.009048473
000330 3a 16 93 3d 3a 34 c5 bd a7 c5 83 3c 7e 45 c2 bd
       0.07181974 -0.09629102 0.016085459 -0.09485911
000340 48 a5 9e bd bd 30 25 3d 7f a5 ac bd 72 7f a6 bd
       -0.07746369 0.040329684 -0.084300034 -0.08129777
000350 64 37 7e 3d 74 10 be bc 0d a1 4c 3c a8 97 c3 3c
       0.062064543 -0.023201205 0.012489569 0.023876026
000360 45 83 1c 3d ce ed 38 bb 2d 63 d1 3d 6e 6d 1f bd
       0.038211126 -0.0028217915 0.102239944 -0.03892272
000370 24 a9 bf bc b5 fc bf bc aa 09 c5 3d e7 13 23 3d
       -0.023396082 -0.02343593 0.09620984 0.039813902
000380 b9 e4 79 3d ff 8a 5b 3d 4a 63 1c 3d 99 8f 8b 3c
       0.061009143 0.053599354 0.038180627 0.017036246
000390 b6 5a 67 3d 9e da 54 bc 5a 87 17 bd 6f 06 8e bd
       0.056482993 -0.0129915755 -0.036994316 -0.06934821
0003a0 dd 85 a2 bb 69 8d 97 bc 41 41 0c 3d 9d 71 3b 3c
       -0.0049598054 -0.018500047 0.03424192 0.011440662
0003b0 1b 48 73 3c 24 8c a2 bd 5e 50 2d 3d 01 27 db bc
       0.014848734 -0.07936886 0.042312972 -0.026751997
0003c0 08 e6 e4 bc dd 06 4b bd 78 57 98 bd 88 5d 5d 3d
       -0.027941719 -0.049567092 -0.07438558 0.054044276
0003d0 26 52 1f 3d 5e 78 f7 bd 9f 65 ba 3c 84 5c 88 bc
       0.038896702 -0.12083505 0.022753535 -0.016645677
0003e0 22 1c 46 3d 17 78 d4 bd 35 8d 47 bd e3 1b c6 3d
       0.048366673 -0.10374468 -0.04871865 0.09673288
0003f0 60 5e 25 bd 88 0c e2 3b 9a fd 4f 3c 86 4c 8a bb
       -0.040373206 0.0068984665 0.012694741 -0.004220548

actor.4.bias f4 [128]
000000 41 d1 67 3c 0a 1b 0e 3c 01 ba ed 3c 56 11 ae bd
       0.014149011 0.008673439 0.029019358 -0.084994
000010 d9 55 f0 3c 58 46 95 3d f5 e8 89 3b 38 c3 1e bb
       0.02933781 0.07288808 0.004208679 -0.0024225246
000020 38 8e 0f 3d 3d aa 9a bd 02 31 55 bd 37 d2 c8 bd
       0.03504774 -0.075520016 -0.05204869 -0.0980572
000030 3a bc 52 bd c9 98 d3 bc e5 45 b0 bd fe 83 01 3d
       -0.051449038 -0.02582969 -0.08607081 0.03162002
000040 d5 04 d7 bc 80 b6 f6 3c 1a 2c 8b 3d 01 f0 8c bd
       -0.026247421 0.03011632 0.06795521 -0.068817146
000050 28 c1 11 bd da e5 79 3d 5c 6f 95 3d ed 2e 26 bd
       -0.0355846 0.06101022 0.07296631 -0.040572096
000060 85 88 2e 3d 88 fc 13 3d 20 2c 8a bc 23 5c 57 bd
       0.042610664 0.036129504 -0.016866744 -0.052578103
000070 5f 6a 76 bd f0 1e 9f 3d c6 33 86 bd a2 fb 92 3d
       -0.060160037 0.07769573 -0.06552844 0.071769014
000080 de 1d 1c 3d 88 47 92 bc c4 cc 9b bc 05 fd 39 bd
       0.03811442 -0.017856374 -0.019018538 -0.045407314
000090 49 2f a0 3d 12 1c de bb af 02 d8 bc fa f5 d2 bc
       0.07821519 -0.0067782486 -0.026368467 -0.025752056
0000a0 cd ed d5 bc b8 4b b0 3d fd 11 c1 3c 41 76 2a 3d
       -0.026114369 0.08608192 0.023568148 0.041616682
0000b0 39 17 31 3d 8d 5b 4a bc 18 cb ef bc a4 04 b4 bc
       0.043235037 -0.012350929 -0.029271647 -0.02197487
0000c0 3b 63 95 3d 84 55 85 3d 54 e9 25 bd 46 61 8b bc
       0.07294317 0.065104514 -0.040505722 -0.017014157
0000d0 16 a9 dc bb ae aa bc 3a 4e 86 b1 3c 7f 86 44 bd
       -0.006734024 0.0014394128 0.021670487 -0.047979828
0000e0 9d a1 51 3c e3 99 61 bd 30 05 e7 3c 11 64 90 3d
       0.012794879 -0.0550784 0.028200716 0.07050336
0000f0 4c 18 b4 bd 46 4a 93 bd 9e 23 7e 3d ab 38 94 bd
       -0.08793697 -0.07191901 0.062045686 -0.07237371
000100 03 91 80 bd 69 b3 89 3d 1b 2e 95 bd 6b 18 6c 3d
       -0.06277659 0.06723673 -0.072841845 0.057640474
000110 04 5f a4 3c 61 68 37 3d 65 41 a5 3c 2d 90 90 3d
       0.020064838 0.044777278 0.020172784 0.07058749
000120 93 83 89 3c 7d ce 56 bd c8 10 70 3d 8a 63 0b bc
       0.016786372 -0.052443016 0.058609754 -0.008507619
000130 cb bd 32 3d 1c 3a 9e 3d 23 d6 44 3d 25 59 7d 3d
       0.043638032 0.07725927 0.04805578 0.061852593
000140 d3 59 e8 3c 58 24 d8 3c 60 cb 0a 3d 54 bc a2 3c
       0.028363144 0.026384518 0.03388536 0.019865192
000150 d6 ec 03 bd be 11 7f 3d eb 0f 55 3d b3 b3 c4 bc
       -0.032208286 0.06227278 0.052017134 -0.024011469
000160 27 d3 73 bd 11 97 b7 3c 3c 85 63 bd 33 f3 7b bc
       -0.059527542 0.022410901 -0.055546984 -0.015377807
000170 cb 11 c4 bd 36 fb 10 bd 65 3d b2 ba de 56 64 bd
       -0.09573706 -0.035395823 -0.0013598619 -0.055746906
000180 48 32 71 3d 7c 94 84 3d 48 55 94 3d 11 f5 3c bd
       0.058885843 0.06473634 0.072428286 -0.04613215
000190 98 cd a0 bd c1 52 d3 3c 4e 84 35 3d 62 8a 80 bd
       -0.07851714 0.025796296 0.04431563 -0.062763944
0001a0 3a 92 58 bd 22 2c 53 3c 6d f7 43 3d 10 0d 1a bd
       -0.052873828 0.01288894 0.047843385 -0.037610114
0001b0 d7 b8 6e bd 7e 6b d4 bb 0c 16 bf ba 7b e0 20 3d
       -0.058281746 -0.0064825406 -0.0014578714 0.03927658
0001c0 77 4a c1 3c 23 25 3c bd 07 dc 0f 3c 31 b3 90 3d
       0.023595078 -0.045933854 0.008780486 0.07065428
0001d0 38 5a 7d 3d d2 48 4c 3c c5 a7 e1 bc cf 52 90 3d
       0.061853617 0.012468534 -0.027545819 0.070470445
0001e0 e8 c9 79 3d fd a4 a9 3d b7 11 46 bb bb 9c 1d 3d
       0.06098357 0.08283422 -0.0030222961 0.038479548
0001f0 70 f1 52 bb c6 67 6f bc 9c 40 c4 3c 70 ac 30 3d
       -0.0032187365 -0.014612144 0.02395659 0.0431332

actor.6.weight f4 [5, 128]
000000 d4 e4 56 bd a0 3a 34 3d ea 45 d2 bc 83 01 c2 bb
       -0.05246432 0.04400122 -0.025668103 -0.0059205904
000010 d7 85 aa bd 6f fd c0 bd 90 a1 d0 3b 73 21 2d 3c
       -0.08326309 -0.094233386 0.006366916 0.010567057
000020 61 31 09 bd 61 1c b4 3d 91 67 c9 3c f7 7d a5 3d
       -0.033494357 0.08794475 0.024585517 0.080806665
000030 d5 2c 31 3d 1f 9e 6a bd 50 1c ed bc 79 cf f3 bc
       0.043255646 -0.057279702 -0.028944165 -0.029762017
000040 9d 1d 0b 3d 09 a1 b0 3b f0 0d 8c bc f1 a0 cb 3c
       0.03396379 0.0053902906 -0.01709649 0.024857016
000050 5e 9b 20 3d d3 62 5c bc a4 7d f6 3c 0a 42 ad 3d
       0.03921067 -0.013451296 0.030089207 0.084598616
000060 52 ff 7a 3d 79 81 4f 3d 4a 9b 09 3d 1a 46 47 3d
       0.06127865 0.050660584 0.03359536 0.04865084
000070 e1 9c 2a 3d 8e d0 b3 3c 19 9f 8f 3d 30 10 90 bd
       0.041653518 0.021950033 0.07012767 -0.070343375
000080 57 7c 0f bd 52 53 4e 3d 2b 05 a0 3d 23 06 60 bc
       -0.03503069 0.05037243 0.07813486 -0.013673338
000090 46 a4 e5 3c 5e 8d 1d bd 0a 06 4e 3d e5 9b 94 bb
       0.028032433 -0.038464896 0.050298728 -0.0045351856
0000a0 05 d8 86 bd 9d 8c 04 bc 98 01 12 3d a3 da 7f bd
       -0.06584171 -0.008090165 0.03564605 -0.062464368
0000b0 ed ba 0b bd b1 11 9f 3c aa 9d 89 3d 54 f0 82 3c
       -0.034113813 0.019417616 0.06719525 0.015983738
0000c0 32 f1 74 bd ce 0a 2e 3d 3c e7 cc 3c 2b fb e8 3b
       -0.059800334 0.042490773 0.025012605 0.0071100197
0000d0 5c d6 3c bd 76 fb 91 bd d5 bd 16 bb 28 c5 89 bd
       -0.046102867 -0.071280405 -0.0023001332 -0.06727058
0000e0 2a 40 ba 39 0d 37 ae 3c 07 1c 79 3d 7c b2 65 3d
       0.0003552449 0.021266485 0.060817745 0.05607842
0000f0 c8 6c 3d bc 70 18 52 bd 6b 83 20 bd a1 42 04 bd
       -0.01156158 -0.051292837 -0.03918783 -0.032290105
000100 8e b8 16 bc f0 29 f3 3c ae 2a 80 3c ba 76 b3 3d
       -0.009199275 0.029683083 0.015645351 0.0876288
000110 9b a3 cb bc cd 49 d0 ba 89 89 63 3d d4 b1 97 bd
       -0.024858287 -0.0015891135 0.055551086 -0.07406965
000120 13 12 72 bd 22 4c a5 3d d7 13 16 bd 75 d8 ce bc
       -0.05909927 0.08071162 -0.036640014 -0.0252497
000130 4e d9 be bc 86 68 e4 bc cb 55 6e bd b5 de 31 bb
       -0.023296978 -0.027881872 -0.058187287 -0.00271408
000140 13 0b 49 3d fd 1e 57 bc d6 49 f7 bc ed 3c 8c 3a
       0.049082827 -0.013129947 -0.030186575 0.001069931
000150 27 f0 81 3d 25 12 0a 3c e8 15 ea bb 3a a1 92 bd
       0.063446335 0.008427178 -0.0071437247 -0.07159658
000160 16 f7 6f 3c 0a df 7e 3c 7c 44 ef 3c fa 25 08 3d
       0.014646312 0.015556106 0.02920746 0.033239342
000170 47 5c 97 3d 93 91 64 3d 27 76 8a 3c f8 46 cb bc
       0.073906474 0.055802893 0.016902043 -0.024814114
000180 cd 71 8b 3d e6 32 6f 3b 0f dc 20 3a 7b e1 d4 3c
       0.06808815 0.0036498844 0.0006136307 0.025986424
000190 63 b8 23 3d ee 7b f7 3c e5 3f 3e bd f8 19 14 3c
       0.039970767 0.030210461 -0.046447653 0.009039395
0001a0 a7 ac ba bc a5 df fd 3c 73 cd cc 3c 43 9f 68 bd
       -0.022787405 0.030990431 0.02500031 -0.05679251
0001b0 b5 68 99 3c e4 1e 1d 3d 83 2a 71 bd 20 0d 7b bc
       0.018726686 0.038359538 -0.058878433 -0.015322953
0001c0 56 05 1f bd 0b bf 30 bb 10 ed 48 3d 4e 25 64 bc
       -0.038823448 -0.002696934 0.049054205 -0.01392491
0001d0 2f 14 aa bd 85 a8 84 3d 47 90 a8 bd 78 a7 29 bc
       -0.08304631 0.06477455 -0.08230644 -0.010354869
0001e0 ce 4b fa bc a4 87 8e 3d 1c 41 b3 bd 99 ed bf 3b
       -0.030553725 0.06959465 -0.08752653 0.0058571813
0001f0 33 a9 4b bc 73 02 a6 3d 3b 95 fd bc e9 a1 30 bd
       -0.012430477 0.08105936 -0.030954948 -0.04312316
000200 e3 00 a6 3d 77 11 d7 3c e1 ad 90 bd 51 3d 8f bc
       0.08105638 0.026253445 -0.07064415 -0.017485293
000210 d6 71 02 bc 3d 26 4e bc 1a 7d 79 3c ad 53 9c bd
       -0.007961711 -0.012582359 0.01522758 -0.076331474
000220 82 57 ac 3b e1 38 ba bd 13 fd cb 3d 87 98 cf bd
       0.005259455 -0.0909288 0.099603795 -0.10136514
000230 cf fb 2a 3d 75 f5 22 3d 4d e3 d0 bd 53 d8 7b 3d
       0.04174405 0.039784867 -0.10199604 0.0614856
000240 ac 4d f4 bc 14 8b 8c bd 25 a4 8f bd c1 16 2e bd
       -0.029822193 -0.068624645 -0.0701373 -0.04250217
000250 d5 ef b0 bb a2 46 4f 3d 40 9e e7 bc 88 4a c2 3d
       -0.005399684 0.05060447 -0.028273702 0.09486872
000260 cd 8f 86 3d a9 cb 55 3b 57 c7 4c 3c 2c 8c 90 bd
       0.065703966 0.0032622612 0.012498698 -0.07057986
000270 d1 d3 8f bd 86 b0 39 3d 46 17 4d bd ec 21 b5 3d
       -0.07022823 0.04533436 -0.050071023 0.08844361
000280 1a e5 bf 3c 5a 70 84 bc e5 44 4a bd 2d a0 29 3d
       0.023424674 -0.016166855 -0.04938211 0.04141252
000290 20 00 db 3d 8f 5f 96 bd ab b9 8f 3d 39 c0 cf bc
       0.10693383 -0.07342445 0.07017835 -0.025360214
0002a0 c7 9f 0b bd db 29 e2 3c 91 d4 ce 3d cf a9 5d bd
       -0.034087922 0.027607849 0.100991376 -0.05411702
0002b0 fb 2d ef 3c 24 ce 23 3d 13 ef 65 3d b3 20 1e bd
       0.02919673 0.039991513 0.056136202 -0.038605403
0002c0 7a 52 99 bd 64 83 26 bc 46 0b 72 bb ff a7 3c bd
       -0.07486434 -0.010163162 -0.003693299 -0.04605865
0002d0 a6 9c 62 3d f6 40 f9 3c b2 11 e8 bc 5e fa 2c bd
       0.055325173 0.030426484 -0.02832875 -0.042230956
0002e0 62 a1 20 3d 03 9f 07 bd 88 b0 d6 bc 9e d9 bf 3d
       0.039216407 -0.03311063 -0.026207224 0.09367679
0002f0 cd eb ee bd 7a f5 04 3c ef a4 7f bd 36 c7 c9 3d
       -0.11666069 0.008115167 -0.062413152 0.098524496
000300 da 85 0d 3d e9 cd 20 3d 56 0a c6 bd 87 3c a2 3c
       0.03455148 0.03925887 -0.0966994 0.019804252
000310 2c df 94 bd 9b c6 d9 bc 54 70 fa 3d fe c2 de bc
       -0.07269129 -0.02658396 0.12228456 -0.027192589
000320 f9 b2 c1 3c 77 c0 a6 bd e0 43 8c bc ae 43 08 bd
       0.023644911 -0.081421785 -0.01712221 -0.03326767
000330 5c 27 23 bd 3e af 87 3d d8 74 90 3c 9e ff 07 3d
       -0.039832458 0.06625222 0.01763384 0.03320276
000340 a8 22 26 bd fc 87 6b 3d 7f 63 0f 3c f6 49 57 bc
       -0.040560395 0.05750273 0.008751749 -0.013140192
000350 7f 01 02 bd 74 88 74 bc c6 77 f2 bc f1 21 39 bd
       -0.031739708 -0.014925111 -0.029598128 -0.045198385
000360 83 f6 a8 bc f5 91 5b bd 44 55 74 3d 48 86 1c 3d
       -0.020625358 -0.053605992 0.059651628 0.038213998
000370 3b 4e 85 bd d3 ab 92 bd a8 55 85 3b 37 14 3a bd
       -0.06509062 -0.07161679 0.004069049 -0.045429435
000380 89 2a 81 3d b6 da 85 3d b0 d7 a2 3c 30 8c 8d bd
       0.06306941 0.065358564 0.019878238 -0.06911504
000390 89 a2 b2 bd 02 8a af bb 4c cb 71 bd 65 7f f0 bc
       -0.08722407 -0.005357028 -0.05903177 -0.029357621
0003a0 b4 cf 03 3d ad 20 75 3d 98 ff f4 bc b3 e3 b9 bb
       0.032180503 0.059845615 -0.029907033 -0.005672896
0003b0 06 ea 51 3c 80 4f 18 3c ce 15 67 3d 96 15 a8 bc
       0.012812143 0.009296298 0.05641728 -0.020518105
0003c0 dc c7 9a bd e9 1b 88 3d 7c 7a ae 3d c9 cb ed 3c
       -0.075576514 0.066459484 0.08519456 0.029027836
0003d0 13 67 3b bc b1 6a 8c 3d 5e 79 5e bd 53 0b 55 3d
       -0.011438149 0.06856287 -0.054314964 0.052012753
0003e0 7c a8 a2 3d 6b ec 8f 3d b5 83 b2 bd c6 ff c4 3c
       0.07942292 0.07027515 -0.087165274 0.024047744
0003f0 b1 fa c0 bd a9 ab b5 3c eb f2 54 bd 91 96 83 bb
       -0.094228156 0.02217658 -0.051989477 -0.0040157516

actor.6.bias f4 [5]
000000 4f bb 6d 3d 46 9e b6 bd 8c a5 33 bd 99 bf 44 bd
       0.05803996 -0.08916907 -0.04385905 -0.048034284
000010 c3 08 83 3c
       0.015995389
