ippo_algorithm_belief/checkpoints/ppo_actor_1num_agent_exp_4_run_0_lumberjacks.pth (torch, 230140 bytes, 8 tensors)

actor.0.weight f4 [128, 178]
0	0x3d59fd47	0.05322006
1	0x3d87ee77	0.066372804
2	0xbcbbf2de	-0.022942957
3	0x3c61a257	0.013771615
4	0xbc040393	-0.008057493
5	0x3d912cf5	0.07088653
6	0xbdc372cd	-0.09543381
7	0xbe1ef3fe	-0.15522763
8	0xbc2b8be8	-0.010470368
9	0x3bfd18d0	0.007723905
10	0xbc4af2ed	-0.01238702
11	0xbcb4d52f	-0.02207431
12	0x3cfd097e	0.030888315
13	0xbcb444c7	-0.022005452
14	0x3cd681b1	0.026184889
15	0xbe001452	-0.12507752
16	0xbd72f86c	-0.059318945
17	0xbca98a3a	-0.020695794
18	0x3d95d3eb	0.07315811
19	0x3d1c2e11	0.03812987
20	0x3d18d8b8	0.037316054
21	0x3d8b5278	0.06802839
22	0x3cfe0c8e	0.031011846
23	0xbbe1c016	-0.0068893535
24	0x3d4d2924	0.050088063
25	0xbcadceb5	-0.02121673
26	0x3c5dc38f	0.013535394
27	0xbd997bb9	-0.07494301
28	0xbccd56e7	-0.025065852
29	0x3c859062	0.016304199
30	0xbdddb760	-0.10825992
31	0x3bc06db6	0.0058724536
32	0xbb4bb527	-0.0031083317
33	0xbc00d051	-0.0078621665
34	0xbdd0f19b	-0.102023326
35	0xbd0bc07e	-0.03411912
36	0xbe003b1f	-0.12522553
37	0xbd9e7fb0	-0.07739198
38	0x3d30e019	0.043182466
39	0xbc4fbd21	-0.012679369
40	0xbc72542a	-0.014790574
41	0x3d1d862c	0.038458034
42	0xbd8821ea	-0.066470936
43	0x3cf79d27	0.030226303
44	0x3d5a3f83	0.053283226
45	0xbdae6561	-0.0851543
46	0xbd0eccde	-0.034863345
47	0x3d54f336	0.051989757
48	0x3d5c844e	0.053837113
49	0x3d06a31c	0.032870397
50	0x3cf0c3df	0.029390274
51	0x3cec95ca	0.028880019
52	0xbd210331	-0.039309684
53	0x3d59e275	0.053194482
54	0x3d61fe8b	0.05517439
55	0x3d7901f1	0.060792867
56	0x3dc58627	0.09644728
57	0xbdeb980e	-0.115036115
58	0xbc8bc71d	-0.017062718
59	0xbd823e2b	-0.06359514
60	0x3d24b077	0.040207352
61	0xbd480f13	-0.0488425
62	0xbd0361fa	-0.03207586
63	0xbd97453a	-0.07386251
64	0x3c3aa834	0.011392642
65	0xbc61098f	-0.013735189
66	0xbba9c221	-0.0051806127
67	0xbddef1ce	-0.10885964
68	0x3d50a343	0.05093695
69	0xbdb8debc	-0.09026858
70	0x3d8ca96a	0.06868251
71	0xbd793f06	-0.06085112
72	0xbc9f392b	-0.01943644
73	0xbc12342f	-0.008923574
74	0x3dab1c11	0.083549626
75	0x3b92787e	0.00446993
76	0xbe1f6bdc	-0.15568489
77	0xbd259ca0	-0.040432572
78	0x3d92dc77	0.071709566
79	0xbcaf7136	-0.021416288
80	0x3c840d80	0.016119719
81	0xbceeb2b2	-0.029137943
82	0xbbc0fbaf	-0.005889378
83	0x3d4cd99a	0.05001221
84	0xbdcb9eca	-0.09942396
85	0xbde0ddf5	-0.10979835
86	0xbdacb454	-0.08432832
87	0x3dacfc03	0.08446505
88	0xbd598295	-0.05310305
89	0x3dd8d177	0.10586827
90	0xbcad4b72	-0.02115414
91	0xbd7e73e8	-0.062122256
92	0xbd858815	-0.06520096
93	0x3d32afed	0.043624807
94	0x3d49cdd9	0.049268577
95	0x3d928107	0.07153516
96	0x3cf0fa7a	0.029416312
97	0x3d29aa37	0.041422095
98	0x3c56e491	0.013116018
99	0xbda4dcf4	-0.08049956
100	0x3d3f8352	0.046756096
101	0xba5b838e	-0.000837379
102	0xbdc02038	-0.09381145
103	0xbc70abb3	-0.014689374
104	0xbdc022f1	-0.093816645
105	0xbdae4007	-0.08508306
106	0xbd09051e	-0.033452146
107	0xbd964e65	-0.07339171
108	0x3d247c97	0.04015788
109	0x39d2f7a7	0.00040238837
110	0xbe6be319	-0.2303585
111	0xbe0c2440	-0.13685703
112	0xbd89a6f3	-0.06721296
113	0xbce742fe	-0.028230187
114	0x3e10fbec	0.141586
115	0xbc70e200	-0.01470232
116	0xbe234bab	-0.15946834
117	0x3d23efcb	0.040023606
118	0xbca1b2d2	-0.019738588
119	0x3e126615	0.14296754
120	0x3d92c88f	0.0716716
121	0x3dd9d79d	0.10636828
122	0x3dab7856	0.08372562
123	0xbc87eb93	-0.016591823
124	0x3cb97be8	0.02264209
125	0x3cb89a58	0.022534534
126	0xbc2b23d0	-0.01044555
127	0x3cce9bb4	0.02522073
128	0x3c61ec08	0.013789184
129	0x3cc34468	0.02383633
130	0x3d0873b7	0.03331348
131	0x3d177eba	0.03698609
132	0x3d01aa75	0.0316567
133	0x3de5b041	0.112152584
134	0x3c2440b6	0.010025194
135	0x3b80fd8e	0.003936476
136	0xbda49e18	-0.080379665
137	0xbd1495aa	-0.036275543
138	0xbd4fc4cd	-0.050724793
139	0xbcac80a5	-0.021057436
140	0x3bb0022e	0.0053713536
141	0x3c375bc4	0.011191312
142	0xbda01c58	-0.07817906
143	0xbde87f9e	-0.11352466
144	0xbd2ef110	-0.042710364
145	0x3d761c85	0.060085792
146	0x3d959ce9	0.07305319
147	0x3d6db1d0	0.058030903
148	0x3dc453ce	0.09586297
149	0xbd2ce2b7	-0.0422084
150	0x3c00bc63	0.007857415
151	0x3d6844ed	0.056706358
152	0xbc9f2858	-0.019428417
153	0xbd58bd34	-0.052914813
154	0xbd2f141c	-0.042743787
155	0x3d68c66a	0.056829847
156	0x3d35f879	0.044426415
157	0xbdbfe1f1	-0.09369267
158	0xbd1c6e4c	-0.038191125
159	0x3d06ec50	0.03294021
160	0xbd2c8457	-0.042118397
161	0xbc2c4c4e	-0.010516239
162	0xbcfc4e58	-0.030799076
163	0x38f1cceb	0.000115299445
164	0x3d1c0fcb	0.038101
165	0x3d20fbe8	0.039302737
166	0x3cbc0bf4	0.022954918
167	0xbd61eabd	-0.055155504
168	0xbd57fa5e	-0.052729003
169	0xbc7e5b2f	-0.01552467
170	0xbd48c829	-0.049019013
171	0x3c8aede7	0.016959144
172	0x3d9c0df1	0.076198466
173	0xbd9340cb	-0.07190093
174	0xbded292d	-0.11580119
175	0x3d76eb5a	0.060283042
176	0xbcc95fca	-0.024581809
177	0x3de48b72	0.111594096
178	0x3bda1806	0.006655696
179	0xbd555f82	-0.052093036
180	0x3d9db08a	0.07699688
181	0xbba8059d	-0.0051276223
182	0x3cf2140d	0.029550577
183	0xbb127317	-0.002234643
184	0x3da8a21a	0.082340434
185	0xbdc58dc1	-0.09646178
186	0x3d277b85	0.04088928
187	0x3d98d016	0.07461564
188	0xbdbb9547	-0.09159332
189	0xbc9a9a9c	-0.018872552
190	0xbdba180d	-0.090866186
191	0x3d2fbd69	0.042905245
192	0x3ce73134	0.028221704
193	0xbd0fb505	-0.035084743
194	0xbd901392	-0.07034983
195	0x3d7741b6	0.0603654
196	0x3d28cfd3	0.04121382
197	0xbbdc20cc	-0.006717777
198	0x3d12889e	0.03577482
199	0xbd421261	-0.04738081
200	0x3db2492e	0.08705364
201	0xbb1f1a6f	-0.002427723
202	0x3bf9551f	0.007609024
203	0x3d9d1647	0.07670265
204	0x3d2e2e19	0.04252443
205	0xbc4f6ee3	-0.012660715
206	0x3d5f3b76	0.054500066
207	0x3da95ec1	0.08270026
208	0x3da038ed	0.07823358
209	0x3cddf0e0	0.027092397
210	0xbcc08adc	-0.023503713
211	0x3d3c21cb	0.045930665
212	0x3b6c0ada	0.003601721
213	0xbd9d5c0f	-0.076835744
214	0x3da808c2	0.082047954
215	0x3c0b5151	0.008503274
216	0x3c93897e	0.018009897
217	0xbcb5f59b	-0.02221184
218	0xbd2f223c	-0.042757258
219	0xbd0a22dc	-0.03372465
220	0x3d592665	0.05301513
221	0xbcb922c4	-0.022599585
222	0x3d8dc01e	0.06921409
223	0xbc120217	-0.008911631
224	0xbbd8d137	-0.006616737
225	0x3d7573a7	0.059924748
226	0x3d0a9756	0.03383573
227	0xbc0680f9	-0.00820946
228	0x3d195e21	0.037443284
229	0xbcbd9d0a	-0.023146171
230	0xbd9d14cd	-0.07669983
231	0xbe29130e	-0.16511175
232	0x3abdcde1	0.0014480912
233	0x3d835b45	0.06413893
234	0x3c4a258a	0.012338052
235	0x3ceac30d	0.02865746
236	0x3ce93e3b	0.028472057
237	0x3d1fedae	0.03904503
238	0x3db9084e	0.09034787
239	0xbd1c3b76	-0.038142644
240	0x3d63f658	0.055654854
241	0x3d6f8adf	0.058482047
242	0x3da8fd91	0.08251489
243	0xbc2c4e76	-0.010516753
244	0xbb4e052b	-0.0031436186
245	0xbd5515db	-0.052022796
246	0x3d115877	0.035484757
247	0x3c940b60	0.01807183
248	0xbd345141	-0.044022802
249	0xbd08ca19	-0.03339586
250	0xbd2155dc	-0.039388523
251	0xbcb13399	-0.021631049
252	0xbcc7b4af	-0.024378149
253	0x3c5aae46	0.013347214
254	0x3dbebfb2	0.09313907
255	0x3d74bbfb	0.059749585

actor.0.bias f4 [128]
0	0x3d3eaf8b	0.04655413
1	0xbced0cf7	-0.028936846
2	0x3b4d5f28	0.0031337235
3	0x3d05c673	0.03265996
4	0x3cfc636d	0.030809129
5	0x3be0f61a	0.006865275
6	0x3ca9453d	0.020662898
7	0x3c9a964c	0.018870495
8	0x3d3f594f	0.04671603
9	0xbc9753e5	-0.018472621
10	0x3c89ef65	0.016837785
11	0x3cd78064	0.026306339
12	0x3cfb49dc	0.030674867
13	0x3c808924	0.015690394
14	0x3d92e3b4	0.07172337
15	0xbc11f33f	-0.008908092
16	0xbd61ee7e	-0.055159084
17	0x3af388e2	0.0018580223
18	0x3cf8f842	0.030391816
19	0x3c5104af	0.012757464
20	0x3d48efa0	0.04905665
21	0xbd0a7103	-0.033799183
22	0x3cbdb2af	0.023156492
23	0xbd1e8a26	-0.038705967
24	0x3d320acb	0.043467324
25	0x3b91300b	0.004430776
26	0xbd23cf97	-0.039992895
27	0xbc81e62c	-0.015856825
28	0xbb7f02e1	-0.0038911628
29	0x3d135cc7	0.03597715
30	0x3cf20dd2	0.029547606
31	0x3ceadce0	0.028669775
32	0x39c5e795	0.0003774731
33	0xbd90b055	-0.07064883
34	0x3c040b2a	0.008059302
35	0x3d05e652	0.032690354
36	0xbafecbe2	-0.0019439424
37	0x3c5ee66a	0.01360474
38	0x3ca88ab9	0.02057396
39	0xbd310fc6	-0.043227933
40	0xbd75f00d	-0.060043383
41	0x3d8019ca	0.06254919
42	0xbc335c99	-0.01094737
43	0xbd0e00aa	-0.034668602
44	0xbd94ca8b	-0.072651945
45	0xbccc4924	-0.02493722
46	0xbbdaca16	-0.0066769226
47	0x3d339584	0.04384376
48	0x3cb2d051	0.021827849
49	0xbd81eaf5	-0.063436426
50	0x3c8b9b05	0.017041693
51	0x3cffd758	0.031230614
52	0xbd27b7a0	-0.040946603
53	0xbcc75b4f	-0.024335532
54	0x3c83b455	0.0160772
55	0xbd41042e	-0.047123127
56	0x3d97d684	0.074139625
57	0xbd8ca2f7	-0.068670206
58	0x3cbd0b0f	0.023076562
59	0x3bd6db62	0.006556914
60	0xbcc3bc86	-0.023893606
61	0x3d6b1a4d	0.05739813
62	0x3d5191dc	0.051164493
63	0x3b25bb8e	0.0025288793
64	0xbce037d1	-0.027370365
65	0xbceb2223	-0.028702801
66	0x3d44f0cf	0.048081215
67	0x3d34e9d5	0.044168312
68	0xbd168783	-0.036750328
69	0xbc9a43f3	-0.018831229
70	0x3d83b5d9	0.06431169
71	0x3d7f17ab	0.06227843
72	0xbd03d8d5	-0.03218921
73	0xbd47e2ec	-0.048800394
74	0x3c3bd1f2	0.011463629
75	0xbb85ab80	-0.0040792823
76	0x3c2709cf	0.01019521
77	0x3c8ca4df	0.01716846
78	0x3c1cf3ac	0.00957958
79	0xbc4eaeaa	-0.012614885
80	0xbcbb53a6	-0.022867035
81	0xbcd7051e	-0.026247557
82	0x3c382633	0.011239576
83	0x3d86fc12	0.06591047
84	0x3b93a5e6	0.0045058606
85	0xbcc7eb97	-0.02440433
86	0x3d62d9c5	0.055383462
87	0x3d141827	0.036155846
88	0xbcbd9e0e	-0.023146655
89	0x3d5491f9	0.051897023
90	0xbc563705	-0.013074641
91	0xbcde88be	-0.027164813
92	0x3d61e8b7	0.055153575
93	0xbcfb42b7	-0.03067146
94	0xbca31cd2	-0.019911204
95	0x3d9076fc	0.070539445
96	0x3ce7d009	0.028297441
97	0x3ca7befb	0.020476809
98	0xbd0ec54a	-0.03485612
99	0x3d263e92	0.040587015
100	0x3c4b3b25	0.012404238
101	0xbc52083e	-0.012819348
102	0x3d3af177	0.045640435
103	0x3ceee378	0.0291612
104	0x3c8b7416	0.017023128
105	0xbc05bcef	-0.008162721
106	0x3ccbc25e	0.024872955
107	0xbbbc5cff	-0.0057483907
108	0xbd1b08a0	-0.037850022
109	0x3c1352c4	0.008991901
110	0xbcaaf826	-0.02087028
111	0x3d3a5790	0.045493662
112	0xbd759ce1	-0.059964065
113	0xbd3b70ce	-0.045761876
114	0x3c28c6dc	0.010301318
115	0xbbcbbca2	-0.006217555
116	0xbd2a7aab	-0.04162089
117	0xbb4be084	-0.0031109164
118	0x3d3d5b74	0.046229795
119	0x3ca4ed7d	0.020132774
120	0x3d2e7dd8	0.042600483
121	0x3cc2f4bd	0.023798341
122	0x3d6d1e67	0.057890322
123	0xbd448ae4	-0.04798402
124	0xbd21903f	-0.039444204
125	0xbbe167f7	-0.0068788487
126	0x3c34eedb	0.011043276
127	0x3cd98cfe	0.026556488

actor.2.weight f4 [128, 128]
0	0x3d40b4c4	0.04704739
1	0x3d69dfdf	0.057098266
2	0x3d53e303	0.051730167
3	0x3c3f289d	0.011667398
4	0xbdc7a013	-0.097473286
5	0x3cb8554d	0.022501612
6	0x3d266857	0.04062685
7	0xbc2aebaf	-0.010432168
8	0x3d278768	0.040900618
9	0x3d8d51b2	0.06900348
10	0xbda0795f	-0.0783565
11	0x3cd512e2	0.02600998
12	0x3d7df066	0.06199684
13	0xbcdf6c77	-0.0272734
14	0x3b2b3723	0.0026125393
15	0x3d22e21c	0.039766416
16	0x3c31eff5	0.010860433
17	0x3daec7b3	0.08534183
18	0x3da5ba87	0.08092218
19	0xbc874c90	-0.016516
20	0xbd266f9e	-0.04063379
21	0xbcfc551f	-0.030802308
22	0x3cfe1d11	0.03101972
23	0x3c8a99ab	0.016918978
24	0xbc00f4fb	-0.007870908
25	0xbcc10394	-0.023561276
26	0x3d857b85	0.065177
27	0xbcd5e1ad	-0.026108587
28	0x3db6eb68	0.08931619
29	0xbd9119dd	-0.07085011
30	0x3c99edc8	0.01879014
31	0xbc8cf84c	-0.01720824
32	0x3d236631	0.03989238
33	0x3c9084f8	0.01764153
34	0xbbfc957b	-0.007708249
35	0x3d87ab8d	0.066245176
36	0xbc8066b5	-0.015673975
37	0x3d6d1b43	0.057887327
38	0xbcb1173e	-0.021617528
39	0x3d32b8cc	0.043633267
40	0x3d8c10b5	0.06839124
41	0xbe0698bd	-0.13144203
42	0xbd96ac44	-0.07357076
43	0xbd1723c2	-0.036899336
44	0x3d8504a2	0.06495024
45	0x3d27b0ec	0.04094021
46	0x3c80c955	0.015721003
47	0xbdede947	-0.1161676
48	0x3d397443	0.04527689
49	0x3ddb9c20	0.10723138
50	0xbdb3b989	-0.087756224
51	0xbd71c4f5	-0.059025723
52	0xbd5b25bb	-0.05350278
53	0x3c10f362	0.0088470895
54	0xbcc8d088	-0.024513498
55	0xbd8aeb7b	-0.067831956
56	0x3c97e79d	0.018543059
57	0x3cbcedca	0.023062605
58	0x3cff7b1c	0.031186633
59	0xb96605a1	-0.00021936606
60	0x3c850c1f	0.016241131
61	0x3da5a371	0.080878146
62	0x3d55bb02	0.052180298
63	0x3ce25d20	0.027632296
64	0x3d00d0b8	0.03144905
65	0x3d5ddeaf	0.054167446
66	0x3d17d5ed	0.03706925
67	0x3c0a6a93	0.008448261
68	0x3cc7f37f	0.0244081
69	0xbdb2beac	-0.08727774
70	0x3b7be1bc	0.0038434109
71	0xbdc49940	-0.095995426
72	0xbc731bbd	-0.014838156
73	0x3dfa3f62	0.122191206
74	0x3d4aff27	0.04955974
75	0x3c39bd87	0.011336691
76	0xbd56a04f	-0.052398976
77	0x3c9d2df6	0.019186955
78	0x3da7bd09	0.081903525
79	0x3c6cfbb5	0.0144643085
80	0xbda06afc	-0.07832906
81	0xbc26d499	-0.010182523
82	0x3d3cb2de	0.04606902
83	0x3d9715fd	0.07377241
84	0x3d4606f9	0.048346493
85	0xbd94e4ba	-0.07270189
86	0x3cc5b521	0.02413422
87	0xbdcbdd8c	-0.09954366
88	0x3d23a493	0.039951872
89	0x3d99646e	0.074898586
90	0xbd5cd0bc	-0.053910002
91	0xbcb96b6b	-0.022634229
92	0xbdc72a3c	-0.097248524
93	0xbce9b57c	-0.028528921
94	0xbd59c1c6	-0.053163312
95	0xbcffd9f3	-0.031231856
96	0xbc2ecef9	-0.010669463
97	0xbe12e96e	-0.14346859
98	0x3db81072	0.08987512
99	0x3d66a85d	0.056312907
100	0xbcf75142	-0.030190114
101	0x3e172241	0.1475916
102	0xbd8062eb	-0.06268867
103	0x3d974e83	0.07388022
104	0x3d4de8c7	0.050270822
105	0x3d847333	0.06467285
106	0x3d80a887	0.06282144
107	0x3ccfba19	0.025357293
108	0xbd999df9	-0.07500834
109	0x3d11c85e	0.035591476
110	0xbda996a2	-0.08280684
111	0xbc3c3bd2	-0.011488872
112	0x3d980305	0.07422451
113	0xbdb41378	-0.08792776
114	0xbe02c618	-0.1277088
115	0xbbe0e7bf	-0.006863564
116	0xbd508efe	-0.050917618
117	0x3bb2ea21	0.0054600392
118	0x3cde8ca1	0.027166666
119	0xbddcf75e	-0.10789369
120	0x3c9ff326	0.019525122
121	0x3c8f523f	0.017495273
122	0x3deae45c	0.11469337
123	0xbca949db	-0.0206651
124	0x3b9d314a	0.0047971355
125	0x3d0f6400	0.035007477
126	0xbde37b90	-0.11107552
127	0x3da4299c	0.08015749
128	0xbd53b002	-0.051681526
129	0xbdaeb4d2	-0.085305825
130	0xbd5dcf13	-0.05415256
131	0x3c4f4807	0.01265145
132	0x3b8e5706	0.00434387
133	0x3b5445ff	0.0032390354
134	0x3d2068d7	0.039162483
135	0xbb1b1285	-0.0023662162
136	0x3d241a3e	0.04006409
137	0xbc113f53	-0.008865195
138	0xbd67ba6e	-0.056574278
139	0x3d36dbe7	0.04464331
140	0xbd92cf7b	-0.0716848
141	0x3d1fef90	0.039046824
142	0x3d1d8cf9	0.03846452
143	0x3c30eac4	0.01079816
144	0x3aa35c0f	0.0012463349
145	0x3dda40bd	0.10656879
146	0x3c709508	0.014683969
147	0xbd927d2c	-0.07152781
148	0x3c58f070	0.0132409185
149	0xbde0e49c	-0.10981104
150	0xbd480fb5	-0.048843104
151	0xbc0779e5	-0.008268808
152	0xbc24e271	-0.010063753
153	0xbd1cd3c2	-0.038287885
154	0x3d49a8c8	0.049233228
155	0x3d4a1c50	0.049343407
156	0xbd4f2439	-0.050571654
157	0x3c668a97	0.014071128
158	0xbc7c6a41	-0.015406192
159	0x3da8a3a2	0.082343355
160	0xbbd30032	-0.0064392323
161	0xbc5e2bd6	-0.013560256
162	0x3cea7ff4	0.028625466
163	0x3d354f39	0.044265006
164	0x3d6b0905	0.05738165
165	0x3c985b6c	0.01859828
166	0xbbeabf49	-0.0071639162
167	0xbc94ac7f	-0.018148659
168	0x3d706013	0.058685374
169	0x3d02ffa2	0.03198207
170	0x3e034c90	0.12822175
171	0xbd4c5953	-0.049889874
172	0xbd141d3c	-0.036160693
173	0x3d46a302	0.0484953
174	0xbdab117a	-0.08352943
175	0xbd8282c7	-0.063726
176	0xbcd5badd	-0.02609008
177	0xbc9b7562	-0.01897687
178	0x3d1c53d9	0.0381659
179	0x3d1ad05a	0.037796356
180	0xbcc7e9cb	-0.024403473
181	0x3d023af3	0.0317945
182	0xbc0bd6c4	-0.008535091
183	0x3d7fa042	0.062408693
184	0xbdc53cd0	-0.0963074
185	0x3d84ea7a	0.06490035
186	0x3d079c7d	0.033108223
187	0x3d2627c9	0.040565286
188	0x3c8b95d2	0.017039213
189	0xbcb74135	-0.02236996
190	0x3b89c35e	0.004204198
191	0xbd01d4c6	-0.031697057
192	0x3bc9d877	0.006159838
193	0xbc98e832	-0.018665407
194	0xbc0e8acc	-0.008700084
195	0x3d0da27a	0.034578778
196	0xbcb78bf7	-0.022405608
197	0xbca4f1ed	-0.02013489
198	0xbccf2a32	-0.025288675
199	0x3bad8725	0.0052956515
200	0xbd4123e9	-0.047153387
201	0x3c6b4063	0.014358613
202	0xbd566bca	-0.05234889
203	0x3ceacfa2	0.02866346
204	0xbd8d91e5	-0.06912593
205	0x3d6aed39	0.05735514
206	0x3d4a38ec	0.04937069
207	0xbd2a6fcb	-0.04161052
208	0x3cf7f9a5	0.030270407
209	0x3c26a088	0.01017011
210	0x3d9c5fe5	0.07635478
211	0x3c20bbb9	0.009810382
212	0xbc61f2d0	-0.013790801
213	0x3ba04973	0.0048915683
214	0x3d7b4f87	0.06135514
215	0x3c2c623b	0.010521467
216	0xbc438eb6	-0.01193588
217	0x3d4bf3bd	0.049792994
218	0xba90c31b	-0.0011044474
219	0xbbaa31c0	-0.005193919
220	0x3d446c87	0.047955062
221	0xbd232b1f	-0.039836045
222	0xbd4aa4d1	-0.049473587
223	0xbcf7659c	-0.030199818
224	0x3c0de387	0.008660204
225	0x3d4159c8	0.047204763
226	0x3d34ce61	0.04414213
227	0xbd77b7a6	-0.060477875
228	0x3c4d5fcc	0.012535047
229	0xbd57d864	-0.0526966
230	0x3daacb03	0.08339503
231	0xbc49be88	-0.012313493
232	0x3b85120d	0.0040609897
233	0xbd76ceb3	-0.060255717
234	0xbcbc0c6f	-0.022955148
235	0x3d29937a	0.04140041
236	0x3c53e81c	0.012933757
237	0x3b5f86d9	0.0034107475
238	0xbdab9d56	-0.08379619
239	0xbcbf3f9a	-0.023345757
240	0xbda9abb2	-0.082847014
241	0x3d1601d0	0.036622822
242	0xbbaaf1b7	-0.005216803
243	0x3d2dff48	0.042479783
244	0xbc2d64e5	-0.010583137
245	0x3cec86d7	0.02887289
246	0xbcfcdfce	-0.030868437
247	0xbd48797c	-0.04894398
248	0xbcef5266	-0.029214095
249	0x3d03ceba	0.03217957
250	0xbd88a6eb	-0.06672462
251	0xbd204e9c	-0.039137468
252	0x3d63d412	0.055622168
253	0xbd3bd11b	-0.045853715
254	0xbd866fb6	-0.06564276
255	0xbcec1874	-0.028820254

actor.2.bias f4 [128]
0	0x3d324b42	0.043528803
1	0x3bbdf4ee	0.00579702
2	0x3d0cbeff	0.034361836
3	0xbb0e15d3	-0.0021680489
4	0x3c8bae5a	0.01705091
5	0x3d2c96f4	0.042136148
6	0x3c9e6c3d	0.019338721
7	0x3ca655ab	0.020304522
8	0xbd0a2e89	-0.033735786
9	0x3d5af4e9	0.05345622
10	0xbacff242	-0.0015865045
11	0x3c323173	0.010876047
12	0x3d4a181d	0.049339402
13	0xbd08a889	-0.033363853
14	0x3d803340	0.06259775
15	0xbb108ec9	-0.0022057763
16	0x3c0b4c0d	0.008502019
17	0xbd187248	-0.037218362
18	0xbc6a6ace	-0.014307691
19	0xbc703ce5	-0.014662956
20	0x3cbd63e9	0.02311893
21	0xbd35e1c6	-0.044404767
22	0xbd9016ba	-0.07035585
23	0x3d272c5c	0.04081379
24	0xbd10af36	-0.035323344
25	0x3d0011ad	0.031266857
26	0x3d356cde	0.044293277
27	0xbd5a7374	-0.05333276
28	0x3cc119bb	0.02357184
29	0xbd08b5e5	-0.033376593
30	0x3ca080e4	0.01959271
31	0xba680a8a	-0.0008851668
32	0x3d0bace2	0.03410042
33	0xbd2ebde5	-0.042661566
34	0x3bb6c915	0.00557817
35	0xbc84b22e	-0.016198244
36	0x3cda1177	0.026619656
37	0xbd0dcce6	-0.034619235
38	0x3cc73b89	0.02432038
39	0x3d275175	0.040849168
40	0xbcca540e	-0.024698284
41	0x3d6c284d	0.05765562
42	0xbd47be75	-0.04876562
43	0x3d611617	0.054952707
44	0xbd61a5e1	-0.055089835
45	0x3c20c990	0.009813681
46	0x3c2b58de	0.010458199
47	0x3d18cb82	0.037303455
48	0x3d3c22dc	0.045931682
49	0xbcc3215a	-0.023819614
50	0x3d2444e3	0.040104758
51	0x3c65cfcf	0.014026596
52	0xbd3f082c	-0.046638653
53	0xbcf5ed78	-0.03002046
54	0x3d47e1cc	0.04879932
55	0xbd81dd9f	-0.06341099
56	0xbd5a846e	-0.05334895
57	0x3c5ec7b4	0.013597418
58	0x3d66bd48	0.056332856
59	0x3d187193	0.037217688
60	0x3d1fa892	0.03897912
61	0xbcf06a1a	-0.029347468
62	0xbd362903	-0.044472706
63	0xbd823e92	-0.063595906
64	0x3d21eb70	0.03953117
65	0xbcdc251d	-0.026873166
66	0x3d6c83fd	0.05774306
67	0xbd395828	-0.045250088
68	0xbc8b3932	-0.016995046
69	0x3da7c3b0	0.08191621
70	0x3cba77f6	0.02276228
71	0x3cc3c435	0.02389727
72	0x3b65dc43	0.0035073913
73	0xbcaf2c20	-0.021383345
74	0xbd379233	-0.04481716
75	0x3bab19e8	0.005221594
76	0xbb7a3910	-0.0038180985
77	0x3d5005f5	0.05078693
78	0x3c2f19a6	0.010687267
79	0x3d43a378	0.047763318
80	0x3d3860b5	0.045014102
81	0x3d355299	0.044268224
82	0x3ccc83eb	0.024965247
83	0x3d994261	0.07483364
84	0x3bd1b142	0.0063993046
85	0x3ca552b9	0.020181047
86	0x3b902195	0.0043985345
87	0x3ccfb42b	0.025354465
88	0xbc7c3790	-0.0153941065
89	0x3a6d470b	0.0009051419
90	0x3c86fabd	0.016476983
91	0x3d6e9b08	0.058253318
92	0x3d9b57b7	0.0758509
93	0xbd2ca641	-0.04215074
94	0xbd956a9f	-0.07295727
95	0xbcf3efe7	-0.02977748
96	0x3b859e73	0.0040777265
97	0xbd1ee6b4	-0.038794234
98	0xbcaa7dc4	-0.020811923
99	0xbd801b08	-0.06255156
100	0xbd2d145a	-0.042255737
101	0xbc52e231	-0.012871311
102	0xbcd82a23	-0.02638728
103	0x3d231d0d	0.039822627
104	0xbd52293d	-0.05130886
105	0x3cdf9ddb	0.027296951
106	0xba92f05a	-0.0011210546
107	0xbd495232	-0.049150653
108	0xbcdee016	-0.027206462
109	0xbbb81031	-0.0056171645
110	0x3d1690d2	0.036759205
111	0xbc95d1d8	-0.018288538
112	0xbcae4f47	-0.021278037
113	0x3d614298	0.05499515
114	0xbd42e2d5	-0.047579605
115	0x3d8090f0	0.06277645
116	0xbc8f76aa	-0.017512638
117	0x3cdf535e	0.027261432
118	0x3b9abfc4	0.0047225673
119	0xbc6d5df2	-0.01448773
120	0x3c80f7bf	0.015743135
121	0x3c0c99ca	0.008581588
122	0x3d1af6f6	0.037833177
123	0x3c84982e	0.016185846
124	0xbc9398a7	-0.018017126
125	0xbc99d570	-0.018778533
126	0x3d41837b	0.04724453
127	0x3d672876	0.05643507

actor.4.weight f4 [128, 128]
0	0xbbb28b8d	-0.0054487647
1	0xbcc7eddb	-0.02440541
2	0xbd76bb92	-0.060237475
3	0x3dae55ae	0.08512436
4	0x3b44ad12	0.0030010385
5	0x3d3581cc	0.044313237
6	0x3b22463b	0.00247611
7	0x3d35a183	0.044343483
8	0xbd4225d1	-0.047399346
9	0xbd152f7f	-0.03642225
10	0xbd73ceba	-0.05952332
11	0x3c94af01	0.018149855
12	0xbc30ed07	-0.010798699
13	0x3c97c5a3	0.018526858
14	0xbc8c8d99	-0.017157363
15	0xbd0358a0	-0.03206694
16	0x3d7a38e5	0.061089415
17	0x3d95dc77	0.07317441
18	0x3c66b6bc	0.014081653
19	0x3cb8059e	0.022463616
20	0xbd93096b	-0.07179531
21	0xba3388f6	-0.0006848717
22	0x3bd869c7	0.0066044065
23	0x3d8d838f	0.069098584
24	0x3ccefb3c	0.025266282
25	0x3d1c2498	0.038120836
26	0x3d99f92a	0.075182274
27	0x3c36e645	0.011163299
28	0x3cdf3b7d	0.027250046
29	0x3d30a87d	0.043129433
30	0x3d8a2222	0.067447916
31	0x3ce10866	0.027469825
32	0xbce9adab	-0.028525194
33	0x3d0a2e06	0.033735298
34	0x3d9f9df8	0.07793802
35	0xbc1a6070	-0.009422407
36	0xbca55cbd	-0.020185823
37	0xbbd5b738	-0.0065220855
38	0xbdaaff68	-0.08349496
39	0x3d0a9a4d	0.03383856
40	0xbc3a807e	-0.011383174
41	0xbc13527a	-0.008991832
42	0xbca435e5	-0.02004523
43	0x3d195a05	0.037439365
44	0x3d586d42	0.05283857
45	0x3d89b239	0.067234464
46	0x3dbe5f5a	0.092955306
47	0x3b71e6f0	0.003691133
48	0xbd9b7700	-0.07591057
49	0x3ae272cb	0.0017276643
50	0x3d888f83	0.06667998
51	0x3caf71d3	0.02141658
52	0xbd132cf3	-0.03593154
53	0x3dac238e	0.08405219
54	0x3d600e78	0.0547013
55	0x3d803bf7	0.062614374
56	0x3d56f7cf	0.052482422
57	0xbd5d0121	-0.053956155
58	0xbc09f721	-0.0084207365
59	0x3d442f4b	0.047896665
60	0x3c6c23a6	0.014412796
61	0xbd73be66	-0.05950775
62	0x3dab5371	0.083655246
63	0x3dc41bfc	0.0957565
64	0x3ca40d39	0.020025836
65	0xbcbb8629	-0.022891121
66	0x3d8dc917	0.069231205
67	0x3cbea1ce	0.023270514
68	0xbb2ea05f	-0.0026645882
69	0x3c811bed	0.015760386
70	0xbd8771c4	-0.06613496
71	0x3d299fc2	0.041412123
72	0xbd83b3b9	-0.06430764
73	0x3d4fe937	0.05075952
74	0x3d69e128	0.05709949
75	0x3bdbad9e	0.0067040464
76	0x3d9e3d76	0.077265665
77	0xbc18b8e6	-0.009321427
78	0x3c85d7e6	0.0163383
79	0xbb899a2c	-0.004199287
80	0x3c76efc3	0.015071812
81	0x3c9e5f32	0.019332502
82	0x3d84a0cf	0.06475984
83	0x3d8a2e80	0.067471504
84	0x3d491e94	0.049101427
85	0xbc629f74	-0.013831962
86	0xbc54efad	-0.012996596
87	0xbd7b5dca	-0.06136874
88	0xbda13545	-0.078714885
89	0x3d50a1a2	0.050935395
90	0x3d818bfa	0.063255265
91	0xbd665f2b	-0.056243103
92	0xbcc4aa7e	-0.024007078
93	0x3c4a3c49	0.012343475
94	0x3cd43ead	0.025908792
95	0x3c7e8b67	0.015536166
96	0xbd92a3cd	-0.07160149
97	0xbdb1339c	-0.08652422
98	0xbd082b30	-0.03324431
99	0xbd5977c8	-0.053092748
100	0x3d9d861c	0.07691595
101	0x3c8295e8	0.015940621
102	0x3c89c527	0.016817642
103	0xbc1b0ea5	-0.009463941
104	0x3d9cff63	0.07665899
105	0x3b4ef927	0.0031581612
106	0x3d0dc47c	0.03461121
107	0x3d66c216	0.05633744
108	0x3d6d588c	0.057945773
109	0xbc8313ac	-0.016000591
110	0x3b8477dd	0.004042609
111	0x3d35abec	0.04435341
112	0x3d2264f2	0.03964705
113	0xbcd4362a	-0.025904734
114	0x3c841ae0	0.016126096
115	0xbd8efc35	-0.069816984
116	0x3c570159	0.01312288
117	0xbc95fc40	-0.018308759
118	0xbd1c6326	-0.038180493
119	0xbc63e057	-0.013908467
120	0x3db866c0	0.09003973
121	0x3b96a74d	0.0045975805
122	0x3d66a109	0.05630592
123	0x3d86e854	0.06587282
124	0xbd8fa49b	-0.07013818
125	0xbcab002b	-0.020874104
126	0xbcb4c79b	-0.022067836
127	0x3d7551ad	0.059892345
128	0xbdb70613	-0.089367054
129	0x3c9d5cd5	0.019209305
130	0x3c16d613	0.009206313
131	0x3aed7979	0.0018117867
132	0xbd82b9e5	-0.06383113
133	0x3c3ea3ac	0.011635702
134	0x3dc3a487	0.095528655
135	0xbb89380b	-0.004187589
136	0x3aa3083b	0.0012438366
137	0xbd9873c0	-0.074439526
138	0xbd6def05	-0.058089275
139	0xbcae5ec6	-0.021285426
140	0xbda183ce	-0.07886468
141	0x3da0b1b0	0.07846391
142	0xbd0a60db	-0.033783775
143	0xbd37c55d	-0.044865955
144	0x3db1590b	0.08659562
145	0x3d207a9f	0.03917944
146	0xbda77878	-0.081772745
147	0x3d17a43a	0.037021853
148	0xbdec7a34	-0.11546746
149	0xbd33c52b	-0.043889206
150	0xbda71fe7	-0.08160382
151	0xbcd4c92a	-0.025974829
152	0xba062bf6	-0.0005118245
153	0x3d8aaa79	0.06770796
154	0xbd7e5fb7	-0.062103
155	0x3cb2a96a	0.021809299
156	0xbcbf8fab	-0.023383936
157	0x3d8759d9	0.06608934
158	0xbc5206fc	-0.012819048
159	0x3daaa546	0.08332305
160	0x3d7f97eb	0.06240074
161	0xbd73d829	-0.05953232
162	0xbcb970d5	-0.02263681
163	0xbcce027a	-0.025147665
164	0x3b7ea232	0.0038854
165	0xbce09aca	-0.02741756
166	0x3da131c2	0.07870819
167	0x3d3714a7	0.04469743
168	0x3d33656e	0.043797903
169	0xbcefba03	-0.029263502
170	0x3cd11940	0.025524735
171	0x3da0b224	0.07846478
172	0x3d46a39c	0.048495874
173	0x3c1d22b9	0.009590798
174	0x3be9e5af	0.007137976
175	0xbcc8c37c	-0.024507277
176	0xbdb08998	-0.08619994
177	0xbd3c1a0f	-0.04592329
178	0x3bb9fec7	0.005676124
179	0xbd220595	-0.039556105
180	0xbd8f0aa8	-0.069844544
181	0xbda28698	-0.07935828
182	0x3dc0c1f5	0.09411994
183	0xbd7d1a26	-0.061792515
184	0xbd500b98	-0.050792307
185	0x3c9a1552	0.018808994
186	0x3d98c8d1	0.07460178
187	0x3d6b64b9	0.057469103
188	0x3cb0fd8e	0.02160528
189	0x3d6db355	0.058032352
190	0x3b815c07	0.003947738
191	0x3dbab777	0.091170244
192	0xbc50f76d	-0.012754303
193	0xbd4fa117	-0.050690737
194	0xbbb5fa5c	-0.005553527
195	0x3cd3da2f	0.025860874
196	0xbd8fac26	-0.070152566
197	0x3da815ca	0.08207281
198	0x3b88449d	0.00415857
199	0xbda06199	-0.07831115
200	0xbd76451c	-0.0601245
201	0x3d9b948d	0.07596693
202	0x3d2caad0	0.042155087
203	0xbd8a7658	-0.067608535
204	0x3d15ede1	0.036603812
205	0xbc81dca7	-0.015852286
206	0xbcd5182d	-0.026012504
207	0xbd0f0bd3	-0.034923386
208	0xbdb0638c	-0.08612737
209	0x3d967d27	0.0734809
210	0x3d92d1ba	0.071689084
211	0xbd08d47c	-0.033405766
212	0x3c8cbe1c	0.017180495
213	0x3d3838b4	0.04497595
214	0xbc8023ef	-0.015642134
215	0xbcacf2df	-0.021111904
216	0xbc8aa70e	-0.016925361
217	0xbd6e0dac	-0.058118507
218	0x3d5481f5	0.05188175
219	0xbdb85116	-0.08999841
220	0x3c872b93	0.01650027
221	0x3d655e04	0.055997863
222	0xbd3f0fcc	-0.046645924
223	0xbdb45e51	-0.08807052
224	0x3cead6e3	0.02866692
225	0x3cdeb22c	0.027184568
226	0x3d0591c9	0.032609735
227	0x3c28e95b	0.0103095425
228	0xbb929488	-0.0044732727
229	0x3da8d1cf	0.08243143
230	0x3d3313fc	0.04372023
231	0x3d24bace	0.040217213
232	0x3c25f5a0	0.010129362
233	0xbbe33a1f	-0.006934419
234	0xbc32c229	-0.010910549
235	0xbd9805fe	-0.07423018
236	0xbd1d485b	-0.03839908
237	0x3a958a48	0.0011409009
238	0xbd9f6a63	-0.077839635
239	0xbd1a710f	-0.037705477
240	0xbd2aaf94	-0.04167135
241	0xbd0f5c4d	-0.035000134
242	0xbd957e99	-0.07299537
243	0xbd8ba576	-0.068186685
244	0x3da0f8ce	0.07859956
245	0xbc99e67e	-0.018786665
246	0x3cc4ea00	0.024037361
247	0x39aabcf5	0.0003256571
248	0xbd2c2af7	-0.042033162
249	0xbbbfc34b	-0.005852138
250	0xbda0729e	-0.078343615
251	0xbbcb16cb	-0.0061977855
252	0xbd7febaf	-0.062480625
253	0xbc116897	-0.008875034
254	0xbca0d067	-0.019630624
255	0xbdacafac	-0.08431944

actor.4.bias f4 [128]
0	0x3d8f3fcf	0.069945924
1	0x3d860dfb	0.06545635
2	0xbd4a0a3e	-0.049326174
3	0xbd60f486	-0.054920696
4	0xbd325bd8	-0.04354462
5	0x3ca4c8b7	0.02011524
6	0x3cc3714f	0.02385774
7	0x3ca400f9	0.020019995
8	0x3c831b62	0.016004268
9	0x3db0d374	0.086340815
10	0x3c5529a9	0.013010421
11	0x3cb90d79	0.022589432
12	0x3c5ad48c	0.013356339
13	0xbd52022e	-0.05127161
14	0x3c8a2c4f	0.016866831
15	0xbc2dd9e7	-0.010611034
16	0x3d02b465	0.03191032
17	0xbd8a99b0	-0.06767595
18	0x3db3d920	0.08781648
19	0x3b8e4d5d	0.0043427185
20	0x3d8d464e	0.06898175
21	0xbd32d716	-0.043662153
22	0x3c90da32	0.017682169
23	0x3c973142	0.018456105
24	0x3b9505fe	0.0045478335
25	0x3cd52227	0.026017262
26	0xbc165bf4	-0.009177197
27	0xbd079400	-0.03310013
28	0x3c6e9570	0.014561996
29	0xbd410865	-0.047127146
30	0xbd4ab9e7	-0.049493697
31	0xbbce0200	-0.0062868595
32	0xbcf4f538	-0.029902086
33	0x3c5ceb01	0.013483764
34	0xbd71914f	-0.058976468
35	0x3cc2315f	0.023705183
36	0x3b31d56d	0.0027135268
37	0x3d43f784	0.04784347
38	0x3c7482c9	0.01492376
39	0x3d9fec7d	0.078087784
40	0x3cb3bd59	0.021940874
41	0x3c7ddb83	0.01549423
42	0x3c272a93	0.010203022
43	0xbbceadcf	-0.0063073407
44	0x3c870dae	0.016486015
45	0x3d93d71f	0.072187655
46	0x3d8b3161	0.06796528
47	0x3821b5d1	3.855472e-05
48	0x3cb53d34	0.02212391
49	0x3b4887a0	0.0030598417
50	0x3cb9547b	0.022623291
51	0xbd9877d9	-0.07444734
52	0x3ca3a1c7	0.019974602
53	0xbcd998d9	-0.026562141
54	0x3cc0741e	0.023492869
55	0xbd48d7f5	-0.049034078
56	0xbc5f4374	-0.013626922
57	0x3a963de7	0.001146254
58	0xbd06d3c6	-0.032916807
59	0xbb4d9802	-0.0031371121
60	0xbd56402e	-0.0523073
61	0xbbf2e713	-0.0074128
62	0x3c77fb43	0.015135589
63	0x3d245d0b	0.040127795
64	0x3d106623	0.035253655
65	0xbd25388b	-0.040337127
66	0x3a46cf8e	0.00075840286
67	0x3c8030c2	0.01564825
68	0xbce893a2	-0.02839071
69	0x3d8ac7c7	0.06776386
70	0xbd88ceda	-0.06680079
71	0xbd505b9b	-0.05086861
72	0xbd0d3033	-0.034469794
73	0xbcc5d375	-0.024148682
74	0xbc536f42	-0.012904944
75	0x3c72c83c	0.014818247
76	0xbcb750f3	-0.022377467
77	0x3d1f0c0a	0.03882984
78	0x3cc2c114	0.023773707
79	0x3c2fbcc9	0.010726162
80	0x3d60fd53	0.05492909
81	0x3d8a387e	0.06749056
82	0x3cf57d64	0.029967017
83	0x3d58bbb8	0.052913398
84	0xbd0b7e0b	-0.03405575
85	0x3cec11e2	0.028817121
86	0x3d89649d	0.067086436
87	0x3bf0fdef	0.00735449
88	0x3ca3cb86	0.019994508
89	0xbda1a044	-0.07891896
90	0xbdbb718d	-0.091525175
91	0x3d907f80	0.07055569
92	0xbb87fd1e	-0.004150047
93	0xbbe377c1	-0.006941766
94	0xbd20c241	-0.039247755
95	0xba1463db	-0.00056606316
96	0xbc13ede4	-0.0090288855
97	0xbd84bf8d	-0.06481848
98	0x3bb251af	0.0054418663
99	0x3d91a275	0.07111064
100	0x3bbd465c	0.0057762098
101	0xbd911ea9	-0.07085926
102	0xbcca168b	-0.024668952
103	0xbd85a719	-0.06526012
104	0x3d6d206a	0.05789224
105	0x3d5d63f5	0.054050405
106	0xbcb563d1	-0.022142323
107	0xbcb94b02	-0.022618774
108	0xbca34077	-0.0199282
109	0xbc84173a	-0.016124357
110	0x3cd92330	0.026506037
111	0x3ca9c75d	0.020724947
112	0x3b858a33	0.0040753125
113	0x3d63b05c	0.05558811
114	0x3d6da2fc	0.058016762
115	0x3d83850d	0.06421862
116	0x3b9000a5	0.004394608
117	0x3d26e1aa	0.040742554
118	0xbd172309	-0.036898647
119	0xbd39d52a	-0.045369305
120	0xbd5947b3	-0.053046893
121	0x3d8f6903	0.07002451
122	0x3d868417	0.06568163
123	0x3c968c96	0.018377583
124	0x3d2bb4f0	0.041920602
125	0xbd0c407a	-0.034241177
126	0xbc8a149e	-0.016855534
127	0xbb8a831f	-0.0042270566

actor.6.weight f4 [5, 128]
0	0x3d03fc3b	0.032222968
1	0x3cda713c	0.026665322
2	0xbd3b5b6c	-0.045741484
3	0x3cf136d4	0.02944509
4	0x3c940e9a	0.018073369
5	0x3cda96d3	0.026683247
6	0x3d1347e9	0.03595725
7	0xbd0480cb	-0.03234939
8	0x3cb32289	0.021867054
9	0xbc97f5db	-0.01854985
10	0xbc52569a	-0.01283803
11	0xbbcd456f	-0.0062643806
12	0x3b81fe34	0.003967071
13	0x3ce0b8cc	0.027431868
14	0x3c7027ce	0.014657928
15	0xbca1f742	-0.019771222
16	0x3d7dfbc8	0.062007695
17	0x3c428c0e	0.011874212
18	0x3d6276d2	0.055289097
19	0xbc8d8d1e	-0.017279204
20	0x3d28a956	0.041177116
21	0x3d21c89b	0.039497953
22	0x3d12555b	0.035725933
23	0x3bf8a7b5	0.0075883516
24	0x3c6b1071	0.014347182
25	0xbc4c5235	-0.012470772
26	0xbd338236	-0.04382535
27	0xbd12399d	-0.035699476
28	0xbd6efd7d	-0.058347214
29	0xbd25e2c9	-0.040499482
30	0x3d2b27b7	0.041785922
31	0xbca2146c	-0.019785129
32	0xbd262d12	-0.040570326
33	0xbcf1acff	-0.029501436
34	0x3c492810	0.012277618
35	0xbcba20d4	-0.022720732
36	0xbc85a4dd	-0.016313965
37	0xba19a23a	-0.00058606605
38	0x3d89e0c3	0.06732323
39	0x3cd98877	0.02655433
40	0xbcef141d	-0.029184395
41	0x3cb882a6	0.022523236
42	0x3c7847ef	0.015153869
43	0xbc25b469	-0.010113814
44	0x3ca0cb5f	0.019628225
45	0x3c88d81b	0.01670461
46	0xbbbcb672	-0.005759054
47	0x3cbcba28	0.023037985
48	0x3c053c1c	0.008132007
49	0x3b58add6	0.0033062599
50	0x3d20ae18	0.03922853
51	0xbc07a556	-0.008279165
52	0x3bd0f4bb	0.0063768304
53	0x3cfb3b9e	0.030668076
54	0x3ccd6c83	0.025076156
55	0xbd50aee0	-0.050948024
56	0xbd0a6fdc	-0.033798084
57	0x3c6fdc7a	0.014639968
58	0x3a274b18	0.0006381734
59	0x3d0e4b55	0.03473981
60	0xbc637ead	-0.013885182
61	0xbca39b0f	-0.019971399
62	0x3bb2647c	0.0054441076
63	0x3cbf421d	0.023346955
64	0xbc87f74d	-0.016597414
65	0x3c28e17e	0.010307668
66	0xbd3cb9df	-0.046075698
67	0xbc27f81e	-0.010252027
68	0xbca7002e	-0.020385828
69	0x3d5cefd7	0.053939667
70	0x3cb90f19	0.022590207
71	0xbd9ac696	-0.075574085
72	0xbbca1088	-0.0061665215
73	0xbcd7e0e5	-0.026352355
74	0x3d28040d	0.041019488
75	0x3d33da7d	0.04390954
76	0xbccdd6a8	-0.02512677
77	0x3b96ccca	0.0046020495
78	0x3ccca912	0.024982963
79	0xbbad7002	-0.0052928934
80	0x3bc06478	0.005871352
81	0xbd172927	-0.03690448
82	0x3ce932e4	0.02846665
83	0xbd5388cf	-0.051644143
84	0xbc0e85e5	-0.008698915
85	0x3d28d951	0.041222874
86	0xbb496f00	-0.0030736327
87	0x3c41d441	0.01183039
88	0xbd00332a	-0.031298794
89	0xbd17668e	-0.03696304
90	0xbbe9bac6	-0.007132861
91	0xbce46a39	-0.027882682
92	0x3ccf592b	0.025311073
93	0xbc8e5c6b	-0.017378053
94	0x3d0a4744	0.03375937
95	0x3d81587c	0.06315705
96	0x3b4d4eb4	0.0031327428
97	0x3ca8022d	0.02050885
98	0xbc88c5b0	-0.016695827
99	0x3cf466ad	0.029834116
100	0x3cef6090	0.02922085
101	0xbd0dddcd	-0.034635354
102	0xbd83716d	-0.064181186
103	0x3b843a0c	0.00403524
104	0xbc3ea46e	-0.011635883
105	0x3d998e55	0.07497851
106	0xbcaac124	-0.02084405
107	0x3c890431	0.016725631
108	0x3c5b91d1	0.013401465
109	0xbcde4b7d	-0.027135605
110	0x3c749cff	0.014930009
111	0x3d66bb1d	0.05633079
112	0x3cff9d70	0.031203002
113	0x3d2dc36b	0.042422693
114	0x3d139217	0.036027994
115	0x3ca11507	0.019663347
116	0x3d587f31	0.052855674
117	0xbc23316a	-0.009960512
118	0xbc1b0991	-0.00946273
119	0xbbdc157d	-0.006716429
120	0xbc506eb1	-0.012721703
121	0xbb159ff7	-0.0022830942
122	0x3c2cce29	0.010547199
123	0x3c60bb03	0.013716462
124	0xbc8fe201	-0.017563822
125	0xbd7ff19e	-0.062486283
126	0xbcc85dc0	-0.024458766
127	0x3c5b91ed	0.013401491
128	0x3ce2907e	0.02765679
129	0x3ce21a67	0.02760048
130	0xbccfa7a6	-0.025348496
131	0xbd2508c9	-0.04029158
132	0x3d16997b	0.036767464
133	0x3ce7f2de	0.02831405
134	0x3c88be94	0.016692437
135	0xbd567b95	-0.05236395
136	0x3d1565de	0.0364741
137	0xbd254bc9	-0.040355477
138	0xbcc6ad88	-0.024252668
139	0xbce38789	-0.02777459
140	0xbc20501a	-0.009784723
141	0xbc81d0ee	-0.015846696
142	0xbd3def28	-0.046370655
143	0x3d2d5a24	0.042322293
144	0xbd12a197	-0.035798635
145	0x3d6b578f	0.05745655
146	0x3cba5d23	0.02274949
147	0xbb00f617	-0.001967793
148	0x3d2033e1	0.039111976
149	0xbc6def72	-0.01452242
150	0xbd3688b7	-0.044563975
151	0xbcd88013	-0.026428258
152	0x3d06eefb	0.032942753
153	0xbc975da8	-0.018477276
154	0xbb7798c0	-0.0037780255
155	0x3c44f36e	0.012020929
156	0xbd522db6	-0.051313125
157	0xbd129085	-0.035782356
158	0x3d80dbcd	0.06291924
159	0xbc3919c1	-0.011297644
160	0xbd1eed24	-0.038800374
161	0xbd0c0ba1	-0.034190778
162	0xbbd00436	-0.0063481582
163	0xbc978f9f	-0.018501101
164	0xbd18a6f2	-0.037268586
165	0x3d5ed14e	0.054398827
166	0x3d75a0fc	0.05996798
167	0xbd07619e	-0.03305208
168	0xbca46083	-0.020065552
169	0x3cdb6fe9	0.026786761
170	0x3ade019d	0.0016937737
171	0x3b720ad8	0.0036932733
172	0xbcc678e0	-0.02422756
173	0xbd6f265c	-0.05838619
174	0xbd5fa106	-0.054596923
175	0x3d1408fd	0.036141384
176	0xba2042cb	-0.00061134686
177	0x3bf7bf28	0.0075606294
178	0x3cf9a6e7	0.030475093
179	0xbb5f6ff5	-0.0034093831
180	0xbb4c28db	-0.0031152281
181	0x3d15c66b	0.03656618
182	0x3d218e80	0.03944254
183	0xbd4e9f04	-0.050444618
184	0xbcd27421	-0.02569014
185	0x3d11848d	0.0355268
186	0xbc586cef	-0.013209566
187	0x3d12daa3	0.03585304
188	0xbd34c738	-0.044135302
189	0xbbbae213	-0.0057032197
190	0xbca44373	-0.020051694
191	0xbd10aa42	-0.03531862
192	0xbd8b1df1	-0.0679282
193	0x3d3cdfa5	0.04611172
194	0xbd683c16	-0.056697927
195	0xba8015f8	-0.0009772172
196	0xbb8b39c0	-0.0042488277
197	0xbd4a4e8d	-0.049391318
198	0x3c1aad02	0.009440662
199	0xbda03e2e	-0.0782436
200	0xbcd9d8b4	-0.02659259
201	0xbd370840	-0.044685602
202	0x3d3f9486	0.046772502
203	0x3d32eef1	0.043684904
204	0x3c48241a	0.0122156385
205	0x3c8b453c	0.017000787
206	0x3d4721e5	0.04861631
207	0x3903162c	0.00012501393
208	0xbcb52cc3	-0.02211607
209	0xbc97daa8	-0.01853688
210	0x3c757c79	0.01498329
211	0xbd851819	-0.06498737
212	0xbc8310e2	-0.015999261
213	0x3cdb8ef0	0.026801556
214	0xbcfb190a	-0.030651588
215	0xbc435485	-0.0119220065
216	0xbd3f3bee	-0.046688013
217	0x3d0eebc8	0.034892827
218	0x3d687661	0.05675352
219	0x3d246793	0.04013784
220	0xbae13f36	-0.0017184976
221	0xbccb563f	-0.024821399
222	0x3d4ebe4c	0.05047445
223	0xbd5bd97b	-0.053674202
224	0xbc7c3843	-0.015394273
225	0xbb08cb57	-0.0020873153
226	0xbc3058a0	-0.010763317
227	0x3c119534	0.00888567
228	0x3d3595c7	0.044332292
229	0x3c982374	0.018571593
230	0xbd93b08b	-0.07211407
231	0x3cdebfea	0.027191121
232	0x3d8be047	0.06829887
233	0xbc853e58	-0.01626508
234	0xbd859b62	-0.065237775
235	0x3b6a7710	0.0035776533
236	0x3adc0ac8	0.0016787881
237	0xbd0f372c	-0.034964725
238	0xbcd836d7	-0.026393337
239	0x3cb16958	0.021656677
240	0x3c269a02	0.010168554
241	0x3d430699	0.047613714
242	0xbc750eb8	-0.0149571225
243	0xbcc57ec7	-0.024108304
244	0x3d5e7003	0.05430604
245	0xbd265d95	-0.04061659
246	0xba977e00	-0.0011557937
247	0xbd474698	-0.048651308
248	0x3d06149b	0.032734495
249	0x3d16b48a	0.03679327
250	0x3cf6fe7c	0.030150644
251	0xbcae0843	-0.021244174
252	0xbbdd5175	-0.006754095
253	0xbd55788d	-0.05211692
254	0x3d1a91e6	0.037736796
255	0x3c4d0bc7	0.012515015

actor.6.bias f4 [5]
0	0xbc35a616	-0.011086961
1	0x3c8e1ce8	0.017347768
2	0xbcd249e0	-0.025669992
3	0x3d819554	0.0632731
4	0xbd53632d	-0.051608253
