ippo_algorithm_belief/checkpoints/ppo_critic_None_lumberjacks.pth (torch, 163824 bytes, 7 tensors)

critic.0.weight f4 [128, 53]
0	0x3db6f109	0.089326926
1	0x3d165b30	0.036708057
2	0xbc89aefd	-0.016807074
3	0xbe14e060	-0.14538717
4	0xbdac13dd	-0.08402226
5	0x3ceaeb9b	0.028676799
6	0xbe2a1cd1	-0.16612555
7	0xbd27d0fd	-0.04097079
8	0xbe2705dc	-0.16310829
9	0xbc2aaaa5	-0.010416661
10	0xbd69c6c3	-0.05707432
11	0x3db7a4fd	0.08967016
12	0x3c67bd4e	0.014144255
13	0x3df564b1	0.11982096
14	0x3d2fd364	0.042926207
15	0xbd8e8183	-0.06958296
16	0xbbd13698	-0.006384682
17	0xbda16e37	-0.0788235
18	0x3c11ac80	0.008891225
19	0x3d9d9064	0.07693556
20	0x3d3cb1f6	0.046068154
21	0xbcd95bb9	-0.026532995
22	0x3dc96b44	0.098349124
23	0x3d855081	0.065094955
24	0x3e1556ef	0.14583944
25	0x3c087445	0.008328502
26	0xbca20e71	-0.019782277
27	0x3d1ca9f1	0.038248006
28	0x3c92a092	0.017898832
29	0xbe877b91	-0.2646146
30	0xbeab1d9e	-0.33421034
31	0xbd830e33	-0.06399193
32	0x3d9adb9b	0.07561418
33	0xbce87994	-0.028378285
34	0xbe57e07d	-0.21081729
35	0xbe20fe0c	-0.15721911
36	0xbd7e1d21	-0.0620395
37	0xbe6afaff	-0.2294731
38	0x3d8d1c10	0.06890118
39	0xbe4ea48e	-0.2017996
40	0xbe31b952	-0.1735585
41	0xbe13a31b	-0.14417689
42	0xbe522b21	-0.20524265
43	0xbdaae631	-0.08344687
44	0xbe669d80	-0.22521019
45	0xbeb4a9a9	-0.3528569
46	0xbd1d9190	-0.038468897
47	0x3dfc9e16	0.1233484
48	0x3d9d534d	0.07681904
49	0xbd937522	-0.07200076
50	0xbe57ace2	-0.21062043
51	0xbe5231c5	-0.20526798
52	0x3da0c927	0.07850867
53	0xbd4b0fe9	-0.04957572
54	0xbd48f5f4	-0.049062684
55	0x3d82c952	0.06386055
56	0xbda68c9b	-0.08132287
57	0xbe032080	-0.12805367
58	0x3d99853c	0.074961156
59	0xbcb06666	-0.021533202
60	0x3cae2f65	0.021262834
61	0x3d5b8770	0.05359596
62	0x3d6592fd	0.056048382
63	0x3db3608c	0.08758649
64	0x3d7cbc99	0.0617033
65	0xbcc4d368	-0.024026588
66	0x3da2109b	0.079133235
67	0x3d8c2302	0.06842615
68	0xbd1f3eb2	-0.03887815
69	0x3e1288ba	0.1430997
70	0xbdb41679	-0.08793349
71	0xbd1c984b	-0.038231175
72	0x3dac8bfe	0.08425139
73	0xbc5286fe	-0.012849567
74	0x3d9385d2	0.072032586
75	0xbc98f46c	-0.018671237
76	0xbdc087c7	-0.094008975
77	0x3d70f1fe	0.05882453
78	0xbca4a2eb	-0.020097217
79	0x3daba201	0.08380509
80	0xbc3656b8	-0.011129074
81	0xbe114a1d	-0.14188428
82	0xbd9c7cc2	-0.07640983
83	0x3de4e289	0.11176021
84	0xbe20bff1	-0.1569822
85	0xbe37325f	-0.17890309
86	0xbd932328	-0.0718444
87	0xbc6bcf53	-0.014392692
88	0x3ea8bcf5	0.32956663
89	0x3d2f22ff	0.042757984
90	0xb9985b1f	-0.0002905959
91	0x3e0a56a1	0.13509609
92	0x3dc3bfcb	0.09558066
93	0x3c97bd80	0.018522978
94	0xbdbc9028	-0.09207183
95	0x3eb365ad	0.3503851
96	0x3dc97476	0.09836666
97	0xbd2e38b5	-0.04253455
98	0x3e50fa11	0.20407893
99	0xbc35b216	-0.011089822
100	0x3bc71774	0.006075794
101	0xbd9be245	-0.07611517
102	0xbd24067c	-0.040045246
103	0x3d773035	0.06034871
104	0x3ddb4369	0.10706217
105	0xbd1ad109	-0.037797008
106	0x399c176a	0.00029772084
107	0x3d64c34d	0.055850316
108	0xbd0c2cf5	-0.034222562
109	0xbe0a757a	-0.13521376
110	0x3b8c14b0	0.004274927
111	0xbb83d3c1	-0.0040230458
112	0x3e26d92b	0.1629378
113	0x3d51c11b	0.05120955
114	0x3de05a9d	0.10954783
115	0x3d893a7a	0.06700607
116	0x3e5bc70e	0.21462652
117	0x39e81170	0.0004426348
118	0x3d6301cd	0.05542164
119	0xbce71623	-0.028208798
120	0x3d958104	0.072999984
121	0x3d9d5c6c	0.07683644
122	0x3e4a2733	0.19741516
123	0xbd1430ea	-0.03617946
124	0x3d84182e	0.064499244
125	0x3cba0659	0.022708105
126	0x3ded6451	0.115913995
127	0x3d862169	0.06549341
128	0x3d803b5c	0.06261322
129	0x3d884976	0.066546366
130	0x3d980a16	0.07423799
131	0x3ca34671	0.01993105
132	0xbda6a8e1	-0.0813768
133	0xbe21097f	-0.15726279
134	0xbdf8ea11	-0.121540196
135	0x3e435dbd	0.19078727
136	0x3e0a0322	0.13477758
137	0x3da7dd86	0.08196549
138	0xbe08edca	-0.1337196
139	0x3d82e54d	0.06391392
140	0xbdf6b907	-0.1204701
141	0xbd917407	-0.071022086
142	0x3e7015b9	0.23445787
143	0x3d8be0bc	0.06829974
144	0x3e5eeb7b	0.21769516
145	0x3e7e03ec	0.24806184
146	0xbcfacb91	-0.030614646
147	0x3859fa09	5.1969695e-05
148	0x3e9f04d5	0.31058374
149	0xbd4c2129	-0.04983631
150	0xbd9f0640	-0.07764864
151	0x3d8bfe24	0.06835583
152	0x3dea6780	0.11445522
153	0x3db1a18a	0.08673389
154	0x3d97e055	0.07415835
155	0x3cde099c	0.027104191
156	0xbcbadc2c	-0.022810064
157	0xbda8191b	-0.082079135
158	0xbcbe50b8	-0.02323185
159	0x3d975c71	0.07390679
160	0x3db20a0b	0.08693322
161	0xbc7ae88e	-0.015314234
162	0xbe995037	-0.29944012
163	0xbdc489d6	-0.095966026
164	0xbe19167c	-0.14949983
165	0x3dcc2f03	0.09969904
166	0xbe080290	-0.13282228
167	0x3c6cf70b	0.0144631965
168	0xbcb4c9f7	-0.02206896
169	0x3dcda09b	0.10040399
170	0x3d800d55	0.06252543
171	0x3e4efb41	0.20213033
172	0x3dfa95b7	0.12235587
173	0xbd0bacf3	-0.034100484
174	0xbd539f77	-0.05166575
175	0x3d47cf28	0.048781544
176	0x3dfb8070	0.12280357
177	0xbd861977	-0.06547826
178	0xbcd777bb	-0.02630221
179	0x3a788fea	0.0009481894
180	0x3c96b96d	0.018398965
181	0xbd1a61f4	-0.03769107
182	0xbe2ac0e5	-0.16675146
183	0x3dede775	0.116164126
184	0x3ddb7de0	0.10717368
185	0xbcd2bda5	-0.025725195
186	0xbe302f48	-0.17205536
187	0xbcea826e	-0.028626647
188	0xbd8b532f	-0.068029754
189	0x3e1f7626	0.15572414
190	0x3d8c9cd0	0.06865847
191	0xbdaf14ca	-0.08548887
192	0xbc81d001	-0.015846254
193	0xbc1dfacd	-0.009642315
194	0xbe94d06d	-0.29065266
195	0xbd12a173	-0.0357985
196	0x3daa2174	0.08307162
197	0xbe74fd08	-0.23924649
198	0xbe946c2d	-0.28988782
199	0xbe9109f4	-0.28327906
200	0xbe22f2f4	-0.15912992
201	0x3d780761	0.060553912
202	0xbd0fa78a	-0.035071887
203	0xbd1cee80	-0.03831339
204	0xbe4bb12e	-0.19891807
205	0xbd79ef0c	-0.06101899
206	0xbd805fd3	-0.06268277
207	0x3c20d045	0.00981528
208	0xb9569c23	-0.00020466796
209	0xbe2358e2	-0.15951875
210	0xbb6fad8a	-0.0036571943
211	0xbb929930	-0.004473828
212	0x3df8280c	0.12117013
213	0xbddbc2a9	-0.10730488
214	0x3d7f05e1	0.062261466
215	0x3dd996a7	0.10624438
216	0x3c52216d	0.012825352
217	0xbe337b6b	-0.17527549
218	0xbd42571b	-0.04744635
219	0xbdad81a0	-0.0847199
220	0xbd865221	-0.065586336
221	0xbe2da468	-0.16957247
222	0xbd9f5077	-0.07779019
223	0xbe47aa21	-0.19498493
224	0xbe327286	-0.174265
225	0xbd25b53e	-0.04045605
226	0x3cf939db	0.030423095
227	0xbe0f4b0f	-0.13993476
228	0xbd82c340	-0.06384897
229	0xbd3cb04d	-0.04606657
230	0xbca9ce5e	-0.020728286
231	0x3c81cb87	0.01584412
232	0x3db90de6	0.09035854
233	0xbd142374	-0.036166623
234	0x3e0d8492	0.13820103
235	0xbdf7e6fc	-0.12104604
236	0x3df2866b	0.118420444
237	0xbc609b30	-0.013708875
238	0x3e1ec002	0.15502933
239	0x3e73a6a8	0.23794043
240	0xbdb2649a	-0.087105945
241	0x3da56d8d	0.08077536
242	0xbeae632c	-0.34060037
243	0xbe15ec29	-0.14640869
244	0x3dbe8964	0.09303549
245	0xbe4ebd99	-0.20189513
246	0xbe9e625a	-0.3093441
247	0x3e08abff	0.13346861
248	0xbdec4f05	-0.11538509
249	0xbe26b5d7	-0.16280304
250	0x3dfeb5ea	0.12437041
251	0x3d4547ee	0.0481643
252	0xbddbdd8c	-0.10735616
253	0x3db52a2b	0.088459335
254	0xbdcddffd	-0.10052488
255	0xbdbe995d	-0.093065955

critic.0.bias f4 [128]
0	0xbceb1862	-0.02869815
1	0x3e0bfad6	0.13669905
2	0x3e072e89	0.13201346
3	0x3dc8209c	0.09771845
4	0xbcf1d991	-0.029522689
5	0x3ca0565a	0.019572426
6	0x3dac2e7e	0.08407305
7	0x3c6b1d9f	0.014350324
8	0xbd430bff	-0.047618862
9	0xbccfdceb	-0.025373897
10	0x3e1f92a1	0.15583278
11	0x3bc58bc3	0.006028624
12	0x3c070617	0.008241198
13	0x3d76b719	0.06023321
14	0xbe03fab6	-0.12888607
15	0x3de529d4	0.11189619
16	0x3e53cd53	0.20683794
17	0x3d30f0d6	0.04319843
18	0xbc86813a	-0.016419042
19	0xbd86853e	-0.06568383
20	0x3d860d20	0.06545472
21	0x3d73868e	0.059454493
22	0xbdd4a4dd	-0.10383008
23	0xbc6df078	-0.014522664
24	0x3db9482e	0.0904697
25	0xbd457574	-0.048207715
26	0x3be71e54	0.007053176
27	0x3d3b9691	0.04579789
28	0xbb3d4a5b	-0.002888343
29	0x3d9d9736	0.07694857
30	0x3dc03ac8	0.09386212
31	0xbd1d47d8	-0.038398594
32	0x3d9d2bec	0.07674393
33	0x3dad4f2e	0.08462368
34	0xbe19a644	-0.15004832
35	0x3c1d68a6	0.00960747
36	0xbd510c07	-0.05103686
37	0xbdba71ba	-0.09103723
38	0xbd40e3c0	-0.0470922
39	0xbdf9f58d	-0.12205038
40	0x3cfc2888	0.030781046
41	0x3d8bebab	0.068320595
42	0x3e4e5b60	0.20152044
43	0xbd919f05	-0.07110409
44	0x3e04923a	0.12946406
45	0x3e1c5802	0.15267947
46	0xbe1a76e3	-0.15084414
47	0xbd309bff	-0.04311752
48	0xbd352701	-0.04422665
49	0x3dde4b85	0.10854248
50	0x3dfb2d70	0.12264526
51	0x3e0333dd	0.12812753
52	0xba436ea3	-0.0007455146
53	0xbd0bb093	-0.03410394
54	0xbe2ee469	-0.17079319
55	0xbd14dc2f	-0.036342796
56	0x3c94d78a	0.018169183
57	0xbdcd552b	-0.1002601
58	0x3dcb0d7e	0.09914683
59	0x3c87170a	0.016490478
60	0x3d45091d	0.048104394
61	0xbde5cc8a	-0.11220653
62	0xbd811590	-0.06302941
63	0xbe02544d	-0.1272747
64	0xbdb64f78	-0.08901876
65	0x3d090095	0.03344782
66	0x3dab13e1	0.08353401
67	0xbd2b808a	-0.04187063
68	0xbdb7719f	-0.089572184
69	0x3dd21617	0.102581196
70	0x3df2c8f7	0.11854737
71	0x3dccd61b	0.10001775
72	0x3d818f05	0.06326107
73	0xbdb17989	-0.08665759
74	0x3d70648d	0.058689643
75	0xbdb3c1df	-0.08777212
76	0xbd759592	-0.059957094
77	0xbd39dcb1	-0.045376483
78	0xbddc8295	-0.10767094
79	0xbcf2e8ce	-0.029652026
80	0xbe1462c4	-0.14490801
81	0x3d8b388c	0.06797895
82	0x3dcac37b	0.09900566
83	0xbdfa5814	-0.12223831
84	0xbdfb5ed0	-0.122739434
85	0x3dd2f41c	0.103004664
86	0xbb6d0ccf	-0.0036170965
87	0x3dd158cc	0.10222015
88	0xbd8c5e5b	-0.068539344
89	0xbd9901a4	-0.07471016
90	0x3cf28959	0.029606508
91	0x3dde33bd	0.10849712
92	0xbbedf4e6	-0.00726186
93	0x3c8f5920	0.017498553
94	0xbe2489f5	-0.16068251
95	0x3cc25f6c	0.023727141
96	0x3c804347	0.01565708
97	0x3d69ce9d	0.057081807
98	0x3d6dbc2b	0.05804078
99	0x3ca8b928	0.020596102
100	0xbd91f085	-0.071259536
101	0x3d84ef3c	0.06490943
102	0xbd4c84c4	-0.049931303
103	0xbda4d7b8	-0.080489576
104	0xbd84d2c2	-0.06485511
105	0xbe1ee5f5	-0.15517409
106	0xbdcc8e66	-0.09988098
107	0x3d940f5c	0.07229492
108	0xbd8af07a	-0.067841485
109	0x3d13aab2	0.03605146
110	0x3c629f2a	0.013831893
111	0xbbf775e4	-0.0075518955
112	0xbda0f7cd	-0.07859764
113	0x3e1b398e	0.15158674
114	0xbd82201e	-0.06353782
115	0x3e348590	0.17629075
116	0x3d817477	0.06321042
117	0x3d4920b5	0.049103457
118	0x3d1d9e4d	0.038481046
119	0xbd89092e	-0.06691204
120	0x3db03fef	0.08605944
121	0xbd58205e	-0.052765243
122	0x3d82d1bd	0.06387661
123	0x3dc27780	0.09495449
124	0x3e23c31d	0.15992399
125	0x3dd95f03	0.10613825
126	0xbdecc6d0	-0.11561358
127	0x3d960a34	0.07326165

critic.2.weight f4 [128, 128]
0	0xbe710f7b	-0.23541062
1	0x3dd8f072	0.10592736
2	0x3c4b8b72	0.012423383
3	0xbd416b92	-0.047221728
4	0x3c54558b	0.012959848
5	0xbc40a1aa	-0.011757294
6	0xbe474ccf	-0.19462894
7	0x3de0b503	0.10972025
8	0xbd30f01b	-0.043197732
9	0xbc5e8237	-0.01358085
10	0x3dd3d87a	0.10344024
11	0xbe943a8f	-0.28950927
12	0xbe05d310	-0.13068795
13	0x3e0d1e99	0.13781203
14	0x3d838539	0.064218946
15	0xbe0be0b3	-0.13659935
16	0x3e55dbee	0.20884678
17	0xbcdeffd2	-0.027221594
18	0xba9cde7e	-0.0011968163
19	0x3c08ed97	0.008357427
20	0x3daf79ff	0.08568191
21	0xbd355933	-0.04427452
22	0x3dd9f365	0.10642127
23	0xbcc85770	-0.024455756
24	0x3e4be147	0.19910155
25	0xbdb87d2f	-0.09008252
26	0x3d4b2d12	0.04960353
27	0x3d11d714	0.035605505
28	0x3da65bdb	0.08122989
29	0xbe0d2789	-0.13784613
30	0xbde7dc64	-0.11321333
31	0xb8c0ff36	-9.20281e-05
32	0xbc617a22	-0.013762029
33	0x3e11549d	0.14192434
34	0x3c87b601	0.016566278
35	0xbdba5180	-0.09097576
36	0xbe01cd1c	-0.126759
37	0xbe07583e	-0.13217255
38	0xbd3a24aa	-0.04544512
39	0xbd1116b0	-0.035422027
40	0xbcdff2f9	-0.027337538
41	0x3dc9ce6f	0.09853827
42	0xbd7090ae	-0.058731727
43	0x3d1f179b	0.03884087
44	0xbde2dc56	-0.11077182
45	0xbc95c4f7	-0.018282397
46	0xbe3bd634	-0.18343431
47	0xbd445500	-0.047932625
48	0xbe8ca309	-0.27468136
49	0xbd6b5052	-0.057449646
50	0xbdc12995	-0.09431759
51	0x3d91bf09	0.07116515
52	0x3e02e80b	0.1278383
53	0x3db5610f	0.08856403
54	0xbe1b04f7	-0.15138613
55	0xbdb1dc31	-0.08684576
56	0xbd2dca3d	-0.042429198
57	0x3c9e0395	0.019288817
58	0x3e773bef	0.24143957
59	0xbcab4e4d	-0.02091136
60	0x3d0b26a5	0.0339724
61	0x3e00b467	0.12568818
62	0xbda1fbbb	-0.07909342
63	0xbd2f4548	-0.04279068
64	0x3db3cb2e	0.08778988
65	0x3de019a2	0.10942389
66	0x3c9072fc	0.017632954
67	0xbd1e087b	-0.038582306
68	0x3db93c5f	0.09044718
69	0xbc9bb3ce	-0.019006636
70	0xbd0a965d	-0.033834804
71	0x3e4591d3	0.19293909
72	0x3d8bdec7	0.06829601
73	0xbcb53e96	-0.02212457
74	0xbe0f8c8a	-0.14018455
75	0x3d348153	0.044068646
76	0x3e428119	0.1899456
77	0x3dcae057	0.09906071
78	0xbd663999	-0.056207273
79	0x3cca95dc	0.024729662
80	0xbe3bf87e	-0.18356511
81	0x3d74c716	0.059760176
82	0xbc679bea	-0.014136294
83	0x3db3c058	0.08776921
84	0x3dd5fa44	0.10448125
85	0x3df3ade8	0.11898404
86	0xbdef9997	-0.11699217
87	0xbc9ab734	-0.018886186
88	0xbd7c8e5b	-0.0616592
89	0xbdc694a5	-0.096963204
90	0x3e6e14cb	0.2325012
91	0x3da64bff	0.08119964
92	0x3de6f5df	0.11277365
93	0xbe2ddbf6	-0.1697844
94	0x3d20d7e1	0.03926838
95	0x3d9481d6	0.07251327
96	0x3d96502e	0.07339512
97	0xbc642fcd	-0.013927412
98	0xbdeac394	-0.11463085
99	0x3e7dd324	0.24787575
100	0xbdb0173b	-0.08598181
101	0xbdd01e03	-0.10161974
102	0x3dd6f620	0.10496163
103	0xbd02c41b	-0.031925302
104	0x3c91729e	0.017754849
105	0x3dc52337	0.09625857
106	0xbdb984a1	-0.090585
107	0xbc1c66a4	-0.009545956
108	0x3db461e9	0.088077374
109	0xbdd3531c	-0.10318586
110	0x3de7a83a	0.113113835
111	0xbd2bf57a	-0.04198215
112	0xbe71f458	-0.23628366
113	0x3ca1df08	0.01975967
114	0xbe2f9202	-0.17145541
115	0xbd1c8df8	-0.03822133
116	0xbe283f0d	-0.16430302
117	0xbcfe205c	-0.03102129
118	0xbda4621c	-0.080265254
119	0xbdd827d5	-0.10554472
120	0x3d2b88fb	0.04187868
121	0xbe0a2345	-0.13490017
122	0xbe38d9f6	-0.18051895
123	0x3dd33120	0.10312104
124	0xbe40a9ff	-0.18814848
125	0x3d4e3f86	0.05035355
126	0x3dc45d28	0.09588081
127	0x3d9003a2	0.07031943
128	0xbe162852	-0.14663818
129	0x3d89eac0	0.06734228
130	0x3c5c2484	0.01343644
131	0x3c87d3f1	0.016580554
132	0x3c4e9d31	0.01261072
133	0x3cf4cbef	0.0298824
134	0xbd5f58ec	-0.054528162
135	0x3dc3c82c	0.09559664
136	0x3d4aff70	0.04956001
137	0xbd6860f8	-0.0567331
138	0x3da763e6	0.08173351
139	0xbeab8b99	-0.33504942
140	0xbdce2ec2	-0.10067512
141	0x3db63453	0.08896699
142	0xbda06bf9	-0.07833094
143	0xbdce01d6	-0.10058944
144	0x3dc36cb3	0.09542217
145	0xbc4f6658	-0.012658678
146	0x3df3f545	0.11912016
147	0x3d739e4f	0.059477147
148	0x3dfa3e72	0.12218942
149	0xbb5417a2	-0.003236272
150	0x3c9bd80e	0.019023921
151	0x3d8a818c	0.0676299
152	0x3e49d6f3	0.19710903
153	0xbddf677d	-0.10908411
154	0xbd9fc836	-0.07801859
155	0xbd87b501	-0.06626321
156	0xbd7a56f0	-0.061118066
157	0xbda27c33	-0.07933845
158	0x3d2f13e3	0.042743575
159	0x3d2d1110	0.0422526
160	0x3cf75753	0.030193007
161	0x3d98b2a7	0.0745595
162	0xbe0d09cb	-0.13773267
163	0xbdcd4a94	-0.1002399
164	0x3cde90bd	0.027168626
165	0xbdb4398c	-0.08800039
166	0xbdfa74c1	-0.122293
167	0xbdceeb95	-0.101035275
168	0xbd7ba8a4	-0.061440125
169	0xbd618eae	-0.05506771
170	0x3d8cc843	0.068741344
171	0xbe02163a	-0.12703791
172	0xbdbe740c	-0.09299478
173	0x3d92bf43	0.071653865
174	0xbdfd2824	-0.12361172
175	0xbd989269	-0.074498005
176	0xbea03264	-0.31288445
177	0xbdc6dccc	-0.097100824
178	0x3d114cb4	0.03547354
179	0x3cdaeb08	0.0267234
180	0x3c6f5978	0.014608733
181	0xbb6dfc4c	-0.003631371
182	0xbc97b050	-0.01851669
183	0xbe066751	-0.1312535
184	0x3d4684e3	0.048466574
185	0xbdb847df	-0.08998083
186	0x3e6d2a7a	0.23160735
187	0xbdc3cd39	-0.095606275
188	0x3e2196d5	0.15780194
189	0x3de22f25	0.11044148
190	0xbe22c2c0	-0.15894604
191	0xbe136051	-0.1439221
192	0x3e869ac3	0.2628995
193	0x3d84a1a6	0.064761445
194	0x3d002de7	0.031293776
195	0xbde5e638	-0.11225551
196	0xbc9043d1	-0.017610462
197	0x3d6644f1	0.05621809
198	0x3dd7f5f1	0.105449565
199	0x3e12b1cf	0.14325641
200	0x3af451fc	0.0018640156
201	0xbc557b02	-0.013029816
202	0xbddc3ecf	-0.10754167
203	0x3ca68851	0.020328673
204	0x3e13df04	0.14440542
205	0x3cf41144	0.02979339
206	0xbdb9d720	-0.09074235
207	0x3dfdb7b7	0.123885565
208	0xbd8c95b4	-0.06864491
209	0x3e31f494	0.17378455
210	0xbdc935f2	-0.098247424
211	0x3d9e468e	0.07728301
212	0x3d755515	0.059895594
213	0x3de9a565	0.114085
214	0xbd88664b	-0.06660136
215	0xbd0746f5	-0.033026654
216	0x3d1050c1	0.035233263
217	0x3db39271	0.08768166
218	0x3e10fbed	0.14158602
219	0xbd9bc5c9	-0.07606084
220	0x3dc36e79	0.09542555
221	0x3cf8d3ab	0.030374369
222	0x3d44b4d2	0.048024006
223	0x3d227963	0.039666545
224	0x3e0f18a0	0.13974237
225	0xbe66ce03	-0.22539525
226	0xbe347561	-0.17622901
227	0x3e71bb86	0.23606691
228	0x3c24a6b7	0.010049514
229	0xbddbc6f1	-0.107313044
230	0xbcc6c5ec	-0.024264298
231	0xbe0cdc02	-0.13755801
232	0x3c463b04	0.012099031
233	0xbd499a64	-0.049219504
234	0xbcbfecb0	-0.023428291
235	0xbe194a9a	-0.14969864
236	0x3b67c07b	0.003536253
237	0xbdceb3c3	-0.100928806
238	0x3e009081	0.12555124
239	0xbbc9e891	-0.0061617573
240	0xbe6fb4c6	-0.23408803
241	0x3dd1068e	0.10206328
242	0xbdb17005	-0.08663944
243	0x3c3da917	0.011575959
244	0xbcb36394	-0.021898068
245	0xbd7feb68	-0.06248036
246	0xbd8ba31e	-0.068182215
247	0xbddca3e6	-0.10773449
248	0xbe026f13	-0.12737684
249	0xbdc427c5	-0.09577898
250	0xbe4142d4	-0.18873149
251	0x3d794653	0.060858082
252	0xbd7dfe35	-0.06201001
253	0x3d1f1d28	0.038846165
254	0xbd1a9923	-0.0377437
255	0x3d54e50d	0.051976252

critic.2.bias f4 [128]
0	0x3c05a1d0	0.008156255
1	0xbd2d422f	-0.042299446
2	0xbd9536f4	-0.07285872
3	0xbda17ec3	-0.07885506
4	0x3cd2ca67	0.025731279
5	0x3d002ab1	0.031290714
6	0x3c987747	0.018611563
7	0x3d5c3ba2	0.053767808
8	0xbd16da35	-0.036829192
9	0x3d6f356f	0.058400568
10	0xbdb350bb	-0.087556325
11	0xb9f40160	-0.0004654033
12	0x3cfa7cc4	0.030577071
13	0xbcb6ca7d	-0.02231335
14	0xbdde94f1	-0.10868252
15	0xbd999679	-0.074994035
16	0x3bae35c7	0.0053164694
17	0x3d470781	0.04859114
18	0x3dce4327	0.10071402
19	0x3cb7a44d	0.022417212
20	0x3dc064e7	0.093942456
21	0xbd16053c	-0.036626086
22	0xbd3f6490	-0.046726763
23	0xbcff6a70	-0.031178683
24	0x3df4f5ba	0.11960931
25	0xbd8d34ff	-0.06894874
26	0xbcea2731	-0.028583141
27	0xbd3802a2	-0.044924386
28	0x3c321cd7	0.010871134
29	0xbd288892	-0.04114587
30	0xbd7d827d	-0.06189202
31	0x3ca97ec6	0.020690333
32	0xbd6dec1d	-0.058086503
33	0x3daef706	0.0854321
34	0x3d186873	0.037208986
35	0x3d7f5427	0.062336113
36	0x3cf4e4a5	0.029894182
37	0xbd5a29a3	-0.053262364
38	0xbd3bee98	-0.045881838
39	0xbb5670f9	-0.0032721146
40	0x3ca23dcb	0.019804856
41	0x3c97df84	0.018539198
42	0x3d2921da	0.04129205
43	0xbcfc20ab	-0.030777296
44	0x3cda2169	0.02662726
45	0x3cf3c800	0.029758453
46	0x3d976ffb	0.073944055
47	0x3e122d2a	0.14275041
48	0x3d678234	0.056520656
49	0xbde24fcd	-0.11050377
50	0xbd16bb8d	-0.036799956
51	0x3d323d9d	0.04351579
52	0xbdcd03e0	-0.10010505
53	0xbd7d52be	-0.061846487
54	0x3d8b0af1	0.06789196
55	0xbd424d06	-0.047436737
56	0x3d9131c2	0.07089569
57	0x3d918e87	0.07107263
58	0xbcb5329a	-0.022118855
59	0x3d7f4039	0.062317107
60	0x3d790ec8	0.060805112
61	0x3de88690	0.11353791
62	0xbd9adf84	-0.075621635
63	0xbd1aecd9	-0.03782353
64	0x3e0a4935	0.13504489
65	0x3d26e2ab	0.04074351
66	0xbcb731a7	-0.022362543
67	0x3d0a20be	0.03372263
68	0x3b74e972	0.003737059
69	0xbd9d6c90	-0.07686722
70	0x3ce94b4e	0.02847829
71	0xbd5e0660	-0.0542053
72	0xbd0ce464	-0.034397498
73	0xbd07f708	-0.03319457
74	0x3b618a0e	0.0034414562
75	0xbc782bc6	-0.015147155
76	0xbd97e6f9	-0.074171014
77	0xbd1f5179	-0.038896058
78	0x3d1d7ff4	0.038452104
79	0xbd0d26ef	-0.034460958
80	0xbe03e225	-0.12879236
81	0xbda8007c	-0.082032174
82	0x3a4bc14e	0.000777264
83	0x3df0f5c7	0.11765628
84	0xbcbd5ac8	-0.023114577
85	0xbd1fe280	-0.039034367
86	0xbce0889c	-0.02740889
87	0x3cb734a1	0.022363963
88	0x3dd8c37f	0.10584163
89	0xbd067505	-0.032826442
90	0x3d37770b	0.044791263
91	0xbdd4b00c	-0.10385141
92	0x3d94142a	0.072304085
93	0x3c573161	0.013134331
94	0x3c5c68a1	0.01345268
95	0xbda6fc37	-0.08153575
96	0x3d23faf6	0.040034257
97	0xbd7e1ba9	-0.062038098
98	0x3dad8a96	0.08473699
99	0x3c715936	0.014730742
100	0xba1fc7ea	-0.0006095158
101	0xbda81f21	-0.08209062
102	0x3d1999a7	0.03750005
103	0xbd3053a4	-0.043048516
104	0x3d469f00	0.048491478
105	0x3cc8e27a	0.024522055
106	0xbc881aeb	-0.016614398
107	0xbd7e451e	-0.062077634
108	0x3d6b05e8	0.05737868
109	0x3d946ded	0.07247529
110	0xbda66f2e	-0.081266746
111	0xbca3b40b	-0.019983312
112	0x3ca0bbd2	0.01962081
113	0x3dae9117	0.085237674
114	0x3ddd6be1	0.10811592
115	0x3d91af01	0.071134575
116	0xbd09fc98	-0.033688158
117	0x3d5bb057	0.053634968
118	0x3d832abc	0.06404635
119	0x3df2f402	0.11862947
120	0xbd4a4020	-0.04937756
121	0x3c774969	0.015093186
122	0x3d210b7e	0.0393176
123	0x3d955ab8	0.07292694
124	0x3c585566	0.013203954
125	0x3d5d0520	0.053959966
126	0x3d82d647	0.063885264
127	0x3d8a6e17	0.06759279

critic.4.weight f4 [128, 128]
0	0xbe44408f	-0.19165252
1	0xbe2bc76b	-0.1677529
2	0xbd4e57e4	-0.050376788
3	0xbd25cda3	-0.040479314
4	0xbdd051f1	-0.10171879
5	0x3df063de	0.11737798
6	0xbd65eff2	-0.056137033
7	0x3e97bff9	0.2963865
8	0x3dbbc371	0.09168137
9	0xbd9380ae	-0.07202278
10	0xbe4fb50a	-0.20283905
11	0x3dc0f4b3	0.09421673
12	0x3ddde034	0.10833779
13	0xbd973e53	-0.07384934
14	0xbe2f6169	-0.17127003
15	0x3de22e3e	0.11043976
16	0x3e0f3290	0.13984132
17	0xbc0cc080	-0.008590817
18	0xbd13dfb8	-0.036102027
19	0x3cb2fe20	0.021849692
20	0x3ccac08c	0.024750017
21	0xbe5da070	-0.21643233
22	0xbd2173f4	-0.039417222
23	0xbde970e6	-0.11398487
24	0x3e2d0c05	0.16899116
25	0xbe61c5b5	-0.22048075
26	0x3d768158	0.060181946
27	0x3c5aa011	0.013343827
28	0x3cac22bb	0.021012655
29	0xbdaac703	-0.0833874
30	0xbd26b091	-0.04069573
31	0xbe15beb3	-0.14623527
32	0x3dca73e6	0.09885387
33	0x3daff879	0.08592314
34	0x3cfd97ac	0.030956112
35	0xbd25d458	-0.04048571
36	0xbc8e91e5	-0.017403552
37	0x3dca5ffb	0.09881588
38	0x3e607b40	0.21922016
39	0x3da1a152	0.078920975
40	0xbdce5f9c	-0.1007683
41	0x3da20f6e	0.07913099
42	0x3dd81e89	0.10552699
43	0xbca32526	-0.019915175
44	0xbe0ea6a8	-0.13930762
45	0x3d085134	0.033280566
46	0x3d32cbe1	0.043651465
47	0xbe3ccbcf	-0.18437122
48	0x3dbe0176	0.092776224
49	0x3d38f3f5	0.04515453
50	0xbdc82141	-0.09771968
51	0xbd68c8bf	-0.05683207
52	0xbda39b04	-0.07988551
53	0x3d8c3714	0.06846443
54	0x3daa7338	0.083227575
55	0xbe3187e3	-0.17336993
56	0xbd966dfd	-0.07345197
57	0x3bb5df68	0.0055503137
58	0x3d863c1e	0.06554435
59	0xbdd2dd85	-0.10296158
60	0x3da57bd2	0.080802575
61	0x3af01022	0.0018315355
62	0xbe4b211e	-0.19836852
63	0x3d7625ba	0.060094573
64	0x3e149019	0.14508094
65	0x3d8446cb	0.06458815
66	0xbcf63aa8	-0.030057266
67	0xbdb8c9c2	-0.09022857
68	0xbd804974	-0.0626401
69	0xbc4d29fd	-0.012522218
70	0xbcb1ca14	-0.021702804
71	0xbd83b933	-0.06431808
72	0x3c399c96	0.011328837
73	0xbce9ef60	-0.028556526
74	0xbd86a756	-0.065748855
75	0xbd1a0ad6	-0.03760799
76	0xbd4de865	-0.050270457
77	0x3e11d4e0	0.14241362
78	0xbdada651	-0.08478988
79	0x3c6f2308	0.014595754
80	0xbeacb0c1	-0.33728603
81	0xbc8f8c20	-0.017522871
82	0xbcd58aee	-0.026067223
83	0x3e335baf	0.17515443
84	0xbd826472	-0.06366815
85	0xbe800aa3	-0.25008115
86	0x3d93a96c	0.07210049
87	0x3d9282dc	0.07153866
88	0x3cb85307	0.022500528
89	0xbd870bb4	-0.06594029
90	0x3d4c4dfe	0.049879067
91	0x3ddd2e00	0.107997894
92	0x3cef56ad	0.029216135
93	0xbdc0c965	-0.09413413
94	0xbe0715f4	-0.13191968
95	0xbce18565	-0.027529428
96	0x3cbcdfb8	0.023055896
97	0xbe025e07	-0.12731181
98	0xbda8e1bb	-0.0824618
99	0xbd1400ad	-0.036133457
100	0xbbf20ef4	-0.0073870365
101	0x3ca4229b	0.020036032
102	0xbcf72dbd	-0.030173177
103	0xbe095abe	-0.13413522
104	0xbd990b37	-0.07472842
105	0x3d88060d	0.06641779
106	0x3d1b18ec	0.037865564
107	0xbcc4cf13	-0.024024522
108	0xbc877470	-0.016535014
109	0x3c8a9ffc	0.01692199
110	0xbd4ad5c2	-0.04952026
111	0x3d82607a	0.06366058
112	0x3c4c73e4	0.012478802
113	0x3da0b47a	0.07846923
114	0x3dede466	0.11615829
115	0xbca1a8a7	-0.01973374
116	0x3e87af91	0.26501134
117	0xbd1ccd31	-0.038281623
118	0xbdf225a5	-0.118235864
119	0xbd04d9fd	-0.032434452
120	0x3cc02779	0.023456322
121	0xbc589cfe	-0.013221024
122	0xbc9f367c	-0.01943516
123	0xbcc53f20	-0.024077952
124	0x3dcd379b	0.100203715
125	0x3dbddc10	0.09270489
126	0x3e0a2a9a	0.13492814
127	0xbddb6fa7	-0.10714655
128	0xbe0f2ca2	-0.1398187
129	0xbcc5883b	-0.024112811
130	0xbd908169	-0.07055933
131	0xbceed4bf	-0.02915418
132	0x3d88af48	0.06674057
133	0x3cd43a25	0.025906632
134	0x3e27f70b	0.16402833
135	0xbbf65b67	-0.00751822
136	0xbcbc1907	-0.022961153
137	0xbd45d9d1	-0.04830343
138	0x3dd58b33	0.10426941
139	0x3d10d0c7	0.035355356
140	0x3dc286ec	0.094983906
141	0xbe2a8a10	-0.16654229
142	0x3e0f0fe3	0.13970904
143	0x3d2fcd4d	0.0429204
144	0xbd8f7706	-0.07005124
145	0xbcaa811f	-0.020813523
146	0x3ce89c3d	0.028394813
147	0x3d20fd96	0.03930434
148	0xbdbb6a56	-0.09151141
149	0xbc38d803	-0.01128197
150	0xbc8b5227	-0.017006947
151	0x3da775b9	0.08176751
152	0xbdbf3e64	-0.09338072
153	0x3ad39956	0.001614372
154	0x3d8fdab5	0.07024137
155	0xbe0c820d	-0.13721485
156	0x3d706557	0.058690395
157	0x3d2c1ba8	0.042018563
158	0x3ccab1be	0.024742957
159	0xbdc4d3c4	-0.096107036
160	0xbe14ca26	-0.14530239
161	0xbdab2251	-0.08356155
162	0xbe1e6b01	-0.15470506
163	0x3c88c12f	0.01669368
164	0xbd9799f1	-0.07402409
165	0xbd7e5fa5	-0.062102932
166	0xbcf8b8e1	-0.030361595
167	0x3cae7318	0.021295115
168	0x3c1c4063	0.009536835
169	0x3d2d2149	0.04226807
170	0xbda922d8	-0.08258599
171	0xbdc61402	-0.09671785
172	0xbe04c77d	-0.12966724
173	0xbd1b4f49	-0.03791741
174	0xbda423dc	-0.08014652
175	0xbd23f308	-0.040026695
176	0x3d8752d3	0.06607594
177	0x3d99acdb	0.07503673
178	0xbdc5cbc1	-0.096580036
179	0x3cb26c4d	0.021780157
180	0x3d852634	0.06501427
181	0x3cca2371	0.024675103
182	0x3d845ac6	0.06462626
183	0xbe1e1341	-0.15437032
184	0x3d0302b1	0.03198499
185	0xbdadb9de	-0.08482717
186	0x3e01f23d	0.12690063
187	0xbc71bc6d	-0.014754397
188	0xbde86fa5	-0.113494195
189	0x3d415c7b	0.047207337
190	0xbaae95fa	-0.0013319843
191	0x3c6bb6e7	0.014386869
192	0xbe2fa034	-0.17150956
193	0x3bfd26d3	0.0077255755
194	0x3c008805	0.00784493
195	0xbd54fc2e	-0.05199831
196	0x3d106323	0.035250794
197	0x3d595d74	0.05306764
198	0xbd474f5d	-0.04865967
199	0x3d7a2cf4	0.061078027
200	0xbccbaf19	-0.024863767
201	0xbd3b59ca	-0.045739926
202	0xbd43d708	-0.04781249
203	0x3dbaaae5	0.09114627
204	0xbc9d0dfe	-0.019171711
205	0x3b492647	0.003069298
206	0xbca1f08b	-0.01976802
207	0x3d07f999	0.03319702
208	0xbcf91e0f	-0.03040984
209	0x3d48e7c0	0.04904914
210	0xbe24d7ec	-0.16097993
211	0xbc0daf53	-0.008647758
212	0xbe167cad	-0.14695998
213	0xbda7293c	-0.08162162
214	0x3d3e6bfd	0.046489704
215	0x3e22b7d0	0.15890431
216	0xbd5efbfe	-0.054439537
217	0xbddcf66b	-0.10789188
218	0xbc2e663d	-0.010644493
219	0xbbe9be64	-0.007133292
220	0x3ca0e2c6	0.019639384
221	0x3d161974	0.036645368
222	0xbd993d55	-0.07482401
223	0x3d8bd29e	0.068272814
224	0xbdf5776a	-0.11985667
225	0xbd9bc203	-0.07605364
226	0x3d1fd092	0.039017268
227	0xbdf925f4	-0.12165442
228	0x3dae3127	0.08505469
229	0x3db88a93	0.09010806
230	0xbc030002	-0.007995607
231	0xbe0b9833	-0.13632278
232	0xbda02364	-0.0781925
233	0xbe19699e	-0.14981696
234	0x3d8994df	0.06717848
235	0x3dc1905a	0.09451361
236	0x3e0001d2	0.12500694
237	0x3b2d83aa	0.0026476183
238	0xbb9863eb	-0.004650583
239	0x3dfd7c3d	0.12377212
240	0xbe179ea4	-0.1480661
241	0xbdaeec1b	-0.08541127
242	0xbc1b5f08	-0.009483106
243	0x3dadb806	0.08482365
244	0xbd2f0c47	-0.042736318
245	0xbd3b7b11	-0.045771662
246	0x3caf2623	0.02138049
247	0xbacf3962	-0.0015809948
248	0x3d8ac2cc	0.06775436
249	0xbdd89073	-0.105744265
250	0xbe2bf1c7	-0.1679145
251	0xbde6455b	-0.11243697
252	0x3c9b92bd	0.018990869
253	0xbcf654bc	-0.030069701
254	0xbe0e1523	-0.1387525
255	0x3c47e746	0.012201136

critic.4.bias f4 [128]
0	0xbd967714	-0.07346931
1	0xbd3bfe64	-0.045896903
2	0xbe120f34	-0.14263612
3	0xbe140188	-0.14453709
4	0x3db7dd35	0.08977739
5	0xbce4f739	-0.027949916
6	0x3d989355	0.07449976
7	0xbdc82f34	-0.09774628
8	0xbcdb5a3f	-0.026776431
9	0xbca619a9	-0.020275908
10	0xbdf7ce2e	-0.120998725
11	0x3cc3bb30	0.023892969
12	0xbcb28be3	-0.021795219
13	0x3d972f44	0.07382062
14	0x3de8ed21	0.11373354
15	0x3d3c472d	0.045966316
16	0xbd23320c	-0.03984265
17	0x3de9338e	0.113867864
18	0x3c7850a9	0.01515595
19	0xbd9e56c1	-0.07731391
20	0xbc86b182	-0.016442064
21	0x3d20e935	0.039284904
22	0x3d5b944a	0.053608216
23	0xbc8b3081	-0.016990902
24	0xbe17799b	-0.14792483
25	0xbd8ff7d0	-0.07029688
26	0x3d2b1fb2	0.041778274
27	0xbd8974d4	-0.06711736
28	0x3d128a31	0.03577632
29	0x39d49f14	0.00040554313
30	0x3df069e9	0.11738951
31	0xbd566d8b	-0.052350562
32	0x3c43a7c6	0.011941856
33	0xbd9edb4d	-0.07756672
34	0xbd8e53c4	-0.06949571
35	0x3d7c32ec	0.061572
36	0xbd61cf91	-0.05512959
37	0xbe00a7f3	-0.12564068
38	0xbd308e44	-0.043104425
39	0x3dab7d03	0.083734535
40	0x3d901911	0.07036031
41	0xbe2eba38	-0.17063224
42	0xbd42157f	-0.04738378
43	0xbca62e8b	-0.020285865
44	0xbc8526ca	-0.016253848
45	0xbcd26a8b	-0.02568557
46	0xbd1d023e	-0.038332216
47	0xbd6d96a7	-0.058005
48	0xbbb4de14	-0.005519638
49	0x3dde2a4f	0.108479135
50	0xbdeb38c4	-0.114854366
51	0xbd7fa183	-0.06240989
52	0x3da52ba0	0.080649614
53	0x3e370756	0.17873892
54	0xbcc0ab6a	-0.023519237
55	0xbc73729e	-0.01485887
56	0xbde1db53	-0.11028161
57	0x3dab572c	0.08366236
58	0xbddbfb70	-0.10741317
59	0x3ba59f31	0.0050543775
60	0x3cbca38d	0.023027206
61	0xbe248c37	-0.16069113
62	0x3cfb0b45	0.030645022
63	0xbd4e0b0f	-0.050303515
64	0x3e006767	0.12539445
65	0xbd53fa42	-0.051752336
66	0xbca60517	-0.020266099
67	0x3dbdab95	0.09261242
68	0x3cc6f969	0.02428885
69	0xbcc57e52	-0.024108086
70	0xbcec6548	-0.028856888
71	0xbcad2e74	-0.021140315
72	0x3d4c7a8e	0.049921565
73	0xbd11997e	-0.035546772
74	0xbb9f1b81	-0.0048555736
75	0x3d12c5db	0.03583322
76	0xbd0b421a	-0.033998586
77	0xbc295b1e	-0.010336665
78	0x3d74f8b5	0.059807498
79	0x3d2daa5f	0.042398807
80	0x3de60571	0.112315066
81	0xbe296ecf	-0.16546176
82	0xba9d668b	-0.001200871
83	0x3d2d73c8	0.042346746
84	0xbdce3291	-0.100682385
85	0x3d9cf62a	0.076641396
86	0x3d7cdffb	0.061737042
87	0x3dd63670	0.10459602
88	0x3ddc04d5	0.10743109
89	0x3db887b9	0.09010262
90	0x3cab1caf	0.0208877
91	0xbce14f01	-0.027503492
92	0x398b5d20	0.0002658153
93	0xbd5c56a9	-0.053793583
94	0x3b4ec2e7	0.0031549276
95	0xbdee70fe	-0.11642645
96	0xbda17ddd	-0.07885335
97	0x3e05cab4	0.13065606
98	0xbe064f65	-0.13116224
99	0x3d243a62	0.04009474
100	0xbcbff48e	-0.023432042
101	0xbc928beb	-0.017888984
102	0x3dad01f8	0.08447641
103	0xbb780540	-0.0037844926
104	0xbd973e46	-0.073849246
105	0xbb49a7e8	-0.0030770246
106	0xbcf20bd0	-0.029546648
107	0x3c7a0552	0.0152600575
108	0x3bcdfc9b	0.0062862164
109	0x3dae44fb	0.08509251
110	0x3db888a5	0.09010438
111	0xbcdac8f4	-0.02670715
112	0x3d74b571	0.05974335
113	0xbbc402e4	-0.00598179
114	0x3e098800	0.13430786
115	0x3e2debb5	0.16984446
116	0x3cc27c2c	0.02374085
117	0xbc8aa30e	-0.016923454
118	0x3dcfbf8a	0.10143955
119	0x3c9ae81e	0.01890951
120	0xbdb9ff19	-0.09081859
121	0xbda4bd1a	-0.08043881
122	0xbe042fda	-0.12908879
123	0x3d00cfac	0.03144805
124	0xbc8366b8	-0.016040191
125	0x3dce24c4	0.10065606
126	0xbd4583d4	-0.048221424
127	0xbdf5d69a	-0.120038226

critic.6.weight f4 [1, 128]
0	0xbebfebe3	-0.37484655
1	0xbe6339d1	-0.22190024
2	0xbe75f8ee	-0.2402074
3	0xbea29424	-0.31753647
4	0x3e4e9f63	0.20177989
5	0xbe8b5591	-0.2721372
6	0x3e9d40f1	0.3071361
7	0xbeae8628	-0.34086728
8	0xbe8077bc	-0.2509135
9	0xbe5010cd	-0.20318909
10	0xbe4c48c2	-0.1994963
11	0xbe96c8d5	-0.29450098
12	0x3e8c8b91	0.2745023
13	0x3e98673b	0.2976626
14	0x3e701e86	0.23449144
15	0xbea3ff8e	-0.3203091
16	0xbe9ea03b	-0.3098162
17	0x3e8000f9	0.25000742
18	0xbe6822bd	-0.22669502
19	0xbec8e18f	-0.39234588
20	0xbe8e0692	-0.27739388
21	0x3e606526	0.21913585
22	0x3e8f29d4	0.279616
23	0x3ea22767	0.31670687
24	0xbe8fd20d	-0.28089944
25	0xbe7816b6	-0.24227414
26	0xbe6b336a	-0.22968832
27	0xbe83ba1b	-0.25727925
28	0x3e72b9a1	0.23703624
29	0x3ea25f06	0.31713122
30	0x3e6dda34	0.23227769
31	0x3ea3d0a9	0.31995133
32	0x3e9e6823	0.30938825
33	0xbea93688	-0.33049417
34	0xbe85baa4	-0.26118958
35	0x3e95589d	0.2916917
36	0x3ea24885	0.31695953
37	0xbe66025f	-0.22461842
38	0xbeca0b2a	-0.39461643
39	0x3e7bc4aa	0.2458674
40	0x3e9b194a	0.30292732
41	0xbe9176fc	-0.2841109
42	0xbe7e5f28	-0.24840987
43	0xbeac84c8	-0.33695054
44	0x3e9b730a	0.30361205
45	0xbea8e865	-0.32989803
46	0xbe711fde	-0.23547313
47	0xbe835783	-0.25652704
48	0x3e847bab	0.258756
49	0x3e8e7479	0.27823237
50	0xbe9d1c0c	-0.3068546
51	0xbe82ec06	-0.25570697
52	0xbe844756	-0.25835675
53	0x3e7cbc67	0.24681245
54	0xbe93774a	-0.28801948
55	0x3e6a1a06	0.2286149
56	0xbe8def39	-0.27721575
57	0x3e989e38	0.2980821
58	0xbea525a3	-0.32255277
59	0xbe5796c2	-0.21053603
60	0x3e55b312	0.20869091
61	0xbe85fba0	-0.26168537
62	0xbe943f10	-0.28954363
63	0xbecb0ab7	-0.39656612
64	0x3e7b54ce	0.24544069
65	0xbea0626d	-0.31325093
66	0xbe8ca216	-0.27467412
67	0x3e9eebd5	0.310393
68	0x3e74af88	0.23895085
69	0x3eab2536	0.33426827
70	0xbe90e2c5	-0.2829801
71	0x3e938f26	0.2882015
72	0x3eb2d3da	0.34927255
73	0x3ead8948	0.338938
74	0x3e8440a9	0.25830582
75	0x3e786e25	0.24260767
76	0x3eafc94d	0.34333268
77	0x3e8c4b28	0.2740109
78	0x3ea2f324	0.31826127
79	0xbe89d918	-0.26923442
80	0x3e83a983	0.25715265
81	0xbe6f305d	-0.23358293
82	0xbe8deaa3	-0.27718076
83	0x3e66d922	0.22543767
84	0xbe9aa667	-0.3020508
85	0x3e5ed57e	0.21761128
86	0x3e96e2c8	0.29469895
87	0x3e80194c	0.250193
88	0x3e847806	0.2587282
89	0x3e96a820	0.29425144
90	0x3eac9283	0.3370553
91	0xbe8f793d	-0.28022185
92	0xbe8004e8	-0.25003743
93	0xbea20bd1	-0.3164964
94	0xbeabb3d5	-0.33535638
95	0xbe8953dc	-0.26821792
96	0xbe8ee793	-0.27911052
97	0x3e85b5e4	0.26115334
98	0xbe9a513a	-0.30140096
99	0xbe885969	-0.26630715
100	0x3eae8921	0.34088996
101	0x3e7ff5f6	0.2499617
102	0x3e7ccbb0	0.24687076
103	0x3e9d3b24	0.30709183
104	0xbe9dd59d	-0.30827036
105	0x3ea62615	0.3245093
106	0xbe62e09a	-0.22155991
107	0x3e81652f	0.2527251
108	0x3e92d804	0.28680432
109	0x3e9e8887	0.30963537
110	0x3eb3223c	0.34987056
111	0xbe782b5f	-0.24235295
112	0x3e89ed9b	0.2693909
113	0x3e979700	0.2960739
114	0x3e693123	0.2277265
115	0x3e7e3c68	0.2482773
116	0xbea12316	-0.3147208
117	0xbe883175	-0.26600233
118	0x3e9379cd	0.28803864
119	0x3e4db699	0.20089187
120	0xbe542ea8	-0.20720923
121	0xbe95936c	-0.29214036
122	0xbe68c736	-0.22732243
123	0xbe891377	-0.26772663
124	0x3e7376aa	0.23775735
125	0x3e84d172	0.25941044
126	0xbeac5bde	-0.3366384
127	0xbe916dc4	-0.28404057
