ippo_algorithm_belief/checkpoints/ppo_actor_2num_agent_exp_3_run_0_lumberjacks.pth (torch, 204540 bytes, 8 tensors)

actor.0.weight f4 [128, 128]
000000 89 a8 20 3d 38 09 3b bd 09 7b d2 bc b1 f2 6d 3d
       0.039223228 -0.04566309 -0.025693433 0.058092777
000010 78 b6 d7 bd 37 91 09 bd 47 e1 8e bd ec 3b d9 bc
       -0.1053285 -0.033585753 -0.06976562 -0.02651783
000020 e5 03 f6 3b 0b 0c 9c bd 92 1d e0 3c 63 1d 29 bc
       0.0075077885 -0.076194845 0.02735785 -0.010321948
000030 39 1d b3 bd 44 91 b4 bd 7e a7 68 3d 07 f1 f6 3c
       -0.08745808 -0.0881677 0.056800358 0.030144228
000040 39 86 3d bc 10 8e 78 bb cc 03 9b 3c 90 c3 ca bd
       -0.011567646 -0.0037926473 0.018922709 -0.09900582
000050 d4 79 03 3c 2b 23 60 3d 1b 3c 94 bd f6 9c de bd
       0.008024652 0.05472104 -0.07238027 -0.10869782
000060 25 38 b6 bc d6 f6 2b bd 70 da 4e 3d 07 00 8a 3c
       -0.022243569 -0.041983448 0.050501287 0.016845716
000070 b2 1a 27 bd b0 49 bf bd a3 78 0d bd db cd 05 be
       -0.040796943 -0.09340227 -0.034538876 -0.13066809
000080 4d 14 82 bd 58 91 f9 3c 30 cb e5 3b 85 1e b7 3c
       -0.06351528 0.030464813 0.007012747 0.02235342
000090 08 b0 ed 3c b9 6f 10 bc a4 7f 6e 3d 8a 9a e1 3b
       0.029014602 -0.008815699 0.058227196 0.0068848776
0000a0 69 2c 7f 3b 7b b2 96 bc ba 77 25 bc bd b9 91 3a
       0.0038936383 -0.018395653 -0.010099346 0.0011117976
0000b0 4a 2a 22 3d ae dd 2b bc 4b 6c 96 3b 70 22 76 3d
       0.03959111 -0.010489864 0.0045905462 0.060091436
0000c0 15 87 82 3a 4e 81 73 3c fe 26 46 bd 3d cf 5f bc
       0.000995847 0.014862372 -0.04837703 -0.013660249
0000d0 33 bb 12 3d 8d 6c cb bb 64 69 70 bc 6f 70 8c bd
       0.03582306 -0.0062080086 -0.014673565 -0.068573825
0000e0 ed 22 1c 3d 48 08 a7 3b 82 85 ce bd 0f 5a b3 3d
       0.038119245 0.0050974227 -0.10084058 0.08757412
0000f0 e7 e0 fb bc 82 96 9b bd f0 de c5 3c c7 cd 2b 3e
       -0.03074689 -0.075970665 0.024154156 0.16777717
000100 b5 89 84 3e 4a 96 eb bd fe 6f 03 bd 85 e8 33 3d
       0.25886312 -0.11503275 -0.032089226 0.04392292
000110 42 df e4 bc 48 a3 0e bd 21 8c 1a be 60 02 d3 bd
       -0.027938489 -0.034823686 -0.15092517 -0.10303187
000120 59 f3 5e 3d 14 9a 3a 3d 8f 8a 28 3d 70 e9 c6 bd
       0.054431293 0.045557097 0.041147765 -0.097124934
000130 ff 0e 05 be fe ed 97 ba 0c 8f 47 bd 9b 0b dc bd
       -0.12994002 -0.0011591313 -0.048720405 -0.10744401
000140 22 fa 8c bd 6b 73 96 bd 25 fa ae 3d 7e 55 a4 3d
       -0.068836465 -0.07346233 0.08543805 0.08024119
000150 5b de 98 3d b6 b3 b5 bd 37 b1 ad 3c 87 1f 6e bd
       0.07464286 -0.08872168 0.021202667 -0.058135536
000160 d9 16 dc 3d 80 a4 82 3e 18 28 57 3e 90 64 6e 3d
       0.10746545 0.2551613 0.21011388 0.058201373
000170 e8 c1 8a 3b 3b a2 0a 3e a1 01 82 bd f3 55 e4 bd
       0.004234541 0.13538449 -0.06347967 -0.11149206
000180 60 a0 8a bd 80 43 32 bd 7e 0c 54 bb b3 31 fc ba
       -0.0676887 -0.043521404 -0.0032356079 -0.0019240886
000190 82 29 aa bd 07 06 9b bd 7b 46 45 bd 40 b4 1f bd
       -0.08308698 -0.07569509 -0.04816292 -0.03899026
0001a0 f5 c6 82 3d fd a4 84 bd 45 d0 93 3d f2 15 56 bb
       0.06385604 -0.064767815 0.07217459 -0.003266689
0001b0 93 23 37 3c 73 ee b1 3d aa 21 69 bd 60 05 34 3d
       0.011177915 0.08688059 -0.05691687 0.04395044
0001c0 fb 4a a8 bd a3 b4 83 3c 60 01 a3 3c d8 c0 83 bd
       -0.082174264 0.016077345 0.019898117 -0.064332664
0001d0 6a 9c aa bd fb 29 22 bd ad 1b 5d 3c 27 87 64 3d
       -0.08330615 -0.039590817 0.013495368 0.055792954
0001e0 e6 04 b7 bd 5e da 6f 3d 38 f6 80 bd d5 ef a6 3c
       -0.08936481 0.05855786 -0.062969625 0.020378033
0001f0 9a e1 82 3c d9 a8 52 3d 78 73 99 3d cf eb be bb
       0.015976716 0.051430557 0.07492727 -0.0058264504
000200 b1 27 d3 bb 1f eb 25 bd 6b 20 ca 3c 83 2c d3 3c
       -0.0064439406 -0.040507432 0.024673661 0.02577806
000210 58 b5 23 bd b2 11 ae bd 3e 46 da bc 52 7c 47 ba
       -0.039967865 -0.08499469 -0.026644822 -0.0007609773
000220 56 15 1b 3d 2c 2c c7 3d 0a bf 31 3d 03 ef 23 3d
       0.037862144 0.09725222 0.04339508 0.04002286
000230 4f cf 83 bd 9e d6 95 3d 42 51 d8 bc 07 bb 2f 3c
       -0.06436025 0.073163256 -0.026405934 0.010725743
000240 5c f7 f4 bc 5d 3e fb bd 17 65 aa bb 27 b9 90 bd
       -0.029903106 -0.12267754 -0.005200039 -0.07066565
000250 5d 3f 68 3d b8 51 3f bd 2a 92 b7 bc 23 68 f5 bd
       0.056701053 -0.046708792 -0.022408564 -0.11982753
000260 0c 14 cf bd 7b 8d 0e 3a 7b 3f b2 bb 19 79 c7 3c
       -0.101112455 0.00054379523 -0.0054396964 0.024349736
000270 bb f8 3e 3d 7a e3 47 3d 81 f9 0f 3d e2 96 3d 3d
       0.046623927 0.048800923 0.035150055 0.04628647
000280 c3 6d a9 3d 42 5f 43 bc 11 8f cc 3d 4a 4e ad 3d
       0.082728885 -0.011924567 0.09988225 0.08462198
000290 8f 2f 09 3d e4 77 5f 3c 8b de ad 3d 4a c6 7f 3d
       0.03349262 0.013639424 0.08489712 0.062444963
0002a0 02 95 9c 3d 63 60 3c bd fc 8b d6 bd 4a 98 0b bd
       0.076456085 -0.04599036 -0.10475919 -0.03408078
0002b0 a8 29 80 3c 8f 2c 00 bd f8 11 bc bd 31 70 c8 3d
       0.015644863 -0.031292494 -0.09183115 0.09787024
0002c0 e8 6b a1 bd b6 1b 1a bd 73 c1 b2 bc cf 31 9b ba
       -0.078819096 -0.037624083 -0.02182076 -0.0011840406
0002d0 a8 05 c9 bd 7e d6 5f 3d 41 57 7e 3d 90 8e 13 3e
       -0.09815532 0.054647915 0.06209493 0.14409852
0002e0 f7 ac 0e 3d 05 93 50 bd ff a7 8d b9 d4 17 c4 3d
       0.03483292 -0.05092146 -0.00027018783 0.09574857
0002f0 69 20 5f 3e 3c 9f c3 3d 4b 6d 1f 3c f2 97 97 3b
       0.21789707 0.09551856 0.009730647 0.0046262676
000300 03 f3 09 be 4d 86 09 bc 8f 19 84 bd 6a 68 be bd
       -0.13471608 -0.008393836 -0.064501874 -0.09297259
000310 73 26 ad ba e3 0b 33 bd 62 c2 35 be 52 a5 94 bd
       -0.0013210311 -0.043712508 -0.17749932 -0.07258095
000320 59 18 8a bd 73 a4 b1 3c ab 89 3a 3d d7 0f 75 3b
       -0.06742925 0.02168486 0.045541447 0.0037393474
000330 32 4b 9a 3d f3 4d 33 bb 5b 61 55 3d 51 43 fc 3c
       0.075338736 -0.0027359694 0.0520948 0.030793818
000340 b6 bd 1d 3e a8 2b 8f 3d f0 ff 29 bd 18 56 bf 3d
       0.154044 0.06990749 -0.041503847 0.09342593
000350 06 dd 49 3d 2c 1f 8a 3e fd 22 9a 3d 3d 64 37 3d
       0.04928305 0.26976907 0.07526205 0.04477333
000360 8c c1 b0 3d 70 94 2a ba 34 ff 80 bd c5 b3 d3 bd
       0.08630666 -0.0006507104 -0.06298676 -0.10337023
000370 a8 1c 11 b9 e3 3e e3 3c 27 ae 09 3d df 72 83 bd
       -0.00013838953 0.027739948 0.03361335 -0.06418394
000380 a7 47 e9 bd 98 13 fa bd e8 d5 20 bc fc cd b0 bb
       -0.1139062 -0.122107685 -0.009816624 -0.005395649
000390 08 bb a3 bc b8 01 b3 3c 5a 27 0c bd 7f 65 c4 bc
       -0.019986644 0.021851406 -0.034217216 -0.023974178
0003a0 52 80 f1 bc 33 e2 0a bd dd ac b3 3d 28 ef 35 bd
       -0.029480133 -0.033907127 0.087732054 -0.04441753
0003b0 3b 8c 88 3d bf 39 81 bd e2 f2 82 bd 88 6c 23 3c
       0.06667372 -0.06309842 -0.063939825 0.009974606
0003c0 d6 6d 29 3d 80 00 27 3d 11 1c 86 3d 51 4c 11 3d
       0.041364513 0.04077196 0.06548322 0.03547317
0003d0 4a 1b 92 bc 0a 65 09 3c 2b a7 16 3d 1c 90 3e bd
       -0.017835278 0.008385906 0.036780518 -0.046524152
0003e0 de be 87 3d 88 aa 20 3d 0d 45 40 3c 9c c5 64 3d
       0.06628202 0.03922513 0.011735213 0.055852517
0003f0 da e7 22 bd 28 44 a6 bd b7 99 af 3c 9b ef 34 bd
       -0.039771892 -0.081184685 0.021435602 -0.044173818

actor.0.bias f4 [128]
000000 cb c6 35 bd 6e 77 91 3c e5 c2 86 3d 96 b2 8d 3d
       -0.044379037 0.017757144 0.06580142 0.06918828
000010 a3 57 1f bd 14 30 51 bd 73 a0 19 3d e2 12 13 3d
       -0.038901936 -0.05107124 0.037506532 0.03590668
000020 8d ad 80 3d a5 3b 80 3c bc e8 06 bd 42 d6 4e bd
       0.06283102 0.01565344 -0.032936797 -0.0504973
000030 38 a6 97 3d c0 3f 7f ba e9 ed a0 3d 63 7e 0e 3d
       0.074047506 -0.00097369775 0.07857878 0.0347885
000040 8d 84 0f bd 59 62 5a 3d bf 56 56 bd 5e 63 26 3c
       -0.03503852 0.053316448 -0.05232882 0.010155527
000050 23 9b 2c 3d 3c 97 f4 bb 50 15 a1 bc 59 93 94 bd
       0.042140137 -0.0074643176 -0.019663483 -0.07254667
000060 e6 55 6e bd 29 f9 7b 3c b0 e8 95 bc 3f ab 1a bc
       -0.058187388 0.015379229 -0.01829943 -0.009440242
000070 33 69 50 bd cd 81 5a bd 1a 2f 0b bd bf ca ca 3b
       -0.050881576 -0.053346444 -0.033980466 0.00618872
000080 1d ae cd bc 44 a7 38 3d b2 b6 e0 bc b9 08 2d 3d
       -0.025107438 0.045081392 -0.027430866 0.042244647
000090 99 9e 05 3b 7f db 1e 3c c7 71 04 3d 05 d6 46 3c
       0.002038872 0.009695887 0.03233507 0.012135987
0000a0 e7 b9 52 3d 9d c3 6a 3d 4a 18 27 3d 7d 97 57 3c
       0.05144682 0.057315458 0.04079465 0.013158676
0000b0 33 bb 24 3d 58 07 1c bd 77 6e 6f 3c b4 7d 65 bd
       0.04021759 -0.03809294 0.014613739 -0.056028083
0000c0 bd eb 0c bd 51 93 14 3c 6f 8f d2 3c c5 93 c5 3c
       -0.034404505 0.009068326 0.02570316 0.024118314
0000d0 d9 03 6c 3d 6a 30 37 bd 0b 6a 88 3c e9 82 ec 3c
       0.057620857 -0.044723906 0.016652128 0.028871017
0000e0 df 25 1e bd 2e 46 6e bb ee 2e 9a 3c ca b7 0f 3d
       -0.038610335 -0.0036357748 0.018821206 0.035087384
0000f0 4b ca 15 bd 1e a2 76 3d 2e f4 a8 bb 94 b2 99 bd
       -0.036569875 0.0602132 -0.0051560616 -0.07504764
000100 46 53 62 3d 81 80 47 bc 84 ff b4 bc 34 b0 b0 ba
       0.055255197 -0.012176634 -0.022094496 -0.0013480247
000110 c5 d2 bf bc e9 9e 39 bd 29 18 20 bd cb 02 12 bd
       -0.023415932 -0.045317564 -0.03908554 -0.035647195
000120 fa 09 c0 bb cb c0 4a bc 32 e8 9b 3d a3 c9 0c bd
       -0.0058605643 -0.012375067 0.07612647 -0.034371983
000130 0f 77 b3 3d dc 89 03 3d f2 aa b9 bb 23 5a 97 bd
       0.08762943 0.032113895 -0.00566613 -0.07390239
000140 28 3f 40 bd e3 a7 3b bc 6f 9b 1a 3d 57 09 d8 3c
       -0.04693523 -0.0114536015 0.03774589 0.026371641
000150 97 7b e9 3b a7 ae 67 3d 9d 06 dd 3c 5d 09 a2 3d
       0.0071253288 0.056563046 0.026980693 0.07911942
000160 59 bf 22 bd 46 2b 87 3d 1c d4 48 3d e4 6e ab ba
       -0.039733265 0.06600051 0.04903041 -0.0013079313
000170 86 12 65 3d 18 d9 c5 3b 02 3c da 3c 72 e2 16 3c
       0.05592587 0.0060378425 0.026639942 0.009209262
000180 bb d9 ed 3a 86 8a 71 bd 2f 91 cb bb 62 9a 62 bd
       0.0018146554 -0.058969997 -0.0062123756 -0.055323012
000190 ee 05 8d 3d 23 3d 1e 3d 21 24 c4 3d 37 86 62 3d
       0.068858966 0.038632523 0.095772035 0.05530378
0001a0 df 62 58 3d 8f d5 89 3d 18 d3 6f 3c 7b 86 89 3d
       0.052828666 0.06730186 0.014637731 0.06715103
0001b0 4f 41 45 bd 80 b6 8d bc 21 9a 0e 3d 04 a5 cc 3b
       -0.048157986 -0.017298937 0.034814958 0.0062452573
0001c0 f8 63 66 bc ce da 75 3d 66 07 a4 bc 15 69 2d 3b
       -0.01406192 0.06002312 -0.02002306 0.002646034
0001d0 c5 09 0c bd 10 1a 09 bd e5 65 2a bd 50 71 a1 3d
       -0.034189004 -0.03347212 -0.04160108 0.07882941
0001e0 97 9e 90 3b c7 12 a4 bd 55 85 37 bc 01 46 2a 3d
       0.0044134366 -0.08011394 -0.011201222 0.041570667
0001f0 ab da 47 3d cc d8 3e bb d4 1e a1 3d 22 b6 77 3d
       0.048792522 -0.002912092 0.07867208 0.06047643

actor.2.weight f4 [128, 128]
000000 1e fe cc bc 96 9c 8f bc 8e 17 71 bd 45 a2 3b 3d
       -0.025023516 -0.01753072 -0.058860354 0.04580905
000010 52 74 94 3d 6b ae 8c bc 01 66 d8 bb 99 13 5f 3d
       0.07248749 -0.017173013 -0.0066039567 0.05446205
000020 b8 19 ee bc e5 31 a8 bd 3a 8f bb 3d 4e 97 9e bd
       -0.029064998 -0.082126416 0.09158178 -0.07743703
000030 c8 26 4a 3d d2 9b 64 3d c6 3a 98 ba cf 48 89 3c
       0.04935339 0.055812664 -0.0011614196 0.01675835
000040 17 6c 59 bc fe 14 47 bd 33 01 09 bd c0 4b 0a 3b
       -0.0132703995 -0.048604004 -0.03344841 0.002110228
000050 e6 b2 95 3d 1d a2 60 bd a3 c6 b0 3c c8 4f 39 bd
       0.07309513 -0.054842103 0.021579092 -0.0452421
000060 82 03 2e bd 44 a3 1c bd 05 2d 08 bc 7d 77 1e 3c
       -0.042483814 -0.03824164 -0.008311515 0.009672043
000070 45 86 ae bc d0 53 f3 bc 48 5d a8 bc 55 cb 11 bd
       -0.02130426 -0.02970305 -0.020552292 -0.035594303
000080 2c 71 44 3d 54 45 33 bc 80 de 2d bd 8e ec a9 3a
       0.04795949 -0.010941822 -0.04244852 0.0012964176
000090 d7 1a 45 bd df 44 5d bd c6 51 cc bc 19 22 7d bd
       -0.0481213 -0.05402076 -0.024941336 -0.061800096
0000a0 52 55 63 bd 12 10 00 3d d1 79 51 bd d6 11 7e bd
       -0.05550129 0.031265326 -0.051141564 -0.06202873
0000b0 a4 a1 b3 3d b6 fd d8 3d 95 be b4 bb 88 17 6e bd
       0.08771065 0.105952665 -0.005515883 -0.05812791
0000c0 4b e4 24 bd c4 5b b6 3c 65 dc 29 bb 50 39 3e 3c
       -0.04025678 0.022260554 -0.002591872 0.011610344
0000d0 73 1f a2 3d f0 24 25 3c 77 21 ce bd 76 75 ab ba
       0.07916155 0.010079607 -0.10064977 -0.0013081271
0000e0 60 ff 79 3d c7 be 2d bc 11 6e ef ba f6 02 e3 bc
       0.06103456 -0.010604567 -0.0018267055 -0.027711373
0000f0 ab b1 68 bd 97 40 26 bd ec 74 c8 3c 94 07 67 bd
       -0.056810062 -0.04058894 0.024469815 -0.05640371
000100 0c b8 aa bd 8e c0 37 3d 6b 24 5d bc 5e d7 46 3d
       -0.083358854 0.04486137 -0.013497452 0.048545234
000110 2b 75 94 bd 7d 16 ba 3d f4 55 1f 3d fc 5f 46 3d
       -0.072489105 0.090863205 0.03890033 0.04843138
000120 ba 47 90 ba a8 00 57 bd 0f 7a ba bb ad 3f af 3d
       -0.0011007704 -0.05249086 -0.00569082 0.08557067
000130 c3 78 b8 bd 0b 81 8d 3d c2 55 2d 3d db 8f 50 bd
       -0.090074085 0.069093786 0.042318113 -0.05091844
000140 a2 8e fd bc a4 8c 80 bd 31 d9 b3 3d f3 5e 5c 3c
       -0.030951802 -0.06276825 0.0878166 0.013450372
000150 c7 4c f1 bd 62 df 1c bd 4c 3a 9a 3c 39 9f 0b 3d
       -0.11782222 -0.038298972 0.018826626 0.034087393
000160 00 71 14 3d 47 7c 06 bc 06 a1 d2 bd 0e 80 30 bd
       0.036240578 -0.008208341 -0.10284619 -0.043090872
000170 07 44 99 3d 5c 01 22 bd d0 bd 9f 3c ec 42 77 bd
       0.07483678 -0.039552078 0.01949969 -0.060366556
000180 a0 82 1f 3d ca b2 25 3b 6d b3 8e 3d 7e f2 95 bd
       0.038942933 0.0025283569 0.069678165 -0.07321642
000190 bd 8d 13 3d a0 31 c6 bc f5 cd 55 3d d2 b1 6d 3d
       0.036023844 -0.024193585 0.05219837 0.05803091
0001a0 f1 0b 41 3d 6c ab 19 bc dc c4 cf bc a2 b0 1e 3d
       0.04713053 -0.009379249 -0.025362425 0.03874267
0001b0 da b8 04 3d a5 81 1b 3d cc 6b b3 3d 03 c4 92 3a
       0.03240285 0.037965436 0.08760795 0.0011197332
0001c0 9d 71 d7 3c 60 03 8f bd b4 0d 24 3d 73 04 38 3c
       0.026299292 -0.069830656 0.04005213 0.0112315295
0001d0 fa ae a1 3c be e2 0e bd fa 77 e0 bd c2 fd 02 bc
       0.019736756 -0.034884207 -0.10960384 -0.007995071
0001e0 b0 4a 8e bd 57 f6 ab 3d 51 8c cd bd be f3 70 bd
       -0.06947839 0.08396595 -0.10036529 -0.0588262
0001f0 48 a9 a0 3d 25 ad 13 3d 5b 62 63 bd 5d 86 59 bd
       0.07844788 0.036053795 -0.05551372 -0.053106654
000200 08 be 2a 3d 02 df 63 bd 30 a6 b3 bd de d9 11 3d
       0.041685134 -0.0556326 -0.08771932 0.035608165
000210 ae 84 b2 bd c3 80 95 bc 7c b7 13 bd a1 b8 66 ba
       -0.08716713 -0.018249875 -0.036063656 -0.00088013156
000220 bb ec 44 3d da 51 1d 3c 79 bb 34 3c 3a b2 4d bd
       0.048077326 0.009602034 0.011031025 -0.0502188
000230 aa 54 1b 3c 14 94 82 bd 83 83 91 3c 97 26 76 3d
       0.009480635 -0.063759 0.017762905 0.060095396
000240 85 6e 82 3d 75 06 f6 3c 01 f5 09 bd 20 16 dc bb
       0.06368736 0.030032376 -0.03368092 -0.0067165047
000250 bc 70 28 3c 2d 77 de bc 78 db b8 3d 5b e5 b3 bd
       0.010280784 -0.027156437 0.09026235 -0.087839805
000260 26 61 d3 bd 57 7f 88 3d 02 2e ee bc 3e 04 7f bd
       -0.10321264 0.06664913 -0.029074673 -0.062259905
000270 3c 14 66 3d 47 2c b7 bc 22 0c 9a bd 30 1e b1 3d
       0.05617164 -0.02235998 -0.075218454 0.08648336
000280 8c ed 2b 3d 15 49 58 bc dc 34 28 bd f4 3c 78 bd
       0.04197459 -0.013201018 -0.041066036 -0.060605004
000290 65 ba 3b bd b7 ed cc bd d6 2b 53 3d b2 e6 e7 3d
       -0.045832057 -0.10006278 0.051555477 0.113232985
0002a0 7f 17 a1 bd 64 95 57 3d be ea a6 3d 55 cd 2f 3d
       -0.0786581 0.052632704 0.08150242 0.04292043
0002b0 53 cd 87 3d 2d 26 ee bc 4d f4 9e bd 02 c9 85 bd
       0.06630959 -0.029070938 -0.077614404 -0.0653248
0002c0 1b ad 09 3e b1 a1 d0 3d 36 6a 95 bd c7 de eb 3c
       0.13444941 0.1018709 -0.07295649 0.028792752
0002d0 4a e1 22 3d 96 60 0c bd f2 c8 a5 bb b3 26 84 3c
       0.039765634 -0.0342718 -0.005059355 0.016131734
0002e0 79 cd 43 bd 0c 57 2f 3d 01 04 f9 bd 08 14 f5 3d
       -0.047803376 0.042807624 -0.12158967 0.11966711
0002f0 f0 ad d0 bc 89 9a 10 3c 70 a7 83 3a 88 d0 88 3d
       -0.025473565 0.008825907 0.0010044407 0.06680399
000300 95 eb cd 3c 2e 8a 62 bc 3f 62 cb 3d dd 4f ae bd
       0.025136748 -0.01382689 0.09930848 -0.085113265
000310 7f d3 9b bd 38 9e db 3c 1a 38 ba ba 49 13 ae 3c
       -0.07608699 0.026808843 -0.0014207393 0.02124943
000320 3c 29 ba bc c8 d7 ca 3d f2 47 95 bc 0a 33 de 3b
       -0.02272474 0.09904438 -0.018222783 0.0067809867
000330 5a ae 70 bc 55 b6 9d 3d 8b 81 c1 3d 96 40 0a bb
       -0.014690006 0.07700793 0.094485365 -0.0021095625
000340 7e 54 4b 3d da 79 4c bd 2b 10 ec 3d 8d 72 35 3b
       0.049641125 -0.049920894 0.11526521 0.0027686686
000350 f0 b4 b1 3b 92 e0 c6 bd ef 32 60 3d b9 0e a4 3d
       0.0054231808 -0.09710802 0.054736074 0.080106206
000360 5d ac 0a 3d a7 29 04 3d 4b 6e 12 3d 1e 91 ce bb
       0.033855785 0.032266285 0.035749715 -0.0063039204
000370 5e 7e 26 bd ee 10 bd bd 32 d4 5d 3d 6c a7 81 3d
       -0.040647857 -0.09231745 0.054157443 0.06330761
000380 17 32 2b bb 6d f0 9f 3c 1b cf 7a ba 8d f4 fe 3c
       -0.0026122385 0.019523824 -0.0009567604 0.03112247
000390 5a 39 d1 bc 53 5a 3a 3c 1e 2f 9d bd d7 a8 b5 bd
       -0.025540043 0.011374074 -0.076750025 -0.08870094
0003a0 d7 55 db bc 0f 98 4e 3d 31 80 98 3d 27 17 a1 3d
       -0.02677433 0.050437983 0.074463256 0.07865744
0003b0 dc 4a bf bc 20 ec 8e 3d 76 64 29 3d 6f 96 7a 3d
       -0.023351125 0.06978631 0.041355573 0.06117862
0003c0 46 52 81 3d 16 0c 69 bd f5 01 16 bb 55 e4 8c bd
       0.063145205 -0.05689629 -0.002288935 -0.068794884
0003d0 56 4c 19 bd 47 2d 25 bd a3 fd a0 bd c5 4f 7a bc
       -0.037426315 -0.040326383 -0.07860877 -0.015277808
0003e0 9d f0 23 3d a6 4a f3 3c e2 7c c5 bd 17 ba 69 bd
       0.04002439 0.029698681 -0.0964296 -0.057062235
0003f0 69 4c b0 3d 41 4b 48 bd ce 86 ec 3b 6d 2d fe bd
       0.08608324 -0.048899893 0.0072182184 -0.12411008

actor.2.bias f4 [128]
000000 67 2b 3e 3d 90 6e df 3c 59 4d 1f 3b 96 2a 1a bd
       0.04642811 0.0272744 0.0024307577 -0.03763827
000010 d5 bf 87 3c 35 e0 f2 3c 3a 8f 38 3d 11 47 16 bd
       0.016570965 0.029647926 0.045058466 -0.036688868
000020 c1 83 39 bd 57 4b bf 3c c2 f2 6e 3d 30 a8 91 bd
       -0.045291666 0.023351355 0.05833698 -0.07112157
000030 b2 4c 25 3d 6e 97 77 bc 78 0a 37 bd 0e e6 ea bc
       0.040356345 -0.015111787 -0.04468772 -0.028674152
000040 65 a2 26 bd 63 52 87 bc 59 66 9b bd bb df b0 3b
       -0.040682215 -0.016518777 -0.07587881 0.0053977645
000050 9f 28 ea bb c4 d0 27 3d ba 44 86 3d ac 4d 86 3d
       -0.0071459557 0.04097058 0.06556077 0.065577835
000060 45 33 2f bd b4 b7 81 3d 96 35 69 bc 35 c2 ae 3b
       -0.042773504 0.06333867 -0.014233967 0.00533321
000070 b8 f1 53 3d 69 ff be 3c a7 1a da bb ad 04 e5 3c
       0.051744193 0.023315148 -0.0066560092 0.027956331
000080 5e e9 02 3d 1a b6 51 bc 29 9a 2b bc d5 fd 8d bd
       0.031960838 -0.012799764 -0.010473766 -0.0693318
000090 e3 75 40 3d 2b b9 8a 3a 95 f6 0e bd 73 61 98 b9
       0.046987426 0.0010583749 -0.034903128 -0.00029064305
0000a0 16 96 c4 3b 1a b8 91 3d 88 d0 ad bc 57 40 6c 3d
       0.005999337 0.07115193 -0.0212176 0.057678547
0000b0 68 b7 1c 3c b1 ea c4 bc 9c dc 2e 3a a0 39 20 3d
       0.009565212 -0.02403769 0.00066704466 0.039117455
0000c0 18 60 1c 3d a0 ad 50 3d 33 26 f3 bb 27 f8 8b 3d
       0.03817758 0.05094683 -0.007420325 0.06834441
0000d0 bf 99 1d 3d bc d1 b4 ba 84 f6 18 bd 3f 1d 61 3d
       0.0384767 -0.0013795416 -0.03734447 0.054959532
0000e0 8a 74 2c 3d ff cb 0d bd b3 8f af bc 18 04 92 bd
       0.042103328 -0.034618374 -0.021430826 -0.07129687
0000f0 b1 d7 4f bd 6e 02 dc bb b2 1d 02 3d 6a c5 7e bc
       -0.05074281 -0.006714157 0.0317666 -0.015549997
000100 a6 83 72 bb 09 01 17 3d 43 32 73 3d 3e 1f 5b 3c
       -0.0037004738 0.03686622 0.059374105 0.013374148
000110 08 e5 ce bc 4b ea 5d 3c e9 2f d5 bc 5e e5 ee bc
       -0.025255695 0.013544629 -0.026023822 -0.029162105
000120 53 6a 27 bd de f9 dc bc d9 86 65 3d fc 56 ff 3c
       -0.040872883 -0.026974615 0.056036804 0.031169407
000130 d3 8a 27 3d 19 65 69 bd 5b 96 f6 ba 51 e9 cd bc
       0.040903877 -0.05698118 -0.001881312 -0.025135668
000140 d8 0a 08 bc f3 24 93 3c 36 e2 62 bc 98 33 64 3d
       -0.008303367 0.017961955 -0.013847878 0.055713266
000150 17 aa 37 3c fb e3 fa bb d1 ad 01 bd 46 c7 9a 3a
       0.011209986 -0.007656572 -0.031659905 0.0011808656
000160 25 96 bf bc ae b2 4f 3b 1c 8a 80 3d bc 53 37 bd
       -0.023387024 0.0031692195 0.06276342 -0.04475759
000170 d8 87 5f bc 56 ce 11 3d 11 cb da 3c 5b 11 b8 3c
       -0.0136432275 0.035597168 0.026708158 0.022469213
000180 de a6 34 3d 11 de 1e bd 77 69 1e 3d 29 bf f2 3a
       0.04410445 -0.038785998 0.038674798 0.0018520105
000190 35 14 bd bc 98 d4 57 3a 71 94 0d bd ff 07 22 bd
       -0.023080925 0.0008233278 -0.034565393 -0.039558407
0001a0 3f e6 af 3c 6c 91 42 3d 2c 2d 3c 3c 92 da 76 3b
       0.021472095 0.047501966 0.011485379 0.00376669
0001b0 be 1f 05 bd 2d bd 18 3d 45 3a c8 bb 8b a1 66 bd
       -0.032500975 0.037289787 -0.006110462 -0.056306403
0001c0 be 5f 29 3a 66 69 b5 bc 40 4c 04 bd b4 23 08 bd
       0.0006461105 -0.022144984 -0.03229928 -0.033237174
0001d0 32 1d 7c bd 00 78 9d 3d e3 b3 13 3d d6 f4 0d 3d
       -0.06155128 0.07688904 0.036060225 0.034657322
0001e0 f2 3a a1 3d f0 58 a7 bc bf b3 79 ba 82 3f 73 3b
       0.07872571 -0.02042815 -0.00095253804 0.003711671
0001f0 09 c8 76 bc ed 6d e1 3c 3d cb 95 bc 10 8f 79 3d
       -0.015062341 0.027518237 -0.018285388 0.06092745

actor.4.weight f4 [128, 128]
000000 0a 0d 83 bd 76 4d 87 bd 54 c8 94 3c 5e 4b e6 bc
       -0.063989714 -0.066065714 0.01816193 -0.02811211
000010 12 3a 29 3d 8b f7 9d 3c 99 ad 16 bd 41 65 86 bc
       0.041315146 0.019283077 -0.03678665 -0.016405703
000020 55 20 1f 3d a1 48 5c bd c0 dd 7d bd 3d 7b 81 3c
       0.038849194 -0.0537802 -0.061979055 0.015805835
000030 d5 16 a2 bd 03 7c 60 bd 51 f5 43 bd fe 64 5d 3d
       -0.07914511 -0.054805767 -0.047841374 0.05405139
000040 ac 6a 84 3b 8b 89 57 3d c9 cd 7b 3d 76 c5 8e 3d
       0.0040410366 0.052621406 0.06147555 0.069712564
000050 c3 5c 7f bc c4 29 0e 3d 95 9c 9a bc 8b 86 1b bd
       -0.015586081 0.0347078 -0.018873492 -0.037970107
000060 71 eb 94 bd 12 19 f7 3b a4 e7 b1 bb 86 11 ef bc
       -0.072714694 0.0075408304 -0.005429225 -0.02918316
000070 c5 8c dd bd 06 98 86 3d 0f f3 64 3d f3 36 88 bd
       -0.10817865 0.06571965 0.05589586 -0.06651106
000080 fa 07 68 bd f6 48 ec bc bb f1 b7 bd 8c 7f 50 bc
       -0.056648232 -0.028843384 -0.08981653 -0.012725722
000090 46 3c 3c 3d 0e c1 fb bc 45 09 87 bd 40 81 d2 bd
       0.04595592 -0.030731704 -0.06593565 -0.10278559
0000a0 f7 89 2f bd 0f 24 a1 3b 63 14 fc bd 8f 4e 2b 3c
       -0.042856183 0.0049176286 -0.12308576 0.010455742
0000b0 57 d4 19 bd 8c bc 86 bc 75 c0 30 bd c6 18 fa 3c
       -0.03755602 -0.016447328 -0.04315229 0.030529391
0000c0 2d b6 b2 3c cd ab 16 bc 32 66 97 bc 58 08 16 3a
       0.021815384 -0.009196234 -0.018481348 0.0005723289
0000d0 b1 4e 8c bd e4 fa 1f 3d dc 05 de 3d bf 9b ec 3b
       -0.06850947 0.039057627 0.10840961 0.007220715
0000e0 e0 62 ba bc 60 41 9e 3d a5 2d c8 3c da 04 88 bc
       -0.022752225 0.07727313 0.024435828 -0.016603876
0000f0 de 69 de bb 90 27 ba bc 8e 16 41 bd 78 da 78 3d
       -0.0067875227 -0.022723943 -0.04714065 0.060755223
000100 5b 80 85 bd 04 d2 51 3d fc 2c 17 3d 47 84 cb 3c
       -0.065186225 0.051225677 0.036908135 0.024843348
000110 1a 82 0c 3d 46 76 1d 3c 0e e4 74 3d 67 94 7b bc
       0.034303762 0.009610718 0.059787802 -0.015355206
000120 0e 9d 3e 3d c6 bc 8d bb cb 04 81 bd 85 64 3c 3d
       0.046536498 -0.004325482 -0.06299742 0.0459943
000130 95 ad 53 3d 05 e6 88 3c b4 b1 b3 bc 86 9a 50 3d
       0.051679213 0.016711244 -0.021935321 0.050928615
000140 ef 70 06 3e 9d 80 c8 3d a1 79 b2 bc b6 09 02 3d
       0.13129018 0.09790156 -0.021786513 0.031747542
000150 b0 af 4e 3c d9 5d 37 bc a8 41 2b bb 0b be d6 3c
       0.012615129 -0.011191809 -0.0026131663 0.026213666
000160 64 58 40 bd 6f 79 dc bb b9 e0 1a bb d9 92 31 bd
       -0.046959296 -0.006728343 -0.002363248 -0.043352935
000170 7d 51 0f bd ea f7 3a bd 5c 15 b0 3c dd bf a5 3c
       -0.034989823 -0.045646586 0.02149456 0.02023309
000180 73 ce c4 3c 88 ee 2c bd 30 58 8f bb cd 3c a4 bb
       0.024024224 -0.04221967 -0.0043745264 -0.005012131
000190 30 78 d2 3c 66 40 d8 bc e3 a2 84 bd 9d f3 88 3d
       0.025692075 -0.026397895 -0.06476381 0.066870905
0001a0 3f f8 ab bd af 77 77 bc 0e ea 81 bc a9 72 cc 3d
       -0.083969586 -0.015104218 -0.015858676 0.09982807
0001b0 2a 56 da 3d 80 85 32 bc 84 4b 09 bd d3 57 81 b9
       0.10660966 -0.010896087 -0.033519283 -0.00024670232
0001c0 9a 27 99 bd cd 13 b0 bc 80 bf c5 3d f9 0e f3 bc
       -0.074782565 -0.021493817 0.09655666 -0.029670225
0001d0 40 65 db 3d a9 f9 f1 bc 79 f9 5b 3d 51 d1 d4 bc
       0.10712671 -0.029537993 0.053704713 -0.025978716
0001e0 f8 fe b2 bd 9e 68 97 bd fa 18 10 bd f7 88 fe bb
       -0.08740038 -0.07393001 -0.03518007 -0.0077677923
0001f0 83 5f 18 bd 4d 41 e4 bc 39 03 06 be 13 52 fa 3d
       -0.037200462 -0.02786317 -0.13087167 0.12222686
000200 f2 cf ba 3d e2 af 79 bd 60 5c 30 bd 79 a3 ad 3c
       0.09121694 -0.06095875 -0.043056846 0.021196114
000210 89 ad 94 3d ff 22 80 bd 40 11 87 bc bb 2f a8 bc
       0.07259662 -0.06256675 -0.016487718 -0.020530572
000220 19 a5 6e 3d a8 ef 1d bd 7e fa fb bc be c6 b1 3d
       0.05826292 -0.038558632 -0.030759092 0.08680485
000230 d0 50 86 bd f2 00 29 bd 0c 10 2e bd 89 19 a7 3d
       -0.065583825 -0.041260667 -0.042495772 0.08159167
000240 ba 91 9d bd b3 ac 5d bc 4d f4 a3 3a ae 54 5e 3d
       -0.07693811 -0.013529944 0.001250872 0.054279976
000250 60 82 09 3d b7 98 21 3c ca b4 e1 3c 25 ec a9 bd
       0.0335716 0.00986307 0.027552027 -0.08296994
000260 19 17 c4 3c a4 78 61 3d 2f e2 4e 3d 31 e8 e3 bd
       0.023936795 0.055046692 0.050508674 -0.11128271
000270 9e 72 5a 3d 55 21 35 3d ab d4 bd 3d 7a 39 d5 bc
       0.053331964 0.04422124 0.09269079 -0.026028384
000280 af 2a 71 3d 8e cb 4a bd 7a 83 50 3c 4f 16 70 3d
       0.058878597 -0.04951053 0.012726659 0.058615025
000290 cf 48 94 bd f3 3c e2 bc 11 ed 59 bd 0c 97 8f 3d
       -0.0724045 -0.027616953 -0.0532046 0.07011232
0002a0 8d a8 90 bc 87 8f 7e 3b 11 ca 81 3b 18 19 a3 3d
       -0.017658496 0.0038842873 0.003960856 0.07963771
0002b0 e5 db 16 3d 52 68 0a bd 30 fe 8c 3d 8d ea f2 bc
       0.0368308 -0.033790894 0.0688442 -0.029652858
0002c0 89 4d 49 3d 6e 7f 41 bd c7 26 2c 3d 96 90 e7 bc
       0.04914621 -0.047240667 0.04202917 -0.028267186
0002d0 3e df 88 bd 58 d3 1b 3d 5b 0c 7b 3d be 8e 3b 3d
       -0.06683205 0.03804335 0.06129108 0.045790426
0002e0 9b 7d 1a bd a8 69 9a ba 1b 4d 37 3d 6a 8f 13 bd
       -0.037717443 -0.0011780756 0.044751268 -0.036025442
0002f0 11 f3 29 bd 79 9b 61 bd f9 57 9f bd 9c c5 b7 bc
       -0.04149157 -0.05507991 -0.07780451 -0.022433095
000300 af 30 71 3c 20 ca 34 bc 38 da 76 3c 8c 32 02 bd
       0.01472108 -0.0110345185 0.015066676 -0.031786487
000310 0f 4e 54 3d 0c f7 2a 3c 60 c1 6c 3d bc 7e 94 bd
       0.051832255 0.010434877 0.057801604 -0.07250735
000320 73 00 9a 3c 27 6f 92 bd 34 de b3 bb 9f d8 91 bd
       0.018799042 -0.07150107 -0.005489135 -0.07121395
000330 94 df d4 3d fd de 19 3d 1e 95 27 bd e3 20 0f bd
       0.10394207 0.037566174 -0.040913694 -0.034943473
000340 4e 77 a4 bd 78 f8 34 3d ef 0b 88 bd 9e cc 7b 3d
       -0.08030568 0.04418227 -0.06642901 0.061474435
000350 40 22 28 bd 3b cd 27 3d 4b 6c 4a bd 1b 8a 77 3d
       -0.04104829 0.040967207 -0.049419682 0.060434442
000360 ca 50 cd 3d 81 8c 1d bd fb 71 ed 3b 5f 87 8c 3d
       0.10025175 -0.038464073 0.0072462535 0.068617575
000370 23 77 a9 bd 94 c7 ad 3d 83 ea 4c bd 44 80 90 bd
       -0.08274677 0.08485332 -0.050028335 -0.07055715
000380 9b b2 f0 3c ba 26 6e bd 80 e5 05 bd 2a 34 aa 3d
       0.02938204 -0.0581424 -0.03268957 0.08310731
000390 10 e4 8f bd b1 cb b3 bc b9 68 af 3d ba a2 a7 bd
       -0.07025921 -0.021947714 0.08564896 -0.081853345
0003a0 eb 19 bc 3c 6e 41 6a bc 88 87 0b 3d 83 ad 06 bd
       0.022961577 -0.014297826 0.0340648 -0.032880317
0003b0 a4 2b 5a 3d 21 d0 3e bd c8 ba 15 bd bb 71 a0 bc
       0.053264275 -0.046585206 -0.03655508 -0.01958548
0003c0 c0 0c 38 3d 32 ff cd bd 01 0c e9 bd 6a cb 9f 3b
       0.044934034 -0.1005844 -0.11379243 0.004876544
0003d0 bf 3f 10 bd 65 9a f0 3c 36 3d 5d 3d 2f 12 e7 3a
       -0.035217043 0.029370496 0.054013453 0.001762932
0003e0 13 e7 fd bc 3d 02 2b bb 34 7c 6a 3d db 38 bc 3d
       -0.030993974 -0.0026093863 0.057247356 0.09190532
0003f0 e4 81 d3 ba 95 8f 1e bc 11 87 00 bc 24 70 c0 bd
       -0.0016136733 -0.009677787 -0.007844702 -0.09396389

actor.4.bias f4 [128]
000000 7a dc 47 3d 96 3a 91 bb d3 09 c8 bc 48 33 83 3b
       0.048794247 -0.004432033 -0.024418747 0.004003916
000010 52 4d 45 bd b4 1a 55 3d 62 ad be bc 20 d0 96 3c
       -0.04816944 0.05202742 -0.023276035 0.018409789
000020 9b 58 83 bd ca 55 1e bd bf 25 17 bd 4b 5b 63 bc
       -0.064133845 -0.038656034 -0.03690123 -0.013876746
000030 68 53 63 bd bb 0c 0b bd b3 1e a0 bc f6 5b 5c bb
       -0.055499464 -0.033947688 -0.019545889 -0.003362415
000040 c7 7a 7d 3d 5c cf 0f 3d eb f5 40 3a a4 92 30 bc
       0.061884668 0.035109863 0.00073608634 -0.010777149
000050 69 7e ff bb 86 ac 4a bd 5a f4 f5 3c 85 84 48 3c
       -0.0077970517 -0.049480937 0.030023742 0.012238626
000060 37 d7 7a bc 68 88 88 3d 5a 89 21 bd 73 17 16 3d
       -0.0153101 0.066666424 -0.03943763 0.036643457
000070 8b 8b 88 3a ee cc d9 bb 24 93 13 3d 2a da e9 3b
       0.0010417564 -0.006646744 0.036028996 0.007136603
000080 c1 03 73 bd 66 fe 07 3c 11 9c 44 bc 99 d5 18 3d
       -0.059329752 0.008300399 -0.0120001 0.037313078
000090 03 16 ea 3c 84 32 98 3d db 59 18 bd 7f 7b 2e bd
       0.02857495 0.0743151 -0.037195068 -0.042598244
0000a0 f3 7a d7 bc da cb d7 bc 5b af f0 bb ce 5a 8a 3c
       -0.026303744 -0.026342321 -0.0073451228 0.016889002
0000b0 43 6f 80 3d 70 3c ef bc cd 96 06 3d 11 c6 e1 3b
       0.062712215 -0.029203624 0.03285866 0.0068900664
0000c0 a4 1f 46 bc a7 94 4e 3d 06 8f 25 3d f7 03 38 3d
       -0.012092505 0.050434735 0.0404196 0.044925656
0000d0 e7 03 97 3d 33 20 8c bd 0f 70 87 3c e4 c9 9d bb
       0.07373791 -0.06842079 0.016532926 -0.004815327
0000e0 c2 19 60 bd 4f fc d4 bc 04 99 92 3a 53 18 94 3d
       -0.054712065 -0.025999216 0.0011184518 0.07231202
0000f0 24 4b 5e 3c 8a 12 ab 3b 59 45 1a 3c 83 19 2b 3d
       0.01356772 0.005220716 0.009415948 0.041772377
000100 e2 5d d2 bb 5c 1d 90 bd c9 a0 cd 3c 9d c3 2a bc
       -0.006419883 -0.0703685 0.025101082 -0.010422614
000110 3b bf c5 bc 66 c2 f1 bc 6c ae bc 3c be ff 45 bd
       -0.024139037 -0.029511642 0.02303239 -0.048339598
000120 a3 0f e6 3c 93 87 79 3c 5e 3a 84 3d 7b 24 b4 3c
       0.028083628 0.015230077 0.06456445 0.021990051
000130 0a 3c 98 3c eb 28 78 3d b0 65 d5 3c 51 a4 37 bc
       0.018583316 0.060585897 0.026049465 -0.01120861
000140 4d ed ae bb 46 a5 89 b9 b2 aa 86 bc b4 5d 51 bd
       -0.005338347 -0.00026253815 -0.016438816 -0.051114753
000150 7f 10 21 3c f5 52 4e bd 1f 03 96 3c 9d a3 84 bd
       0.009830593 -0.050372083 0.018312035 -0.06476519
000160 dd fd 86 3d 18 73 10 bd bb 29 a2 3c 0b ce df 39
       0.06591389 -0.035266012 0.01979529 0.00042687388
000170 27 20 97 bc 3b 98 8d 3d 7d 80 d5 bc b6 3a 4a 3d
       -0.018447949 0.06913801 -0.026062245 0.049372397
000180 60 4e 3c bd 70 f1 08 bd 63 ad 42 3d a9 03 67 3d
       -0.04597318 -0.033433378 0.047528636 0.056399975
000190 bb 1d 34 3c d9 eb 22 bc 21 ef 81 bb b1 a2 90 bc
       0.010993416 -0.009943926 -0.003965274 -0.017655702
0001a0 ea 48 3f bd f1 67 b2 3c b3 95 bc bc 6d 8e 21 3c
       -0.046700396 0.021778079 -0.0230206 0.009860617
0001b0 75 4b 39 3a 36 ed 09 bd 8b 1c 0e bd 86 88 64 b8
       0.0007068434 -0.033673488 -0.03469519 -5.4486583e-05
0001c0 c9 a1 35 bd 00 5b 32 3d 89 96 c2 3c e9 69 fe 3b
       -0.044343743 0.043543816 0.023753421 0.0077640903
0001d0 b8 f9 bc bb 1c e4 62 bd 4c af 1e bd d0 44 3c bd
       -0.0057670735 -0.055393323 -0.038741395 -0.045964062
0001e0 2c a1 3a bd 44 d9 45 bd e7 8b 2d ba 1e b5 48 bc
       -0.04556386 -0.048302904 -0.00066202733 -0.012250213
0001f0 e2 bc 1a bd 4a d8 3a 3d 85 43 57 3c 58 29 e5 3c
       -0.03777779 0.045616426 0.0131386565 0.027973816

actor.6.weight f4 [5, 128]
000000 df 39 54 3d 28 5d 8d bc 6d 1c 1a bd ae 11 b0 3c
       0.051813003 -0.017256334 -0.037624765 0.021492805
000010 20 55 2b bd 2b d7 65 3d 21 cc e7 3b 1d 0d 7d 3c
       -0.04182923 0.056113403 0.0070738946 0.015445021
000020 51 b4 af 3c 9b 68 9f bc ec eb 3e 3d fb 71 c5 3c
       0.021448286 -0.01945906 0.04661171 0.024102202
000030 4e 60 3f 3d a7 bb df bb 83 b6 86 bd df 54 0c bd
       0.046722703 -0.00682779 -0.0657778 -0.034260627
000040 55 ad e3 3b 63 0a 25 3b a8 d2 2a ba 5c 64 ff 3b
       0.006948153 0.0025183193 -0.00065163756 0.007793946
000050 4e 4f 18 bd fa ea 2f bd e7 be dd bc 26 e7 74 bc
       -0.037185006 -0.0429487 -0.027068568 -0.014947688
000060 72 b0 06 3d 21 fd 70 3c af 03 8a bc 1b 2c 92 bb
       0.032883115 0.014708788 -0.01684746 -0.004460824
000070 9c 83 b2 bc ce 8d 04 3d be 2d 6f 3c af 6b c6 3b
       -0.021791272 0.032361798 0.014598308 0.0060553174
000080 2f fc 0d bd 98 7b 96 bd 8f a8 f6 bc b5 9d 19 3d
       -0.03466433 -0.073477924 -0.030109672 0.037503917
000090 41 d4 2b 3d 25 e1 3c bd 12 3c ab 3c 0f 57 f3 3b
       0.041950468 -0.046113152 0.020902667 0.0074261497
0000a0 fd ff 4f 3d 33 6d b8 bc c2 08 1f 3d 9e f4 92 bc
       0.05078124 -0.022513008 0.03882671 -0.017938908
0000b0 58 b9 04 3d 2a 9a 12 3d 78 0c 16 3d 32 ac 06 3c
       0.03240332 0.035791554 0.036632985 0.0082197655
0000c0 12 7b 3a 3d 45 3e 7b 3c 85 84 8a b9 6c d6 6f ba
       0.045527525 0.01533467 -0.00026420146 -0.0009149078
0000d0 40 65 2e 3d eb 1d df b9 6c 9f d8 bb fb e9 be 3c
       0.04257703 -0.00042556165 -0.0066108014 0.02330493
0000e0 28 20 9c 3d 21 5d 72 bd 5d 62 b8 bd 34 bb 2d bc
       0.07623321 -0.059170846 -0.09003136 -0.010603715
0000f0 49 8c 11 bd d8 ff 7e 3b 95 bc b5 3c 7a dc 81 bc
       -0.035534177 0.003890982 0.02218465 -0.015852202
000100 f3 5b c7 bc 4f d3 b4 bd 34 e9 80 bc 2d 1a 8a 3d
       -0.024335837 -0.088293664 -0.0157362 0.06743274
000110 05 dc 59 bb 03 13 09 3d 45 4b b0 bc 55 37 f6 3c
       -0.0033242714 0.033465397 -0.021520266 0.030055681
000120 10 35 55 bc c8 d9 1d 3d 28 29 76 3d 5b 54 90 3d
       -0.013013139 0.03853777 0.060097843 0.070473395
000130 b1 0e 16 3d e9 53 79 3d d3 cc 6e bb ed c4 ee bb
       0.036635105 0.06087104 -0.0036438003 -0.007286659
000140 ac 19 d2 bc c8 43 00 bd e4 e3 2b bd 87 de 6c 3d
       -0.025647007 -0.03131464 -0.04196538 0.057829406
000150 00 e3 e2 3c fe 07 e4 3b c3 96 eb 3b 99 e1 94 bc
       0.027696133 0.0069589606 0.007189603 -0.01817398
000160 e9 1b 10 3d 33 fb 4d bd 3b 54 69 b9 09 e4 7c bd
       0.035182867 -0.05028839 -0.0002225199 -0.06174091
000170 9e ba 9b bd 18 bd 36 bd a1 31 d2 3c fb e9 b5 bc
       -0.07603954 -0.044613928 0.02565843 -0.022206297
000180 e5 9a 9a 3d 5e d4 20 3d 4a 6d 7a 3c 28 8f 84 3c
       0.07549075 0.03926503 0.015284846 0.016181543
000190 fd f7 86 bc 00 89 ff 3c 0b c3 0d 3d 7f 05 49 3c
       -0.016475672 0.031193256 0.034609836 0.012269377
0001a0 9e d0 94 bc 77 29 54 bd c6 77 2e bd 9e 88 f4 ba
       -0.018165883 -0.051797356 -0.042594694 -0.0018656438
0001b0 8e 76 0a bd fb 38 d3 3b 2d b2 b9 bc 22 93 fe 3c
       -0.03380447 0.0064460016 -0.022667969 0.031076018
0001c0 3c e3 81 3d 90 d0 1f bd a0 63 16 bd 89 26 a0 3d
       0.0634217 -0.03901726 -0.036716104 0.0781985
0001d0 9a 24 c2 3c 22 11 10 3c a7 a3 eb bc 4f 47 05 3d
       0.023699094 0.008793147 -0.028764559 0.03253871
0001e0 d4 78 2b bc 0c 57 53 3c 6e 15 6f 3c 63 2b 6d bd
       -0.010465819 0.012899172 0.014592512 -0.057902705
0001f0 87 e5 ce 3c a6 8c 41 3c e8 b7 18 bd 5e 4b d5 3b
       0.025255932 0.011813318 -0.03728476 0.0065092286
000200 3d 45 b0 bc ea 25 b8 3a 26 7b 54 bd 20 d9 83 bb
       -0.02151739 0.0014049385 -0.051875256 -0.004023686
000210 55 ae ad bd da f8 61 bc 34 85 fa 3b c0 20 56 3c
       -0.08480517 -0.013792241 0.0076452736 0.013069332
000220 01 95 47 bd ce 3f e6 bc 5a 25 03 3d 50 4b b4 bc
       -0.048726086 -0.028106596 0.032018043 -0.022008568
000230 e6 e9 15 3d 98 a6 32 3d 69 dc 58 bd 65 94 d6 3a
       0.036600016 0.043615907 -0.052944575 0.0016371129
000240 88 53 d3 3b fd 1a a3 bd 41 8d 81 bd dd 6f be 3c
       0.0064491667 -0.07964132 -0.0632577 0.0232467
000250 86 52 0a bd 61 86 03 bc a1 e4 b9 bd 9e 9b f0 3c
       -0.033770107 -0.008027644 -0.09076811 0.029371079
000260 7a a5 1d 3d 84 be e7 3c b3 e5 8c 3c 78 54 e2 3c
       0.03848789 0.028289087 0.017199373 0.027628168
000270 e7 1b 86 bd 83 2a 18 3d 26 7a c5 3c 4c 56 9e bc
       -0.06548291 0.037149917 0.024106096 -0.019328259
000280 0a a1 f0 3c 79 b4 c6 bc c8 4b d3 3c 90 89 48 3c
       0.029373664 -0.024255978 0.025792971 0.012239829
000290 c5 8a 8a 3d 2e 15 8c bd a2 1b 75 3d 1b 87 e2 3c
       0.067647494 -0.06839977 0.059840806 0.027652314
0002a0 58 07 1a 3d 17 3e d1 3c cf 00 a8 bc 10 3c ec 3b
       0.03760466 0.025542302 -0.020508198 0.0072093084
0002b0 32 58 bd 3c 31 5d 15 3d 29 42 15 bd 90 c2 14 bb
       0.023113344 0.036465827 -0.03644005 -0.0022698976
0002c0 7a 3b 2e bd b2 3b 0c 3c ca ac 02 3d a4 48 80 bd
       -0.04253719 0.008559154 0.031903066 -0.06263855
0002d0 58 b2 ef bb 30 d3 50 bc ad cb b7 bc d3 0d 21 3b
       -0.0073149614 -0.0127456635 -0.022435987 0.002457489
0002e0 7e 36 7f 3d 8c c4 23 bd 64 b1 16 bc 79 b7 b0 bc
       0.062307827 -0.039982364 -0.009197567 -0.021571862
0002f0 3f d9 90 3b 7d 61 53 bb ec ad 9b 3d 7d 03 3d bd
       0.004420429 -0.0032254152 0.07601532 -0.046145905
000300 c0 01 39 bd 13 5e 6f bb 83 4f d9 3c 1e 73 95 bc
       -0.045167685 -0.0036524578 0.026527172 -0.018243369
000310 c5 d9 45 3d 9e ee c4 bb ad f1 30 3d 0a a8 f2 3c
       0.048303384 -0.0060098907 0.04319923 0.029621143
000320 9c 0d e4 bc a1 22 c3 bc e5 c4 66 bd 76 32 70 3d
       -0.02783852 -0.023820223 -0.056340117 0.058641873
000330 30 1c 25 bd 8b fa 1b 3d e7 38 6a bc d9 19 9f bc
       -0.040310085 0.038080733 -0.014295793 -0.019421505
000340 cf e7 c7 3c a5 2a b3 bc ad 84 a7 3b e2 c6 71 3d
       0.024402527 -0.02187092 0.0051122517 0.05902756
000350 be e2 53 bc 11 ee 6e bd b5 65 ca 3c c5 dc ca bc
       -0.0129324775 -0.058332507 0.0247067 -0.024763474
000360 e5 bb 03 3d 90 20 b6 bc 48 c4 ff 3b 84 e3 56 bd
       0.032161612 -0.022232324 0.007805381 -0.05246307
000370 a2 0f 87 bd c9 09 06 3c 52 82 88 3c 8f 59 38 3d
       -0.065947786 0.008181044 0.016663704 0.045007285
000380 34 ce 0f 3d 68 1a 35 3d 50 8b bf 3b 04 83 88 bd
       0.03510876 0.044214636 0.0058454648 -0.06665614
000390 71 51 23 3c 7c 6c 5a 3c af f1 82 3c 54 f9 0d 3a
       0.009968148 0.013331529 0.015984384 0.0005415876
0003a0 14 55 87 3c 3d 72 4f bd 56 f7 0b bd e2 ca dc bc
       0.01652006 -0.050646055 -0.034171425 -0.02695221
0003b0 88 69 14 3d b4 b8 0d bd 60 78 52 3c 3c 8e 5f bd
       0.036233455 -0.034599975 0.012846082 -0.054579005
0003c0 49 8c 1a 3d 8a 5d 87 bd f7 55 a3 3d c2 d0 c4 bb
       0.037731443 -0.06609638 0.07975381 -0.006006331
0003d0 5c 47 0c 3c b8 24 7e bd 24 c5 f8 bc d5 37 10 3c
       0.008561935 -0.062046736 -0.030367441 0.008802374
0003e0 ee b4 b4 3c 14 4a 93 3c 00 2f 1b 3d 36 54 3d bd
       0.02205893 0.01797966 0.03788662 -0.046222888
0003f0 b1 6e 8e 3b cc 14 b2 bb 4c ba 32 bd 7d ec d7 3c
       0.0043466915 -0.005434608 -0.043634698 0.026357884

actor.6.bias f4 [5]
000000 28 14 4a bd fc eb e2 3c 0f af 72 3d 70 a3 92 bd
       -0.04933563 0.027700417 0.05924898 -0.071600795
000010 8b ed 33 3d
       0.04392771
