ippo_algorithm_belief/checkpoints/ppo_actor_0num_agent_exp_4_run_1_lumberjacks.pth (torch, 230140 bytes, 8 tensors)

actor.0.weight f4 [128, 178]
00000000: c31b 83bd 45f0 013d acd6 2b3c 2ce7 c43c
00000010: 4741 b1bd 4bdd abbd 4f0c 6ebc cdbd 313d
00000020: 7c58 1e3d fd07 0d3c bbd4 94bc 4313 80bc
00000030: 85f0 aa3d 5863 a5bd 820d 1a3d e7c9 b63c
00000040: 1906 6abd 5073 0b3d 651c 97bd f5df 4dbd
00000050: 5277 25bd 277f 0e3d 47f2 1d3d 2c94 f43b
00000060: 73b9 263d f714 003d 6589 d4bd 901e 8ebd
00000070: d193 9cbd 00c5 41bd 8a35 32bd f4bb d7bc
00000080: 014a 84bd b5e8 283d e6c7 db3c f60c 3dbd
00000090: c5e0 963c c6bf 043d 531e 59bc 7516 51bd
000000a0: cd4f 6dbd cdda e33b a725 5dbd d5d6 013e
000000b0: 8812 c4bb 91c3 8abd 079e 1d3d d52a 26bd
000000c0: c922 cc3d a46d 3f3c d33a b0bb 6ccf a8bd
000000d0: 194b 91bd 6b06 063d 0ae6 843d 708c 8f3d
000000e0: 6c16 8a3d 70d4 95ba 5884 09bd c87d 2cbd
000000f0: 47fd 7e3d 1e97 94bd 5ae7 cd3c c360 1cbd
00000100: 618b e5bc 579f ff3b b09b 1c3c fb41 d43d
00000110: 58fe 8fbd 4555 253d 8751 5e3d aa98 9fbc
00000120: f774 babc a6c5 98bd 231a 6bbd a20a 373b
00000130: c2a5 c23c de82 773d 736d 0f3c 9597 c8bd
00000140: 8676 48bd a6e1 72bd 2734 b13d 655f a1bc
00000150: 5cce 8137 ee75 80bd bb8f bcbd ed27 043e
00000160: c944 603c 2e82 0abe 795e 93bd 238a 83be
00000170: 5303 813c 49e5 a2bd 8ff8 f93c 41b8 353e
00000180: 2bad 40bd 0df0 d43d e1d1 cb3d 4c18 17bb
00000190: 4eb0 113d 2fdb 7d3d 34f2 9fbd e7b1 84bd
000001a0: 5a7f 383d 1c35 373d 28b1 c5bd 5583 29bd
000001b0: 6a8d 0cba d3c9 3abd c478 153e 2952 383d
000001c0: 3128 85bd 3183 ebbd e28e cebd 67a4 ae3c
000001d0: 0942 58be a33d cfbd de72 bebc c357 853d
000001e0: fb11 7a3e cd9e 703d b268 9cbd 9993 99bd
000001f0: 5170 e9bc 36c9 043e 3c7f 4eba 2142 09bd
00000200: 6271 a03d 54ec 2dbd a3b9 82bd e6b0 233d
00000210: c067 babc a054 4a3d 9422 10bd fac3 a0bd
00000220: 56ee 603d 3282 b439 bd7d 10bd 08bd 89bd
00000230: 6e4e c53c 6219 09bd f2a4 733d 4236 a0bc
00000240: 1f33 583d 4ce4 703d 790b 713d 5d5f 15bd
00000250: 5144 f13d 8699 39bd d9df 03bd e549 a7b9
00000260: 7968 d23c 86ac 813c d46f 80bd ff74 fd3c
00000270: 390f a93d 5d83 b3bb d12d b33d dbf5 933b
00000280: 3132 a2bd cce6 3cbd 7b33 b83c 1d5c ec3d
00000290: c007 283d 3e0a dbbc bf56 cb3b d493 5d3d
000002a0: 36cd acbd 9947 b73d 3a87 303b b66f 243d
000002b0: 2ec4 2c3d 8f38 e23d 33e6 0ebc 3bc4 8b3c
000002c0: 3f82 3f3b 15c2 babc 8ec6 943b 3998 2bbd
000002d0: b1bf cf3c 1a68 00bb a48c d6bd 7da8 103d
000002e0: c079 9cbd 68b6 a13d c0c0 e9bc ad17 173c
000002f0: 0098 1abd 9e9c 813d 2a7d 3d3c be0e e73c
00000300: 0b8c 1d3c 33a1 7abd 9952 93bd 596b c83b
00000310: ebbe 1f3d 140b a83d 9bd9 a9bd 967a 38bc
00000320: cbb9 aa3d f498 fb3c 19e5 37bd 0f29 d83c
00000330: ae1e 86bd cbb3 89bc 6ffb 32bd 0112 c93d
00000340: af86 52bd bde3 adbc f53f 83bd 3451 733d
00000350: 8653 2a3d 8125 e4bc 4f4b 68bd 2e5b 2c3d
00000360: 45d9 73bd 717c c1bc ada7 123d cad5 16bd
00000370: b34c 1b3d a34a 973d 6ada 29bd 0be3 5bbd
00000380: 8447 5f3d 80bc f93b c068 5d3d 7586 45bd
00000390: bb4d 9dbc 2ae3 a6bc ba64 6dbd 5b66 aa3c
000003a0: 2ee0 713d 73ed cb3c 16c4 7abd dfec 4fbd
000003b0: 24d2 fcbc 112e 83bd 63c4 9a3d c270 61bc
000003c0: 7ae1 97bb 1f0b 91bd 5006 02bd 6d04 cbbc
000003d0: 0ead 1d3d 096d b9bd 244c 2e3d 5da9 55bd
000003e0: 0b84 d33c d4d7 43bd 3a62 40bc 6b29 2a3c
000003f0: 0c4f 72bd 827c e0bc f59f 3c3d 86ae 043c
-0.064017795 0.03172328 0.0104881935 0.024036013 -0.08655029 -0.08391818 -0.014529302 0.0433939
0.038658604 0.008607862 -0.018167844 -0.015634185 0.08346657 -0.08075589 0.03761054 0.022313071
-0.05713472 0.034045517 -0.07378463 -0.05026241 -0.040396996 0.03478923 0.03856113 0.0074639525
0.040704202 0.031269994 -0.103777684 -0.06939423 -0.07645381 -0.047307014 -0.04350809 -0.02633474
-0.064594276 0.04123755 0.026828717 -0.04615494 0.018417725 0.032409452 -0.013251859 -0.051046807
-0.057937432 0.0069535733 -0.053990986 0.12679608 -0.0059836544 -0.067755826 0.038480785 -0.04056819
0.09967572 0.011683855 -0.005378106 -0.082426876 -0.07094402 0.032720964 0.06489189 0.07009208
0.06742558 -0.0011431109 -0.03357348 -0.04211214 0.062253263 -0.07255386 0.025134731 -0.038178217
-0.028020563 0.007800977 0.009558603 0.10364147 -0.07030934 0.040364522 0.05427697 -0.019481976
-0.022760851 -0.074595734 -0.057397973 0.0027929922 0.02376068 0.06042754 0.008754122 -0.09794537
-0.048941158 -0.059297226 0.086525254 -0.019698808 1.5474092e-05 -0.06272493 -0.09207102 0.12905855
0.013688275 -0.13526222 -0.071957536 -0.25691327 0.015748655 -0.07953889 0.03051403 0.17746069
-0.047040146 0.103973486 0.099521406 -0.0023055254 0.035568528 0.061976608 -0.078098685 -0.06479245
0.045043327 0.044728383 -0.096529305 -0.041385014 -0.00053616485 -0.04560263 0.1459685 0.04500023
-0.065018065 -0.11499632 -0.100858465 0.021318628 -0.2111894 -0.10119178 -0.023248132 0.0651088
0.24420922 0.058745194 -0.076371565 -0.07498855 -0.02849594 0.12967381 -0.0007877236 -0.03351033
0.07834126 -0.04246171 -0.06383064 0.039963625 -0.02275455 0.04939711 -0.035189226 -0.078498796
0.054914795 0.00034429278 -0.035276163 -0.06725508 0.02408525 -0.033471473 0.059483476 -0.019557122
0.052783128 0.05881147 0.05884883 -0.0364679 0.117806084 -0.045312427 -0.0321959 -0.00031907778
0.025684582 0.015829336 -0.062713295 0.030939577 0.082548566 -0.005478306 0.08748973 0.0045153922
-0.079197295 -0.046118543 0.022485485 0.11541007 0.041023016 -0.026738282 0.0062054093 0.054096058
-0.084375784 0.08949203 0.002693607 0.0401456 0.04217928 0.11045944 -0.008721876 0.017061343
0.002922192 -0.022797624 0.004540271 -0.041893218 0.02535996 -0.00195933 -0.10476044 0.035316933
-0.076404095 0.07896119 -0.028534293 0.009221953 -0.037742615 0.063287005 0.011565486 0.028205272
0.009615908 -0.061188888 -0.07193489 0.0061163125 0.039000433 0.08205238 -0.08293458 -0.0112596955
0.083362184 0.030712582 -0.04489622 0.026386766 -0.065488204 -0.016809365 -0.043696817 0.09817887
-0.051397976 -0.021226758 -0.06408683 0.059403613 0.04158356 -0.027849915 -0.056712445 0.042079143
-0.059533376 -0.023618909 0.03580444 -0.03682498 0.037914943 0.07387283 -0.04146806 -0.053683322
0.054511562 0.007621348 0.054054976 -0.04822393 -0.019202104 -0.020371992 -0.05795739 0.02080076
0.059051685 0.024893498 -0.06122216 -0.050763007 -0.030861922 -0.06405271 0.07556989 -0.013759794
-0.004635033 -0.07082199 -0.0317443 -0.024782384 0.038495116 -0.09054 0.042553082 -0.05216347
0.025819799 -0.04781325 -0.011742169 0.010385851 -0.059157416 -0.02740312 0.046050984 0.00809825

actor.0.bias f4 [128]
00000000: 11ab 45bd 5d3b 393d 5403 64bd 3fbe b33c
00000010: 7592 58bc 32e3 783d dac1 dfbc 2dd1 f63c
00000020: 9269 31bd a3f4 283c dfef a3bc 69aa 22bd
00000030: 7536 6eba 8fbb 0f3d c544 0dbc 347b 40bc
00000040: b404 e03c a0a5 153d 2fcd 15bd a197 e3bc
00000050: ee2b 3cbd 48b1 033d 1956 43bd b5f1 253c
00000060: d674 203d c91a 633a 67f5 2e3b 9de9 623a
00000070: 78f4 733c 74bd 033d 208d 97bd b615 733b
00000080: 1687 283d 9180 a5bc 10ce 873d 74ba c03c
00000090: 7f1e aabc cd11 92bc d547 553d 8746 b239
000000a0: 6824 4dbc 3d2b 61bd f3b6 52bd c0ed 793b
000000b0: eefc 813d fb6c 983c 68eb 34bd 963a 32bd
000000c0: 4922 97bd 8f7a 373c 1cc8 813d 52bf a1bb
000000d0: 9115 543d b181 213c 6cf4 a33c 44b0 963c
000000e0: 9d08 fcbc c31d 46bd 5fd6 fabc f23f 50bc
000000f0: 2de3 07bd 57e5 833c 92cc 593d 9684 ed3c
00000100: c49a 203d ce83 973c 43dd af3a 098d 98bc
00000110: fb69 2d3d 158a 20bd 1d4e ff3c e46e 5c3d
00000120: d000 acbc 4d13 733c 9b82 44bd 247d 8fbd
00000130: 5594 31bd 2ad5 11bd 9a17 433d f9b1 8a3b
00000140: 992e a93d b78c 963c faf0 ed3c 7329 88bd
00000150: b40f ef3b 6057 1abd 0e47 e43b c34f fbbc
00000160: d234 05bd 78c5 0fbd 4c76 0b3d de60 283d
00000170: f86b ab3c 496f 173c b231 60bc 0870 18bd
00000180: 8fdc 643d 9aa0 643c 41bf 6fbd 4ffb 79bd
00000190: d3cf 20bd ee7e 86bc d220 bcbc 6977 cebb
000001a0: 76a5 283d 63b8 7ebd 4cca d83c 771b 7e3c
000001b0: be9c 1f3b 9032 0b3d d9f7 6c3b 3c7f 7e3d
000001c0: b7f2 51bc 136f 2d3d 889f 27bc d422 063d
000001d0: 55a3 393d aea9 42bc c676 40bd 913b 01bd
000001e0: ff94 ffbb 0376 52bd 8ba9 c03c 5fb2 763b
000001f0: ebe1 e73c 057a 993d 8272 c73b 0527 e9bc
-0.048258845 0.04522263 -0.055667236 0.021941302 -0.013218512 0.060763545 -0.027314115 0.03012904
-0.04331357 0.010312232 -0.02001184 -0.039713297 -0.0009087094 0.03509098 -0.008622353 -0.011748124
0.027345993 0.036534905 -0.03657263 -0.027782263 -0.045940332 0.03215149 -0.04768953 0.010128428
0.039173923 0.0008663354 0.0026696564 0.0008656027 0.014889829 0.0321631 -0.07399964 0.0037091798
0.041144453 -0.020202907 0.066311 0.023526408 -0.020766495 -0.017830754 0.052070457 0.00034003353
-0.012520887 -0.054972876 -0.051444005 0.0038136095 0.06347071 0.018606653 -0.044169813 -0.043512903
-0.07379586 0.011198654 0.06336996 -0.0049361372 0.05177838 0.009857581 0.02001401 0.018394597
-0.030765826 -0.048368227 -0.030619798 -0.012710558 -0.033175636 0.016100569 0.05317361 0.028993886
0.039210096 0.018495467 0.0013417382 -0.018621938 0.0423374 -0.039194185 0.031165177 0.05381669
-0.020996481 0.014836145 -0.047976118 -0.070062906 -0.04335435 -0.03560368 0.04762993 0.004232642
0.08260841 0.018377645 0.02904557 -0.06648531 0.007295573 -0.037680984 0.006966478 -0.030677682
-0.032521077 -0.03510043 0.034048364 0.041108005 0.020925507 0.009242841 -0.013683723 -0.037216216
0.055874404 0.013954306 -0.058532003 -0.061030682 -0.039260697 -0.016417947 -0.022964869 -0.006300856
0.04117342 -0.062187564 0.02646365 0.015509478 0.00243549 0.033983767 0.003615847 0.06213306
-0.012814215 0.042342257 -0.010230906 0.03274806 0.04532178 -0.011881275 -0.04698827 -0.031550948
-0.007799744 -0.051382076 0.023518344 0.0037642939 0.028305968 0.074939765 0.0060866484 -0.028460989

actor.2.weight f4 [128, 128]
00000000: a657 123d 92c3 c1bc 5b8e fabc b9fa 39bc
00000010: d032 453b 565c 70bd 0235 013e c057 7c3c
00000020: 4b16 7b3c 5779 bebd c74d 113d c92c 403d
00000030: 154e d1bd d7fa efbc 483d 3a3d 4d0d 9f3d
00000040: 5a02 0abd 757f b9bb 9bbe 16bc 7783 3bbd
00000050: 113c ba3c 7727 30bd 9fab 07bd 1b7c 8ebc
00000060: 4e73 0b3e bab9 b1bd 01e1 683d b4b4 16bd
00000070: 33b4 a33d da08 86bd e482 bd3c ea16 2e3d
00000080: a940 a63c 6afe eabc 85c4 8fbd 4df3 7a3d
00000090: d648 bebd bc29 553d d419 42bd ccc3 40bd
000000a0: 4e5a 16bd 6864 90bc d560 19bb 7f4d 023c
000000b0: ef18 b5bc c9c5 b7bc 6872 8e3d c3e0 71bd
000000c0: 5d3d 9e3d 6c23 5c3d 2311 8ebd c67b e6bd
000000d0: 9c86 963d 60b0 a7bc 323c 15be 9002 503c
000000e0: edbc 423d c851 08bc 2fb1 5a3d de9b 353c
000000f0: 1192 c13d 379d 12bd f31f 89bd 0fa4 0a3e
00000100: c56b 9ebd 388a c13c d1ac 35bd 5450 76bd
00000110: 590b eb3d 6a5c b53c cd62 b0bc 712f 04bd
00000120: 6898 253d a49d 00bd 9c95 083d d58c 103d
00000130: ec24 c33b 464f 083d 1112 983d 5d28 33bd
00000140: 9ae8 02bd 6a37 a1bb dc68 87bd 2c62 3e3d
00000150: 5280 1ebd 2466 183d 9232 8ebd 8ef6 89bc
00000160: 88d8 c3bd 2ec2 da3c 6015 f1bc 4b1b 40bd
00000170: 6d2e db3c ffd1 97bd 5f35 6e3d 83b1 c2bd
00000180: 04eb 1d3d 8c28 433d f431 613d 257e 86bd
00000190: 5afb aabc 6627 90bb 8023 783b f42c 12bd
000001a0: 4380 8c3c 5244 693d 1e45 a8bc 7931 e8bc
000001b0: 5c76 a5bc 3b50 91bd 296b 0e3d 78e9 86bd
000001c0: 2614 da3d e27a a23d b42d 953c e61f 6f3d
000001d0: 17c6 703d 7041 ad3d 7db2 c43d 0851 403d
000001e0: c740 93bd 5e0f a13c f2d6 c13d 5adb 063d
000001f0: 71ce 10bd 966d d5bb 6fda 853d 70c8 0ebc
00000200: 7179 b03d 61e8 733d a96a dc3b 0a43 a0bd
00000210: 3482 babc 3b6a 9dbc 59d1 f2bc bf01 9dbb
00000220: 2a2b adbd 0a9d 90bd 5ba5 2ebc 3c5d 2ebd
00000230: 07be 173d c903 aebc 7dae 40bd 0458 b53d
00000240: c2bf 03bd b51f 763c e130 863d ace1 e63c
00000250: e77a 9abc fcfe 90bd 2bd2 3ebc e42e fbbc
00000260: 5c93 e93c cc3d aa3d 4e44 05bb d987 973d
00000270: fcaf 51bd 5009 843d b5ac 22bc c0a2 eabc
00000280: da73 8cbd cba3 b93c dd25 c5bc aa8f 8dbd
00000290: 5cca 00bd 3b1a 06bd 7f2d b7bb c580 853d
000002a0: 87b8 90bc 4e47 353d c279 703a 3691 653d
000002b0: cdbe 55bc f966 463d 9269 b73d f39e 8abd
000002c0: b8b7 a7bd be3d 0b3d ff31 82bd 4575 283d
000002d0: 0280 89bb 0a2b 7fbb 75e2 0b3d aab5 82bd
000002e0: 595f e9bc 906e 193c 2e05 59bd a576 3f3c
000002f0: 36af b83c 27e8 7bbd cdbe 94bd 652a 51bc
00000300: 412a 2fbd 2545 a33d d5eb 833d eff6 50bd
00000310: f6c0 123c 136e 863d b96a b03c 2e68 51bb
00000320: 784d 9ebd 9baa 963d 3741 54bd cf9d f13c
00000330: 5cdb 2c3d b42e f8bc 6751 6ebd 6a9f 3abd
00000340: c834 b6bc 2124 8a3b 435f 47bc 0363 a8bb
00000350: 5e75 9d3d 04a0 b33d 3893 e6bb 519d c63b
00000360: fc0c 8fbd 87bb fbbc aa1a 063d b3a6 7abd
00000370: 5610 463d 5da9 343d db0d d3bc 1ab6 823d
00000380: 6343 7c3d a7d9 68bd 0be2 423d 488d a13d
00000390: 93d2 84bd 4795 2f3d c750 a7bd f6f9 033d
000003a0: eb20 b6bc 627e d0bb a647 f43b f9cb c4bc
000003b0: 6ee4 023d aaa4 e2bb 9aa9 c23d a516 9e3d
000003c0: aaf4 513c 4b66 3d3d 549c 893d 6d16 813d
000003d0: 6e86 28bd 0744 86bc 0e30 c03b 6d7a dcbc
000003e0: 6756 a43d 0a3c 5d3c fdbc b7bd 0b76 51bd
000003f0: 7287 d4bb 6153 cebd d9a8 4e3d 4095 143c
0.03572812 -0.023652826 -0.030585459 -0.011351281 0.00300901 -0.05868181 0.12617877 0.015401781
0.015325139 -0.093004875 0.035474565 0.04691771 -0.10219971 -0.029294414 0.0454686 0.07766209
-0.03369365 -0.005660946 -0.009200717 -0.04577967 0.02273372 -0.043006387 -0.033122655 -0.017393162
0.13618204 -0.08678003 0.056855205 -0.036793426 0.07993355 -0.06544657 0.023133703 0.04250232
0.020294504 -0.028685767 -0.07019905 0.061267186 -0.09291236 0.052041754 -0.047387913 -0.047061726
-0.036707215 -0.017626002 -0.0023403664 0.007953047 -0.022106616 -0.022433178 0.06955415 -0.05905224
0.07726548 0.05374472 -0.06936862 -0.11254077 0.073498935 -0.020469844 -0.14573744 0.012695923
0.047543455 -0.008320279 0.05339163 0.011084525 0.09451688 -0.035794463 -0.06695547 0.13539146
-0.07735399 0.023625478 -0.044354264 -0.0601352 0.11476774 0.022138793 -0.021531487 -0.032271806
0.04042855 -0.031400338 0.033345804 0.035290558 0.005955329 0.033278726 0.07425321 -0.043739665
-0.031960107 -0.004919936 -0.06611797 0.046480343 -0.038696595 0.037206784 -0.06943239 -0.0168412
-0.095627844 0.02670392 -0.029429138 -0.04690103 0.026755536 -0.074131005 0.058156367 -0.09506514
0.038554206 0.04764609 0.05497928 -0.06567029 -0.020871807 -0.004399228 0.0037862957 -0.035687402
0.017151004 0.05694992 -0.02054077 -0.028343903 -0.02019804 -0.07095381 0.034770165 -0.065874994
0.10648374 0.07933594 0.01821027 0.05838003 0.058782663 0.08459747 0.096043564 0.046952277
-0.0719009 0.019660648 0.09464826 0.032924034 -0.035353128 -0.006513308 0.065358035 -0.00871478
0.08616913 0.059547786 0.006726582 -0.07825287 -0.022767164 -0.019215694 -0.02964084 -0.004791468
-0.084554985 -0.07061203 -0.010659541 -0.042569384 0.03704646 -0.02124204 -0.047041405 0.08854678
-0.032165296 0.015022208 0.06552292 0.02818378 -0.018857433 -0.070798844 -0.011646788 -0.030662008
0.02851265 0.08312568 -0.0020334902 0.07398958 -0.051193222 0.06447089 -0.009928872 -0.028642058
-0.068580344 0.02266111 -0.024065906 -0.06912167 -0.031442985 -0.03273986 -0.0055901404 0.065187015
-0.017666114 0.044257455 0.0009173417 0.056046687 -0.013045979 0.048438046 0.08955683 -0.067685984
-0.081893384 0.03399443 -0.06357192 0.041127462 -0.004196168 -0.0038935565 0.034151513 -0.06382306
-0.028487848 0.009364739 -0.052983455 0.011686002 0.022544485 -0.061500695 -0.07262955 -0.012766455
-0.042764906 0.07972173 0.06441466 -0.051016744 0.008957138 0.06563964 0.021535264 -0.0031952965
-0.0772962 0.07356759 -0.051820006 0.029494194 0.042201385 -0.030295707 -0.0581831 -0.045562185
-0.022241965 0.0042157327 -0.012168708 -0.0051387562 0.07688402 0.08770755 -0.007036593 0.006061234
-0.069848984 -0.030729068 0.032740273 -0.061194133 0.048355423 0.04410683 -0.025763443 0.06382389
0.061587702 -0.056848194 0.047578853 0.078882754 -0.06485476 0.04286697 -0.08169704 0.032220803
-0.022232493 -0.0063627223 0.00745483 -0.024023043 0.03195613 -0.006916602 0.09505005 0.07719163
0.01281468 0.046240132 0.0671927 0.063031055 -0.041143827 -0.01638986 0.0058651036 -0.026913846
0.080242924 0.013503084 -0.089715935 -0.051137965 -0.006485873 -0.10074497 0.050453994 0.009068787

actor.2.bias f4 [128]
00000000: e569 c9bc 86ca 82bb 8c71 25bd 4e85 07bd
00000010: c0e7 5d3c e189 5f3c 4340 e6bc 1ada 4d3d
00000020: 6c89 943c 08df a0bc 853a b33c 11a2 01bc
00000030: 491d 0f3d 0f75 113d 7f51 613d 3306 983d
00000040: 36e8 03bc 0e4f 36bd 89c7 e9bb b4a4 463c
00000050: a925 53bc 2547 92bd 1453 28bd 37bf 0a3d
00000060: fd60 28bc d611 3abd 18e4 243d dd07 4a3d
00000070: ff70 4abd dc16 28bc 5c22 60bc 1cbb b7bc
00000080: e78c 043c 0cfe 2b3d a759 973c 66aa a6bd
00000090: e7b7 92bc d5b5 1cbc de91 febc 9bc7 5ebd
000000a0: 506e 0ebd e45d 4b3c cbef 92bb 5bc3 893c
000000b0: 2385 4abc 8744 ebbc c9dc 413c da4b 26bb
000000c0: 51da a33c 53a0 c03c c50d 583d c745 af3c
000000d0: 2598 b23c 5b61 953c 6f11 78bd c968 393d
000000e0: 3fc7 1ebc 1eec 76bb a024 793d 143a 2fbd
000000f0: 6dd2 063d cc71 58bd 0ef7 bf3c 75d5 10bd
00000100: 2c0f 013d 5ecd 87bc 5b96 6438 1529 33bd
00000110: b400 4ebc ad53 933c 2a4b c13b 25c1 20bd
00000120: 7b82 2bbc 8d20 b73c 3286 3c3d 77fc 083c
00000130: 25b1 183c 3a07 263d 8f7a f13c 2c4c 1abc
00000140: b1d7 df3c 9ca4 fbba db23 33bc e2b0 b33c
00000150: 29db 29bc 905b 333c 7eeb 083d 3611 3cbd
00000160: 84a7 3b3b 9ca7 6cbc c73e 3fbd ccd4 c0bc
00000170: 11cd 53bc 2ae3 0a3d 6525 deba 68a1 b23c
00000180: 49fb 94bb 7e4d 1fbd bda6 783c 266c 80bc
00000190: bc91 023d 9da6 30bd 5a94 b53c 0fdf 973c
000001a0: 7641 183d ca77 26bd 3b85 68bd f0cf ac3c
000001b0: 02b7 213c a70a babc 5024 033d 2381 c2bb
000001c0: c65c bebb 74d0 133d 6b59 36bc d271 163c
000001d0: cca0 ccbc defc 1ebd e7c1 27bc 606e 223c
000001e0: 90e7 973c 0b5a 35bd e8f4 36bd 8edd 93bd
000001f0: 99e9 1abd eb61 f9b9 0011 5cbd e015 97bc
-0.024586627 -0.003991428 -0.04039149 -0.033086114 0.013544023 0.013643713 -0.028106814 0.050256826
0.018131934 -0.0196376 0.02187849 -0.007912175 0.034940038 0.035512026 0.05500936 0.074230574
-0.008050969 -0.044508986 -0.007134382 0.012124229 -0.012887397 -0.07142476 -0.041094854 0.033873763
-0.01027703 -0.045427166 0.04025659 0.049323905 -0.049424168 -0.010259356 -0.013680067 -0.022428088
0.008090234 0.041990325 0.018475367 -0.0813797 -0.017909957 -0.0095648365 -0.031075414 -0.054389577
-0.03477317 0.012412522 -0.004484152 0.016816786 -0.012360844 -0.0287192 0.011832424 -0.00253748
0.020001562 0.023513949 0.052747507 0.021395577 0.021801064 0.0182349 -0.0605635 0.045265947
-0.009691059 -0.0037677358 0.060825944 -0.042779997 0.03291552 -0.0528429 0.023433235 -0.03535982
0.03150861 -0.016577419 5.4499465e-05 -0.04374035 -0.01257341 0.017984236 0.005898853 -0.039246697
-0.010468121 0.022354389 0.046026416 0.008360974 0.009319578 0.040534236 0.029477386 -0.009417575
0.02732453 -0.0019198838 -0.010933842 0.02193493 -0.010367193 0.010947123 0.033427708 -0.04591485
0.0028633783 -0.014444258 -0.04669073 -0.02353897 -0.01292731 0.033908047 -0.00169484 0.02180548
-0.004546557 -0.03889226 0.015176472 -0.01567657 0.031877264 -0.043127645 0.022165466 0.01853898
0.037171803 -0.040641584 -0.056767683 0.021095246 0.009870293 -0.022710158 0.032017052 -0.0059358045
-0.0058093993 0.03608747 -0.011129717 0.00918241 -0.024979018 -0.03881537 -0.010239101 0.009914011
0.018543035 -0.044275325 -0.044667155 -0.072199926 -0.037820432 -0.00047565936 -0.05372715 -0.018443048

actor.4.weight f4 [128, 128]
00000000: 4c77 4dbd 7a54 a23d 1a85 39bd 9ede 2b3d
00000010: 36d4 debc 9e8d 113d 0592 1e3c 7fac 9abb
00000020: 8931 64bd 6e8a 00bb 588b b03c eac7 8e3d
00000030: 7e26 27bd 92bc 0f3d 0352 31bd 986c fbbd
00000040: 8296 43bd 4b5e 8dbc a885 bdbd 4fe6 babd
00000050: 347d c23c 5a25 843d 3e99 bc3d db46 aabd
00000060: e036 a63c 8bf3 473b 2b2b 63bd 2894 80bd
00000070: 09d3 553d cb63 8abb 7d5d 2abc a4e3 79bc
00000080: 5704 343c 9101 84bd 67d4 9cbd 4df3 e83b
00000090: 7b1b 3e3c 608d 5cbd ff36 f53c bd5b 2cbd
000000a0: 5995 44bd 743b 553c 9c84 c8bd c19e b4bd
000000b0: 3d9b 283c 0e0d 703d 5362 a43d 23ed 09bd
000000c0: 6da0 0d3d 8390 a9bd ccde 9a3d 8139 4a3d
000000d0: 3994 083d be6d 3dbd a5a3 d3bc 014f 36bd
000000e0: 64a4 c4bd 3b85 f6bc 5002 083d f20b cb3c
000000f0: e0ab 7d3d 647e 993c 5bd1 fa3d ec15 b43d
00000100: bb49 5c3d a24c 19bd d203 cd3c 2834 5cba
00000110: d6d5 6abd 9db1 8ebd e7c4 353d 054b 843d
00000120: 8a5e 84bd 4a0d 8abd fb50 1fbb 92a6 933d
00000130: 1ed5 ad3d cd80 a7bb e8ca ec3c fb1d e8bc
00000140: 5552 ebba aecf 23bd 3015 9f3c 4447 4a3d
00000150: c6dd f0bc d68b b0bd 943f 45bd 3124 57bd
00000160: 7123 fc3c 7628 3c3d 328e 2d3d e755 ce3c
00000170: 9fd7 8b3d b64f 67bd 5ee6 8abd a180 27bd
00000180: ba62 b4bd 7e25 8f3d 3046 4b3d b52c 87bd
00000190: bb01 b13c 5dd5 e83c f5a8 0bbc 9fd8 60bb
000001a0: 0a63 ba3d 1f89 a83d f4c4 53bd 5599 11bc
000001b0: 0744 bebb d2a9 0c3a 335c ac3c f4f5 88bc
000001c0: 2903 273c f599 52bd 8a8b c23c 88c8 a73a
000001d0: d707 303d cd6e b93c deaa 113d 5f8f d1bc
000001e0: 7f92 d93d 3199 2a3d be5a 9abd 6016 8b3c
000001f0: 6885 8e3d 0548 5b3c 6baa 9b3c 12c2 7b3d
00000200: 399d 663c a934 bd3c f5cb 69bd dea3 91bd
00000210: 0f14 4c3c 598e ab3b 3584 933d 9897 f83c
00000220: e2a1 b13c 2f82 f63a cd71 413d 4cd9 a23d
00000230: f70a b33d efdc c0bc 8c36 9c3c e40a c1bc
00000240: 4e72 0fba d8d6 52bc 165e dabc bab4 773d
00000250: 1ecc 313d 1e32 5fbd b18e c03d 1f10 b4bc
00000260: 4605 a13d a333 823c 4ea1 d23d 6411 fb3a
00000270: e0f1 25bd a740 f1ba 8009 1e3d a577 1ebd
00000280: c0de 773d 772c dd3c a0db a23d 2144 433d
00000290: e215 fbbc 3e3f 6c3d 7521 a73d d08d 8fbd
000002a0: df7b 043c 2b9f d3bc 4069 1c3d eec4 9abc
000002b0: dc8d 87bd f923 98bd e85d 9dbd 2612 a73c
000002c0: 5ee4 1cbd 5a80 263d a11e 4d3d bbd7 8b3d
000002d0: e303 d9bc 9634 ed3c d17b 983d 35ee 853a
000002e0: 202d b03d 34c3 523d d08a 93bd 8a4e e6bc
000002f0: 3bf7 b63b 88dc 983d a816 7abc 217e c43d
00000300: 56a8 84bd 8c50 723d 2f6f 6a3d 4967 c33c
00000310: 9fe1 b73c bb7c b3bd 3535 8e3d b1f1 e0bd
00000320: 5284 c23c 6429 9a3b 184d 4ebd 5b27 153d
00000330: 5b41 22bd 0f32 9dbc e14f 613d c5a3 30bd
00000340: 5871 0f3c 1d3a 39bd 69d0 dc3c 5239 92bc
00000350: 30bc 683d 5e1f 82bd fc9f 5a3a ad8f 933d
00000360: ec13 8e3d 1a61 263d c0ef 613d d905 e03c
00000370: c054 45bd 1be2 57bd 1813 2bbd 32b0 db3c
00000380: 692a 2bbc 7cf9 06bd be5c cabc dcca 4fbd
00000390: 69a2 583d 9a0d b0bd 82ad 083c 5221 973b
000003a0: 8e27 8cbd 10c4 71bd a491 28bd 4fb4 8b3d
000003b0: a5f9 2fbd 95dc d83c 8aa4 9ebd e3c5 a63c
000003c0: 12a7 9ebc dbb3 a53d 8a83 8a3d fabc 1a3c
000003d0: 0930 7d3d 8ea2 283c 8cf5 2cbd c278 cdbc
000003e0: f5ab 16bd 0bea ddbb f626 4abd eaef 8dbd
000003f0: f81b 693d 6056 55bd 04bf 1fbc 95c2 913d
-0.0501626 0.07926269 -0.04529295 0.04196035 -0.0272008 0.035535447 0.009678368 -0.00472027
-0.055711303 -0.001961376 0.02155082 0.06971724 -0.040808193 0.035091944 -0.043291103 -0.12276572
-0.047750957 -0.017256876 -0.092540085 -0.09125959 0.023741342 0.06452437 0.09208916 -0.08314296
0.020289838 0.0030510153 -0.05546109 -0.062782586 0.052203212 -0.004223322 -0.010398266 -0.015252028
0.010987363 -0.06445611 -0.076577 0.007109082 0.011603232 -0.053845763 0.02993345 -0.042079676
-0.04799399 0.013014663 -0.09790918 -0.088193424 0.010290918 0.0586062 0.08026566 -0.033673417
0.034576822 -0.082795165 0.075620264 0.049371246 0.03334448 -0.046247236 -0.025834868 -0.044508938
-0.096016675 -0.030092826 0.03320533 0.02478597 0.06193149 0.018737026 0.12246963 0.08793244
0.053781252 -0.0374266 0.025026236 -0.0008400106 -0.057332836 -0.06967471 0.044377234 0.06459621
-0.064633444 -0.06740816 -0.0024309743 0.07209505 0.084879145 -0.00511179 0.028905347 -0.028334608
-0.0017953614 -0.03999298 0.019419283 0.04938437 -0.029402625 -0.086204216 -0.048156336 -0.05252475
0.030778619 0.045937024 0.042371936 0.025187446 0.06828236 -0.056472503 -0.0678222 -0.040894154
-0.08807893 0.06989573 0.049627483 -0.06600324 0.02160727 0.028422052 -0.008524169 -0.0034308804
0.091009215 0.08229279 -0.0517015 -0.008886655 -0.0058064493 0.00053658814 0.021040058 -0.016718842
0.0101936245 -0.051416356 0.023748178 0.0012800852 0.042976227 0.022635842 0.035563342 -0.02558106
0.10623645 0.04165 -0.07536839 0.016978443 0.06959039 0.01338387 0.01900216 0.061464377
0.014075571 0.0230964 -0.057079274 -0.07111333 0.012455954 0.005235475 0.07202951 0.030345723
0.021683637 0.0018807108 0.04722767 0.07951602 0.08742326 -0.02354285 0.019068979 -0.023564763
-0.000547205 -0.012868606 -0.026656192 0.06047509 0.043407552 -0.054491155 0.09402216 -0.021980343
0.07862334 0.015893763 0.10284673 0.0019154963 -0.040513873 -0.0018406109 0.03858328 -0.03868832
0.060515165 0.026998742 0.079520464 0.047672395 -0.030650083 0.0576775 0.08160678 -0.070094705
0.008086174 -0.025832733 0.03818631 -0.018892732 -0.066188544 -0.07428736 -0.07683927 0.020394396
-0.038303725 0.04064975 0.050078038 0.06828257 -0.026491111 0.028955739 0.07445491 0.0010218086
0.08602357 0.05145569 -0.07204211 -0.028113622 0.0055836714 0.07463938 -0.015264191 0.0959437
-0.0647742 0.059158847 0.05723494 0.023852961 0.022446452 -0.08764025 0.06943742 -0.10983599
0.023744736 0.004704641 -0.05036649 0.036414485 -0.03961311 -0.019188909 0.05500782 -0.043124933
0.008755051 -0.045221437 0.026954846 -0.017849598 0.056820095 -0.06353639 0.00083398796 0.07205138
0.069373935 0.040619947 0.055160284 0.027346538 -0.048176527 -0.052705865 -0.041766256 0.026817415
-0.010447123 -0.03295277 -0.024702426 -0.05073057 0.05288926 -0.08596344 0.008342149 0.0046121264
-0.06843482 -0.05902487 -0.04115452 0.068215005 -0.04296269 0.02647237 -0.07746227 0.020358032
-0.019366775 0.08090945 0.0676337 0.00944447 0.061813388 0.010292662 -0.04222636 -0.025081996
-0.036785085 -0.006772285 -0.049353562 -0.069305256 0.05691144 -0.052084327 -0.0097501315 0.07117192

actor.4.bias f4 [128]
00000000: c58e 3bbc f65c dd3b 3efc 9b3c 3c6c 97bc
00000010: 4239 23bd 1b02 bcbd d519 a83c d5fa 723d
00000020: ef7d ac3d e6bc 89bb 3fb5 5abc cf5c acbc
00000030: dee7 a9bd 3781 0dbc 0793 0abb 514c e63c
00000040: cf58 013d cf69 afbd c717 e6bc 9617 263d
00000050: 6992 67bd 70f2 10bd 9ad6 f6bc d845 1c3d
00000060: bdeb 553c 7ee2 2abb 3e6a 03bc 8073 bcbc
00000070: 5e38 173d f213 093c bb18 09bd 1037 0ebd
00000080: dc39 2f3d 319c aebc 473f 473d 6da3 ab3c
00000090: 718d 583d 569d 113d 802c 7039 ffd3 c83b
000000a0: 4836 4dbd b87b 663c 0b38 c8b9 6494 253c
000000b0: 362b e8bc f788 a63c b0a0 1c3d a441 5539
000000c0: 5eb6 7abd cbed e8bc fc06 143d f355 5dbc
000000d0: 98a3 763c 7cc7 353d e45d 163d 6bc3 06bd
000000e0: e038 dd3c 75be d13c 84b6 433d 393a 533d
000000f0: bd8c ad3d 54d7 813c 50d4 d1b9 0191 093d
00000100: 79e2 893d d436 a8bc 7c3a d5bc 13fe cb3c
00000110: 6ca5 e6bb 8b29 d5ba 5593 babc 6064 c23c
00000120: 2449 413d 531a 803b 344c 3dbb 3593 00bb
00000130: 93df 13bd fc0d be3c 9ce3 04bd 8f39 cd3b
00000140: bd27 543a e421 1abd 7ff0 0fbc 1920 113d
00000150: 2944 283d 6d9d 503d 3477 3f3d 644c 05bd
00000160: f77d b63c c825 00bd b5cb 533d 58eb 8c3c
00000170: 0938 403d 6d78 133d dcb9 933d 78fb 3cbc
00000180: b4e6 09bb d77a be3c 0bb8 8d3d f748 853d
00000190: f8c4 c53b 5cc7 1c3c 11fb 2f3d c2ec 8e3c
000001a0: f724 2dbb 975d 11bd 498b 9cbb b692 38bd
000001b0: 523d 32bd 939c 1d3c e164 51bb 8cb7 433d
000001c0: a1b3 16bb 8371 43bd 27ac 44bd fcea 7fbd
000001d0: 96d7 4e3d 1094 163d 227e 05bd 2ae0 b8bc
000001e0: 1abd 943d 2bf8 22bd d188 093d 36e4 56bd
000001f0: 19fc 593d feb1 aebb ea0f a93c e543 7a3c
-0.011447613 0.0067554666 0.019041177 -0.018484227 -0.039849527 -0.09180089 0.02052013 0.059321243
0.084224574 -0.0042034267 -0.0133488765 -0.021040348 -0.08296178 -0.008636764 -0.0021144764 0.028112562
0.031578835 -0.08565103 -0.02808751 0.040549837 -0.056536112 -0.035387456 -0.030131627 0.038152546
0.013056693 -0.0026074941 -0.008020936 -0.023004293 0.03691899 0.008366572 -0.03347085 -0.03472048
0.04277979 -0.021314712 0.04864433 0.02095195 0.052869264 0.035550438 0.00022904761 0.0061287875
-0.050100595 0.014067583 -0.00038188728 0.01010618 -0.028340917 0.020328982 0.03823918 0.00020337716
-0.061209075 -0.028433701 0.036139473 -0.013509261 0.015053652 0.044379696 0.036710635 -0.03290121
0.02700466 0.025603512 0.047781482 0.051569197 0.08474109 0.015849747 -0.00040021772 0.033585552
0.06732649 -0.020533957 -0.026028864 0.024901425 -0.007038763 -0.0016262991 -0.022775332 0.023729503
0.047188893 0.003909388 -0.0028884532 -0.0019618992 -0.03610189 0.023200028 -0.032443628 0.006262965
0.00080930797 -0.037629977 -0.008785366 0.035431 0.041080628 0.050931383 0.04674454 -0.032543555
0.022276862 -0.03128603 0.051707942 0.017202064 0.04692844 0.03600352 0.07213184 -0.011534564
-0.002104205 0.023251934 0.06919869 0.065080576 0.0060354434 0.009569015 0.042964045 0.01744688
-0.0026419738 -0.035489645 -0.0047773463 -0.04506179 -0.04351551 0.00961985 -0.0031950998 0.047782466
-0.002299525 -0.047715675 -0.04801574 -0.062479958 0.050498568 0.036762297 -0.032590993 -0.022567827
0.07262631 -0.039787453 0.033577744 -0.052463733 0.053218935 -0.005331277 0.020637471 0.015274976

actor.6.weight f4 [5, 128]
00000000: 08f0 9ebc 7a5e cf3c 6cb2 533d 4e96 99bc
00000010: 573e 163d ac81 29bd 550a 103d 9313 a4bc
00000020: 8275 c13c ea1f 45bb 691f bebb a9f4 2b3d
00000030: 817d febc b9f2 f1bb 0552 183c 4a17 87ba
00000040: b2c5 21bd e43a 0abd ff01 02bd ca96 2cbc
00000050: ea67 ccbc d1f8 07bc 68d9 edbb f731 e33c
00000060: 9db5 82bd 9b81 46bd 897d ed3c 2b44 0ebd
00000070: 2b05 ec3c 7a0d baba 1b39 23bd e3bb ed3c
00000080: c2e1 0dbd eb35 283d dc15 6cbd 7452 2dbd
00000090: 7686 313c aa8e 97bc 4694 0dbd a4cd 10bd
000000a0: 9603 d9bc 4d49 793d 8801 b3bc 7d87 0fbc
000000b0: 3892 37bb efd1 f8bc 6aa3 39bd 0ea0 343d
000000c0: cf83 89bd b913 633d 6906 843c 9f0b d1bc
000000d0: 2d7c 5a3b 3209 473d bb02 cb3b 85d4 cdbc
000000e0: ea0f 07bd 86f0 f73a b1f4 8b3d 29cb 7b3d
000000f0: 6e6a f23c 0f85 76bc 9d2f 1fbb 87e0 033d
00000100: 6aaf 303d bfef f6bc cfdc e3bc 0abb 3cbd
00000110: cc67 3a3c cda8 8e3c 9677 bc3c c9fd b03c
00000120: 2df3 1abc b8ec e13c f711 5c3c 98ce 9f3b
00000130: 4f01 56bd 6245 9b3c 8b33 1fbd a2de 16bd
00000140: c4ae 12bb 1173 3cbd 79c2 83bb 40da d3bc
00000150: 6dd6 8a3c 80c4 35bb eae5 853d 1403 713c
00000160: 1841 81bc 922e 9fbc 6bdc fd3c de87 77bc
00000170: 8c65 97bc 1767 c1bc 4368 0ebc 481f 02bd
00000180: c585 24bc 93f2 523d f87b 863c 02cd 923c
00000190: 71d3 e63c de8d a4bc ae02 1fbd 86ab 703d
000001a0: 7479 ffba a1b9 0c3d d95d e8bb 1067 8a3c
000001b0: afc3 82bc 6bcf 803c 1b96 d4b9 b18a 173d
000001c0: f1ea c33c 3d7f f83c 5006 88bb 9614 193c
000001d0: e34e 8dbc 1773 dabc 6d65 71bd 06d6 8e3b
000001e0: 26e9 a6b9 83a2 883c 8073 323c fbb2 bdbc
000001f0: 2748 023d 025d 383c 36a4 db3c 4011 463c
00000200: 1638 79bd 94a6 843c 5eca 353d b4ad 82bc
00000210: ae3d 533d 5bbe 903d 9074 bc3c 6e56 64bd
00000220: 82e4 e8bb 252e e4bb 90a4 78bd 2781 3e3d
00000230: 8ddf 8b3d bc11 773b da9a c73c 370b 80bc
00000240: f063 51bd 509a a2bd a96f 2a3c 0ea5 b8bc
00000250: 4b63 83bc 4a93 60bd 8c33 63bc ba15 e7bc
00000260: aad4 28bd 48a8 5cbd 3adc d83c c72a d03c
00000270: 5da2 653d ca91 993a 4932 0bbd c798 5c3c
00000280: 87bc a5bc bfbe 603d 4aff 0fbd a57a 4bbd
00000290: 100c cb3c 3773 19bc 2c5e 2ebd 2e90 0ebd
000002a0: 6340 c5bc 919e a03d 69ed 323d 8712 afbc
000002b0: df28 09bc 3b3f e6bc de3b 76bd d35c 433d
000002c0: d69b 88bd c9da 2d3d 4837 cf3c be79 b0bc
000002d0: 5d1c c43c d28f 293d dac0 f6bc 56db 5fbd
000002e0: 62b7 a0bc e6d2 a53c e870 79bc 0f84 683d
000002f0: 40bb 75bd dcbd bfbc 71a2 0a3c 0cfc de3c
00000300: a083 043d 0c2e 8a3b d18c 6ebc 3508 00bd
00000310: 6334 e4bc 8f45 8d3c 0416 f5bc e5f2 7abd
00000320: 368f 623c 740f 1e3c 6707 363c 69fd dbb9
00000330: 1342 7e3b 3db0 52bc 8245 5fbd 2426 e8bc
00000340: b014 2a3d 59dd 39bd b540 b7bc c88a b3bc
00000350: 4dc9 c73c 678b bc3c f917 833d 5044 9abc
00000360: 88ad 473d dddf 98bc 92c8 323d 91f1 043d
00000370: 3dc3 3ebd 2b02 89bd 2a97 3fbd 34f5 493d
00000380: 19b1 64bb 5deb 88bd d24a 3f3d 0221 6d3d
00000390: ff8c 4e3c 7f8c 98bc b762 53bd 7436 673d
000003a0: e398 8dbd 2836 f93c 9cfa e5bb f990 d4bc
000003b0: 6a2f fcbc 5843 13bb beb4 11bc 8e17 74bd
000003c0: e52a f23b 6504 7a3d bbb6 013d a1e7 383d
000003d0: 6b06 0dbc c9ab 0fbd 77d7 79bd 9d7d 6b3c
000003e0: 1281 51bd 78b5 113a 2aa2 523c 0cc0 cc3c
000003f0: 8375 543d 85ce 123b 8fd5 943d 1068 e2bc
-0.019401565 0.025313605 0.05168383 -0.018748429 0.036680546 -0.04138343 0.035166103 -0.020028865
0.023615602 -0.0030078837 -0.005802084 0.041981373 -0.031065704 -0.007383671 0.009296899 -0.0010306623
-0.039495178 -0.03374757 -0.031740185 -0.010533998 -0.024951894 -0.008299069 -0.007258583 0.027733786
-0.06382296 -0.048463445 0.028990524 -0.03473298 0.028811058 -0.001419469 -0.039849382 0.029020255
-0.034639128 0.041067045 -0.057638034 -0.04231496 0.010835281 -0.018500645 -0.034565233 -0.035352364
-0.026490968 0.06086092 -0.021851316 -0.00876033 -0.0028010737 -0.030373542 -0.04532186 0.044097953
-0.067145936 0.05543873 0.016116338 -0.025518237 0.0033338175 0.048592754 0.006195394 -0.025125751
-0.03297416 0.0018916286 0.068337806 0.061473045 0.029591765 -0.015046372 -0.0024289854 0.032196548
0.043136038 -0.030143617 -0.02781525 -0.04607681 0.011377286 0.017414475 0.023006242 0.02160539
-0.009457392 0.027578697 0.0134320175 0.004876923 -0.05224734 0.018953983 -0.038867515 -0.036833413
-0.0022382 -0.046008173 -0.0040209857 -0.025860906 0.01694795 -0.0027735531 0.06537993 0.014710207
-0.01577811 -0.019431386 0.030988893 -0.015108077 -0.018481039 -0.023608727 -0.00869185 -0.031768113
-0.010041659 0.051500868 0.016416535 0.017920021 0.028176995 -0.020087179 -0.038820915 0.058757327
-0.0019491152 0.034356717 -0.0070912656 0.016894847 -0.01596245 0.015723905 -0.00040547628 0.0369975
0.02391574 0.03033411 -0.004151143 0.009343287 -0.01724953 -0.026666207 -0.058934618 0.0043590097
-0.00031835696 0.016679054 0.010891795 -0.023156634 0.03180709 0.011252644 0.0268117 0.012089074
-0.060844503 0.016192712 0.044382446 -0.015951969 0.051572494 0.070675574 0.0230048 -0.05574649
-0.0071073184 -0.0069635087 -0.060703814 0.046509888 0.06829748 0.003769978 0.024365831 -0.015630348
-0.0511207 -0.07939589 0.010402598 -0.022539642 -0.016038558 -0.054827966 -0.01386727 -0.028208602
-0.041218437 -0.053871423 0.0264722 0.025411023 0.056063045 0.0011716422 -0.033983503 0.013464159
-0.020231498 0.05486941 -0.035155572 -0.04967751 0.024786025 -0.009365848 -0.042570278 -0.03480547
-0.024078554 0.07842744 0.043683443 -0.02137114 -0.008371561 -0.028106323 -0.060115688 0.047695946
-0.06670348 0.042444978 0.025294915 -0.021542426 0.023939306 0.041396923 -0.030121256 -0.054652534
-0.019618694 0.020242166 -0.015224673 0.056766566 -0.05999303 -0.023405962 0.008461581 0.027219795
0.03235209 0.004216915 -0.01455994 -0.031257827 -0.027857011 0.017245082 -0.029917724 -0.0612668
0.013828089 0.009647239 0.011110163 -0.0004195974 0.0038796708 -0.012859401 -0.054509647 -0.0283385
0.041523635 -0.04537711 -0.022369722 -0.021916762 0.02438798 0.023015691 0.06401057 -0.018831402
0.048749477 -0.018661434 0.04364831 0.03245694 -0.046572912 -0.06689867 -0.04677502 0.04930611
-0.0034895597 -0.06685517 0.046702214 0.057892807 0.012606858 -0.018621681 -0.051607814 0.056448415
-0.069139265 0.030421332 -0.0070184004 -0.025948035 -0.030784328 -0.002247056 -0.00889319 -0.059592776
0.0073903673 0.061039347 0.031668406 0.045142774 -0.008607487 -0.035075936 -0.0609965 0.01437321
-0.05114848 0.0005558352 0.012856046 0.024993919 0.05186988 0.0022400927 0.072672956 -0.027637511

actor.6.bias f4 [5]
00000000: a347 3bbd 36af c53c ab96 843d 1eb7 dabc
00000010: 94c3 21bd
-0.045722615 0.024131399 0.0647405 -0.026698645 -0.03949316
