ippo_algorithm_belief/checkpoints/ppo_critic_0comm_rad_exp_-1_run_1_lumberjacks.pth (torch, 176904 bytes, 7 tensors)

critic.0.weight f4 [128, 78]
0	0xbd8b0f3a	-0.067900136
1	0xbcdb39ba	-0.026760925
2	0xbd5c2261	-0.053743724
3	0xbe5c44ca	-0.21510616
4	0xbdd5aeeb	-0.104337536
5	0xbdedc162	-0.116091505
6	0xbdcc633a	-0.099798635
7	0xbe32d606	-0.17464456
8	0xbe707543	-0.23482232
9	0x3e0fd8c6	0.14047536
10	0x3e487577	0.1957606
11	0x3dc3de8f	0.09563934
12	0xbdc57794	-0.09641948
13	0xbdb3611e	-0.08758758
14	0x3e132a10	0.14371514
15	0x3db14f06	0.08657651
16	0x3dab2955	0.08357493
17	0xbd5071f1	-0.050889913
18	0xbe33e49b	-0.17567675
19	0x3dcf41fa	0.10120006
20	0x3e04795f	0.12936924
21	0xbc2f5a79	-0.010702723
22	0xbe0ac3b7	-0.13551222
23	0xbd83a603	-0.064281486
24	0xbce26ab7	-0.027638776
25	0xbcb1dd73	-0.02171204
26	0x3d987af7	0.07445329
27	0xbde1118d	-0.10989676
28	0xbc106f74	-0.008815635
29	0x3e29dc96	0.16588053
30	0x3e00d5aa	0.12581506
31	0x3e195187	0.14972506
32	0xbc9b48ac	-0.018955551
33	0x3cfe0899	0.031009959
34	0x3e767ca8	0.2407099
35	0x3e9e7684	0.30949795
36	0x3de26adb	0.11055537
37	0x3d78cb6f	0.060740884
38	0x3af5936f	0.0018735955
39	0x3e8b8d6a	0.27256328
40	0xbcc54abf	-0.024083493
41	0x3e6c645f	0.23085164
42	0x3db31b38	0.08745426
43	0x3d45fbc5	0.04833581
44	0x3e12105f	0.14264058
45	0x3de7f420	0.1132586
46	0x3cd7e542	0.026354436
47	0xbde9bd38	-0.11413044
48	0xbdbbe673	-0.09174814
49	0xbd96d1be	-0.07364224
50	0xbb350a6e	-0.0027624625
51	0x3b6533e9	0.0034973568
52	0xbdcc68ec	-0.0998095
53	0xbe30fd01	-0.17284013
54	0x3d80128b	0.06253537
55	0x3d7e947f	0.062153336
56	0xbdb4f816	-0.08836381
57	0xbe2444c9	-0.16041864
58	0xbe1b07f3	-0.15139751
59	0x3d55695a	0.052102424
60	0x3e17cc40	0.14824009
61	0xbd0c1ec2	-0.03420902
62	0xbd94d6e3	-0.07267549
63	0xbdaa8e56	-0.0832793
64	0x3e0478f3	0.12936763
65	0x3dbef444	0.09323934
66	0x3dbbd228	0.091709435
67	0xbc942027	-0.018081738
68	0xbd9cffce	-0.07665978
69	0x3d51afe6	0.05119314
70	0x3b30c757	0.0026974285
71	0x3dc03444	0.09384969
72	0xbdf1a902	-0.11799814
73	0xbdecd0b7	-0.11563247
74	0x3d9a0ae5	0.07521609
75	0x3db4a4b2	0.08820476
76	0xbd22e5d0	-0.039769948
77	0xbd3274d3	-0.043568444
78	0x3dd8bd5a	0.10582991
79	0x3cddccb2	0.027075145
80	0xbc9e4e56	-0.019324463
81	0xbdf9a4f1	-0.12189663
82	0xbdd9b64c	-0.106304735
83	0x3d77da82	0.06051112
84	0xbe05df68	-0.13073504
85	0x3ca2cdf4	0.019873597
86	0xbc8dc4ad	-0.017305696
87	0xbe984f23	-0.29747877
88	0xbdcb30c8	-0.09921414
89	0xbe5572ee	-0.20844623
90	0xbdc8fc16	-0.098137066
91	0x3d1d6e40	0.03843522
92	0xbe28c7de	-0.16482493
93	0xbe63c750	-0.22244
94	0xbe1584e2	-0.14601472
95	0xbe0e024c	-0.13868064
96	0xbdb77729	-0.08958275
97	0xbe25418a	-0.16138282
98	0x3c11a24b	0.008888791
99	0xbe004cf7	-0.1252936
100	0xbe41bb0f	-0.18919013
101	0xbdc64760	-0.096815825
102	0xbe49b793	-0.19698934
103	0x3c973bed	0.018461192
104	0xbe1f705d	-0.15570207
105	0xbe0f3f69	-0.13989033
106	0x3e07ce93	0.13262396
107	0x3e670af1	0.22562768
108	0x3e6cb3d1	0.2311547
109	0x3da60074	0.08105555
110	0x3dab0c0e	0.083519086
111	0x3e261ab0	0.16221118
112	0x3e343abe	0.17600533
113	0x3dcff838	0.10154766
114	0x3e1fe36f	0.15614103
115	0x3dd20449	0.102547236
116	0x3e766d95	0.2406524
117	0x3c5a9412	0.013340967
118	0x3dada8a1	0.08479429
119	0xbd063e78	-0.03277442
120	0x3e68beee	0.22729084
121	0x3e3b2b8e	0.18278334
122	0x3d9d3a3a	0.076771215
123	0x3cc683f5	0.024232844
124	0x3d1f05db	0.038823944
125	0x3e523b17	0.20530353
126	0x3e16065f	0.14650868
127	0x3d4d3360	0.050097823
128	0x3e871fa8	0.2639134
129	0x3d48fa57	0.049066868
130	0x3dc16216	0.094425365
131	0x3c165e3a	0.009177739
132	0xbbb4a12a	-0.0055123763
133	0xbcc2b900	-0.023769855
134	0x3d7e2ab4	0.062052444
135	0xbc0cdde9	-0.008597829
136	0x3ccdb083	0.025108581
137	0xbc0013e2	-0.00781724
138	0xbe15d1fe	-0.14630887
139	0xbc89a0b3	-0.01680026
140	0xbc136b43	-0.008997741
141	0xba218238	-0.00061610667
142	0xbde36143	-0.111025356
143	0xbde0604d	-0.10955868
144	0x3b30036b	0.0026857506
145	0xbd6bfa82	-0.05761195
146	0x3d89e30d	0.067327596
147	0xbdc01972	-0.09379853
148	0xbd4a56dc	-0.04939924
149	0xbb6df85f	-0.003631137
150	0x3d17f8ec	0.037102625
151	0x3dcf0361	0.10108066
152	0x3da08494	0.07837787
153	0x3caca5b6	0.02107511
154	0x3b975473	0.0046182214
155	0x3abc14d0	0.0014349464
156	0x3d4e8eb2	0.050429054
157	0xbd7be783	-0.061500084
158	0x3d04bfc3	0.03240944
159	0xbe7c0be1	-0.24613906
160	0xbe3e8c5f	-0.18608235
161	0xbdf2f972	-0.11863984
162	0xbe6f16bc	-0.23348516
163	0xbe718e08	-0.23589337
164	0xbe250262	-0.1611419
165	0xbd37170c	-0.044699714
166	0x3d74d054	0.05976899
167	0x3d26bf73	0.040709924
168	0xbe749189	-0.23883642
169	0xbe60662a	-0.21913972
170	0x3d01f0dc	0.031723842
171	0xbba70f45	-0.005098256
172	0xbd26173d	-0.040549506
173	0xbe42ebf3	-0.1903532
174	0xbdbdc871	-0.09266747
175	0xbcb85796	-0.022502702
176	0xbc569c5b	-0.0130988015
177	0xbddb1d16	-0.10698907
178	0xbe4c38e0	-0.19943571
179	0xbe351554	-0.17683917
180	0xbdd1416b	-0.102175556
181	0xbd1843bb	-0.037173968
182	0xbd62f9e0	-0.05541408
183	0xbdfbb287	-0.12289911
184	0x3df1cccf	0.11806642
185	0x3dd57c9a	0.104241565
186	0x3e6ccd2f	0.23125146
187	0x3dec7bd5	0.115470566
188	0xbb81f5ed	-0.003966084
189	0x3dfa78d4	0.122300774
190	0x3e166291	0.14686038
191	0x3e385f94	0.1800521
192	0x3de9e51f	0.114206545
193	0x3e1c6779	0.15273847
194	0x3d8ba06b	0.06817707
195	0x3cb13168	0.021630004
196	0xbd1ec86f	-0.038765367
197	0xbc1443fd	-0.009049413
198	0xbd383c25	-0.044979233
199	0x3ce8dd5d	0.028425867
200	0x3d92ef67	0.071745686
201	0x3dafa556	0.08576457
202	0x3c8cd7ff	0.017192839
203	0x3ca1c563	0.019747442
204	0xbd60a64a	-0.054846086
205	0xbd2f2e37	-0.042768683
206	0x3e2c2178	0.16809642
207	0xbd93436f	-0.07190596
208	0x3dede09d	0.11615107
209	0xbdb867f5	-0.09004203
210	0x3d80b2dc	0.06284115
211	0xbd1ec421	-0.03876126
212	0xbd8b5af6	-0.06804459
213	0xbd162e3a	-0.03666518
214	0xbe139af8	-0.14414585
215	0x3b939ec9	0.0045050127
216	0xbd5bc4f7	-0.053654637
217	0xbcceede6	-0.025259923
218	0xbe1ad961	-0.15121986
219	0xbe07e6d9	-0.13271655
220	0xbd5658d0	-0.052330792
221	0x3df2ed41	0.11861659
222	0x3d2700f7	0.040772405
223	0xbbd8d992	-0.0066177333
224	0xbdfb0af1	-0.12257946
225	0x3c77f104	0.015133146
226	0x3e2f5918	0.1712383
227	0x3da57758	0.08079404
228	0xbd82f4a2	-0.06394316
229	0xbdf5665f	-0.11982416
230	0xbde95e95	-0.11394993
231	0x3c8ba84b	0.017048022
232	0xbdd29a25	-0.10283307
233	0xbc2bb9b0	-0.010481283
234	0x3d920ca5	0.07131318
235	0x3c1784d0	0.009247974
236	0xbc7b265e	-0.015328972
237	0xbe3b8f74	-0.18316442
238	0xbe5a74ee	-0.21333668
239	0xbd8ed057	-0.069733314
240	0xbe15ff19	-0.14648093
241	0xbe768909	-0.24075712
242	0xbe18643a	-0.14881983
243	0xbe02b15c	-0.1276297
244	0xbd8cabac	-0.06868681
245	0xbd54a033	-0.05191059
246	0xbe740692	-0.23830631
247	0xbe2a25a8	-0.16615927
248	0x3cddcf95	0.027076522
249	0xbd9487de	-0.07252477
250	0x3d8f311e	0.0699179
251	0xbde670ab	-0.112519585
252	0xbe0baad9	-0.13639392
253	0x3b305834	0.0026908042
254	0x3d6a6e25	0.05723395
255	0x3cec88df	0.028873859

critic.0.bias f4 [128]
0	0x3d38ed28	0.045148045
1	0xbd6fb2c6	-0.0585201
2	0x3c339d02	0.010962727
3	0xbd7df225	-0.061998505
4	0xbdd81fbf	-0.1055293
5	0xbe002054	-0.12512332
6	0xbd593e42	-0.05303789
7	0xbd000a9b	-0.031260114
8	0xbc4d011c	-0.0125124715
9	0x3d753fc9	0.059875283
10	0xbde1fe19	-0.110347934
11	0xbc512826	-0.01276592
12	0xbd6c6ed1	-0.05772287
13	0xbd3e9178	-0.04652545
14	0x3da124b1	0.078683265
15	0xbcaa0f4b	-0.020759245
16	0xbe055434	-0.13020402
17	0xbdb69fe3	-0.08917215
18	0x3db9795d	0.09056351
19	0xbd2e4c46	-0.04255321
20	0xbd831e14	-0.06402221
21	0xba4c47f4	-0.0007792704
22	0xbd144fd2	-0.036208935
23	0x3dc674e1	0.09690262
24	0xbc1c1561	-0.0095265815
25	0xbda148f6	-0.07875244
26	0x3e187872	0.14889696
27	0xbdb31fcc	-0.08746299
28	0xbc0a72eb	-0.00845025
29	0xbdbd4ce7	-0.092431836
30	0x3d795fc9	0.060882363
31	0xbd56e218	-0.052461714
32	0xbdce744c	-0.100807756
33	0x3dab3677	0.08359998
34	0xbd2aa9dd	-0.0416659
35	0xbc9bc92a	-0.019016821
36	0xbd4a0fef	-0.0493316
37	0x3d32f6fa	0.043692566
38	0xbc8c9dc7	-0.017165078
39	0xbe1d97bf	-0.15389918
40	0xbdd8482e	-0.10560642
41	0xbe31514d	-0.1731617
42	0x3d9859f3	0.074390315
43	0x3d0cbd26	0.034360074
44	0x3d539675	0.05165716
45	0xbc499041	-0.012302459
46	0x3d3b347a	0.045704342
47	0xbde41cb2	-0.11138286
48	0x3b1abaf3	0.0023609966
49	0xbdc05b73	-0.093924426
50	0x3d31be9c	0.04339467
51	0xbced9e5b	-0.029006174
52	0xbddc37d0	-0.10752833
53	0xbd4b3237	-0.049608435
54	0x3d56d87a	0.052452542
55	0x3d02a9f4	0.03190036
56	0xbe0e73b1	-0.1391132
57	0xbc820e61	-0.015875997
58	0xbd371438	-0.044697016
59	0x3cc475d8	0.023981974
60	0xbd819ccb	-0.06328734
61	0xbc10553f	-0.008809387
62	0xbdf972b5	-0.12180082
63	0xbd1c4a16	-0.03815659
64	0x3d01a48e	0.031651072
65	0xbd171187	-0.03688195
66	0xbdcb932e	-0.09940182
67	0x3d87f14d	0.06637821
68	0x3d28d62e	0.041219883
69	0xbdd6aafb	-0.10481831
70	0xbe0af005	-0.13568123
71	0xbca38a99	-0.01996355
72	0xbc59f934	-0.013304044
73	0xbd6c060b	-0.05762295
74	0x3d3230c8	0.043503553
75	0x3da21a5c	0.07915184
76	0x3cae34f5	0.021265486
77	0xbde95c56	-0.11394565
78	0xbdb16578	-0.08661932
79	0xbc768004	-0.01504517
80	0x3e14367e	0.14473912
81	0x3d049063	0.03236426
82	0x3def861a	0.116955
83	0xbdc8e8cb	-0.09810027
84	0xbd57bad1	-0.052668396
85	0x3c976ecb	0.018485447
86	0x3d9da539	0.07697529
87	0x3d707b6e	0.05871146
88	0xbb70f5b1	-0.0036767537
89	0xbd8911d4	-0.066928536
90	0xbddc8da4	-0.10769203
91	0xbdc0d1b9	-0.094150014
92	0x3d44d146	0.04805114
93	0x3dfab4d2	0.1224152
94	0x3d0e0e9a	0.034681894
95	0xbd813635	-0.06309167
96	0xbda21d34	-0.07915726
97	0x3c0eed12	0.008723514
98	0x3d570760	0.052497268
99	0xbd112224	-0.03543295
100	0xbd990bc4	-0.07472947
101	0x3c57d28a	0.013172755
102	0xbd379f51	-0.04482967
103	0x3d81c2b0	0.06335962
104	0x3cc0b1cf	0.023522286
105	0x3dc0d08e	0.09414779
106	0xbd2cda5d	-0.042200435
107	0xbd8713f7	-0.06595605
108	0x3c41d1cd	0.011829806
109	0xbdbe2120	-0.09283662
110	0xbd24f670	-0.040274084
111	0xbd887c0c	-0.06664285
112	0xbcd70fcf	-0.026252655
113	0xbdd5bb4c	-0.10436115
114	0xbcf4bf18	-0.029876277
115	0x3e2a2578	0.16615856
116	0x3c3fd182	0.011707665
117	0x3d615fe2	0.05502308
118	0x3e0ae78a	0.13564888
119	0xbdd998fd	-0.10624883
120	0xbd0c7b95	-0.034297545
121	0xbdd1435d	-0.10217927
122	0xbaf1944b	-0.0018431036
123	0xbcb9adab	-0.02266582
124	0xbda477d5	-0.08030669
125	0x3dd6a4b5	0.10480634
126	0x3db19e16	0.086727306
127	0x3cd010a0	0.025398552

critic.2.weight f4 [128, 128]
0	0x3d5761bb	0.052583437
1	0x3d13a83f	0.036049124
2	0xbbf852ef	-0.007578246
3	0xbda97d31	-0.082758315
4	0xbc8339c4	-0.016018756
5	0xbd6cc1b5	-0.05780192
6	0xbe018c82	-0.12651256
7	0x3d280444	0.041019693
8	0xbd1b7097	-0.03794917
9	0x3d50509d	0.05085813
10	0x3c9106b7	0.017703397
11	0x3c698457	0.014252744
12	0x3c4d1bcd	0.012518835
13	0xbdf46b49	-0.119345255
14	0x3d4ec00d	0.050476123
15	0x3d0dba09	0.034601245
16	0x3d0361f4	0.032075837
17	0xbd834dcd	-0.06411324
18	0xbdabe4ca	-0.083932474
19	0xbd1ee455	-0.038791973
20	0xbd037a04	-0.032098785
21	0x3b194c54	0.0023391442
22	0xbc949656	-0.018138092
23	0x3d3f3170	0.046678007
24	0xbcd21501	-0.025644781
25	0xbac2a61e	-0.0014850532
26	0x3bd3764e	0.006453312
27	0x3d8ef1bd	0.06979702
28	0xbc0d0c7c	-0.008608934
29	0x3c5b7b23	0.013396057
30	0x3e05b806	0.1305848
31	0xbd01b2a8	-0.03166452
32	0xbca45867	-0.020061685
33	0x3cf13f87	0.029449238
34	0x3dcbb7f2	0.09947194
35	0x3d8adc22	0.06780268
36	0xbde2251a	-0.11042233
37	0x3d6cd45b	0.057819705
38	0x3ca3300b	0.01992037
39	0xbdc23cb5	-0.09484235
40	0xbda9f368	-0.08298379
41	0xbdd4ea99	-0.103963085
42	0x3d2b1d05	0.041775722
43	0x3d4a2b90	0.04935795
44	0x3c22432a	0.0099037085
45	0xbd014701	-0.031561855
46	0xbced0203	-0.028931623
47	0xbb458a6c	-0.003014232
48	0xbdcd1f53	-0.1001574
49	0xbadd4594	-0.0016881698
50	0x3d20521e	0.039140813
51	0xbd96f33e	-0.073706135
52	0xbcb1e2bd	-0.021714563
53	0x3d4c15df	0.049825545
54	0x3dc0f70f	0.09422123
55	0xbd22d601	-0.03975487
56	0x3d31f149	0.043442998
57	0xbc48d9d6	-0.012258967
58	0xbc4f71a1	-0.012661369
59	0xbcf442d2	-0.029817019
60	0xbd41ba25	-0.047296662
61	0xbd153a57	-0.03643259
62	0x3d24729c	0.040148363
63	0x3d1ad1dd	0.037797797
64	0x3e1f94e6	0.15584144
65	0xbd279e21	-0.040922288
66	0x3df436f2	0.119245425
67	0xbc14f6ca	-0.009092042
68	0x3d484728	0.048895985
69	0xbddd76fa	-0.108137086
70	0x3d47492f	0.048653778
71	0xbd27fa3d	-0.04101013
72	0x3d9b39c6	0.07579379
73	0x3b9ad79b	0.004725409
74	0xbd88cc8a	-0.06679638
75	0x3d5f90be	0.054581396
76	0x3d898287	0.06714349
77	0x3d894dd1	0.067042954
78	0xbcc9b074	-0.024620272
79	0x3cd1a697	0.025592132
80	0xbd0e17e1	-0.03469074
81	0x3da841ee	0.082157
82	0x3db19df4	0.08672705
83	0x3d4e2acc	0.050333783
84	0x3da8b17a	0.08236976
85	0xbd66feb3	-0.056395244
86	0xbd0fe991	-0.035134856
87	0x3c6f505d	0.014606562
88	0x3d6a4fed	0.05720513
89	0xbd85ae20	-0.06527352
90	0xbe127b94	-0.14304954
91	0xbdb371a2	-0.08761908
92	0x3c968de2	0.018378202
93	0xbbf27b11	-0.0073999246
94	0xbd808595	-0.06275479
95	0xbb14b118	-0.0022688564
96	0xbce7dcdf	-0.028303562
97	0xbe05a79b	-0.13052218
98	0xbd3deb0a	-0.04636673
99	0x3cfd6aae	0.030934658
100	0xbddccb7d	-0.10781
101	0xbd1148c1	-0.035469774
102	0xbdecb0ee	-0.11557184
103	0xbb04fa9d	-0.0020290979
104	0x3d8c56d8	0.06852502
105	0xbd8e82d7	-0.069585495
106	0x3d3f600b	0.046722453
107	0xbd3811ff	-0.044939037
108	0x3d9ecd5a	0.077540115
109	0xbcc40fb8	-0.023933277
110	0x3d3da2f3	0.04629798
111	0xbe2c88f8	-0.16849124
112	0xbaf1cf5d	-0.001844864
113	0xbd139112	-0.03602702
114	0xbcb8dc2c	-0.022565924
115	0x3cb7199e	0.022351082
116	0x3d206ec6	0.03916814
117	0xbd86fdd6	-0.06591384
118	0x3c34609c	0.011009362
119	0x3d03ee41	0.03220964
120	0x3da1c936	0.07899706
121	0xbaa54299	-0.0012608349
122	0xbcf2b025	-0.029625008
123	0xbd9179cf	-0.07103311
124	0xbc425781	-0.011861683
125	0xb8b99da7	-8.8508525e-05
126	0xbc1e6f4f	-0.009670093
127	0x3de5622f	0.11200368
128	0x3b85fbbd	0.0040888474
129	0xbe2f0a57	-0.17093788
130	0x3be1abed	0.00688695
131	0xbdd27975	-0.10277072
132	0xbd86ba99	-0.065785594
133	0xbdb54624	-0.08851269
134	0xbda3caa4	-0.07997635
135	0xbca600f9	-0.020264136
136	0xbd38f77b	-0.04515789
137	0xbcc55e45	-0.024092803
138	0xbd0b3920	-0.033990026
139	0xbd732efc	-0.05937098
140	0x3bdc7de5	0.006728875
141	0xbdcdacd9	-0.10042734
142	0x3d4ea096	0.050446115
143	0x3c2725a4	0.010201845
144	0xbb96c9f6	-0.0046017123
145	0xbcce2b04	-0.025166996
146	0xbc9fa297	-0.019486709
147	0x3d56bb60	0.05242479
148	0xbcbecdef	-0.023291556
149	0x3defb464	0.11704329
150	0xbde3585d	-0.11100838
151	0xbd94de40	-0.07268953
152	0xbbf0a8ec	-0.007344356
153	0x3d6462e8	0.055758387
154	0xbcd9157a	-0.026499499
155	0x3d74cf49	0.059767995
156	0xbe4702b7	-0.1943463
157	0x3c0d9dc1	0.0086435685
158	0x3db5e3a6	0.08881311
159	0x3ce75355	0.028237978
160	0x3e088ba4	0.13334519
161	0x3cc93fbd	0.024566526
162	0x3c8f2266	0.017472457
163	0x3d529b64	0.051417723
164	0xbde89c9a	-0.113579944
165	0xbcc6e62a	-0.024279673
166	0xbe0de3b6	-0.13856396
167	0x3d9c52e6	0.07632999
168	0x3d7d6a9c	0.06186925
169	0xbde40270	-0.111332774
170	0xbbfe9d5a	-0.0077702226
171	0x3da2407b	0.07922455
172	0x3d05c6e5	0.032660384
173	0xbe24cb33	-0.1609314
174	0x3d1e97c6	0.03871896
175	0x3dbe2af9	0.0928554
176	0x3c758c63	0.014987084
177	0x3d552722	0.052039273
178	0x3d81e327	0.06342154
179	0xbd955771	-0.07292069
180	0xbd037673	-0.032095384
181	0x3d6d8dc6	0.057996534
182	0x3cbeefa3	0.023307627
183	0xbdcca49f	-0.099923365
184	0x3d1cc914	0.0382777
185	0xbde997fc	-0.11405942
186	0x3cbde63c	0.023181073
187	0xbca1593e	-0.019695874
188	0xbc8c9ed3	-0.017165577
189	0x3c0ba4e9	0.008523204
190	0xbd9b313f	-0.07577752
191	0xbdb15031	-0.086578734
192	0x3df7cd6c	0.12099728
193	0xbdd0386a	-0.1016701
194	0x3e36812e	0.17822716
195	0xbd1302ef	-0.03589147
196	0x3d6e2b9c	0.058147058
197	0x3c82ef28	0.01598318
198	0x3caf1640	0.021372914
199	0x3cc73220	0.024315894
200	0x3e222b6d	0.15836878
201	0xbda90a85	-0.082539596
202	0xbe3cf50a	-0.1845285
203	0x3c147ba1	0.009062679
204	0x3d08b2c1	0.033373598
205	0x3c12477e	0.008928178
206	0x3d8260cf	0.06366121
207	0xbd1362e5	-0.035982985
208	0xbcf4437c	-0.029817335
209	0x3dab5ec8	0.083676875
210	0x3dd9d25c	0.10635826
211	0x3d1ad95d	0.03780495
212	0xbda3456b	-0.07972225
213	0xbd8eb25c	-0.06967613
214	0xbdf18e7e	-0.11794756
215	0x3e2f485a	0.17117444
216	0xbd8fbbe4	-0.07018259
217	0x3d7ade2e	0.061247043
218	0xbdd6d311	-0.104894765
219	0x3ca6762a	0.020320017
220	0xbce4692a	-0.027882177
221	0xbd18d2ee	-0.037310533
222	0x3cd3da2f	0.025860874
223	0xbd82295e	-0.063555464
224	0xbcfcf39e	-0.030877884
225	0xbde33023	-0.11093166
226	0x3e128fa6	0.1431261
227	0x3df68ee8	0.12038976
228	0x3d0a5630	0.0337736
229	0x3d57b7c1	0.052665476
230	0xbdab955f	-0.083781
231	0x3da6d3e2	0.08145882
232	0x3e06c21b	0.13159983
233	0x3e14dfcb	0.14538495
234	0x3d8e23e2	0.06940438
235	0xbd6452a6	-0.055742882
236	0x3e4d3999	0.20041503
237	0x3c049ee2	0.008094521
238	0xbd520d1b	-0.05128203
239	0xbdff41ea	-0.12463744
240	0xbd9b142b	-0.07572206
241	0x3c2870bf	0.010280787
242	0xbca47829	-0.020076828
243	0x3cb98a35	0.02264891
244	0x3dcbd295	0.09952275
245	0xbe187735	-0.14889224
246	0xbd158a03	-0.03650857
247	0x3ddf07c9	0.10890157
248	0x3ca65a3c	0.020306699
249	0x3a41f416	0.00073987374
250	0xbd25ce52	-0.040479966
251	0xbd831bbb	-0.064017735
252	0x3d7b4ff1	0.061355535
253	0xbd8cab27	-0.06868582
254	0x3d34d915	0.044152338
255	0x3e2bded5	0.16784222

critic.2.bias f4 [128]
0	0xbbc95e43	-0.00614527
1	0xbd717822	-0.05895246
2	0xbd80ed99	-0.06295318
3	0x3d711f3b	0.058867674
4	0xbd25848f	-0.04040962
5	0x3df28e72	0.118435755
6	0x3d4d6ce7	0.050152685
7	0x3b3ec134	0.0029106857
8	0xbdce074d	-0.10059986
9	0x3d5575c8	0.052114278
10	0xbd022dc6	-0.031781934
11	0x3e0b912f	0.13629602
12	0x3d231fdd	0.03982531
13	0x3add96c0	0.0016905889
14	0xbdbc42ee	-0.09192453
15	0x3c375526	0.011189735
16	0xbd155696	-0.036459528
17	0x3cb7ddb4	0.022444583
18	0xbc0ccfac	-0.008594435
19	0xbd41c278	-0.0473046
20	0x3dcd6790	0.100295186
21	0xbd6f5df8	-0.058439225
22	0x3d914445	0.070930995
23	0x3db9f86f	0.09080588
24	0xbd33eabf	-0.043925043
25	0xbda080e7	-0.07837086
26	0xbd81102a	-0.06301911
27	0x3dc5be1f	0.09655403
28	0x3bd6cf13	0.006555447
29	0xbdda1d10	-0.106500745
30	0x3d206c3a	0.039165713
31	0x3d851f2b	0.065000854
32	0xbd0906a6	-0.033453606
33	0xbd24c0d1	-0.040222947
34	0x3c9f44fa	0.01944207
35	0xbcf4a954	-0.029865898
36	0x3de8b956	0.11363475
37	0xbdbd54b7	-0.09244674
38	0x3d407d9a	0.046994783
39	0x3d8a5047	0.06753593
40	0xbde4b624	-0.11167553
41	0xbd4297a2	-0.04750789
42	0xbdbb24de	-0.09137891
43	0x3dd783dc	0.10523197
44	0x3da2cf4e	0.079496965
45	0x3d2552da	0.040362217
46	0x3d83b2d3	0.064305924
47	0x3d5c3ba4	0.053767815
48	0xbd56cf3f	-0.05244374
49	0x3af09661	0.0018355363
50	0x3b08e134	0.0020886185
51	0xbd786d1f	-0.06065094
52	0x3df902b3	0.12158718
53	0xbd801e13	-0.06255736
54	0xbbacfa0b	-0.005278831
55	0x3c209762	0.0098017175
56	0xbdedcfe0	-0.11611915
57	0x3d30e6c4	0.043188825
58	0xbdf03782	-0.11729337
59	0x3d1cccbd	0.03828119
60	0x3d989c3d	0.07451675
61	0xbdd9e235	-0.10638849
62	0xbd882365	-0.06647376
63	0x3d61259d	0.05496751
64	0x3dc9dd81	0.09856702
65	0x3d9e0801	0.077163704
66	0xbb13fdad	-0.0022581622
67	0xbdbc2435	-0.091865934
68	0xbda57ad0	-0.08080065
69	0xbcd5bd5c	-0.02609127
70	0xbc82a87e	-0.015949484
71	0x3cb44440	0.0220052
72	0xbbc29542	-0.005938203
73	0x3dba23a7	0.090888314
74	0x3de3b00e	0.11117564
75	0x3d15ecfb	0.036602955
76	0x3c7540e9	0.014969089
77	0x3db91ad2	0.09038319
78	0xbccecdcc	-0.025244616
79	0xbdea5a61	-0.1144302
80	0xbda8eb56	-0.08248012
81	0xbd163577	-0.03667208
82	0x3ce2f23a	0.027703393
83	0xba711244	-0.0009196142
84	0x3d1ab741	0.03777242
85	0xbd037c35	-0.032100875
86	0x3db2f59d	0.08738253
87	0x3d276826	0.040870808
88	0x3e07d695	0.1326545
89	0x3d0c9934	0.034325793
90	0xbd3b61a7	-0.045747425
91	0xbdb74657	-0.08948963
92	0xbd48bbf0	-0.049007356
93	0xbcea4cca	-0.028601069
94	0xbd88ac9f	-0.0667355
95	0xbd53c9f0	-0.051706254
96	0x3df1942e	0.11795841
97	0x3d73f538	0.05956003
98	0xbdaa5507	-0.08316999
99	0x3df721c6	0.12066989
100	0x3d5f9bc5	0.054591913
101	0x39a220ee	0.00030923582
102	0x3db45982	0.08806135
103	0x3da10b8c	0.078635305
104	0x3c196849	0.009363242
105	0xbc5ab96f	-0.013349875
106	0xbabd5137	-0.001444376
107	0x3d9d7fd6	0.076903984
108	0x3de851dd	0.11343739
109	0xbd481a72	-0.048853345
110	0xbd799833	-0.060936164
111	0xbd600cac	-0.054699585
112	0x3d7ed4f4	0.062214807
113	0xbd54f6e7	-0.051993277
114	0x3c883d7b	0.016630879
115	0xbd2ff964	-0.042962447
116	0x3c9f733f	0.019464133
117	0x3dc2c236	0.09509699
118	0xbace42ba	-0.0015736439
119	0xbe0394fd	-0.12849803
120	0x3ab80033	0.0014038145
121	0x3dac0505	0.08399395
122	0xbd041868	-0.032249838
123	0xbc11a9a2	-0.008890541
124	0x3dd7ff94	0.105467945
125	0x3db04888	0.08607584
126	0xbdd1b39a	-0.102393344
127	0x3e081926	0.13290843

critic.4.weight f4 [128, 128]
0	0xbd50722c	-0.050890133
1	0x3cde3464	0.027124591
2	0xbdd8afea	-0.10580428
3	0xbd59b372	-0.053149648
4	0x3d289446	0.04115703
5	0x3d8d3777	0.06895345
6	0x3cbf3804	0.02334214
7	0x3d707f5b	0.058715206
8	0xbe21a8ed	-0.15787096
9	0xbd9fc33e	-0.07800911
10	0x3d22fb04	0.03979017
11	0x3dddceca	0.108304575
12	0x3d521105	0.051285762
13	0xbde508bf	-0.11183309
14	0x3c3f4966	0.011675214
15	0xbd65e0d1	-0.056122605
16	0x3da0be08	0.078487456
17	0x3d30a59a	0.04312668
18	0x3d58ee6b	0.052961748
19	0x3cb6c9e8	0.022313073
20	0x3dc7e34b	0.097601496
21	0xbd751de0	-0.059842944
22	0x3c4e3ebd	0.0125882
23	0x3dd9d36d	0.106360294
24	0xbbd0ed3f	-0.006375938
25	0xbdbf9583	-0.09354689
26	0xbd0cdcc0	-0.03439021
27	0x3e0728ad	0.1319911
28	0x3d8a93d7	0.067664795
29	0xbdb962b4	-0.09052029
30	0xbc20e047	-0.009819097
31	0x3d3ec6a4	0.046576157
32	0xbd8d632c	-0.06903681
33	0x3c189d96	0.009314915
34	0x3d880fe5	0.06643657
35	0x3d359f59	0.04434142
36	0x3ddbbb82	0.10729124
37	0x3cce9e61	0.025222005
38	0x3d9e0f06	0.07717709
39	0xbb8c2d27	-0.0042778435
40	0xbd7d0d39	-0.06178019
41	0xbdc7cf00	-0.09756279
42	0xbce4eedc	-0.027945928
43	0xbc8292f1	-0.015939208
44	0x3daa8f48	0.0832811
45	0x3bec7a02	0.007216693
46	0x3dea9a04	0.114551574
47	0x3db49b0a	0.08818634
48	0x3d86a179	0.06573767
49	0x3c290dcb	0.01031823
50	0xbd7f18d6	-0.062279545
51	0xbc7769e7	-0.015100933
52	0xbc3c4f83	-0.011493566
53	0xbde90ea2	-0.11379744
54	0xbca20498	-0.019777581
55	0x3d2890cd	0.041153718
56	0xbdbd2b28	-0.09236747
57	0xbccc39b2	-0.024929855
58	0x3cddc93e	0.027073499
59	0x3d09e8a3	0.033669125
60	0x3e3d004b	0.18457143
61	0xbd75766d	-0.059927393
62	0xbc120758	-0.008912884
63	0xbd42f2ae	-0.04759472
64	0xbd21e22c	-0.039522335
65	0x3dbaf899	0.091294475
66	0xbd1ea268	-0.0387291
67	0x3d27b4b2	0.04094381
68	0x3d87c2ca	0.0662895
69	0xbd5d0265	-0.05395736
70	0x3e0cb11b	0.13739435
71	0x3d9ef283	0.07761099
72	0x3d60f3f7	0.054920163
73	0x3ce4d40c	0.027933143
74	0xbcad782d	-0.021175468
75	0x3df9ecb6	0.12203352
76	0xbd3581b4	-0.044313148
77	0x3deed81d	0.11662314
78	0xbd9883b0	-0.074469924
79	0x3d18f45e	0.03734242
80	0xbe1c1e8e	-0.1524603
81	0xbbe1368f	-0.006872959
82	0x3e122e9a	0.1427559
83	0xbe182bb0	-0.14860415
84	0xbb88a6fc	-0.0041702967
85	0xbd91e7ef	-0.07124316
86	0x3d6bc7de	0.057563655
87	0x3b0d8af8	0.0021597724
88	0x3d761882	0.060081966
89	0xbc626d8d	-0.013820064
90	0x3bd407b1	0.0064706434
91	0x3d11f08e	0.0356298
92	0x3c9eb7c6	0.01937474
93	0x3d273eaf	0.040831264
94	0xbdcf96eb	-0.10136207
95	0xbe33a447	-0.17543136
96	0xbccc9a5e	-0.024975952
97	0x3d6488d3	0.05579455
98	0xbdbd028f	-0.09229004
99	0xbd605be5	-0.054775137
100	0x3d52bfd5	0.051452477
101	0x3e11c1cc	0.14234084
102	0x3d4c84f9	0.0499315
103	0x3d1c41da	0.03814874
104	0xbdaa548b	-0.083169065
105	0xbc2bea19	-0.010492825
106	0xbd60f531	-0.054921333
107	0x3dd929c7	0.106036715
108	0x3cbafb99	0.02282505
109	0x3b9c3f2a	0.004768272
110	0xbd65b224	-0.05607809
111	0x3d17fc20	0.03710568
112	0x3e141567	0.1446129
113	0xbe303194	-0.17206413
114	0xbca597d5	-0.020214
115	0xbded5003	-0.11587527
116	0x3dfe045d	0.12403176
117	0x3d1e97bf	0.038718935
118	0x3cdf2b76	0.027242403
119	0xbd1d274c	-0.038367555
120	0x3d0fdfb6	0.035125457
121	0xbd55c410	-0.052188933
122	0x3cbc1315	0.022958318
123	0x3d5d50ef	0.054032262
124	0x3dc17e1d	0.09447882
125	0x3e2b0702	0.16701892
126	0xbdb9f71f	-0.09080338
127	0x3d4628e8	0.048378855
128	0xbd5ebc9b	-0.054379087
129	0x3d42fe71	0.047605935
130	0x3c9dba7f	0.019253967
131	0x3dccc948	0.09999329
132	0xbd83b6a4	-0.0643132
133	0xbc89cb7e	-0.016820665
134	0xbd04f2c9	-0.0324581
135	0xbb434195	-0.0029793729
136	0xbdaa129c	-0.08304331
137	0xbddc1386	-0.10745911
138	0xbcf4e47c	-0.029894106
139	0xbdb3720e	-0.087619886
140	0xbdb515ab	-0.088420235
141	0xbd57e31d	-0.052706826
142	0x3d544b8d	0.051829863
143	0xbd2b128b	-0.04176573
144	0x3d9f0392	0.07764353
145	0x3dacfbda	0.084464744
146	0x3d2f7ceb	0.04284374
147	0x3d42c1fa	0.04754827
148	0x3d42b17f	0.047532555
149	0xbda65f54	-0.08123651
150	0xbe41ae1e	-0.18914077
151	0xbe77227e	-0.24134251
152	0x3c1167b9	0.008874827
153	0xbd08447b	-0.033268433
154	0xbe588c47	-0.21147262
155	0x3ca2e634	0.01988516
156	0xbd5e58f3	-0.054284047
157	0x3e6aa52e	0.22914574
158	0x3d8b7eec	0.06811318
159	0x3d2431a3	0.0400864
160	0xbd941531	-0.072306044
161	0x3e3457b2	0.17611578
162	0xbcbf6a8e	-0.023366239
163	0x3ce26036	0.027633768
164	0xbd1ab5be	-0.03777098
165	0x3d52e134	0.0514843
166	0xbce16c11	-0.02751735
167	0xbd2ae7e7	-0.041725066
168	0xbda73852	-0.08165039
169	0x3d8681b8	0.06567711
170	0x3de62e55	0.11239306
171	0xbdb359b6	-0.087573454
172	0xbe835add	-0.2565526
173	0xbdaedea2	-0.085385576
174	0x3c4e0131	0.012573526
175	0xbcbafe26	-0.022826266
176	0x3d9fdaf5	0.078054346
177	0x3abfe5af	0.0014640595
178	0xbca6498c	-0.020298742
179	0x3dde60b7	0.10858291
180	0xbe2f2800	-0.17105103
181	0xbd1698c1	-0.03676677
182	0xbd8cb65e	-0.06870721
183	0x3dabf85e	0.08396982
184	0xbd77f357	-0.0605348
185	0xbe124496	-0.14283976
186	0x3df2a9ac	0.118487686
187	0x3e018cec	0.12651414
188	0x3b687e13	0.0035475537
189	0x3cdf6184	0.027268179
190	0x3e160180	0.1464901
191	0xbdcf4119	-0.10119838
192	0xbba143ec	-0.004921427
193	0x3e1f625b	0.15564863
194	0x3d7ff3a1	0.062488202
195	0xbb9f9512	-0.0048700655
196	0x3afcd429	0.0019289303
197	0x3de9592f	0.113939635
198	0x3d1414ca	0.03615264
199	0xbe935c74	-0.28781474
200	0x3d877e2c	0.06615862
201	0xbe07b5ea	-0.13252988
202	0x3d32e3af	0.043674167
203	0x3d2d176e	0.042258672
204	0xbc5a8dce	-0.013339473
205	0xbea6b3dd	-0.325591
206	0x3e1bcc10	0.15214562
207	0x3e02d6e6	0.1277729
208	0x3d363de0	0.044492602
209	0xbd4a5bf3	-0.049404096
210	0x3d6607f2	0.05615992
211	0x3d013c9b	0.03155194
212	0xbd8ac2c6	-0.06775431
213	0x3d5639da	0.052301265
214	0xbe31e1c7	-0.17371283
215	0xbe28e5fd	-0.16493984
216	0xbe55f67d	-0.20894809
217	0xbd2a6213	-0.041597437
218	0xbccf8adf	-0.025334774
219	0x3da06112	0.07831015
220	0x3cec7058	0.028862163
221	0x3da8d4f9	0.08243746
222	0x3d3bccb1	0.045849506
223	0x3cc3b449	0.023889678
224	0x3bdb2589	0.006687824
225	0xbd3c1399	-0.045917127
226	0x3d5ff265	0.054674525
227	0xbd96dec8	-0.07366711
228	0xbe5c0dc8	-0.21489632
229	0x3c7dd976	0.015493741
230	0xbc973028	-0.01845558
231	0xbe0790ae	-0.13238785
232	0x3da4a097	0.080384426
233	0x3d6a987f	0.057274338
234	0xbe077e20	-0.13231707
235	0x3d1c8edd	0.038222183
236	0xbe1e3865	-0.154512
237	0x3c84c1cd	0.016205693
238	0x3e104b99	0.14091338
239	0xbde1fe72	-0.1103486
240	0x3d3a25f4	0.04544635
241	0x3d5567a4	0.052100793
242	0xbdbdede4	-0.0927389
243	0x3d0f75a7	0.03502431
244	0xbbfbd611	-0.007685431
245	0x3dcc044d	0.09961758
246	0x3c5501cc	0.013000917
247	0x3e7aab40	0.24479389
248	0x3da4d829	0.08049042
249	0xbde6b4e5	-0.11264972
250	0x3cb0f458	0.021600887
251	0xbe27a95a	-0.16373196
252	0xbd292606	-0.041296028
253	0xbd333ef4	-0.04376121
254	0xbce568dc	-0.028004102
255	0xbd2c3090	-0.0420385

critic.4.bias f4 [128]
0	0x3e364768	0.17800677
1	0xbd4ffebb	-0.05078004
2	0xbcdc3bda	-0.026884008
3	0xbcf14fdd	-0.029457027
4	0x3d7ffe9b	0.06249867
5	0x3d483407	0.048877742
6	0x3d8148c3	0.06312706
7	0xbcaf927a	-0.02143215
8	0xbda6053c	-0.08106467
9	0x3d3fc8da	0.046822406
10	0xbcf93da2	-0.030424897
11	0xbe1de830	-0.15420604
12	0x3d9b7b4a	0.07591875
13	0x3e25690d	0.16153355
14	0xb9937886	-0.00028127822
15	0x3b159250	0.0022822805
16	0xbcf09865	-0.029369542
17	0xbd8fb023	-0.07016017
18	0x3cf30187	0.029663814
19	0xbd551f22	-0.052031644
20	0x3dac3e94	0.08410373
21	0xbe7582ae	-0.23975632
22	0xbe2903f2	-0.16505411
23	0xbe5b1ea4	-0.21398407
24	0x3d233fa3	0.03985561
25	0xbc07ac9c	-0.008280899
26	0x3e840440	0.25784492
27	0xbdebfd3f	-0.11522912
28	0xbdfc8113	-0.123293065
29	0xbe1ba32e	-0.15198967
30	0x3bbed9d9	0.0058243093
31	0x3da35954	0.07976022
32	0x3d44a70d	0.048010875
33	0x3e126f7d	0.14300342
34	0xbd928338	-0.07153934
35	0x3d9d6898	0.07685965
36	0xbdc266bf	-0.094922535
37	0xbd3b6b60	-0.045756698
38	0x3d22db05	0.039759655
39	0x3de518db	0.111863814
40	0x3d8f8862	0.07008435
41	0x3d5b7fae	0.05358856
42	0x3da2ebd7	0.07955139
43	0x3dbe36dc	0.09287807
44	0xbe804933	-0.25055847
45	0xbe0bf4e1	-0.13667633
46	0xbe559312	-0.20856884
47	0x3c516e6b	0.012782673
48	0x3c5a8265	0.013336753
49	0xbe174559	-0.14772548
50	0xbd00ca9a	-0.031443216
51	0xbd15fcfe	-0.036618225
52	0xbb179eba	-0.002313538
53	0xbd6c7939	-0.057732794
54	0xbdbfcfaa	-0.09365781
55	0xbc381539	-0.011235529
56	0x3e5abfcf	0.21362232
57	0x3d40c8ca	0.047066487
58	0x3e25eb68	0.16203082
59	0x3d7fbbbb	0.062434893
60	0x3e0e65de	0.13906047
61	0x3c9e2cf7	0.01930855
62	0xbd23255e	-0.039830558
63	0x3d8d6c20	0.06905389
64	0x3de2a1c0	0.110660076
65	0xbe0b3db4	-0.13597757
66	0x3da5dcd3	0.080987595
67	0xbc89fad3	-0.016843235
68	0xbe2dd129	-0.1697432
69	0x3d75973e	0.05995869
70	0xbe3bf41a	-0.18354836
71	0x3be303ba	0.0069279345
72	0x3d290547	0.0412648
73	0x3b96f56f	0.0046068947
74	0x3d9b238a	0.07575138
75	0xbcf37b47	-0.02972187
76	0x3ba1ee5d	0.004941745
77	0xbe4b1b32	-0.19834593
78	0xbd4ff1b2	-0.050767608
79	0x3b882144	0.004154356
80	0xbd2884fb	-0.041142445
81	0xbd2f28d6	-0.042763554
82	0x3d3f194e	0.04665499
83	0xbbda54d6	-0.0066629453
84	0x3cd72de5	0.026267001
85	0xbb783954	-0.0037875967
86	0xbddfb0f4	-0.10922423
87	0xbdbc8e02	-0.09206773
88	0xbdf42610	-0.11921322
89	0x3c072c40	0.008250296
90	0xbdb36df1	-0.08761204
91	0xbc505683	-0.0127159385
92	0xbd53f097	-0.051743116
93	0xbe003ebb	-0.1252393
94	0x3d07753e	0.033070795
95	0x3dd3b071	0.10336388
96	0x3e914973	0.2837635
97	0x3e14b84c	0.14523429
98	0xbe04e3dd	-0.12977548
99	0x3d991997	0.07475584
100	0x3e613114	0.21991378
101	0x3e2db9bb	0.16965382
102	0xbc90b04b	-0.017662188
103	0x3cc10028	0.023559645
104	0x3d7daa0e	0.061929755
105	0xbc82e2ec	-0.015977345
106	0x3d259cf9	0.040432904
107	0xbe7bdf6c	-0.24596947
108	0xbdd9944a	-0.10623987
109	0xbdc284b6	-0.09497969
110	0xbd1df29b	-0.038561445
111	0x3d8644da	0.06556101
112	0xbd24aef7	-0.040205922
113	0x3ca545ec	0.020174943
114	0x3d968456	0.0734946
115	0x3def2ccf	0.116784684
116	0x3e77c1f5	0.24195082
117	0x3e41fff8	0.189453
118	0x3c31364f	0.010816171
119	0xbd60fe7e	-0.054930203
120	0xbd965744	-0.07340863
121	0xbdfcb75b	-0.1233966
122	0x3d4db445	0.050220747
123	0xbd50b98d	-0.050958205
124	0x3e6b9fa0	0.23010111
125	0x3e06e9a8	0.1317507
126	0xbdc3e3ed	-0.09564958
127	0xbe487f5d	-0.19579835

critic.6.weight f4 [1, 128]
0	0x3e88b431	0.26699975
1	0x3deecda6	0.11660318
2	0xbe628779	-0.22121991
3	0xbdf8ef3a	-0.12155004
4	0x3e8f2654	0.2795893
5	0xbe0aa5c2	-0.13539794
6	0x3e0b4aa4	0.13602692
7	0x3e2b3315	0.16718705
8	0xbdc859fc	-0.09782788
9	0x3e7e1cbe	0.24815652
10	0xbde34923	-0.11097934
11	0xbe4f9d3a	-0.20274821
12	0x3e4ec5b8	0.20192611
13	0x3e5d8035	0.21630938
14	0xbe55a001	-0.20861818
15	0xbdb79849	-0.08964593
16	0x3e6bbea1	0.23021938
17	0xbe87804c	-0.2646507
18	0x3e126194	0.14295036
19	0x3db7e327	0.08978873
20	0xbdec0760	-0.11524844
21	0xbe535ed3	-0.20641641
22	0xbe6b86d8	-0.23000658
23	0xbe668fb8	-0.22515762
24	0x3e89a242	0.26881605
25	0x3e1a180c	0.15048236
26	0x3e742d0a	0.23845306
27	0xbe628775	-0.22121985
28	0xbe7e120a	-0.24811569
29	0xbe57ef87	-0.21087466
30	0x3e6ef6bd	0.2333631
31	0xbe2e4ddb	-0.17021887
32	0x3e22b476	0.15889153
33	0x3e8276f2	0.25481373
34	0x3e0c49d2	0.13700035
35	0x3e76069c	0.24025959
36	0xbe65e8c6	-0.22452077
37	0xbe1d98e5	-0.15390356
38	0xbe933d60	-0.28757763
39	0x3e909223	0.28236493
40	0x3e8445e2	0.25834566
41	0x3e7b3527	0.24531995
42	0x3dd37446	0.10324912
43	0xbe284172	-0.16431215
44	0xbe608ff9	-0.21929921
45	0xbe66d026	-0.2254034
46	0xbe695383	-0.22785763
47	0xbe8a8ecc	-0.2706207
48	0x3dfdd831	0.12394751
49	0xbe7434bc	-0.23848242
50	0xbe8356d6	-0.25652188
51	0x3e1ddcc1	0.15416242
52	0x3e5bb3c9	0.21455301
53	0xbe6bbded	-0.2302167
54	0xbe6abeed	-0.22924395
55	0x3e71830d	0.23585148
56	0x3e5161a1	0.20447399
57	0xbe745477	-0.23860346
58	0x3e91efa2	0.28503138
59	0xbe1ed5da	-0.15511265
60	0x3e7dd9e4	0.2479015
61	0xbde00cb0	-0.1093992
62	0x3e166e5e	0.14690539
63	0xbde7928c	-0.113072485
64	0x3e6655b6	0.22493634
65	0xbe8df3fb	-0.27725205
66	0x3e821c2a	0.25412112
67	0x3e88a165	0.26685634
68	0xbe4fdfa9	-0.20300163
69	0xbe1f27c9	-0.1554252
70	0xbe4c161d	-0.1993031
71	0xbe5fab6e	-0.21842739
72	0x3e2302b3	0.15918998
73	0x3e2ca07c	0.16858095
74	0xbde5897a	-0.11207862
75	0x3e80d310	0.25161028
76	0x3e3ac16d	0.18237849
77	0xbe7ec1c5	-0.24878605
78	0xbe322c6a	-0.17399755
79	0x3d99416a	0.0748318
80	0xbe1a1a7b	-0.15049164
81	0x3e10ca19	0.14139594
82	0xbdfd62e5	-0.12372378
83	0xbe1a80fb	-0.15088265
84	0xbe277196	-0.16351923
85	0xbe6b6040	-0.22985935
86	0x3e21c7f6	0.15798935
87	0x3e024bf3	0.12724285
88	0xbe8ed85f	-0.27899453
89	0xbe8d321e	-0.275773
90	0xbe8f369a	-0.27971345
91	0x3dfd5782	0.123702064
92	0x3e0fc570	0.1404016
93	0xbe8ba915	-0.27277437
94	0xbdc71ce8	-0.0972231
95	0x3e72b4cc	0.23701781
96	0x3e6cc1a5	0.23120745
97	0x3e7ffb2c	0.24998158
98	0xbe525a9c	-0.20542377
99	0xbe232e3a	-0.15935603
100	0x3e64e075	0.22351249
101	0x3e519efb	0.20470802
102	0x3e0ce806	0.13760385
103	0x3dc88885	0.09791664
104	0xbdb4c067	-0.0882576
105	0x3e6d2587	0.23158847
106	0x3e7acd8b	0.24492471
107	0xbe838d3b	-0.25693688
108	0xbe991348	-0.29897523
109	0xbe50a618	-0.2037586
110	0xbe51e82d	-0.20498724
111	0x3e20c389	0.1569959
112	0x3e3bdef4	0.18346769
113	0xbe6c13b9	-0.23054399
114	0xbe29a14d	-0.16565438
115	0x3e6aebc3	0.22941498
116	0x3e5b4c6b	0.2141587
117	0x3e77943f	0.24177645
118	0x3e2b4bb2	0.16728094
119	0xbdf41325	-0.11917714
120	0x3e2da8f2	0.16958979
121	0xbe556658	-0.20839822
122	0x3e8110ff	0.2520828
123	0x3dcce2f8	0.10004228
124	0x3e57ebfa	0.21086112
125	0x3e627e9d	0.22118612
126	0xbe615e86	-0.22008714
127	0xbe7e3e88	-0.24828541
