ippo_algorithm_belief/checkpoints/ppo_actor_0env_comp_exp_0_run_0_lumberjacks.pth (torch, 178928 bytes, 8 tensors)

actor.0.weight f4 [128, 78]
000000 36 12 97 bd 0b 61 0d 3d b5 40 9a bd b7 80 21 3e
       -0.0737652 0.034516376 -0.07531873 0.15771757
000010 17 52 9c 3d c3 b1 89 bd 23 6d dc 3d 1b 68 00 bd
       0.07632845 -0.067233585 0.10763004 -0.031349283
000020 8f 95 dd 3d d2 f2 58 bd 20 62 79 bd ad 23 a8 39
       0.10819542 -0.052965946 -0.060884595 0.00032070038
000030 7d a8 82 3d 68 69 b2 3c 6c 9b a8 3d ff de 0f 3c
       0.06379793 0.021778777 0.08232769 0.008781194
000040 4b 07 27 bc ef 43 33 bd 62 ed 28 3e c5 86 1f 3d
       -0.01019461 -0.04376596 0.16496804 0.038946886
000050 40 b9 a1 bc 88 34 a6 bd 68 d0 07 3b 8b 32 51 bd
       -0.019741654 -0.08115488 0.0020723585 -0.051073592
000060 e4 b4 7b bd 2f 80 a5 3c 65 fb 3d bd 27 a9 1c bd
       -0.061451808 0.020202724 -0.046382327 -0.038247254
000070 a1 94 09 bc f9 0c 6f bd 6b 1e 81 bc 94 55 a1 bc
       -0.008397252 -0.05836198 -0.015761575 -0.019694127
000080 c2 d2 a6 3d 4f 48 f1 3b b3 6b 34 3e 92 f4 25 3e
       0.081456676 0.007363356 0.17619209 0.16206577
000090 58 f0 c0 3d 11 59 e4 bd 51 19 e9 3d aa 3b 84 3c
       0.09420842 -0.111498006 0.11381782 0.016141731
0000a0 60 b9 6a bd ff 58 e5 bd bf f4 0d 3c e0 df 29 3a
       -0.057305694 -0.11198615 0.008664309 0.00064801984
0000b0 32 26 c1 3d 70 5f 3e bd ae f8 07 be 91 e6 2c 3d
       0.09431113 -0.046477735 -0.13278458 0.042212073
0000c0 01 a6 ae 3c f5 55 50 bd 82 19 ce ba fc 11 3f 3c
       0.021319391 -0.050863225 -0.0015724155 0.011662003
0000d0 d8 fb 8d 3c 87 bc a6 3d d1 72 39 3c 61 b9 cf 3c
       0.017332003 0.081414275 0.011318878 0.02535695
0000e0 4d 3c 86 bc 69 cc 16 3b da 39 e4 3d c3 0e cd bd
       -0.016386176 0.0023010022 0.11143847 -0.10012581
0000f0 b9 97 df 3d d5 9c b0 3c 5f 4d 04 be 2e 7e 52 bc
       0.10917611 0.021559158 -0.1292014 -0.012847466
000100 d4 1e 31 3d 0b d5 98 bc 8e 1d 28 be af 92 06 be
       0.04324229 -0.018656274 -0.16417524 -0.13141893
000110 a0 00 01 3d 6f 34 b6 bd 14 bb 80 3c 77 f7 ca bd
       0.031494737 -0.0889672 0.015714206 -0.099104814
000120 e8 4b b8 bd 75 61 96 3d be 38 c5 bd 7f 2f be bd
       -0.08998853 0.07342807 -0.09629963 -0.09286403
000130 28 50 b0 bd 49 34 23 3d ca 10 1a 3d 03 5c 02 bd
       -0.086090386 0.039844785 0.037613668 -0.03182603
000140 f0 1d cc bc ed f7 d1 3d 6a 37 9e 3d a2 b6 c3 3d
       -0.024916619 0.10252366 0.07725413 0.09556319
000150 e3 63 9d 3d b5 d0 d6 3a 31 0a dc 3c 8d f1 54 3d
       0.076850675 0.0016389104 0.026860328 0.051988173
000160 bb 0a 9b bd 17 1a 7e bc 76 0a 7c bd 86 fd fb 3c
       -0.07570406 -0.01550915 -0.061533414 0.030760538
000170 7d 1f 19 bd 3d 01 a4 3c bc 89 22 bd fe 03 23 bd
       -0.037383545 0.020020122 -0.039682135 -0.03979873
000180 2b d5 a1 3d f9 ea 43 bd 1c 76 15 bc c7 4d 17 bd
       0.07901987 -0.04783151 -0.009122398 -0.03693941
000190 e7 62 3f bb 74 17 d5 3d 75 2c 1b be 12 7a a0 bd
       -0.0029203238 0.10404864 -0.15153678 -0.07835783
0001a0 00 48 70 3d c4 f5 d2 bd ef 06 87 bc 57 fa 86 bc
       0.058662415 -0.10300782 -0.016482798 -0.016476793
0001b0 d5 e1 00 3e 81 0b 8f bd d1 92 fc 3d d6 18 6a bb
       0.12586148 -0.06984616 0.123326905 -0.003572037
0001c0 5a a5 14 3d 1d 5c 6a 3e 4a 54 04 3e d9 bf fa bd
       0.036290504 0.22886701 0.12922779 -0.12243623
0001d0 e7 70 7e 3d 8e 69 2b 3d fc 5e 02 3d a5 30 b2 bd
       0.06211939 0.04184871 0.031828865 -0.087006845
0001e0 d0 8b 16 bd 11 83 9e bd ae ac f2 3d e9 f9 be 3c
       -0.03675443 -0.07739843 0.11849342 0.023312526
0001f0 63 3b 03 be cf 76 8d bc 4d 98 05 3e 5f b5 49 bd
       -0.12815623 -0.017268566 0.1304638 -0.049245235
000200 9b e0 bd 3d ab a0 07 bd ef 98 0c be fb 5b be bd
       0.09271356 -0.03311221 -0.13730215 -0.09294888
000210 d4 c5 62 3d 0c e1 c2 3d 3d 91 53 3d c1 29 b2 39
       0.055364445 0.095155805 0.051652182 0.00033981915
000220 32 39 ad bc 2b 9b 94 3d 0a d1 4c bd a6 e9 09 bc
       -0.021145437 0.072561584 -0.050004043 -0.008417523
000230 4b 26 25 3d 40 d2 8f 3d 96 3f bb 3d 57 30 0b 3b
       0.040319722 0.07022524 0.091429874 0.002123853
000240 5d db 57 be a8 de 09 be 0e db 17 39 7c 60 86 3d
       -0.21079774 -0.13463843 0.00014482086 0.06561372
000250 ad 80 30 bc e9 2f 71 3b 83 9b 50 3b d8 4f e5 3c
       -0.010772866 0.0036802238 0.0031830973 0.027992174
000260 a3 14 a4 bd c3 c8 c4 bc de 5e 24 3d dd 0f c6 bd
       -0.08011749 -0.024021512 0.040129535 -0.096709944
000270 83 2e 5d 3d ce 9a 8a bd 22 ab 8e 3c 5b a7 f3 3d
       0.053999435 -0.06767808 0.017415587 0.11897155
000280 99 d6 11 3e ec 25 f9 3b f4 ad ff 3d b3 c1 dc bc
       0.14242019 0.0076033976 0.12484351 -0.026947832
000290 43 01 7a bd 0a 74 98 bc 09 0d 94 bd b4 85 47 3d
       -0.06103636 -0.01861002 -0.07229049 0.048711494
0002a0 35 9e 3a bd 5c 7d 9e 3d 86 17 48 bd c7 2c 41 3d
       -0.045561034 0.07738754 -0.04885056 0.047161844
0002b0 59 34 96 bd bd 4b 11 3b 92 6c d4 bc 68 81 aa bd
       -0.07334203 0.0022170388 -0.025930677 -0.083254635
0002c0 93 0e 9f bc b4 21 bd 3d 58 ed ec 3d d6 3f 06 bc
       -0.01941613 0.09234944 0.11568707 -0.008193931
0002d0 04 c7 d4 3c 7b 3b 45 bd b7 da 0c 3c 4a bd f3 3a
       0.025973804 -0.048152428 0.008597068 0.0018595841
0002e0 00 de b1 3d de 94 81 ba af f1 37 3c 52 48 c4 bd
       0.08684921 -0.0009886285 0.011227055 -0.095841065
0002f0 e4 a4 0a 3c 16 b6 c2 3d 6a 28 f0 3d 50 f1 bc 3d
       0.008462165 0.095073864 0.11726458 0.09225714
000300 82 1a 6a bd c9 75 bb bb e7 d3 8d bd 01 b5 ae bd
       -0.057154186 -0.005720828 -0.06925183 -0.085306175
000310 2d 0a c3 3d 85 75 ce bd d5 41 fe 3b 07 bc 08 bd
       0.09523425 -0.10081009 0.0077593126 -0.03338244
000320 54 0c c7 3c 69 60 8e bc bb a5 90 3d e2 db 57 bd
       0.02429787 -0.017379956 0.070628606 -0.05269993
000330 9f c0 12 3b eb de bd 3d d9 bf 96 3d 02 12 ad 3d
       0.0022392643 0.09271034 0.07360811 0.084507
000340 28 3c 25 3d 68 2f 09 bc af 2f de 3c 67 11 9e 3d
       0.040340573 -0.008373119 0.027122347 0.07718163
000350 10 f8 ae 3d 5f bb e5 bc 9a 32 c7 3d 70 a2 fb 3c
       0.08543408 -0.028043447 0.09726448 0.030717105
000360 20 57 44 bd 5e 6f 4a 3d b9 dd f4 bd 8f 27 8d bd
       -0.04793465 0.049422614 -0.11956353 -0.06892311
000370 76 4a ab 3d 56 f3 3a be cc 9c 18 be d8 eb bc bd
       0.08363812 -0.18256888 -0.14903563 -0.09224671
000380 0a 61 db bb ec 85 c8 bd e9 e5 a1 bd 8a ea da bd
       -0.0066949176 -0.097911686 -0.0790518 -0.10689266
000390 d7 64 fd bd 60 fc 9b 3c d4 ce d0 bd c5 1f c4 bd
       -0.12372749 0.01904124 -0.10195699 -0.09576372
0003a0 c4 c5 22 3d 48 33 a3 bd 79 59 0e 3d 38 d7 b0 bd
       0.039739385 -0.079687655 0.034753297 -0.086348
0003b0 74 bc 2a bc 5d c8 f7 3d 7c 78 91 3d 24 b8 45 ba
       -0.010420907 0.12098763 0.07103059 -0.00075423927
0003c0 50 5f b3 bd 8f c2 a2 bb c2 27 a2 bc 27 77 dd 3d
       -0.08758414 -0.004967041 -0.019794349 0.10813742
0003d0 80 55 71 3d 1c d3 33 bd 9d 02 40 bd b5 5b 16 3d
       0.05891943 -0.0439025 -0.046877492 0.036708552
0003e0 49 8d 48 bd 34 a3 89 bd 9c 05 9b 3d 38 a2 7c bd
       -0.048962865 -0.06720582 0.07569429 -0.06167814
0003f0 93 72 9a bc 0f f7 65 3d ed b3 91 3d 32 85 05 3d
       -0.018853461 0.056143817 0.07114396 0.032597728

actor.0.bias f4 [128]
000000 bf 9e 0c bd a1 91 08 bd 11 c1 c5 3d 20 c2 cd 3d
       -0.03433108 -0.033342008 0.09655965 0.10046792
000010 81 71 f9 ba b3 96 92 3c 25 78 d0 ba 03 ef 64 3d
       -0.0019031019 0.017894125 -0.0015904946 0.055892
000020 3b 50 0a 3d 4a bb db bc a7 89 b5 3c 19 14 a3 3c
       0.03376792 -0.026822705 0.022160364 0.019907044
000030 45 f5 43 3d 61 9b 56 3c 51 cd b7 bd 27 a0 f8 bd
       0.04784133 0.013098569 -0.08974708 -0.12139922
000040 05 79 c8 3d 27 29 33 bd d3 59 b4 bd 47 da 8c bd
       0.09788708 -0.043740418 -0.08806195 -0.068775706
000050 34 43 95 bd bd c8 cc 3c b3 27 9b 3d d5 18 00 3e
       -0.072882086 0.024998063 0.075759314 0.12509473
000060 fa f0 72 3b 18 9b c4 3d a0 5d 91 3c ab d0 8d bd
       0.0037069903 0.09599894 0.01774484 -0.06924566
000070 4f 7b e5 3d 9d 6e 84 bc 34 50 84 3d c3 99 35 bd
       0.1120516 -0.016166026 0.0646061 -0.04433609
000080 df a5 63 3d 1f ac 02 be ab 0b 4f 3b a9 59 09 bd
       0.05557811 -0.12760971 0.0031592648 -0.033532772
000090 b1 44 8c bd e3 e0 85 bd ef 8a a3 3d f1 77 36 bd
       -0.06849039 -0.06537034 0.07985484 -0.04454798
0000a0 9a 40 ec bc 53 3d 8d bd f0 1c 4c 3d bc 87 a8 bd
       -0.028839398 -0.06896462 0.049832284 -0.08229014
0000b0 4f 9a af 3b 4f 24 81 3d bb 5d 8a 3d 5d b4 7e bd
       0.005358971 0.063057534 0.06756159 -0.062183727
0000c0 54 2e 19 bd d4 22 e8 3c b0 9d da 3c 69 9a 8f bd
       -0.037397698 0.02833692 0.02668652 -0.07011873
0000d0 d2 9e a6 39 8d 97 c1 bd de 33 a1 3d 78 b5 43 bc
       0.00031780318 -0.09452734 0.07871221 -0.011945121
0000e0 1b 4e 8e bd cb a8 cd bd d9 c4 ac bd 6b 7c 40 bb
       -0.06948491 -0.1004196 -0.08435983 -0.0029371034
0000f0 65 05 96 3d f5 ab 39 3c f7 e5 dc 3d 12 a5 c5 bc
       0.07325248 0.011332502 0.1078605 -0.024126563
000100 f3 b5 84 bc 03 be b2 3c 95 ce a8 3d 1f 9b ec bd
       -0.016200041 0.02181912 0.082425274 -0.115530245
000110 36 c0 f5 bd 0f 73 9e bc 90 0c d2 3c 94 25 8a bd
       -0.11999552 -0.019341974 0.025640756 -0.06745449
000120 63 70 b2 bb 99 71 9e 3d 4a 67 d1 3d 47 48 8b 3d
       -0.0054455264 0.07736511 0.10224779 0.06800895
000130 8a 1a ea bb fc 39 20 3d 72 33 ba 3d 68 c9 c8 3d
       -0.007144277 0.0391178 0.09091844 0.0980404
000140 72 e8 f9 bc 40 1d 85 bc 88 10 1e 3c d8 d5 8f bd
       -0.030506346 -0.016249299 0.009647496 -0.07023209
000150 6a 6e 75 bc 23 15 52 3d 48 f9 27 3c 67 c5 b4 3d
       -0.014979938 0.05128969 0.010252304 0.08826714
000160 8a 05 b7 bd 3e 7e c6 3d 38 dc ee bc 0d 6b 8e bd
       -0.08936603 0.096920475 -0.029157743 -0.06954012
000170 83 89 19 bd 66 fb d4 3b da 8c d4 bd a5 8f 4d 3d
       -0.037484657 0.0064996956 -0.10378428 0.05018582
000180 af 90 9b 3d 2c cb 36 39 64 49 34 bd 46 56 48 3d
       0.075959556 0.0001743256 -0.044015303 0.0489104
000190 dc 6f 7b bc 16 8c 11 be 88 17 8d bd a4 19 30 bd
       -0.015346494 -0.14213595 -0.06889254 -0.042993203
0001a0 ec ef 53 3d 0b e4 64 3d 8e ab 05 be 45 ec 06 be
       0.05174248 0.05588154 -0.13053724 -0.13176067
0001b0 e2 3f f1 3d 27 12 14 3d ab b1 82 bd 2e 92 42 3d
       0.11779763 0.036150124 -0.06381544 0.04750269
0001c0 5e 1d 0a 3d 0f 39 be 3d 6a 8c 04 bb 06 c0 df bc
       0.033719413 0.09288227 -0.0020225295 -0.027313244
0001d0 ca ab a5 3c a6 25 13 3e 25 ca 61 bd eb e7 f8 bb
       0.020223517 0.1436983 -0.05512442 -0.007596006
0001e0 c3 31 28 3d f9 a3 13 bd 86 f3 b2 bc f2 8b c0 3b
       0.04106308 -0.03604505 -0.021844637 0.005876058
0001f0 3b 83 9f 3c fc b6 19 3c a0 5c 8a 3d 99 ef b1 3d
       0.019471755 0.009382006 0.06755948 0.08688278

actor.2.weight f4 [128, 128]
000000 41 de c1 bc 5d c8 a8 3d 6a a8 8a bc ad 4f 19 bd
       -0.02366555 0.08241341 -0.01692601 -0.0374295
000010 0e 49 37 3c c5 d3 be bd f3 1c 1b be 79 3c 89 bc
       0.011186851 -0.093177356 -0.15147762 -0.016752468
000020 22 a4 56 3d 63 59 e2 3d 44 23 27 be 59 56 58 bd
       0.052402623 0.110522054 -0.16322047 -0.052816723
000030 b5 30 e5 bd 3f b0 69 3a 8c 3f be bd ce af 53 bb
       -0.11190931 0.00089145073 -0.09289464 -0.0032300833
000040 aa e4 0a be 1d d5 ea bd 01 a8 8d 3c ea 52 6b 3c
       -0.13563791 -0.114664294 0.017292025 0.01436303
000050 32 d8 8e 3d 31 6b 2c bd 4d 7b 7e 3d e3 0b 69 3c
       0.0697483 -0.042094413 0.062129308 0.014224025
000060 5d 3d 89 bd 69 3c 2d 3c 28 c5 4e bd 3f 6b c9 3d
       -0.06701157 0.010573485 -0.05048099 0.09834909
000070 48 7d ae 3c 19 47 e1 3c 5e b1 7d bc 63 54 27 3d
       0.021299973 0.027499722 -0.015484182 0.04085196
000080 44 6e 97 3d f8 08 86 3d 56 9d fe 3d 43 2b 18 bd
       0.073940784 0.065446794 0.12432353 -0.037150633
000090 8e 8e ca bd b5 8d 54 bd 5f f2 ae bd 69 dd 9f 3c
       -0.098904714 -0.051892955 -0.08542322 0.019514756
0000a0 55 17 2b 3d d0 5f 4e 3d eb c5 1d bd e5 de 29 3c
       0.041770298 0.050384343 -0.038518827 0.010368084
0000b0 a5 fb ba 3d 54 46 58 3d fe ce 5c 3d dd b8 a6 bb
       0.09130029 0.052801445 0.05390834 -0.0050879554
0000c0 ff 7d 43 bc f8 61 23 3e a9 de 07 ba ac 66 59 ba
       -0.011931895 0.15955341 -0.000518302 -0.00082931924
0000d0 50 d8 da bd d7 98 7b 3d c4 9d 8c bc bd 94 11 be
       -0.106857896 0.061425056 -0.017165072 -0.14216895
0000e0 21 74 10 3d 42 a7 62 bd 6b 0a 12 bd 0b 4f 80 b9
       0.035267 -0.05533529 -0.035654467 -0.00024472954
0000f0 ec 84 1d 3d 92 1f 0b bd 2e ae b7 bd 04 14 a6 3d
       0.038456842 -0.033965655 -0.08968769 0.081092864
000100 bf 55 43 3c 25 9a 06 bd df 2d 10 bd 4b 8b 05 3e
       0.011922299 -0.032861847 -0.035199996 0.13041417
000110 ec 6e 88 bd 76 5d ad 3d 9d dd 06 3d c2 fb b2 ba
       -0.06661782 0.08465092 0.03292619 -0.0013655352
000120 3a 39 77 3d d3 4f 99 bd 40 e3 9b bd 66 66 1e bd
       0.06035731 -0.074859284 -0.07611704 -0.038671874
000130 e4 01 18 bd 1d d8 06 bc 37 4a 30 bd 6f f5 ac bd
       -0.037111178 -0.008230236 -0.043039527 -0.0844525
000140 17 14 d5 bd e9 d4 99 3c d5 61 86 bd 1d 32 0e 3d
       -0.104042225 0.018778281 -0.06561629 0.03471576
000150 26 55 b6 3c d6 c1 a4 3c ce 68 55 bd 2d 52 86 3d
       0.022257399 0.02011196 -0.052101903 0.065586425
000160 e5 2a d1 bd 58 6b f1 3d 91 cb af 3d 87 31 e2 bd
       -0.102132596 0.11788052 0.08583749 -0.11044603
000170 f9 39 23 3d 28 2d e5 3b 6c b3 92 3d 2c e4 fb 3c
       0.03985021 0.0069939084 0.07163128 0.03074845
000180 27 1b e8 3d c4 47 12 be 52 6a 61 3d 91 74 06 3d
       0.11333304 -0.14285189 0.055033036 0.03282601
000190 72 6e 61 bd 21 59 a1 3d 27 f3 17 3d cb c1 05 bd
       -0.05503697 0.07878328 0.037097123 -0.03265552
0001a0 76 f7 05 3d ba 20 e7 3c 96 21 09 3d 50 79 c8 3d
       0.0327067 0.028213847 0.033479296 0.097887635
0001b0 f1 99 9b 3d 6b 4c fa 3c 73 3f a1 ba 4b e1 56 bc
       0.07597721 0.030554017 -0.0012302235 -0.0131152375
0001c0 fa b2 ea bd 22 ac ba 3d a8 66 90 3c 60 96 cf bc
       -0.11459918 0.09114863 0.017627075 -0.02534026
0001d0 4d 04 39 3d 50 84 1f bd 31 c6 fc 3c 61 9d 8a 3d
       0.045170117 -0.038944542 0.030856224 0.06768299
0001e0 be 92 98 bd d7 36 d5 bc d5 16 2b 3d 9a 92 bf bd
       -0.07449864 -0.026027126 0.04176982 -0.09354134
0001f0 87 07 60 3c e2 59 e3 bd f6 30 46 3a 33 e3 cc bc
       0.01367367 -0.11101128 0.00075603963 -0.02501068
000200 4a 70 ab 3d 71 a3 62 3c dc e4 ee bc a9 ed d4 3d
       0.08371027 0.013832913 -0.029161863 0.103968926
000210 45 f9 cb bd f2 34 bd 3d 98 2c aa 3d f1 c0 60 3d
       -0.09959654 0.09238614 0.08309287 0.054871503
000220 3e 50 20 3d e2 4e 0b bd 3c fb 0b 3d ae 22 ed 3d
       0.039139025 -0.034010775 0.034175143 0.1157888
000230 e0 ca 03 bd f5 a4 61 3d 48 04 86 3d cf aa b3 3d
       -0.0321759 0.055088956 0.06543785 0.087728135
000240 ed 99 c1 3d d4 fd 44 3d 57 a0 3d bc f5 1c 76 bd
       0.09453187 0.048093632 -0.0115738725 -0.06008621
000250 92 f2 8d bd 2a ca 63 bd 5c a4 b3 3d 93 a8 55 3d
       -0.06931032 -0.05561272 0.087715834 0.052162718
000260 01 8c 0b bd 29 08 7f bd f7 7c 74 bd 78 96 bb 3b
       -0.034069065 -0.06226364 -0.05968949 0.0057247244
000270 de 64 dc bc 14 bb e5 bd e4 36 cd 3d e5 dd 53 bd
       -0.026903566 -0.11217323 0.10020235 -0.051725287
000280 86 9b 6a 3d 92 ee 88 bd 3d 95 78 bc d6 6b ff bd
       0.057277225 -0.06686129 -0.0151723 -0.1247174
000290 e7 6b ce 3d 6f e8 a9 3c c0 5e 00 bc ee 33 79 3d
       0.100791745 0.020740716 -0.00783509 0.06084054
0002a0 42 71 cd bc 6e 61 67 3d 35 c8 a7 3c 84 7e 51 bd
       -0.02507842 0.0564894 0.020481208 -0.051146045
0002b0 62 b5 30 bd 77 e8 83 3d 7c 7c 2e 3c a9 05 71 3c
       -0.04314173 0.064408235 0.010649797 0.014710822
0002c0 95 e3 35 bd f7 ff bc 3a fc 60 a0 3d f1 6a 01 3e
       -0.044406492 0.0014419545 0.07830998 0.12638451
0002d0 63 01 be 3c b3 22 82 bd fc 83 0d 3d 2e 50 24 be
       0.02319402 -0.063542746 0.0345497 -0.16046211
0002e0 8e 0d fc 3d 1b 82 3b bc 1f b1 2c be 56 8e 7f 3d
       0.12307273 -0.011444594 -0.16864441 0.0623916
0002f0 e3 e8 64 bc db dd ed bd da 54 fd 3c cb 82 30 3d
       -0.01397154 -0.11614581 0.03092425 0.043093484
000300 38 1a b0 bd 20 ab 01 3d cc eb 74 bd c6 10 23 3d
       -0.08598751 0.03165734 -0.059795186 0.03981092
000310 a0 8e 09 3e 6a 54 19 bd 61 2c b8 3c 1a 76 f6 bd
       0.13433313 -0.03743402 0.022482099 -0.12034245
000320 e5 a8 43 bd cd dc 5b bc c1 5a 95 3d f0 0e a4 3d
       -0.047768492 -0.013419342 0.072927006 0.080106616
000330 f0 25 6a 3d b7 88 d4 3c 1c 8b e8 bb fc c7 ee 3c
       0.057165086 0.025944097 -0.0070966613 0.029148094
000340 fe 90 b4 3c 6d 7d 94 3d 18 16 2b 3c ed ff b8 bd
       0.022041794 0.072504856 0.010442279 -0.09033189
000350 68 28 0b 3e 0f c9 88 3d 32 2e e2 3c 69 5e 43 be
       0.13589633 0.06678974 0.027609918 -0.19078983
000360 86 2f ab 3d c9 31 b3 3c f8 fc 29 3d b6 2c 39 3d
       0.08358674 0.021874325 0.041501015 0.045208655
000370 4c 0d 82 bd 48 8b 73 3c 62 f9 31 3d 00 61 cc 3d
       -0.063501924 0.01486475 0.04345072 0.09979439
000380 cd e2 80 bd 7b 30 8f 3d 34 a5 03 bd ca c8 ac bc
       -0.06293259 0.06991669 -0.03213997 -0.021091837
000390 ef bf 96 bd af ac 01 3d b7 75 c5 3c d5 55 c1 bd
       -0.07360827 0.031658825 0.024103982 -0.09440199
0003a0 49 e4 64 3d 45 69 a2 ba f4 4e 19 bc e2 23 86 bc
       0.055881772 -0.0012390992 -0.009357203 -0.016374532
0003b0 db bf 6c bd 55 fb 0f bc 9f 58 ba bc c2 a9 d6 3c
       -0.057800155 -0.00878795 -0.022747336 0.026203994
0003c0 6d 12 ad bb 61 b1 88 3c c5 46 7e 3d 55 11 07 bd
       -0.0052817375 0.016686143 0.06207921 -0.032975513
0003d0 fa 88 42 bd a9 c5 63 bd b1 bf 4a 3c dc ab e7 bd
       -0.047493912 -0.055608425 0.012374804 -0.113120764
0003e0 81 01 b5 bd 58 90 b1 3c 65 b1 b9 bc 8f 50 a7 bd
       -0.088381775 0.021675274 -0.022667596 -0.08169662
0003f0 2f f0 c6 3d 70 3b d6 bc cf 5d 92 3d 40 37 83 bd
       0.0971378 -0.026151389 0.07146799 -0.064070225

actor.2.bias f4 [128]
000000 ba a6 82 bd 52 16 81 bb 51 02 1d bd a3 69 97 bd
       -0.06379457 -0.0039394284 -0.038332287 -0.073931955
000010 ad b9 61 bd d7 b7 1e 3d bd a9 bf 3d 33 e7 80 3d
       -0.055108715 0.038749542 0.09358547 0.06294098
000020 1f 17 70 bc 8b 90 5e bc c4 37 5c bc 03 26 18 3c
       -0.01465395 -0.013584266 -0.01344103 0.009286406
000030 ce ea df bb df 42 6b bd 72 44 b8 3c 7a 4a 1e bd
       -0.006833411 -0.05743682 0.022493575 -0.038645245
000040 70 9e b3 3c 50 bb a7 3d 14 b3 9d 3d ff c0 ad bd
       0.021926135 0.08190024 0.07700172 -0.08484077
000050 db 25 d5 3c a2 9f 38 3d 2f e1 1b 3d 75 36 88 3d
       0.026019027 0.045074113 0.03805655 0.06651012
000060 17 99 a0 bd 7e a2 18 bd a1 df 11 3d d0 17 db 3b
       -0.078416996 -0.03726434 0.03561366 0.0066861883
000070 16 18 81 bd 41 be ea 3c 5d 58 21 3d 5e c5 4c bd
       -0.06303422 0.028655173 0.03939091 -0.04999291
000080 e7 33 97 3a e2 a4 46 3d 39 f4 88 bd a1 20 ec 39
       0.0011535854 0.04849709 -0.06687207 0.00045037738
000090 ad fa f0 bc 59 7e 33 3d 5a 46 59 ba 2c ad 79 bd
       -0.029416407 0.043821666 -0.0008288376 -0.060956165
0000a0 4e dd 1a bd 49 ea 73 bd 69 50 0e bd e9 70 bb 3c
       -0.03780871 -0.059549604 -0.034744654 0.022880988
0000b0 d6 86 6a bd 5b 0f 3f 3d c5 87 0f 3d bb d2 2e bd
       -0.057257496 0.046645503 0.03504159 -0.042681437
0000c0 85 ad ee 3a 91 5b a4 bd 73 2d 93 3b f0 7d 6d 3d
       0.0018209672 -0.080252774 0.004491502 0.05798143
0000d0 44 35 8b bd 9f ad c2 3d 78 ec 0c 3d 5b ad 98 3d
       -0.06797269 0.09505772 0.0344052 0.0745494
0000e0 b4 b9 3c 3b d3 04 8d bd 5d ec 40 3d 68 28 c6 bc
       0.002879721 -0.06885686 0.047100414 -0.02418919
0000f0 eb 15 03 3d ba 87 b4 bd 46 ea 11 bd 8d 88 75 bd
       0.032003324 -0.0881495 -0.03562381 -0.059944678
000100 1e 4c 9e 3c a3 58 e4 3c 72 97 e5 bc 68 99 16 bc
       0.019323405 0.027874297 -0.028026316 -0.009191848
000110 0f 14 61 bd 9d f8 27 3a 89 43 21 3d 8f ec 73 3d
       -0.05495077 0.00064075907 0.039371047 0.05955177
000120 f2 43 a2 3c 08 60 62 bd bb 80 54 3d fe 8d df 3c
       0.01980779 -0.055267364 0.05188058 0.027289387
000130 16 2b 8c bd fb e3 b9 bc 15 60 90 3d 4e f8 20 3d
       -0.068441555 -0.022691717 0.07049576 0.0392993
000140 48 3c 87 bd 6c b3 d8 3c ac cb c9 3c d6 62 22 bc
       -0.066032946 0.026452743 0.024633251 -0.00991126
000150 71 df 51 bd f3 4c 77 bd 8d 4b 71 bd 45 bc d0 3c
       -0.05123848 -0.06037612 -0.05890994 0.025480399
000160 fa 9b 54 3c 7f ce c1 bc bc 91 01 3d c9 d7 dd bc
       0.012976641 -0.023658035 0.031633124 -0.027080433
000170 9d aa 1d 3d b6 de 78 3d e0 b2 ba bc 3a 80 85 3d
       0.038492788 0.06075927 -0.022790372 0.06518598
000180 f7 03 ca bb bd 5b a3 bc 91 ae 07 3d e3 71 09 3d
       -0.0061650234 -0.019941205 0.033125464 0.033555876
000190 8d 88 5d bd fb 82 4d 3c 06 2b 9e bd f9 89 70 bd
       -0.054085303 0.012543435 -0.0772305 -0.05872533
0001a0 7c fb dd 3c a1 f0 10 3d 24 ff b0 bd 3a 74 8e 3c
       0.027097456 0.03538573 -0.08642414 0.017389406
0001b0 64 12 44 bd bf 89 57 3c 76 ce 51 bd 0f b4 f8 3b
       -0.0478691 0.0131554 -0.051222287 0.007589824
0001c0 b4 d6 08 3d 45 d5 61 bd 6b c3 26 bd fa 75 63 3d
       0.03340788 -0.05513503 -0.04071371 0.055532433
0001d0 31 22 31 3d ee 33 dc bc 3c 53 70 bd 4a ee e6 3c
       0.043245498 -0.02688023 -0.05867313 0.028189797
0001e0 95 bb b2 3c e7 85 5b 3d dc 6b 6d bd df c6 77 bd
       0.021817962 0.053594496 -0.05796419 -0.060492393
0001f0 18 a3 95 3d 90 c3 ae bc c6 65 47 3d a3 ac b7 3c
       0.07306498 -0.021333486 0.048681043 0.022421187

actor.4.weight f4 [128, 128]
000000 df 00 7a bd ed 0f 44 3c e3 92 fb 3c db 40 b2 bc
       -0.061035987 0.011966688 0.03070969 -0.021759441
000010 d5 d4 b5 3d 7c 55 c9 3d a9 10 06 be 81 cf d8 3c
       0.08878485 0.09830758 -0.13092293 0.026466133
000020 38 e4 a2 bd 3b 52 8e bc a6 48 60 bd b7 8b e9 bc
       -0.079536855 -0.017373195 -0.054756783 -0.028509004
000030 28 c8 04 3c fc 86 0f ba 31 7a da 3b 8d 2c 87 bd
       0.008104362 -0.00054751313 0.0066673984 -0.06600294
000040 57 8a 8b 3d ac 01 22 be 02 15 eb bc 2d 8f eb 3c
       0.068134956 -0.1582095 -0.02869654 0.028754795
000050 3d 63 82 bc b5 88 bf 3d 6d 31 03 bd 09 77 54 bc
       -0.015916461 0.09352247 -0.032029558 -0.012967833
000060 1d 4e f4 3c 1e 15 b7 3d a1 3f 68 bd c7 3c 4c 3c
       0.029822404 0.08939575 -0.056701306 0.012465662
000070 f7 e7 3c bd 7c bc ab bd 1f 36 86 3d 0d 96 68 3a
       -0.046119656 -0.0838556 0.065532915 0.0008872457
000080 92 f9 1d 3c e6 de 2d 3d 5c 8f 0a 3e 4f 19 a4 3b
       0.009642022 0.0424489 0.1353125 0.0050079
000090 a6 dd 7b 3c b2 67 b4 bc 33 ea 63 bb 8d 1c 0a bd
       0.015372669 -0.022022102 -0.0034777045 -0.033718634
0000a0 07 d7 66 3d b0 4d a5 3d f7 5e 67 bd 11 8b 48 bc
       0.05635741 0.08071458 -0.05648705 -0.012240187
0000b0 c6 2a 29 3d 7f 86 b9 bc 0e 2a 4a 3d 40 40 d0 3d
       0.041300558 -0.02264714 0.049356513 0.10168505
0000c0 db f6 c4 3d 92 73 62 3d e0 71 12 bd 98 56 1b bc
       0.096173964 0.055285998 -0.03575313 -0.009481095
0000d0 81 13 8c 3d 48 6a 02 be 33 c8 83 3d 95 2f 1c be
       0.068396576 -0.12735856 0.06434669 -0.15252526
0000e0 d0 c0 32 3d ac d7 9e 3d ee f0 8d 3c ac f5 8a 3d
       0.04364091 0.0775598 0.017326798 0.067851394
0000f0 37 3f 3f bd a3 c2 be bd 6c 74 aa 3a a4 81 2e 3d
       -0.046691146 -0.09314468 0.0013004667 0.042604104
000100 40 61 3e bd 8f 46 32 bd 91 42 0b bd 12 83 18 bd
       -0.046479464 -0.04352432 -0.03399903 -0.037234373
000110 b4 ea b2 3d 19 d7 81 3d 36 7c af bd fd ed 9f 3d
       0.08736172 0.06339855 -0.08568613 0.078090645
000120 86 a4 13 3c b2 e1 f6 bc 53 09 44 3d b0 94 67 3d
       0.009011393 -0.030136917 0.047860455 0.056538284
000130 c3 dd a9 3d fc 22 a2 3d 5e f2 46 bd 6c 4a fa bd
       0.08294251 0.07916829 -0.048570983 -0.12221226
000140 cf 6e 0f 3d 7a 19 00 be b8 a8 43 bd 43 7a 4f 3b
       0.035017785 -0.12509719 -0.047768325 0.0031658567
000150 d3 83 25 bd e7 a2 4c 3d bd c5 d8 3c cc ce 84 3d
       -0.04040892 0.049960043 0.026461476 0.06484756
000160 c4 66 48 3d 87 11 71 3d 28 46 5c bc 2f d6 e4 bd
       0.04892613 0.058854606 -0.013444461 -0.11173665
000170 10 07 01 3d 67 57 22 bd 1d db d3 bc 95 c6 cd 3c
       0.031500876 -0.039634135 -0.025861317 0.025119105
000180 37 0a 72 bd a1 43 aa bd 0a 49 c9 3c 09 f9 a1 3c
       -0.059091773 -0.083136804 0.02457096 0.01977207
000190 b3 eb 29 3d e9 93 89 bb b2 f6 41 bd 8c e4 de 3d
       0.041484546 -0.0041985405 -0.047354408 0.108834356
0001a0 87 01 39 bc 9f 47 ab 3d 6d f4 a8 3d 32 85 29 3d
       -0.011291868 0.0836327 0.082497455 0.04138679
0001b0 3c dd 25 bd fa 83 74 3d d5 24 d3 bc 4a f8 38 bd
       -0.04049419 0.059696175 -0.025774399 -0.045158662
0001c0 6f c8 b5 bd e5 d6 be bd 1d 8f 85 3d 81 58 a6 3d
       -0.0887612 -0.09318332 0.06521437 0.081223495
0001d0 9f c3 40 bd c9 30 04 bc 59 78 0d bd 76 84 7f bd
       -0.04706156 -0.008068272 -0.0345386 -0.062382184
0001e0 7e 8f d9 bd 50 26 81 3c 1a 6c 6f 3c ff dc 08 bd
       -0.10623072 0.01576534 0.014613176 -0.033413883
0001f0 70 2d 9d bc ff 15 d4 3d 11 25 00 bd 37 0a 34 bd
       -0.019186705 0.10355758 -0.03128535 -0.043955054
000200 85 d7 2c 3d f7 98 f0 3d fc f4 db bd 6b dd 80 bd
       0.042197723 0.11747926 -0.107400864 -0.06292232
000210 bc d9 33 bc 5b 7a c9 bc 01 7a 26 3b 0b 71 b2 bd
       -0.010977205 -0.024594476 0.002540231 -0.087129675
000220 52 83 9f 3c 15 61 09 bd 21 6c a8 3d fd 62 f8 3c
       0.019471798 -0.03353985 0.08223749 0.030320639
000230 3d 82 53 3d 83 06 19 bd 2f 2a ee bc ff b1 c6 3d
       0.051637877 -0.037359726 -0.02907285 0.09701919
000240 1f e7 aa bd b1 00 0f 3d 27 8c 2f 3e 1d 33 ca bd
       -0.08344864 0.03491277 0.17143308 -0.0987303
000250 08 09 a7 bd c2 29 13 bc 27 50 25 3d 0f a5 7b 3d
       -0.081560194 -0.008982124 0.040359642 0.06143671
000260 fd 49 5b bd f7 de af bd e3 ec c6 3d 76 8f 01 bd
       -0.053537358 -0.08587449 0.09713151 -0.031630956
000270 fb 15 b8 3c 53 d8 79 3c 00 2e e6 3c 80 03 a7 bd
       0.022471419 0.01524933 0.028098106 -0.081549644
000280 f6 29 52 3d bc 0a 82 3d 6c ea 56 3d 84 a8 0b 3e
       0.05130955 0.06349704 0.052469656 0.13638502
000290 56 33 ea 3c 71 52 de bc 33 bd 95 3d 84 55 43 bd
       0.028588932 -0.02713892 0.073114775 -0.047688976
0002a0 4d 32 f9 bc ab 6c a9 bd ee 0a d8 bb 0e a3 1f 3c
       -0.030419493 -0.0827268 -0.0065931 0.009743465
0002b0 05 55 8a bd cb f2 d3 3d dd 8a 34 3d 64 48 2a 3d
       -0.067544974 0.103490435 0.044077743 0.041572943
0002c0 61 0c 96 3d 62 3e a7 bd f3 9e 92 bc de 5c 11 3e
       0.0732658 -0.081661955 -0.017898059 0.14195582
0002d0 c0 c8 b4 bd 18 1b d9 3d 8f e1 c9 bb c0 6e 0a 3e
       -0.088273525 0.10600871 -0.006160922 0.1351881
0002e0 4b ab c4 bc 37 32 8f 3b 52 bb 16 bd 02 d3 56 bb
       -0.02400746 0.0043699997 -0.036799736 -0.003277958
0002f0 13 be d5 3c c9 4a ce bc 75 89 15 bd 25 cc 41 bd
       0.026091611 -0.025182145 -0.036508042 -0.047313828
000300 79 aa 8f bd e2 11 43 3d af 77 47 3d 76 9f ce bd
       -0.07014937 0.047624476 0.048698124 -0.100890085
000310 d5 96 11 be 81 66 aa bd 2a a7 37 bc 21 02 a3 bc
       -0.14217694 -0.08320332 -0.011209289 -0.019898476
000320 3b c1 ae bd 21 de ee bd 3c d8 40 3c e6 dc 67 bd
       -0.085329495 -0.116634615 0.011770304 -0.05660715
000330 8b 8f b4 bc db aa d6 bd 7b 77 6d 3d 48 e6 16 bd
       -0.022041103 -0.10481807 0.057975274 -0.036840707
000340 dc e1 31 3c b3 77 41 3d 17 a3 9c 3d 41 5a ce 3d
       0.010857072 0.047233295 0.076482944 0.10075808
000350 78 4f 91 bd bf 47 9c bd 85 13 2f bd cb d6 45 bd
       -0.070952356 -0.07630872 -0.042743225 -0.048300546
000360 67 1d 39 3d 61 42 4c 3d 7a c0 38 3d c1 38 a4 3d
       0.045194056 0.04986799 0.045105435 0.080186374
000370 43 ac 05 3d 37 00 83 3d bb 97 e4 3d be 35 2b 3b
       0.032634985 0.06396525 0.11161753 0.0026124562
000380 df 9d ae bd 0e 60 d9 3d 16 af 3f 3c 5f 4a 04 bd
       -0.08526205 0.10614024 0.011699459 -0.03229749
000390 13 16 d0 bc 32 20 5d bd 96 a4 53 3d d1 7c 04 bd
       -0.02540115 -0.053985782 0.051670633 -0.032345597
0003a0 de ce c4 3c df 41 7f 3d 0f 1d 06 be 10 cc c5 3d
       0.024024423 0.06231868 -0.13097022 0.096580625
0003b0 0b a1 32 bd 85 a4 12 bc f3 70 5a bc 57 5e e3 3c
       -0.043610614 -0.008950357 -0.013332593 0.027754946
0003c0 5a ec 7f bd d1 3b 9a bc 20 c4 8c bd cb 4a e6 3c
       -0.06248126 -0.01882735 -0.068733454 0.028111836
0003d0 c2 47 b4 3d 45 31 cb 3c 39 97 2c bc cd 5a fd bd
       0.08802749 0.024803767 -0.010534101 -0.123708345
0003e0 ae 1c 70 bd e0 0a a9 bd cd a3 6b 3d 62 2f 4b bd
       -0.0586211 -0.08254027 0.05752926 -0.049605735
0003f0 4d 72 d4 3c a3 e2 06 bd 9b a5 49 3d c8 35 97 3d
       0.02593341 -0.03293098 0.0492302 0.07383305

actor.4.bias f4 [128]
000000 73 89 26 bd 31 2d c9 3c 71 f0 1e 3d 1e d4 57 3d
       -0.040658426 0.024557682 0.03880352 0.052692525
000010 72 30 60 3d 38 08 ac bc 4f 51 2b 3d 15 c2 65 bd
       0.0547337 -0.021000013 0.04182559 -0.056093294
000020 7e 06 8f 3c 98 9d 0d bb 4a ad ae 3c 5b 8a 76 3d
       0.01745915 -0.0021608826 0.021322865 0.06019054
000030 02 40 06 bd 22 44 15 bc 40 f8 bf bd 76 4f 6b bd
       -0.032775886 -0.009110482 -0.09373522 -0.057448827
000040 b3 30 08 bb 1f 16 68 3c 3b 09 4a bd d1 cf c0 3c
       -0.002078098 0.01416543 -0.04932521 0.023536595
000050 d6 21 99 3d 88 d3 13 bd 56 5a 87 b9 0d 45 2e 3d
       0.07477157 -0.036090404 -0.00025816512 0.04254632
000060 86 bd 34 bd 23 a9 9a bd e3 1c b1 3d ff 42 62 bd
       -0.044126056 -0.075517915 0.08648088 -0.055239674
000070 0f da 93 3d d6 c9 a1 3c 3f f7 73 3c 5d 21 07 3b
       0.07219326 0.019749563 0.014890491 0.0020619251
000080 7c 32 49 3d 31 02 8c bd 1b f8 f7 bc 5b c0 78 bd
       0.04912041 -0.068363555 -0.030269673 -0.06073032
000090 bb 89 41 bd f3 0e fe 3c 16 d9 15 3d bd 88 7a bb
       -0.04725049 0.031012988 0.036583982 -0.0038228475
0000a0 a6 74 b1 3d 2a b3 81 3d 2c 4f 5a bd ae 7c 86 3c
       0.08664827 0.06333001 -0.05329816 0.016416874
0000b0 4c 3c fc 3c 4c af 2e bd f9 e4 84 bd ae eb 72 3d
       0.03079047 -0.042647645 -0.064889856 0.059306793
0000c0 66 cd ae bd 0f 61 92 3c 5b c0 c6 bd 6b 94 ab bd
       -0.085352704 0.017868547 -0.09704658 -0.08377918
0000d0 bf 96 90 bc 72 5e 8f bd 1f 50 ba bc 0a 41 96 3d
       -0.017650006 -0.07000436 -0.022743283 0.07336624
0000e0 4e 16 3d 3d cb e7 db 3c 89 f6 aa 3d eb 9b fc 3c
       0.04616385 0.026843926 0.08347804 0.030836066
0000f0 c7 3a bd bc 9c 06 21 bd eb 40 b0 3d 5a 04 05 3a
       -0.023099316 -0.039312944 0.08606132 0.0005074196
000100 12 27 6e bd 45 05 90 bd ce b4 fd bc 13 d5 32 bd
       -0.05814273 -0.07032255 -0.030970003 -0.043660235
000110 c7 ca 61 3b 6f 7d 97 3d 42 f0 0f 3d 45 38 f1 bc
       0.003445314 0.073969714 0.035141237 -0.029445777
000120 10 5e 90 3d de 31 1e 3c a7 74 5c bd d3 6f 8c bd
       0.07049191 0.009655444 -0.053822186 -0.06857266
000130 41 c0 52 3d f5 db 02 bd 84 8a 87 3d 2b 2d 4b 3d
       0.05145288 -0.03194805 0.06618217 0.049603622
000140 87 4e 8a bd b8 7c a8 bc f1 c5 b8 bc a1 20 a9 3c
       -0.06753259 -0.020567283 -0.022555323 0.020645441
000150 4e ca 8a 3d bc 18 7d 3d 38 6a 47 bc d0 b1 fa 3c
       0.06776868 0.061791167 -0.012171321 0.030602366
000160 f2 b3 6f bd 8b 94 26 bb 88 8a 66 bd 96 66 64 3d
       -0.05852122 -0.0025418128 -0.056284457 0.055761896
000170 0c 1f 65 3b 31 c3 41 bd 96 d2 41 bd 8d d7 45 bb
       0.0034961132 -0.04730529 -0.04731997 -0.0030188293
000180 4a fe 59 3d 10 b1 84 3d 76 e7 5d 3d 02 e9 9c bc
       0.053221025 0.064790845 0.054175816 -0.019154076
000190 fc 6e 88 bd c5 da 2c 3d b8 9f de 3c d1 c4 10 3d
       -0.066617936 0.042200822 0.02717577 0.03534395
0001a0 11 ed 38 bc f5 b6 1c 3d f9 f7 8e bd cb 54 aa bd
       -0.01128699 0.03826042 -0.06980891 -0.08316954
0001b0 e2 8d 7f 3c cf 89 36 3c a7 62 8c bc 79 bc 5d bd
       0.015597792 0.011141255 -0.017136885 -0.05413482
0001c0 eb ee 37 3d c3 02 03 bd d6 68 91 bc 30 3f 50 bd
       0.044905584 -0.031985056 -0.017750185 -0.05084151
0001d0 cc 3a 7b bc 31 fc 3f 3d 82 19 2f 3d 69 36 08 bc
       -0.0153338425 0.046871368 0.042748936 -0.008313754
0001e0 b0 a6 89 3a 15 41 6d bb 79 13 c1 3d 1e f3 e7 bc
       0.0010501947 -0.0036202122 0.09427542 -0.02831417
0001f0 23 fa c5 3d cd 0f bd 3c be d8 6f 3d ca 82 24 bd
       0.096668504 0.023078823 0.05855631 -0.040163793

actor.6.weight f4 [5, 128]
000000 7a 32 a6 3d f4 e0 01 be ee 01 f9 3b 62 e4 f7 bd
       0.081150964 -0.12683469 0.007599107 -0.121041074
000010 53 db 22 3d b0 9e 91 bd af a1 5c bd 94 2c 91 3c
       0.039759945 -0.07110345 -0.05386513 0.017721452
000020 c8 e2 f2 3d 65 12 8a 3d ea cc 04 bd a4 79 65 bd
       0.11859661 0.0674179 -0.032421984 -0.05602421
000030 9c ac 99 bd 92 a8 9b bd 80 a4 12 3e 9a c8 44 3d
       -0.07503626 -0.076005116 0.14320564 0.04804287
000040 49 0c 96 3d 8a 81 b2 bd fa ab 18 3c 1f 06 27 3d
       0.07326562 -0.08716114 0.009318346 0.040777322
000050 55 4d fd 3c dc 84 93 3d 1f ad 87 3c 87 1e 5f bd
       0.030920664 0.07203075 0.016562043 -0.054472473
000060 fc e9 e9 3c ce 77 c1 3d a7 ad 46 3d 44 e9 99 bd
       0.028553955 0.09446679 0.04850545 -0.07515195
000070 0e b3 a4 3d 79 b0 38 bd dd 0c d5 bd 0b 1b cd 3d
       0.080419645 -0.045090172 -0.10402844 0.10014924
000080 60 e4 83 3b b8 c2 b2 bd 60 92 b5 3d 2b 39 5e 3d
       0.004025027 -0.08728546 0.088658094 0.05425374
000090 65 09 d8 3d 26 24 9f bd fb 04 ec 3d a0 1e 77 3c
       0.10548667 -0.07770567 0.115243874 0.015082985
0000a0 ee ac 16 bb 81 48 31 bd 43 65 96 bd 12 c9 c9 bd
       -0.0022991258 -0.043282036 -0.07343533 -0.09852804
0000b0 09 d5 79 bd a2 39 4b 3d 3b 7f 8d bd 02 83 91 3d
       -0.06099418 0.04961551 -0.06909033 0.07105066
0000c0 f6 55 bf 3d ad d3 02 bd d8 64 c0 3a ef da 82 3d
       0.093425676 -0.03194015 0.0014678491 0.063894145
0000d0 6e 05 ec bd 5c 95 8c 3d e7 e1 00 3e a1 5d a3 bd
       -0.11524473 0.068644255 0.12586175 -0.07976843
0000e0 7d 54 0c be 03 ea d1 ba 4e a7 aa bd c4 c0 13 bd
       -0.13704105 -0.0016015175 -0.08332692 -0.036072508
0000f0 b7 38 13 be 5b 9d 70 bd e9 11 0c be 8b e9 9e bd
       -0.14377104 -0.058743816 -0.13678707 -0.077593885
000100 c6 63 04 3e 69 63 cf 3d 51 6a b6 bd d7 d1 dc 3d
       0.12928686 0.10126383 -0.08906997 0.10782211
000110 14 06 35 bd 22 ea aa bd 60 27 b0 3d b8 8d a8 3d
       -0.04419525 -0.083454385 0.0860126 0.08230156
000120 01 63 81 3d fd d7 40 bd 98 99 40 3d e4 28 73 3d
       0.063177116 -0.047080982 0.04702148 0.05936517
000130 6e 98 c9 3d 7c 99 9e 3d 6f 88 04 be d6 a5 3a 3d
       0.09843527 0.077441186 -0.1294267 0.04556831
000140 30 26 29 3e 8c ba c6 bc 2b 2c 16 be 7a ec 86 bd
       0.16518474 -0.024258874 -0.14665286 -0.06588073
000150 cf f4 11 be 1d 31 af bd 0a 4e b2 3d ea 29 68 bd
       -0.14253543 -0.085542895 0.08706291 -0.056680597
000160 bd 9b 89 3d 8f 0c 07 be a8 e6 5d bc b7 08 5c bd
       0.06719158 -0.13188384 -0.013543762 -0.05371925
000170 70 02 c7 3c 54 fa ce 3d ec af b7 bd 70 00 42 3d
       0.024293154 0.1010634 -0.08969101 0.0473637
000180 eb 58 69 bd a0 c8 2e bd 17 58 26 3d 8c fe 8b bd
       -0.056969564 -0.0426718 0.040611353 -0.0683566
000190 0e 1d 86 3d c1 e2 05 3d 0f 26 6c bd c5 08 ca bd
       0.065485105 0.032686953 -0.057653483 -0.09864954
0001a0 e5 ab 31 bd 37 2c cd bc 37 53 0e 3d 63 f9 67 3d
       -0.043376822 -0.025045497 0.03474733 0.056634318
0001b0 c7 bd 67 bc 8d 43 34 bd 61 27 b3 bc a6 8b df 3d
       -0.014144368 -0.044009734 -0.021869363 0.10915308
0001c0 09 a7 7b bb af 14 f7 3d bb 74 23 3d 0a ea b9 bd
       -0.0038399121 0.12064492 0.039906245 -0.090778425
0001d0 3c d1 80 3d 02 ba bc bd d3 de a3 3c a3 93 ef bc
       0.06289908 -0.09215166 0.020003712 -0.029245203
0001e0 70 86 83 bd c1 18 83 3c ce 9a 89 bd a9 c1 27 3c
       -0.06422126 0.016003015 -0.0671898 0.010239043
0001f0 85 1a 02 bd b9 bd 87 3d 87 07 f9 bd fd 82 e5 bd
       -0.031763572 0.066279836 -0.12159639 -0.11206625
000200 44 28 5b bd 8f c4 d5 3d d4 77 e4 3d 15 0b b4 bb
       -0.053505197 0.10437881 0.11155668 -0.005494485
000210 18 1f a4 3d 31 dc 17 bd f2 e5 f0 bd 9e 5e 08 3e
       0.08013743 -0.037075225 -0.117626086 0.13317344
000220 76 d8 b9 3d 63 17 04 bd e9 06 5b bd e5 78 ec 3d
       0.0907449 -0.032248866 -0.053473387 0.11546496
000230 3e 06 d4 bd 62 1c 84 3d c3 bf d4 3c 2a 02 7a 3a
       -0.10352753 0.06450726 0.025970345 0.00095370656
000240 fc 66 c7 3d 8f 65 a1 bd 97 98 79 3d b1 ac 0e 3d
       0.097364396 -0.07880699 0.060936537 0.03483266
000250 01 a4 dd 3d 85 f7 fc 3d 2c 42 e4 bd d1 7d a8 bd
       0.10822297 0.12351898 -0.11145434 -0.082271226
000260 41 c9 30 bd ef df 53 bd a9 87 b6 3d 3e 23 92 3d
       -0.04316068 -0.05172723 0.08912594 0.07135628
000270 5d 05 13 bd c9 07 af 3d d2 a1 95 3d 89 b0 e4 bd
       -0.035893787 0.08546407 0.073062554 -0.11166484
000280 98 2a ec bd fc 9e 45 bd 84 c8 0d be c5 81 25 bd
       -0.115315616 -0.048247322 -0.13846022 -0.04040696
000290 e5 2f d6 3d e7 8e 8f bd 1f 84 f8 bd e3 54 2a bd
       0.10458354 -0.07009678 -0.12134575 -0.04158486
0002a0 95 f7 92 bd 0e bd c9 bd a1 31 90 3d e1 5b ee 3a
       -0.07176129 -0.098505124 0.07040716 0.0018185341
0002b0 ae df a8 3d df c1 9f 3d 98 5c 44 bd da f9 da 3c
       0.082457885 0.0780065 -0.047939867 0.026730467
0002c0 59 d2 b4 3d 50 60 cc 3c c7 b4 0b be ea bd a3 bd
       0.08829183 0.02494827 -0.1364318 -0.079952076
0002d0 2d bd f3 bd a2 e0 f3 bd a8 27 af bd e4 8b 32 bd
       -0.11901317 -0.1190808 -0.08552486 -0.04359044
0002e0 f4 42 ce bc 4e 93 df 3d 74 be 37 3d ea fe 9f 3c
       -0.02517841 0.10916768 0.044859365 0.019530732
0002f0 78 a6 2f 3d 47 fd c3 3d 9e 5f 47 bb 61 8f c0 3d
       0.042883366 0.09569793 -0.0030421983 0.09402347
000300 a2 4e e8 3c fa 4a d6 bd cb 51 f5 bd 53 4b 9d 3d
       0.028357808 -0.104635194 -0.119784914 0.076803826
000310 2c a3 54 bd cc 1a b8 bc 13 71 f4 3d 9f 11 d2 3c
       -0.051913425 -0.022473715 0.1193563 0.025643168
000320 1c 29 58 3d ad 6d 97 3c 85 34 ce 3d e4 0e fd 3c
       0.05277358 0.018484915 0.10068611 0.03089089
000330 ff 44 cb bd ba 2b dc bd 57 d8 02 3e 28 48 06 be
       -0.09925269 -0.10750528 0.1277784 -0.13113463
000340 24 df f1 bd 40 08 b8 3d 79 18 16 bd c8 7f b1 bd
       -0.11810139 0.089859486 -0.036644433 -0.086669505
000350 ba e0 1e bc 8c 92 47 bd 41 80 ab 3d ad 86 97 bc
       -0.009697134 -0.048723742 0.08374072 -0.018496836
000360 29 2d d0 3c 03 e2 b2 bc 71 55 03 3e 2c 17 af 3d
       0.025412159 -0.021836286 0.12825562 0.085493416
000370 57 f3 7f 3d ac 64 ca 3d df 8f c3 3d 61 ed a7 3d
       0.062487926 0.09882483 0.095489256 0.08199573
000380 b2 9a f7 bd d2 eb ee 3d 5c 38 d7 bd 58 04 f1 3d
       -0.12090053 0.11666073 -0.105087966 0.11768407
000390 da d4 6c 3c b8 1f eb 3d 3a af 2b bd ac 3b 92 bd
       0.014455045 0.11480659 -0.041915156 -0.07140288
0003a0 43 f2 7d 3d 79 1a 6d 3c 4e 17 02 3e 49 f1 d2 bd
       0.061998617 0.014471644 0.12704203 -0.10299928
0003b0 22 bb 31 bd 1f 11 a4 bd 22 a7 97 bd 55 f1 81 bd
       -0.043391354 -0.08011078 -0.07404925 -0.063448586
0003c0 1a 13 09 3e 29 8c ae bd 70 95 c7 bd 04 ea 07 3c
       0.13386193 -0.08522827 -0.097453 0.00829554
0003d0 17 db d0 3d 62 0b c7 3d a6 04 4a 3d 95 a6 a3 bc
       0.10198038 0.09718968 0.04932084 -0.019976893
0003e0 5b e4 4f bd 8e 0e c8 bd af 25 cd bc 03 52 b6 bd
       -0.050754886 -0.09768401 -0.025042383 -0.08902361
0003f0 26 6e e2 3d 69 96 e7 bc 6c 64 f6 bb 9c cc 4e bd
       0.110561654 -0.028269963 -0.0075192954 -0.0504881

actor.6.bias f4 [5]
000000 6a 93 8b bc 4e 59 d1 3c 58 1f 11 3d 04 1d 7b bd
       -0.017038066 0.02555528 0.035430282 -0.06130697
000010 f2 ba 77 3d
       0.06048102
