ippo_algorithm_belief/checkpoints/ppo_critic_1comm_rad_exp_2_run_0_lumberjacks.pth (torch, 176892 bytes, 7 tensors)

critic.0.weight f4 [128, 78]
000000 22 1d 7d 3d 06 21 e4 bb 51 ea 48 bc 97 70 d8 bd
       0.06179536 -0.0069619445 -0.012262897 -0.1056835
000010 7c 79 b9 bc 36 aa 93 bd d4 d6 67 bc 97 7a 27 be
       -0.022640936 -0.072101995 -0.01415034 -0.16355358
000020 d5 02 77 3d eb 58 89 bd 53 48 b0 3d d8 9d e2 bc
       0.060305435 -0.06706413 0.08607545 -0.027663156
000030 13 04 84 bd e1 7a d4 3d 92 6d e6 3d f9 6b 9a 3d
       -0.064460896 0.10375 0.11251368 0.075401254
000040 37 04 7f bd 89 9d ed bd a9 40 01 3e 09 73 93 3d
       -0.06225988 -0.11602313 0.12622322 0.071996756
000050 04 41 00 3e c0 25 ec 3d c0 47 2e 3d 5f ff ff bc
       0.12524801 0.11530638 0.042548895 -0.0312497
000060 e2 39 09 3e 96 59 78 3d 0f 32 32 3b b0 0b d5 3d
       0.13400987 0.06063231 0.0027190482 0.1040262
000070 83 9d 13 be af aa f7 bc e7 69 f9 bd 92 ff 31 be
       -0.14415555 -0.030232755 -0.121784024 -0.17382649
000080 5f ed c6 bb 6d 2c 84 bd 30 02 c4 bd 98 65 0c bd
       -0.0060707773 -0.06453786 -0.0957073 -0.034276575
000090 20 ec 28 be 76 53 0d be 3f 87 3b be 0b 3a 42 bd
       -0.16496325 -0.13801369 -0.18313311 -0.047418635
0000a0 c2 5c ca bd 8f 32 d6 bd 26 0d 74 bd 36 fa 28 be
       -0.098809734 -0.10458862 -0.05958285 -0.16501698
0000b0 b7 e0 0c be 76 dc 73 be 8d b2 fc bc a3 21 d3 ba
       -0.13757597 -0.23814568 -0.030846858 -0.0016108047
0000c0 4d 33 24 bd eb 35 6a 3d b3 04 a2 bd 5e ae 2c be
       -0.040087987 0.057180326 -0.079110526 -0.16863391
0000d0 56 70 19 3d 63 db 8a bd 24 9e e0 bd 38 61 73 3d
       0.037460648 -0.06780126 -0.10967663 0.059418887
0000e0 a6 19 17 be 47 02 8b 3d b5 dc 09 bc 36 82 aa bd
       -0.14755878 0.06787544 -0.008414437 -0.08325617
0000f0 85 65 31 be 60 da 77 bd ce 4f c5 3b 0f 41 13 bc
       -0.17323883 -0.060510993 0.0060214764 -0.008987679
000100 d5 3a fc bd 8b e4 91 bd 70 27 f9 bc 9f 2b 80 bc
       -0.12315909 -0.07123669 -0.030414313 -0.0156458
000110 1e 11 03 be 2f c6 12 be ef 58 e4 bd 82 d6 61 be
       -0.12799498 -0.14333414 -0.11149775 -0.22054484
000120 95 a8 9a 3d 17 36 92 bd 6d b1 7a 3b e7 77 8a 3c
       0.07551686 -0.07139223 0.0038252727 0.016902877
000130 6a d1 72 3c 04 ef f0 bd cf ce 9d bc a3 dc 3f 3d
       0.014820436 -0.117643386 -0.019263653 0.046841275
000140 f6 47 fd 3c 43 8d 56 3d 35 54 e2 bd a7 75 b2 bc
       0.030918103 0.05238081 -0.110512175 -0.021784617
000150 0e 06 65 bc 0b 19 4f be f1 a1 f3 bd 93 da 1e 3e
       -0.013978494 -0.20224397 -0.11896122 0.15513067
000160 8b e2 93 3c 7a fe 83 3a 74 1d f3 bd fc 71 71 3e
       0.01805236 0.0010070347 -0.11870852 0.23578638
000170 b5 8a 0a 3e d6 f6 1e 3e c6 55 ae 3d 7f f5 37 3b
       0.13529475 0.15523848 0.08512454 0.002806991
000180 b9 74 fc bc a5 6c 00 3e 99 2a 2f 3e e7 2a f8 3d
       -0.030817376 0.12541445 0.17106093 0.12117558
000190 91 a5 eb 3d 2e 31 64 3d 19 64 9e 3d 13 2a 44 3d
       0.11506189 0.055710964 0.07733936 0.047891688
0001a0 bc cc c8 3d e4 ca c1 bc 87 f8 2c 3e 3a bd 4d 3e
       0.09804675 -0.023656316 0.1689168 0.20091715
0001b0 9b 21 31 3e de 7b 81 3d 6c 85 e3 3d ff 37 91 3d
       0.17297976 0.06322454 0.111094326 0.070907585
0001c0 76 1d 54 3e e7 b1 33 3e ff 3c 3e 3e f7 25 2c 3e
       0.20714363 0.17548333 0.18577956 0.16811357
0001d0 a8 ee 39 3d 90 76 94 3c a9 b6 48 bd c9 4a c4 3d
       0.045393616 0.018122941 -0.049002323 0.09584577
0001e0 be 78 e1 3d 3f 6a 17 3e 3f 56 00 3d bc 2c 55 3d
       0.11009358 0.14786623 0.03133225 0.052044615
0001f0 75 7a 46 bd 69 be 26 3e 07 37 bd 3d f9 f5 e5 3a
       -0.048456628 0.16283573 0.09239011 0.0017544619
000200 14 ab 04 bd ae 04 a3 bc 59 fd ae 3d e4 b0 c0 3d
       -0.032389715 -0.019899692 0.08544416 0.09408739
000210 af f1 da 3d 4d 08 dd 3d 79 61 4a bd 14 cb f4 bc
       0.10690629 0.10792599 -0.049409363 -0.029881991
000220 5c 0e 1c 3e 99 b1 3f 3a f5 24 cf 3a 9e b1 37 bd
       0.15239853 0.0007312536 0.0015803861 -0.044847123
000230 24 53 f2 3d 9d 32 e1 bc 2d 16 cb bd 55 84 65 bd
       0.11832264 -0.027489955 -0.09916339 -0.056034405
000240 c7 95 5c 3d 74 1f b0 3d ef 88 af 3d ae f8 d0 bc
       0.053853776 0.08599749 0.0857104 -0.025509205
000250 90 e7 12 bd c8 26 47 3d 4b 88 8c bb 68 23 dc 3d
       -0.035865366 0.04862097 -0.0042887083 0.10748941
000260 4a cb 90 3c d7 25 5f 3d c0 85 82 bc a8 34 29 3e
       0.01767506 0.054479446 -0.015932918 0.16523993
000270 69 ce 81 3d 86 fd 69 3d 62 12 29 3d eb 73 15 bd
       0.06338198 0.057126544 0.041277297 -0.0364875
000280 0e 0b 80 ba 51 0b e5 bb 96 16 29 3d a3 90 2e 3c
       -0.000976892 -0.0069898744 0.041281305 0.010654601
000290 be 06 9e bd 41 0b 64 bd 65 65 2c 3d 38 4b 32 3d
       -0.0771613 -0.055674795 0.042088885 0.043528765
0002a0 2b ea c7 bd bf 54 bf bc cb 5e 4d bd 58 18 4f 3d
       -0.09761461 -0.02335584 -0.05013923 0.050560325
0002b0 5b 40 d1 bd 72 c3 54 bd 26 aa 43 3d bb b4 b8 3d
       -0.10217353 -0.051944204 0.047769688 0.090188466
0002c0 69 1f a1 3d 7c fd 86 bd 05 80 c6 bd 14 94 87 bd
       0.07867319 -0.06591317 -0.096923865 -0.066200405
0002d0 14 81 eb 3c f5 a8 2b bd 5b 66 d9 3d 29 ca 95 3d
       0.028748073 -0.041909177 0.10615226 0.073139496
0002e0 60 34 14 be a5 6b 40 be 35 db c7 bd fa 22 be bd
       -0.14473104 -0.18791063 -0.09758607 -0.09284015
0002f0 7b 0a f6 bd c3 17 5b be 61 75 b0 bd 03 49 8e be
       -0.12013718 -0.21395783 -0.08616138 -0.2779008
000300 ac 17 0b be 2a 9d 83 bd 96 93 b3 bd c2 7e de bd
       -0.13583249 -0.06426461 -0.08768384 -0.10864021
000310 79 db 2d 3d 29 bd 6d be a1 99 3c be be df 00 be
       0.042445634 -0.2321669 -0.1841798 -0.12585351
000320 98 d7 41 be 6f bd 08 be ee 96 56 be 4b 1f 79 bd
       -0.18929899 -0.13353513 -0.20956013 -0.06082086
000330 86 61 bf bd 91 0a 1f be 15 49 81 bd bf e9 32 be
       -0.09344773 -0.15531375 -0.063127674 -0.1747198
000340 c7 0b 97 bd a4 62 d8 bc 97 78 fa bc eb 8e 62 bc
       -0.07375293 -0.026414223 -0.03057508 -0.01382802
000350 1c ca 97 3c 17 a4 a8 3d 6c 2c ef bc 08 3b 8e 3c
       0.01852899 0.08234423 -0.029195987 0.017362133
000360 fa 53 91 bd b2 34 26 3d 1e 4b 85 bc d7 15 f8 3d
       -0.070960954 0.040577598 -0.01627117 0.121135406
000370 78 a4 d2 3d e1 11 76 3d f1 6d 1e be 0e cf 92 3c
       0.10285276 0.060075644 -0.15471627 0.017920997
000380 6d 76 82 3d fd a4 3f bd 67 72 70 bd b4 11 c4 bd
       0.06370244 -0.046788204 -0.058702853 -0.09573689
000390 06 42 03 3c 26 fd 8b bd f9 89 9d bd 17 c9 6e bd
       0.008011347 -0.068353936 -0.07692332 -0.058297243
0003a0 67 a7 dd 3d 25 22 72 3d 47 9a a6 bc 9e 26 e5 3c
       0.10822945 0.059114594 -0.020337237 0.027972516
0003b0 68 50 a2 3d 7c db 95 bd e3 6a a6 bd 4d 04 60 bd
       0.079254925 -0.07317254 -0.08125856 -0.0546916
0003c0 4d e8 05 bd 36 f4 c6 3c 01 79 a6 bd 83 c5 9d bb
       -0.032692242 0.02428637 -0.081285484 -0.004814805
0003d0 5b 1d ed 3c 17 a0 12 bd e8 ba 99 bb 46 40 69 3d
       0.028944662 -0.035797205 -0.0046914704 0.05694606
0003e0 03 2e e2 3d ed 0d 29 bc e7 3a fc bc 77 87 6d 3c
       0.11043932 -0.010318262 -0.030789806 0.014497629
0003f0 0a 67 52 bc 2e 1d d8 3d b5 53 d1 3d c9 4a 01 bc
       -0.012841949 0.105524406 0.10221044 -0.007891365

critic.0.bias f4 [128]
000000 9f 1d 36 bd 1b c9 13 bd 21 67 d4 3c c8 9f a2 3d
       -0.044461843 -0.03608046 0.025928082 0.07940632
000010 8d 22 02 bc 54 10 f3 3c 1a b9 e4 3c 67 48 37 3c
       -0.007942808 0.029670872 0.027920295 0.011186696
000020 34 b8 51 3c 1e 11 d0 bc d3 7d fb bc c9 65 6d 3d
       0.012800265 -0.025398787 -0.030699646 0.057958398
000030 4a b3 08 be 57 a7 ad ba 3e 62 83 3d d8 45 82 bd
       -0.13349643 -0.0013248724 0.064152226 -0.06360978
000040 84 c6 fb bc 6e ed b2 bb f8 df 9f bd 7e 32 46 bd
       -0.030734308 -0.0054604327 -0.078063905 -0.048387997
000050 53 a1 2c bd 5f 40 8d bd 91 a9 47 3c 78 44 fc 3c
       -0.04214604 -0.068970434 0.012186424 0.030794367
000060 23 e0 d3 3c 4b 44 7f ba c3 77 59 bd df 3c 64 bd
       0.025863713 -0.00097376545 -0.05309273 -0.055722114
000070 20 87 11 3d 70 b6 18 3d ff 6f 0b 3d 21 d6 e7 bc
       0.035529256 0.03728336 0.034042355 -0.028300347
000080 63 5f 78 3d dc e3 c6 3b c6 a4 40 3c 60 05 a6 3c
       0.060637843 0.0060696434 0.011758035 0.020266235
000090 fe 41 84 bd 92 ef f0 bc ff 0a 42 bc 46 71 19 bd
       -0.064578995 -0.029411111 -0.011843442 -0.03746154
0000a0 8d bf d4 bc 0f 25 1f bd d6 78 16 bd a0 f2 83 3c
       -0.025970245 -0.0388537 -0.036736332 0.016106904
0000b0 b2 65 88 bc ed 5b ad bd c1 06 50 bd 4a f7 ca 3c
       -0.016650055 -0.08464799 -0.05078769 0.02477612
0000c0 9a 64 d9 bd 6d 6e 28 3d fa 87 84 bc 68 a1 f9 3b
       -0.10614891 0.041120935 -0.01617812 0.007618118
0000d0 c7 9b 44 3d fa f6 d6 bc 57 c9 32 bd db 5a dd bd
       0.048000123 -0.026240814 -0.043649044 -0.10808345
0000e0 4c f9 a0 bd 52 9c 3c bc 85 0e b5 3d 5a 91 49 3d
       -0.078600496 -0.011511879 0.0884066 0.049210884
0000f0 b2 2b 21 bc 5d c3 d0 bd 6e ca c6 bc 7b 5a 40 bb
       -0.009837078 -0.101935126 -0.024266448 -0.0029350806
000100 51 b0 86 3c 93 cf 8d bd 72 82 89 bc 7e e5 8d 3c
       0.016441496 -0.06924357 -0.016785834 0.017321344
000110 48 a2 b2 bd 4e 24 ba bd 4c d8 27 3d 68 8a 9f bc
       -0.08722359 -0.09088956 0.04097776 -0.019475177
000120 7f d3 85 bd 15 56 42 bd 0f fa 11 3d 69 4e 15 3d
       -0.0653448 -0.047445375 0.035638865 0.03645173
000130 08 43 0f bc 3e 6e a8 3d 60 8e 51 3d 57 8b 9b 3d
       -0.008744009 0.08224152 0.05116117 0.07594936
000140 5c c0 7f bc 99 a0 69 bd 35 c8 82 3d f2 91 98 bd
       -0.015609827 -0.057037923 0.06385843 -0.07449712
000150 fa e5 b5 bc 6c f0 c4 bc a7 f5 7a 3d e7 38 56 3c
       -0.022204388 -0.024040423 0.06126943 0.01307509
000160 e8 45 c0 bd 21 60 dd bb b2 49 8e bc d7 69 9c bd
       -0.093883336 -0.006755844 -0.017369125 -0.07637375
000170 f9 87 5b bd 6d ee 36 3c b8 ae 2a 3d 8a 3e d4 bc
       -0.05359647 0.011165244 0.04167053 -0.025908727
000180 4c 28 13 3c 96 50 3f bd 33 e4 81 bd d2 d1 0f 3c
       0.0089817755 -0.046707712 -0.06342354 0.008778052
000190 de a2 98 bc 48 6b ee 3c 76 1f a0 bb b2 1a 21 3d
       -0.018632349 0.02910389 -0.004886563 0.0393321
0001a0 a5 31 f7 bc 11 dd 82 bd 44 8d 23 3d 4f 62 8d 3b
       -0.03017504 -0.06389821 0.039929643 0.004314698
0001b0 65 51 03 3d 7f 73 8f bd 77 59 0c bd e3 1f 44 bb
       0.032060046 -0.07004451 -0.034265008 -0.0029926233
0001c0 20 e0 6b 3c e1 33 35 bb ee d9 b8 bc 7e b3 0b bd
       0.014396697 -0.002764933 -0.022564854 -0.034106724
0001d0 d1 40 61 3d fc 31 87 bd 0a 3b 93 3d 91 10 8e bb
       0.054993454 -0.06601331 0.07188995 -0.004335471
0001e0 e9 ac b6 3c de c1 df 3d 89 d2 45 3d 04 0e 25 bd
       0.022299247 0.10925649 0.048296485 -0.04029657
0001f0 b2 dd 60 bd 93 ad d3 bd dc bd 01 3d c7 ca af bd
       -0.054898925 -0.10335841 0.031675205 -0.085835986

critic.2.weight f4 [128, 128]
000000 dd 01 1b 3d f6 b3 90 3d be 76 94 3d c0 14 b4 3d
       0.037843574 0.07065575 0.07249211 0.0879302
000010 9f 67 d6 ba fa 63 5c bc 9d 9b e7 bd 00 77 de 3c
       -0.0016357786 -0.013451571 -0.11308978 0.027156353
000020 50 a4 a6 bc 68 0b 67 3d 62 4d 08 3d 7e 7d 39 bc
       -0.020342022 0.056407362 0.033276923 -0.011321424
000030 60 67 46 bd d4 c7 02 be b7 81 b3 3d 6c 41 57 3d
       -0.04843843 -0.12771541 0.087649755 0.052552626
000040 e5 ca 88 bd 62 c0 6e 3d 34 ff 81 bd d0 d6 51 3c
       -0.06679324 0.05828894 -0.06347504 0.012807563
000050 44 de 22 3d dc 09 27 bd 45 30 59 3d f7 92 82 bd
       0.03976275 -0.040780887 0.05302455 -0.063756876
000060 c0 4e 3e bd ac d9 5f bc 4f 2a 20 3d da 65 c5 3d
       -0.04646182 -0.013662737 0.03910285 0.09638567
000070 f2 80 17 bd 1e 62 1f 3d 7c 65 06 3c dd 84 68 bd
       -0.036988206 0.03891193 0.008202907 -0.056767333
000080 35 73 31 3d 56 ee 3d bd 3b 16 00 bd 6c 25 fa b8
       0.04332276 -0.046369873 -0.0312712 -0.00011927899
000090 f9 61 16 3d ce 7a 87 3c 62 d5 af 3d ac ce bb 3d
       0.036714528 0.01653805 0.085856214 0.09170279
0000a0 8a a4 9c bd 3d 86 06 bd 40 c5 7b bd 43 00 a7 3d
       -0.07648571 -0.032842863 -0.06146741 0.08154347
0000b0 04 67 7d bc 27 a8 93 3d d3 1a a7 3d 00 86 6b bd
       -0.015466455 0.07209807 0.08159413 -0.05750084
0000c0 cb c5 fb 3b 3b 20 ee bc c2 da 91 bc cd 12 58 3d
       0.007683491 -0.029068103 -0.017804507 0.052752305
0000d0 37 c6 49 3a a2 c1 52 bd de 79 ad 3d 8d 93 80 bd
       0.0007697078 -0.051454194 0.0847051 -0.06278143
0000e0 64 03 cf bd 20 b0 81 bc 31 6b 47 3d 7b d8 44 3d
       -0.101080686 -0.015831053 0.04868621 0.048058014
0000f0 cf fa 2a bd 99 17 3c 3d 3a c1 0a 3d d7 5d ef 3c
       -0.041743096 0.045920942 0.03387568 0.029219551
000100 47 fa 4a 3d 0e e0 a7 3d 92 ee 0c 3d 9d 2d a5 bd
       0.04955509 0.08197032 0.034407206 -0.08065341
000110 2f 53 a3 bd 74 0d 6d 3d 92 e2 c9 3a b5 97 08 3d
       -0.079748504 0.057874158 0.0015402606 0.033347804
000120 ed e0 6a bd e1 2e 6f 3d c1 3d 47 3d 3c 5c 6d bd
       -0.057343412 0.058394317 0.048642877 -0.05794929
000130 34 2c 08 3d 3b dc 8f 3d ed 72 8d bd 06 88 76 bd
       0.03324528 0.070244275 -0.06906686 -0.060188316
000140 94 01 84 3d 66 2f 79 3c e1 7c c8 3d 84 cc 1a bd
       0.064456135 0.015209055 0.09789444 -0.037792698
000150 f5 1a ba bc 15 d0 4d 3c e1 2f 07 3c 0f 7c ef 3c
       -0.022717932 0.012561818 0.008251161 0.02923396
000160 dd 7d 9b 3d 2f b3 98 bc 6a 9b 93 3c 30 21 9e 3d
       0.07592366 -0.018640129 0.018018443 0.07721174
000170 ca ba a4 3d f9 bf a8 bd 9a 26 89 3c 40 5d b1 3d
       0.0804344 -0.08239741 0.01674204 0.08660364
000180 97 91 0f 3b e4 d7 41 bd b5 4c 84 bd b1 df 44 3b
       0.0021906847 -0.04732503 -0.06459943 0.0030040557
000190 22 b8 d8 bc eb c4 19 3c 5f 23 a9 3d 32 ef 65 3d
       -0.026454989 0.009385328 0.082586996 0.056136318
0001a0 47 87 45 3d 7c f9 05 3d 8c e3 bb bb 77 77 24 3d
       0.048224714 0.03270863 -0.005733913 0.040152993
0001b0 38 47 fd bc 03 d0 a9 3d 5f 57 02 3d 14 3e 8a bc
       -0.030917749 0.08291628 0.031821605 -0.016875304
0001c0 99 1f 11 bd 32 64 8e bc 3a 44 d7 3c e9 1e 17 bd
       -0.035430524 -0.017381761 0.02627765 -0.036894713
0001d0 b3 0f 5b 3d 04 e1 db 3c a9 c3 ec bc 1b a0 c9 3b
       0.05348177 0.026840694 -0.028901892 0.0061531193
0001e0 4b 7a e0 bc ea 36 72 3d 40 04 57 bd 85 eb 18 bc
       -0.027402064 0.0591344 -0.052494287 -0.009333496
0001f0 9b 82 c1 3d 6b f5 f6 3c 4c 6f f5 bc d0 fb 9f bd
       0.09448739 0.030146321 -0.029960297 -0.07811701
000200 fd 57 e2 3d 04 61 a8 3d 4c 4a 47 bd af 76 81 3d
       0.11051939 0.08221629 -0.04865484 0.06321465
000210 d4 8a 11 be ae 39 1b bd 2a 0b 2f 3d 90 7e ab bd
       -0.14213115 -0.037896805 0.042735256 -0.08373749
000220 2e f2 e4 3d ec c0 11 bd 93 89 b6 3c fb a7 8d 3d
       0.111790046 -0.035584375 0.022282397 0.06916805
000230 5b d6 09 be 6c 08 9f 3d 91 35 de bc fc a3 1d 3d
       -0.13460676 0.07765278 -0.027125152 0.038486466
000240 85 ae 69 3c ca e6 0b be 99 02 96 bc 76 80 14 3d
       0.0142628 -0.13662258 -0.018311786 0.036255322
000250 97 1e 91 bd a7 36 90 3c 4e ea e5 bd d7 f9 04 3e
       -0.07085913 0.017604185 -0.11226331 0.12985931
000260 b4 d5 95 bd 41 e9 8a 38 3a 4a 87 bc d5 d8 4f bd
       -0.07316151 6.6238e-05 -0.016514886 -0.050743897
000270 ae f8 00 3e b1 fc c1 bc 12 48 b4 bc 25 40 14 be
       0.12594864 -0.023680063 -0.022007022 -0.14477594
000280 01 c9 d2 3d 60 0e bb 3d 8a b5 97 bd a9 7c e6 3d
       0.10292245 0.09133601 -0.07407673 0.11254246
000290 04 5b 86 bd c9 62 9c bd d0 a5 10 be c0 9e 51 3e
       -0.065603286 -0.07636029 -0.14125752 0.20470715
0002a0 71 91 94 bd 12 b7 ea 3d 93 ce b0 bc 58 7d a5 bc
       -0.07254303 0.11460699 -0.021582877 -0.02020137
0002b0 4a 4d ad 3d de fc df 3b ab c9 9f bc 3c 92 0b bd
       0.08462007 0.006835564 -0.019505342 -0.034075007
0002c0 02 72 f0 bd e8 66 ee bc e8 50 9d 3d b5 1b 3a 3e
       -0.11740495 -0.029101804 0.07681447 0.18174632
0002d0 0e bc 71 bd 8f f4 86 3d b1 3a 66 bd 1e 76 1e bd
       -0.059017234 0.065896146 -0.056208316 -0.038686864
0002e0 78 51 16 be d5 b6 23 3d a4 5c d3 bd ac 76 0c 3d
       -0.14679515 0.039969284 -0.10320404 0.03429286
0002f0 a8 cf c5 3d 39 1e 95 bd 3b f1 db bd b5 ca 37 bd
       0.09658748 -0.07281155 -0.107393704 -0.04487105
000300 b2 92 2c 3d be ce a4 3c b1 e6 a3 3d df 57 85 bb
       0.042132087 0.020118114 0.08002985 -0.004069313
000310 86 8d 2d bb d3 00 93 bd ff df c6 bc 4b 1d 53 3d
       -0.002648206 -0.071778916 -0.024276732 0.051541608
000320 09 e1 df bd e6 61 e4 3c ca 7d 41 be 85 14 07 bd
       -0.10931594 0.027878713 -0.18895641 -0.032978553
000330 e4 27 42 be f7 13 52 be 7c 91 3a 3c 71 df 3d 3e
       -0.1896053 -0.20515428 0.011387225 0.18542267
000340 78 30 9d 3d 30 8f 5e 3d 05 87 1a 3e 73 ed 0b be
       0.0767526 0.054335773 0.15090568 -0.13664798
000350 56 e9 21 bc f8 d0 bc bd 9d 29 a4 3c 13 68 59 3d
       -0.009882292 -0.09219545 0.020039374 0.05307777
000360 a4 20 b3 bd fa d6 a7 3d 13 21 18 3d 9a 5e 8d b9
       -0.0874646 0.081953004 0.037140917 -0.000269641
000370 08 9c c1 bd 29 4d 9d bd c6 de 89 3d 43 25 97 3d
       -0.09453589 -0.07680733 0.06731944 0.07380154
000380 af 8d 36 3c 06 c4 53 be a0 0e 72 3d 27 6c 17 3e
       0.011142178 -0.20680246 0.05909598 0.1478735
000390 a8 b1 18 bd 92 73 20 3d 70 ff a9 3d a8 3f 88 3d
       -0.0372788 0.039172716 0.08300674 0.066527665
0003a0 75 5a 35 bc dd b2 da 3d 73 e1 b7 3b 2b 69 61 bc
       -0.01106893 0.10678647 0.0056115924 -0.013757984
0003b0 b1 95 51 bc 4a d1 27 3d 73 83 55 3d c4 a8 2c bd
       -0.012792037 0.040971078 0.052127313 -0.042153135
0003c0 1a 10 f0 3c 0d 67 34 3d 8a 7d b8 bd 9f 11 08 be
       0.029304553 0.04404359 -0.0900832 -0.13287972
0003d0 f1 57 44 3d 39 0d d3 bd 82 ae 2e 3e 69 5a 5c bd
       0.04793543 -0.103052564 0.17058757 -0.05379716
0003e0 18 a5 76 3d 5a 7f 90 bd 0e 9c 83 be a1 fe a0 bd
       0.06021604 -0.070555404 -0.25704998 -0.078610666
0003f0 7c 2b e7 3c 6a 04 c6 bd 96 40 9f 3d 75 fe 43 3c
       0.028218977 -0.09668811 0.07775991 0.011962523

critic.2.bias f4 [128]
000000 bb e3 71 3d 99 53 0f bd 06 89 c1 3d 39 d5 0f bd
       0.05905507 -0.034991834 0.09449963 -0.035115454
000010 bb 30 e7 bd c1 c5 85 bd 46 bc 1f bd 28 0e f2 bc
       -0.112885915 -0.06531859 -0.03899791 -0.029547766
000020 28 dd 52 bc 1c d7 7e bb a4 a6 56 3d f6 02 c1 b9
       -0.012870111 -0.003888554 0.052405015 -0.00036814035
000030 9e ec e6 3b fe de 98 bd e9 70 fc 3b 31 11 eb bc
       0.00704725 -0.074644074 0.0077038896 -0.028694721
000040 7e 67 61 bd 46 22 7d 3d b8 31 a4 3d 19 f8 9c 3d
       -0.05503034 0.061800264 0.080172956 0.076645084
000050 80 d6 95 bd 9b 25 c2 bc 28 f9 8b ba 16 0e a9 3d
       -0.07316303 -0.023699572 -0.0010679113 0.0825464
000060 7b 8f d0 bc eb 82 87 3d 89 3f a6 bc 6a 7c 13 3d
       -0.025459042 0.066167675 -0.020293968 0.036007322
000070 79 f1 9f 3b 4b 16 7e bd fe 15 53 bd 58 72 a2 bd
       0.0048810807 -0.06203298 -0.051534645 -0.079319656
000080 3f 62 88 3c 50 23 13 3d c9 3d da 3c b3 7d 03 3c
       0.01664841 0.03592235 0.02664079 0.0080255745
000090 50 1d b7 ba 4a d1 14 bc ec b2 90 3d 40 e6 74 3d
       -0.0013970528 -0.0090831015 0.07065377 0.059789896
0000a0 74 63 ad bb 5e 8c b2 3c e5 27 91 bd 02 fd 58 3c
       -0.0052913968 0.021795448 -0.070876874 0.0132439155
0000b0 ba 5a 08 3d 0f e3 c9 3d 8b 15 4c bd e9 e8 3f bd
       0.03328965 0.09857761 -0.049825232 -0.04685298
0000c0 09 e3 80 3d d3 d4 c3 bd f2 9b 26 bc 95 ad c0 3c
       0.062933035 -0.095620774 -0.010169016 0.02352027
0000d0 ec 99 5f 3d d7 31 73 bd 61 11 89 bd cc 77 b6 bd
       0.05459015 -0.059373703 -0.06692768 -0.08909568
0000e0 03 59 3e bd f8 3c 08 bd 9d 1c 7a bc 16 1e 76 bc
       -0.046471607 -0.03326127 -0.015265611 -0.0150218215
0000f0 cc e1 42 3d 00 ef 87 3d a5 cc cb 3d 7f fd 5e 3d
       0.047578618 0.066373825 0.09951142 0.05444097
000100 9b 6e c5 3d 56 82 15 bd be 06 3f bd 71 69 b1 3c
       0.09640237 -0.03650125 -0.04663729 0.021656724
000110 6d 54 ef bc c7 f8 a8 bd ef 9b 37 3d e8 8f d4 bd
       -0.029215062 -0.082505755 0.044826444 -0.103790104
000120 a9 4c 1d 3d 61 49 9c 3d 62 a5 60 3d a7 d6 aa 39
       0.038403187 0.076311834 0.05484522 0.00032584855
000130 9a 1c 8b 3b 37 b0 65 bd 10 25 5f bd fa f6 4f 3d
       0.004245353 -0.056076255 -0.054478705 0.050772645
000140 c6 e7 ce 3c 55 4d 82 3d b6 19 71 bd be 00 99 bd
       0.025257003 0.06362406 -0.05886241 -0.07470845
000150 2b 37 47 3d 7d 86 5a 3d 9d 2e 22 3d f5 85 98 3c
       0.048636597 0.053350914 0.039595235 0.018618563
000160 4f 02 29 bb 62 2f 77 3d 0c 20 85 3d 3c 22 b2 bd
       -0.002578873 0.060347922 0.06500253 -0.08697936
000170 04 a8 0b bd 0b e2 5b bd e4 c6 8e 3d 05 09 a1 bc
       -0.03409578 -0.05368237 0.06971529 -0.019657621
000180 9d 9d 85 3c e3 dd 17 3d 71 78 62 bd ce a5 4d bc
       0.016310507 0.037076842 -0.055290643 -0.012551738
000190 2c 38 5c 3b 3d bd 74 3d a0 a1 61 3d 5f 21 16 bd
       0.0033602817 0.059750784 0.05508578 -0.03665292
0001a0 27 64 cc bc 6a db 26 3c 4f 91 e4 3c b2 32 7d 3d
       -0.0249501 0.010184148 0.02790132 0.061815925
0001b0 2a 57 8c 3b 97 93 84 3d f2 39 0d bd 91 0c 0a bd
       0.0042828517 0.06473463 -0.03447909 -0.03370339
0001c0 ed 9c c9 bc 9f ad ae bc 0c 83 14 bd a9 2f 56 bd
       -0.02461096 -0.021323023 -0.03625779 -0.052291546
0001d0 60 58 c3 3c 13 9f 43 bd 16 01 42 3d 0c bd 0f bc
       0.023845851 -0.047759127 0.047364317 -0.0087731
0001e0 15 54 07 bd 08 90 7c bd da a6 16 3b f4 86 07 3d
       -0.03303917 -0.061660796 0.0022987635 0.033087686
0001f0 a0 4b 53 3d 16 a3 90 3d 8c f5 00 bb 23 57 d5 3c
       0.051585793 0.07062356 -0.0019677607 0.026042527

critic.4.weight f4 [128, 128]
000000 96 65 2d bd b8 fe ad 3c 3d 4f 98 3c 1e 47 de 3c
       -0.042333208 0.021239623 0.018592471 0.02713352
000010 ed 04 3f bd 53 04 ca 3d 1d 02 a8 bd 20 34 fe 3d
       -0.046635557 0.09864106 -0.08203528 0.12412286
000020 3f bf 94 3c 7d 7b ab 3c 0a d9 9f 3c a5 9a cc 3c
       0.0181576 0.020932907 0.019512672 0.024976084
000030 8f 4e 96 bd 7a 03 83 b8 b2 8e 40 3d 67 73 57 bd
       -0.073392026 -6.247214e-05 0.047011085 -0.05260029
000040 0d 44 c4 bc 7c fe 42 bc 06 7e b2 bd 14 0a 83 bd
       -0.02395823 -0.011901494 -0.08715443 -0.063984066
000050 43 41 3a bd ae 3f 51 bd b2 5c 10 3d ff 3f 63 3d
       -0.045472395 -0.05108612 0.03524465 0.055480953
000060 f1 f8 4e bd eb e6 e7 3d c6 d2 68 bd 25 77 8e bd
       -0.050530378 0.11323341 -0.056841634 -0.06956319
000070 91 59 ea 3d 45 a2 e7 3c 81 65 8c 3c f6 1f 33 bd
       0.11442865 0.028275618 0.017138245 -0.043731652
000080 fd d7 9b bd 9b 1b 20 3c 09 8a 18 bd 2a 69 c9 bd
       -0.07609556 0.009772207 -0.037241016 -0.098345116
000090 3b 0d bd bc 80 fb 06 bd c0 0e 50 3d be 52 1c bd
       -0.023077598 -0.032954693 0.050795317 -0.038164847
0000a0 d5 c6 7c 3d a0 e5 2d ba e9 7e 2a 3d 5b aa 4b bd
       0.06171306 -0.0006633643 0.041624937 -0.04972301
0000b0 9c ef 8e bd 9d 98 54 3c a8 e0 41 bd 64 28 1a 3d
       -0.069792956 0.012975839 -0.04733339 0.037636176
0000c0 1f 58 11 bd a5 3c bd bc 1e df b5 3d 96 24 5b bd
       -0.03548443 -0.023100207 0.08880447 -0.053501688
0000d0 63 f7 b0 3c 59 32 53 bc ab ea 3d 3d 73 49 11 bb
       0.021602338 -0.012890422 0.046366375 -0.0022169023
0000e0 b0 5b 7e bc 9d 3e a8 3d ea 7e 5b 3d 88 2d df 3c
       -0.01552479 0.082150675 0.05358783 0.02724339
0000f0 c9 b0 3d 3d 57 c4 7b 3d 80 44 d8 bd 09 6f a8 3d
       0.046311174 0.06146654 -0.1055994 0.08224303
000100 87 7d 23 3b 76 27 36 bc 69 c9 fb 3c 5f 88 64 bd
       0.0024946646 -0.011117807 0.030735688 -0.055794116
000110 4f 2c 95 bd 53 cb f1 3d b0 37 5e bd ac fe b1 3d
       -0.07283842 0.11806359 -0.054252326 0.08691153
000120 24 5d c8 bc 06 99 26 3d 75 e7 86 3d 68 12 48 bd
       -0.024458475 0.04067328 0.06587116 -0.04884568
000130 2d 24 e9 bb db 14 90 3d ec da 17 3c c7 84 89 bc
       -0.007114908 0.07035228 0.009268504 -0.016786946
000140 eb 17 af 3d 90 84 1d 3d 60 08 30 bd 96 d3 c4 bd
       0.08549484 0.0384565 -0.042976737 -0.09610669
000150 e6 c5 11 3d 8d c9 fa 3b 15 b8 df bd 35 aa 67 ba
       0.03558912 0.0076534213 -0.10923783 -0.00088373135
000160 46 07 b5 bc 6c 0d 74 3d dc b5 1b bd 53 51 88 3c
       -0.022098195 0.059583113 -0.03801523 0.01664034
000170 ea 46 23 3d f1 38 cd 3d d1 89 78 bc fe 48 4f bd
       0.03986255 0.10020626 -0.015169577 -0.05060672
000180 3f 7f 79 3c 81 35 e0 bc dd fd ea bc 98 d0 c7 bd
       0.015228092 -0.027369263 -0.028685505 -0.09756583
000190 a0 21 95 bd b0 5e 03 3c 2a 4f 36 bd 96 87 10 3d
       -0.07281804 0.008018181 -0.04450909 0.035285555
0001a0 32 b9 6a bd 70 52 18 b9 61 40 07 bc 93 8f 51 3d
       -0.057305522 -0.0001452656 -0.008255095 0.051162314
0001b0 ab 58 3f bd 64 db ab 3d 7a ee 93 bd 9e 3c e5 3d
       -0.04671542 0.08391455 -0.0722322 0.111932024
0001c0 06 03 f2 3b 9c 88 2f bd d2 7b 1a 3d c3 87 78 bd
       0.0073856143 -0.04285489 0.03771574 -0.060676347
0001d0 fd a8 51 3d 3d 4b ef 3d 25 12 54 bd c0 4a 2d bd
       0.05118655 0.116842724 -0.051775116 -0.042307615
0001e0 32 1c 1d 39 25 78 b1 3c 18 ad 66 bc 8a 65 0b 3d
       0.0001498319 0.021663735 -0.014079355 0.034032382
0001f0 a4 8c 89 bc e2 0c 10 bd d9 29 32 bd 44 e2 17 3d
       -0.016790695 -0.035168536 -0.04349694 0.037081018
000200 6d 49 90 bd 0a a0 7a 3d 9a 9e c1 bd 99 de 95 bd
       -0.07045255 0.06118778 -0.09454079 -0.07317848
000210 03 4b 16 3c 81 91 6b bd ad 21 dc bc bc 45 b1 3c
       0.009173158 -0.05751181 -0.026871527 0.021639697
000220 c8 f3 39 3d 70 19 dc 3b 6d c5 b0 3d b9 51 f5 3d
       0.045398504 0.0067168996 0.08631406 0.11978478
000230 00 15 03 bd bf 57 86 bc d8 90 a6 3d 23 d9 e5 bb
       -0.03200245 -0.016399262 0.081330955 -0.00701441
000240 56 cc 3f bd ab 1c 16 bd ab e4 73 bd d1 12 a8 bd
       -0.04682573 -0.036648434 -0.059544247 -0.08206714
000250 ab 38 40 bd 24 01 ac 3d bb 67 44 3d 01 bd 90 3d
       -0.046929043 0.08398655 0.047950488 0.070673
000260 3c 28 dd 3c 36 94 e8 3c d9 76 7d 3c cb 59 58 bd
       0.026996724 0.028390985 0.01547023 -0.05282001
000270 0d d5 78 3d 04 ae ab bc a6 63 a0 bd f7 ed 90 3d
       0.060750056 -0.020957 -0.078315064 0.07076638
000280 2d 39 93 bc 80 06 aa 3d 0b 39 81 3d aa a1 a5 bd
       -0.0179716 0.08302021 0.06309708 -0.080874756
000290 f3 c1 af 3c fb 2f 11 bd 15 aa da bc 6b c4 86 bd
       0.021454787 -0.03544615 -0.02669243 -0.065804325
0002a0 ea 98 21 bc f8 6a ab 3d 49 31 ba bd df b6 ed 3c
       -0.009863118 0.08370012 -0.09091432 0.029017864
0002b0 0d 0b 9c 3d 7f 81 ff bc 0b 9c b5 bc 59 e1 e0 3c
       0.07619295 -0.031189678 -0.022169134 0.027451204
0002c0 af 5b 6e 3c e6 0c 30 3d 74 7e 53 3d 3c ed 7c 3d
       0.014548226 0.04298105 0.051634267 0.06174968
0002d0 50 37 f7 3c 65 e3 c9 bb 7c 23 81 3d 64 61 4e 3d
       0.030177742 -0.0061611407 0.06305596 0.050385848
0002e0 48 a8 7e 3d c0 f1 30 3d d9 16 48 bd e0 21 87 bd
       0.062172204 0.0431993 -0.048849914 -0.06598258
0002f0 43 be 92 3d e6 bc ae bd 8c 23 55 bd cf d2 15 3d
       0.07165196 -0.08532123 -0.052035853 0.036577996
000300 40 0f 38 3d 4c 74 9e 3d 50 8c 35 bd 9e 60 46 b9
       0.04493642 0.077370256 -0.044323266 -0.00018918744
000310 ce 22 ba 3d ef 6e 25 bc 65 c9 43 3b c7 8f 9f 39
       0.0908867 -0.010097249 0.002987468 0.00030433966
000320 ab e9 5f 3d d0 d8 eb 3c 2e 0b 82 3d b9 a9 77 3d
       0.054666203 0.028789908 0.063497886 0.060464595
000330 1c b8 52 bd 2d 70 8b 3d f8 e6 6f bc 85 fe 47 bb
       -0.05144511 0.06808505 -0.01464247 -0.0030516696
000340 e7 c9 b3 3d c8 08 95 3d 29 33 52 bd af 71 a8 bd
       0.08778744 0.072770655 -0.05131832 -0.082248084
000350 78 57 6e bd 2f 9f b9 3d a9 2a 2a bd 30 66 46 3c
       -0.058188885 0.09063565 -0.04154459 0.012109324
000360 73 79 89 3d 52 e4 b1 3d dd 50 42 bd 65 18 22 3d
       0.06712618 0.08686127 -0.0474404 0.039574046
000370 48 16 d8 3d 17 51 56 3d 94 2f 74 bc 26 32 3c bd
       0.10551125 0.052323427 -0.014903922 -0.045946263
000380 6e 5b 1a 3d eb 02 74 3c 2a 2a 45 3d b3 d2 7c bd
       0.03768485 0.014893274 0.048135914 -0.061724376
000390 0c 4f 38 bd 0c 7e 19 bc f6 25 a8 bd b2 a4 71 bd
       -0.04499726 -0.009368431 -0.082103655 -0.058994956
0003a0 83 48 dc bc f0 f2 6e 3d a9 70 c4 bd d5 24 a1 bd
       -0.026890045 0.058337152 -0.09591801 -0.07868353
0003b0 be 6a be bc 9f 53 65 3d 53 1c 1a bd 34 f6 78 bd
       -0.023244258 0.05598795 -0.03762467 -0.060781673
0003c0 15 33 80 3d 72 9b b9 bd 52 0d 2f bc fe 80 81 3d
       0.06259743 -0.09062852 -0.010684328 0.063234314
0003d0 11 ce 45 3d 1d 70 07 bd 49 14 f2 bc 2e b5 0d 3d
       0.048292223 -0.033065904 -0.029550688 0.034596615
0003e0 a7 ef 85 3c c4 90 cb 3c 65 d8 9e bd ac 39 8d bc
       0.016349627 0.024849303 -0.07756118 -0.017239414
0003f0 16 c7 52 bd 3c c2 83 3d e3 d5 94 3d 4e be d6 bc
       -0.051459394 0.06433532 0.07267358 -0.026213791

critic.4.bias f4 [128]
000000 2e a8 dc 3a ba 4e b2 bd f4 91 58 bc 17 f0 e5 bc
       0.001683479 -0.08706422 -0.013218392 -0.028068585
000010 0b da 41 bc 8a 5e ff 3c ff 6a 84 bd 6a f0 1b 3d
       -0.011831771 0.03117301 -0.064657204 0.038071074
000020 90 a6 cc bd d7 cf b7 b9 b7 e5 18 3e 37 35 0a 3d
       -0.09992707 -0.00035059333 0.1493138 0.033742156
000030 d4 6c 2b bd b0 12 15 be 47 3f ca 3d 74 56 dd bb
       -0.041851833 -0.1455791 0.098753504 -0.006754691
000040 44 57 b5 3b 4b 33 0f bc 61 aa c1 bd ff bb db 3d
       0.0055340845 -0.008740257 -0.09456325 0.10729217
000050 63 7b 08 be ba a4 dd bd 25 78 8b 3c ac 5f 28 3c
       -0.13328318 -0.10822435 0.017025063 0.010276716
000060 23 67 c6 bd 00 c1 9a 3d c7 1a 91 bd 70 5a ee bc
       -0.096876405 0.07556343 -0.070851855 -0.029095858
000070 63 a4 83 bd 9f 50 6b bd e9 44 3b 3d bb ec 25 bb
       -0.06427839 -0.057449933 0.045720015 -0.0025318104
000080 e7 79 f7 bd 76 9f 84 3c c0 76 d8 bd 4e f9 8d 3c
       -0.12083798 0.016189318 -0.10569525 0.017330792
000090 50 00 02 3c 07 51 4f 3b 56 c6 af bd 41 8d 14 be
       0.007934645 0.003163399 -0.085827515 -0.14507009
0000a0 ee 87 e2 ba 48 a8 a6 3d 56 db 55 bd 6d 84 0c 3e
       -0.0017282942 0.08137566 -0.05221113 0.13722391
0000b0 16 82 4b bd e8 a8 bd 3d a8 35 58 bd fd 29 23 3d
       -0.049684606 0.09260732 -0.052785546 0.039834965
0000c0 52 6a 13 3e 44 ee 8c bd b1 46 0b bd b5 e8 a2 bc
       0.14396027 -0.06881383 -0.034002963 -0.019886354
0000d0 fa ef 38 3d c3 80 ef 3c f9 18 d0 bd 6e 53 aa 3d
       0.045150734 0.029236203 -0.10161013 0.08316694
0000e0 7c 4c ef bd 22 46 37 bd 4e c9 ac bd af 08 eb bd
       -0.1168451 -0.04474462 -0.08436833 -0.11476266
0000f0 a2 16 39 bd 34 67 83 bd 87 28 f0 bd 63 74 39 bd
       -0.0451876 -0.06416169 -0.1172648 -0.04527701
000100 c1 3c f7 bc 38 f4 6b 3d 27 3d 0e be 61 70 13 3e
       -0.030180337 0.057605952 -0.13890515 0.14398338
000110 1b 2d 89 3d ed 5b 81 bd 64 c8 2c be 16 83 02 be
       0.06698056 -0.063163616 -0.16873318 -0.12745318
000120 7b bc 2c bd 58 90 8b bd 3f f3 4a bd 91 24 00 be
       -0.042171936 -0.06814641 -0.049548384 -0.12513949
000130 51 e7 ca bc 28 2f 10 be 0c a0 24 3d 68 d7 07 bd
       -0.024768503 -0.14080489 0.040191695 -0.03316441
000140 51 89 12 be c3 b9 15 be 43 44 c9 bd 6e 52 10 3d
       -0.14310195 -0.14621644 -0.09827473 0.03523486
000150 73 f9 be bd 50 b1 8e 3c 6a 01 b5 3d d5 a7 07 3c
       -0.093249224 0.017418534 0.0883816 0.00827976
000160 bf 36 19 be d4 3c 20 3e 7d 33 41 bd 27 77 15 bc
       -0.1496229 0.15648204 -0.047168244 -0.009122646
000170 37 ea d6 39 36 3a 70 3c 22 99 07 be ed fc 64 bd
       0.00040991764 0.014662316 -0.1324201 -0.05590527
000180 28 16 71 bd 18 d6 84 bd c9 22 d9 3d 1e b9 98 3d
       -0.05885902 -0.06486148 0.10602338 0.07457183
000190 2b 8e 65 3d 60 1b 0b bd 47 43 aa bd 8b 1a 1c bc
       0.056043785 -0.033961654 -0.083136134 -0.009527813
0001a0 70 2b 52 bd a7 fb 1f bd 64 08 96 3c 1c c9 f2 3d
       -0.051310956 -0.039058354 0.018314548 0.11854765
0001b0 80 92 d3 3c a9 67 1e 3c e0 85 5c bc 76 52 af bc
       0.025826693 0.009668269 -0.013459653 -0.021401625
0001c0 48 5e a4 3c b4 a9 f5 bd e4 5b eb bc 74 92 11 3e
       0.020064488 -0.11995259 -0.02873034 0.14216024
0001d0 61 80 1f be 49 3d 0c be da d8 5c bc 3d a4 05 be
       -0.15576316 -0.13695253 -0.013479436 -0.13050933
0001e0 93 fd 74 bc 40 ed b4 bd 48 24 68 3d 9d b4 bb bd
       -0.014953035 -0.08834314 0.056675225 -0.091653086
0001f0 bb d5 ee 3d 9f a5 d1 3c 74 62 9c 3d 59 56 73 3b
       0.116618596 0.02559167 0.07635966 0.0037130325

critic.6.weight f4 [1, 128]
000000 00 82 5b be dd 84 8f be c2 ac a0 3e 80 db 99 be
       -0.2143631 -0.28031054 0.31381804 -0.30050278
000010 60 83 77 be 08 c1 93 be 47 07 64 3e 8b 36 8f be
       -0.2417121 -0.2885821 0.22268401 -0.279713
000020 c3 9b 81 be 8b 0a 57 3e 7c a4 54 3e 72 1a 8d be
       -0.2531415 0.21000116 0.20765871 -0.2755924
000030 97 78 96 3e 79 4b 8a be 7d 3c 6a 3e 02 58 4d 3e
       0.29388878 -0.27010706 0.22874637 0.20053104
000040 e2 45 8a be 09 cd 8e 3e fb 70 92 be 21 99 64 3e
       -0.2700644 0.27890804 -0.28601822 0.22324039
000050 b3 10 5e be 5a 50 82 be 17 f5 81 be ca 49 8b be
       -0.21686058 -0.25451928 -0.253823 -0.27204734
000060 67 7c 98 be 32 68 77 3e b3 a3 8f be 0e 78 85 be
       -0.2978241 0.24160841 -0.2805458 -0.26068157
000070 c2 22 a1 be a1 16 82 be 1e 34 90 3e 65 a3 49 3e
       -0.3147183 -0.2540789 0.28164762 0.19691236
000080 fd 17 80 be 55 f3 62 3e 15 16 8d be 90 03 5f 3e
       -0.25018302 0.22163136 -0.2755591 0.21778703
000090 d7 c1 82 be bb 1a 86 be 41 84 77 be 45 71 8a be
       -0.25538513 -0.2619227 -0.24171545 -0.27039543
0000a0 7a b5 89 be 36 08 93 3e 6f be 63 be 95 57 90 3e
       -0.26896268 0.28717202 -0.22240613 0.2819182
0000b0 52 9d 97 3e a6 e3 8f 3e e0 23 82 3e da 85 96 be
       0.29612213 0.2810337 0.25417995 -0.29398996
0000c0 8f 1b 5a 3e 7a 60 73 be 01 33 5f 3e cc c8 68 3e
       0.21299575 -0.23767272 0.217968 0.22732848
0000d0 da 73 83 3e 93 4d 8c 3e 50 ae 89 be ef ae 95 3e
       0.25674325 0.27402934 -0.26890802 0.29235026
0000e0 ad 79 65 be d6 3f 8a be c6 f4 94 be 63 a6 4f be
       -0.22409697 -0.27001828 -0.29092997 -0.20278315
0000f0 7d b9 71 be 33 af 95 be 8c 0c 92 be a1 bc 88 be
       -0.23605914 -0.2923523 -0.28525198 -0.26706412
000100 f4 7c 98 be 2e 82 89 3e d8 dd 89 be 7d 7e 92 3e
       -0.29782832 0.26857132 -0.26927066 0.28612128
000110 d1 43 96 3e ca 13 66 be 7e 45 71 be 6c 75 8a be
       0.29348615 -0.22468486 -0.23561665 -0.2704271
000120 29 29 90 3e 6d f1 87 be 49 0e 91 be d7 e5 59 be
       0.28156403 -0.2655138 -0.2833121 -0.21279083
000130 82 09 90 3e b7 33 6f be 18 cd 6f be de 69 6c 3e
       0.28132254 -0.23359571 -0.23418081 0.2308726
000140 91 c0 60 be c1 66 8d be 53 7d 85 be dd 0a 96 be
       -0.21948458 -0.27617458 -0.26072177 -0.29305163
000150 59 30 80 be 2d d5 7c 3e cb 99 94 3e 36 3a 9a 3e
       -0.25036886 0.24690695 0.29023585 0.30122536
000160 1e b9 96 be 85 6d 65 3e 55 9a 92 be fa 4c 72 be
       -0.29438108 0.2240506 -0.2863337 -0.23662177
000170 db 9e 6f be 66 2a 76 be 63 8d 6d be 8e 1f 94 be
       -0.23400442 -0.24039611 -0.23198466 -0.28930324
000180 c2 a6 62 be 5c 5f 7e 3e 4d 3f 84 3e 5c 59 a0 3e
       -0.22133926 0.24841064 0.25829545 0.31318176
000190 e4 d6 95 be 99 31 49 be 5d e3 85 be 55 7c 8f be
       -0.2926551 -0.19647826 -0.26150027 -0.28024545
0001a0 a8 6b 84 be f1 f1 4d 3e 27 f5 6a 3e 6b 89 8e 3e
       -0.25863385 0.20111825 0.2294508 0.27839217
0001b0 c6 db 90 3e e3 c3 51 be 8e eb 6a be 5d 47 91 be
       0.28292674 -0.20484881 -0.2294142 -0.28374758
0001c0 d7 cd 85 be 01 bd 76 be 82 e6 85 be 3b 01 76 3e
       -0.26133606 -0.24095537 -0.26152426 0.24023907
0001d0 17 3d 5c be fd dd 90 be aa 9a 7c 3e 36 30 8e be
       -0.21507679 -0.28294364 0.24668375 -0.27771157
0001e0 a4 03 50 3e 56 2a 64 be 68 6c 9f be b1 fa 95 be
       0.20313889 -0.22281775 -0.31137395 -0.29292825
0001f0 f8 da 66 3e 09 5e 95 be a6 de 8f 3e e6 31 9f be
       0.22544467 -0.29173306 0.28099555 -0.31092757
