ippo_algorithm/checkpoints/ppo_actor_0num_agent_exp_3_run_0_catmouse.pth (torch, 151832 bytes, 8 tensors)

actor.0.weight f4 [128, 21]
-0.093448125 0.07028381 0.111129805 -0.16650406 0.013652406 -0.10154 0.10108594 -0.14528583
-0.07258386 0.024611833 0.22690159 -0.12884396 -0.05649581 -0.17762423 -0.10637774 0.11307739
0.0042690923 -0.14240889 -0.07705248 -0.056388356 0.04891964 -0.15183531 -0.13715644 -0.104985856
0.19601703 0.041975874 0.071364015 -0.14797744 0.14840135 0.116349794 0.07078928 0.0953571
-0.18765223 0.11902672 -0.060066078 -0.27382702 0.25920284 0.10216353 0.028879868 0.018162046
-0.09314424 -0.08688699 -0.18995966 0.06946202 -0.06866755 -0.038841743 -0.03471281 0.05152854
0.13408609 0.04586234 0.10590669 0.12512171 0.15043896 -0.14493224 0.22711319 -0.14450824
-0.10362131 0.13808656 -0.06515775 0.02448631 0.19399314 -0.072738506 0.19613302 -0.19010505
-0.017257093 -0.027412385 -0.16869892 0.0037117673 0.1416677 -0.18896875 0.22357942 0.12668177
-0.06968792 -0.032291725 -0.049808796 -0.03843947 0.12703298 0.18655658 -0.2627566 0.09908266
-0.049741548 0.1746092 -0.12157478 0.1714663 -0.0953795 -0.022925682 -0.103233606 -0.13989277
-0.0676251 0.053790327 -0.023043877 -0.19081725 0.11181415 -0.0912057 0.17296682 0.14489508
0.081362486 -0.19717772 -0.18412274 0.12955496 0.13057882 -0.11669311 -0.0006442368 -0.11588136
0.20509513 -0.09702109 -0.05014283 -0.17241108 -0.19341937 -0.17647326 -0.04920624 -0.19988467
-0.074951656 0.0059101307 -0.077274665 0.045925066 -0.22165005 0.09127871 -0.09959826 -0.24782608
-0.004813093 0.17265093 -0.17053607 0.09462216 -0.15521489 0.17449285 0.13707492 -0.1997308
-0.1620721 -0.14971916 -0.07038676 0.06481425 0.010327707 -0.20472728 0.08578278 0.17749539
-0.13712977 0.21063533 -0.005079263 0.028896786 -0.28309545 -0.19586346 -0.0074548884 -0.2389641
-0.11528971 0.12804517 -0.108749546 -0.07775949 -0.13509016 -0.16473266 -0.00054395874 0.0965382
0.050228097 -0.011192072 -0.19947787 0.19983189 -0.10632699 -0.10125354 0.009568181 0.18655701
0.0701571 -0.140292 0.14279377 0.10182692 -0.19490781 0.18319096 -0.11481538 0.16530092
-0.12724149 -0.122231066 -0.10296918 -0.12694235 0.19040121 -0.02028169 0.12368714 0.109330125
0.12722771 0.060026962 -0.28916946 0.11804768 0.12656967 -0.053383827 -0.1318743 -0.059301183
0.23005512 0.22138542 -0.14695038 0.10744777 -0.056009907 0.08468021 -0.16187999 0.074836284
-0.13103372 -0.07386757 -0.12214643 -0.002707847 0.23316997 -0.14298478 0.107800476 0.12512885
0.12726212 -0.20511244 0.1454458 0.26061606 -0.08324555 -0.033489548 0.20351753 -0.055732504
0.0039803195 -0.036216967 -0.18296336 0.1972627 0.04319123 0.17287628 -0.073346935 -0.076281235
0.021456106 -0.15478097 0.025076322 -0.040634185 -0.14437643 -0.14584866 -0.079277106 -0.15313458
-0.028986242 -0.21998772 -0.19265626 0.22394504 0.15700886 0.04302399 -0.036794573 0.12516019
-0.022168458 0.07118478 -0.09779688 0.09975061 0.08748063 -0.16201979 -0.08270383 -0.11395065
-0.07398877 -0.0767474 0.07349096 -0.26075745 -0.15873212 0.26899356 -0.22947876 0.1310293
0.016826669 0.021539498 0.1206627 -0.18982194 -0.033961024 -0.09051292 -0.20485464 -0.20503454
00000000: bb61 bfbd f5f0 8f3d 0698 e33d 0a80 2abe
00000010: 57ae 5f3c 34f4 cfbd 2506 cf3d cfc5 14be
00000020: d9a6 94bd c19e c93c e458 683e acef 03be
00000030: 2768 67bd 20e3 35be 93dc d9bd 1e95 e73d
00000040: bee3 8b3b a3d3 11be b1cd 9dbd 7af7 66bd
00000050: f65f 483d b77a 1bbe bd72 0cbe d302 d7bd
00000060: b0b8 483e e5ee 2b3d 4c27 923d 6687 17be
00000070: 86f6 173e cd48 ee3d f8f9 903d 954a c33d
00000080: e827 40be 48c4 f33d d907 76bd 0e33 8cbe
00000090: 3cb6 843e 1d3b d13d 7995 ec3c 92c8 943c
000000a0: 68c2 bebd cef1 b1bd c984 42be 1b42 8e3d
000000b0: 93a1 8cbd 8518 1fbd 052f 0ebd 970f 533d
000000c0: dd4d 093e 26da 3b3d 9be5 d83d e81f 003e
000000d0: ac0c 1a3e 1e69 14be 5c90 683e f8f9 13be
000000e0: 6937 d4bd 9066 0d3e 6d71 85bd 8497 c83c
000000f0: 23a6 463e edf7 94bd 18d7 483e e6aa 42be
00000100: bf5e 8dbc f08f e0bc 69bf 2cbe 1f41 733b
00000110: 5611 113e 0681 41be 01f2 643e deb8 013e
00000120: 8ab8 8ebd 5444 04bd 4f04 4cbd b572 1dbd
00000130: ef14 023e b008 3f3e 0888 86be daeb ca3d
00000140: cbbd 4bbd c1cc 323e 33fc f8bd dd94 2f3e
00000150: 5456 c3bd a4ce bbbc 246c d3bd 0d40 0fbe
00000160: 077f 8abd 3f53 5c3d 83c6 bcbc 9965 43be
00000170: d1fe e43d 0eca babd 371e 313e 605f 143e
00000180: 60a1 a63d f5e8 49be ac8a 3cbe 0eaa 043e
00000190: 74b6 053e ccfc eebd 00e2 28ba 3553 edbd
000001a0: 7504 523e feb2 c6bd 9162 4dbd 888c 30be
000001b0: ba0f 46be 68b5 34be 7b8c 49bd 91ae 4cbe
000001c0: 4180 99bd c5a9 c13b 2e42 9ebd ec1b 3c3d
000001d0: 3bf8 62be 55f0 ba3d 2cfa cbbd 1fc6 7dbe
000001e0: 27b7 9dbb 68cb 303e 02a1 2ebe 43c9 c13d
000001f0: a7f0 1ebe 41ae 323e 5e5d 0c3e 3b86 4cbe
00000200: 3bf6 25be fb4f 19be ef26 90bd 55bd 843d
00000210: 8b35 293c 07a4 51be e2ae af3d 5ac1 353e
00000220: bf6b 0cbe cab0 573e f26f a6bb f4b8 ec3c
00000230: e3f1 90be 6e90 48be 2348 f4bb 01b3 74be
00000240: 031d ecbd 461e 033e 15b8 debd 5e40 9fbd
00000250: 1355 0abe aeaf 28be 7498 0eba d2b5 c53d
00000260: fabb 4d3d f45e 37bc ed43 4cbe bba0 4c3e
00000270: f7c1 d9bd 045e cfbd dcc3 1c3c cd08 3f3e
00000280: 87ae 8f3d b5a8 0fbe 8838 123e a28a d03d
00000290: ea95 47be 6996 3b3e 5324 ebbd a544 293e
000002a0: 984b 02be 4854 fabd 81e1 d2bd 2dfd 01be
000002b0: 89f8 423e c925 a6bc af4f fd3d 79e8 df3d
000002c0: fb47 023e d5de 753d 050e 94be fbc2 f13d
000002d0: 7b9b 013e 00a9 5abd 0e0a 07be cce5 72bd
000002e0: 9293 6b3e dcb2 623e 297a 16be 940d dc3d
000002f0: a56a 65bd d16c ad3d dec3 25be c443 993d
00000300: b42d 06be e147 97bd e827 fabd 2276 31bb
00000310: 1cc4 6e3e 9a6a 12be 7fc6 dc3d c721 003e
00000320: 0051 023e ff08 52be beef 143e 786f 853e
00000330: a57c aabd 562c 09bd e666 503e c447 64bd
00000340: 576d 823b 3e58 14bd bf5a 3bbe 3cff 493e
00000350: 4ae9 303d 7b06 313e eb36 96bd 5639 9cbd
00000360: b7c4 af3c e77e 1ebe dc6c cd3c 0870 26bd
00000370: 6ad7 13be 5a59 15be 095c a2bd 50cf 1cbe
00000380: 8e74 edbc 7644 61be af47 45be d951 653e
00000390: eec6 203e ec39 303d e8b5 16bd fe29 003e
000003a0: a09a b5bc 53c9 913d bb49 c8bd 0c4a cc3d
000003b0: 0b29 b33d 84e8 25be a060 a9bd f55e e9bd
000003c0: 6d87 97bd be2d 9dbd 6e82 963d 0082 85be
000003d0: ac8a 22be 86b9 893e 7bfc 6abe 8b2c 063e
000003e0: 15d8 893c 9a73 b03c 011e f73d af60 42be
000003f0: b71a 0bbd d65e b9bd 6ac5 51be 93f4 51be

actor.0.bias f4 [128]
0.17610322 0.103903815 0.029496813 0.071295425 -0.20332955 0.13344762 0.17828296 0.0062568174
-0.14742167 -0.074156925 -0.0071400506 -0.0529094 -0.004182604 -0.09925021 -0.029847188 0.08646386
0.10202388 0.0033123994 -0.13986969 -0.12208693 -0.23248975 0.21384077 -0.03194246 0.20273186
0.1414148 0.11743025 0.21346092 -0.1391342 -0.0044998713 0.119290225 0.13266598 -0.16395542
0.036225915 0.14672193 0.14369099 0.019153072 -0.19780205 -0.04461015 0.17091209 -0.2098465
0.045106698 -0.17779602 -0.13459812 -0.06891145 0.12405799 0.07875898 -0.030934326 -0.15850428
0.06704471 0.1131986 -0.024112426 0.16755106 0.092071205 -0.041014545 -0.018453514 0.17360717
0.25392282 -0.18720707 -0.20808381 -0.08563506 0.10565872 -0.15901214 -0.049219854 0.16772291
-0.06277898 0.0008852874 0.13935588 0.09928753 -0.12072626 0.04543603 -0.1989484 -0.12558362
-0.009806871 0.23994137 0.008902098 -0.054703765 -0.013354637 0.11349242 0.1434356 -0.010555106
0.110583745 -0.17576441 0.0546012 0.11404098 -0.1578823 -0.03745086 0.02193778 0.14494209
-0.1597273 0.17530195 0.0773355 0.05239628 -0.079233244 -0.06846761 0.18419974 -0.07139192
0.12688415 0.19031395 0.07526913 0.00029053184 0.07079121 0.081068136 -0.13213001 -0.17542626
0.023434794 0.05116669 0.14372516 0.18735252 0.04144842 0.08066477 0.007893096 -0.14829889
-0.21102124 0.04734307 -0.1239318 -0.010696563 -0.054283768 0.012934059 -0.14520018 0.090704076
0.08317394 -0.08668384 -0.04445444 -0.11120395 0.1846195 0.22807293 0.17497815 -0.029580288
00000000: 6754 343e 86cb d43d 4da3 f13c 5603 923d
00000010: 9f35 50be 7ea6 083e cf8f 363e fd05 cd3b
00000020: b5f5 16be 96df 97bd 16f7 e9bb 87b7 58bd
00000030: 3a0e 89bb b243 cbbd 1782 f4bc f713 b13d
00000040: e5f1 d03d d714 593b 003a 0fbe b608 fabd
00000050: cb11 6ebe 13f9 5a3e 19d6 02bd f198 4f3e
00000060: 0bcf 103e 457f f03d 8095 5a3e 3279 0ebe
00000070: a873 93bb 6f4e f43d 97d9 073e eee3 27be
00000080: a061 143d 463e 163e bb23 133e e7e6 9c3c
00000090: 9f8c 4abe 22b9 36bd 9403 2f3e 00e2 56be
000000a0: cdc1 383d 2910 36be 17d4 09be 7221 8dbd
000000b0: 1e12 fe3d 634c a13d fc69 fdbc f24e 22be
000000c0: bd4e 893d abd4 e73d 6c87 c5bc 8192 2b3e
000000d0: d48f bc3d defe 27bd d32b 97bc 14c6 313e
000000e0: 2c02 823e 36b3 3fbe ec13 55be 6f61 afbd
000000f0: 9963 d83d 14d4 22be c29a 49bd 8ebf 2b3e
00000100: 4492 80bd a212 683a 4fb3 0e3e 4357 cb3d
00000110: 543f f7bd 211b 3a3d 21b9 4bbe fe98 00be
00000120: 00ad 20bc 31b3 753e 1bda 113c 0e11 60bd
00000130: 68cd 5abc b76e e83d c8e0 123e 53ef 2cbc
00000140: bb79 e23d 96fb 33be 82a5 5f3d 518e e93d
00000150: e6ab 21be 1366 19bd dcb6 b33c b36b 143e
00000160: 8e8f 23be 5b82 333e 1362 9e3d 7b9d 563d
00000170: 0a45 a2bd bf38 8cbd db9e 3c3e ed35 92bd
00000180: ebed 013e a9e1 423e b426 9a3d 8652 9839
00000190: fbfa 903d 0d07 a63d 174d 07be f1a2 33be
000001a0: 53fa bf3c 2a94 513d b02c 133e 57d9 3f3e
000001b0: d2c5 293d 9233 a53d 0b52 013c aadb 17be
000001c0: f415 58be cfea 413d f5cf fdbd a340 2fbc
000001d0: a858 5ebd 60e9 533c 5baf 14be 0fc3 b93d
000001e0: 1957 aa3d 4c87 b1bd dc15 36bd e6be e3bd
000001f0: e50c 3d3e f38b 693e 792d 333e 5c52 f2bc

actor.2.weight f4 [128, 128]
0.07137855 -0.036181714 0.02207132 -0.109038375 0.007799983 0.05131355 0.055186357 -0.0005304648
-0.100936316 0.036347616 -0.051033884 0.04043193 0.023861418 -0.09234492 0.05288631 -0.09872423
0.07253515 -0.13850042 0.07449419 -0.023497347 0.124647945 -0.011011362 -0.04850943 0.042790737
-0.015241739 -0.040047314 -0.0040847207 -0.029991694 0.0061035864 -0.0007014304 0.049668387 -0.002635016
-0.054497864 0.022757124 0.05870894 -0.110577695 0.038682602 0.0641578 0.089855045 0.045548037
-0.079940856 -0.014571803 0.06963172 -0.021882132 0.045062657 -0.020149488 -0.08618516 0.13997859
0.04907956 0.056088842 0.03787402 0.13439727 0.031746455 0.031333957 -0.06307697 -0.04748547
-0.0057807267 -0.05375323 0.007981223 0.051026333 -0.010067775 0.19846316 0.032673102 -0.080717176
0.06931085 0.032286108 -0.1023261 0.063176796 0.008567381 0.015273362 -0.06340937 0.017975286
0.070545815 -0.110214666 -0.10939036 0.020374307 -0.04164412 -0.026383242 0.052062612 0.058575496
0.083592474 0.007894585 0.00544844 -0.024099149 0.016221797 -0.026363652 0.018743742 -0.0955145
0.07858138 0.008475983 0.03459382 -0.08069401 0.024185752 0.11648779 0.057671845 0.0020494359
0.029004047 -0.12576176 0.074058786 -0.10583802 0.029682184 -0.104499 -0.03735003 0.05675892
-0.07679005 -0.0053569064 -0.09432183 -0.13492776 0.03218902 -0.090870224 -0.09629713 -0.043805763
0.009048802 0.07111124 0.07217918 -0.14036736 -0.05149266 0.06715307 -0.02412489 -0.015558341
0.025720702 -0.039052363 0.043439236 0.00536094 -0.06849345 0.048873752 0.07126789 -0.05000434
-0.100622885 -0.08806282 -0.094752796 -0.016491909 0.018928861 -0.10442147 -0.058778767 0.06073372
-0.023504911 -0.07692852 0.02927871 -0.026426122 -0.036182478 -0.052342754 -0.05925239 -0.03920245
-0.11526712 -0.031262055 0.07088633 0.052868854 -0.096060865 -0.012449829 -0.034908656 -0.069046415
0.010827622 -0.04600813 0.018502953 0.0143445525 0.04255009 0.009820265 -0.069575064 0.101056166
-0.08352975 -0.031539336 -0.039177667 0.0043299776 0.04681082 0.032467697 -0.049849175 0.16019325
0.0063147717 -0.0570668 0.059181243 -0.0154697215 0.081454776 -0.008148316 -0.029930223 0.009802287
0.03865294 0.062087063 0.07849852 0.034170464 0.09113152 0.0016828388 0.062821835 0.10926082
0.001355982 -0.08173398 0.026648164 -0.044236686 -0.06976927 -0.10420015 -0.043572787 -0.05222701
-0.010850908 -0.11061206 -0.0755338 0.111938104 0.045207616 0.098958746 -0.067104936 -0.059220344
-0.048621617 -0.04497015 0.058359824 -0.01097777 -0.014935644 -0.07604662 -0.021416951 -0.07457474
-0.09610421 -0.10264133 0.041837074 0.073154196 0.056360357 -0.05705113 0.039304275 0.08316986
0.056606423 -0.07044515 -0.01608015 0.011674047 -0.022683274 -0.07781202 0.007916423 0.09101548
0.021360636 0.019931294 -0.0699522 0.08694283 0.08716892 0.10953223 0.088960886 -0.06690019
0.028059743 0.07559586 0.047808044 0.16049129 -0.09664703 -0.1067597 0.07288389 0.04588987
0.015666075 0.019770388 0.07102607 0.02164021 -0.024330119 -0.027003216 -0.09055927 0.0011990131
0.053662118 -0.063660376 -0.09606539 -0.0035618641 0.11094332 0.08167018 -0.025356226 -0.08660344
00000000: eb2e 923d 4733 14bd eace b43c 834f dfbd
00000010: 0097 ff3b 282e 523d 170b 623d e40e 0bba
00000020: b3b7 cebd 3de1 143d e808 51bd f49b 253d
00000030: 0579 c33c 551f bdbd 519f 583d ee2f cabd
00000040: 4f8d 943d 0ed3 0dbe 6990 983d 827d c0bc
00000050: 6c47 ff3d 0069 34bc d3b1 46bd 5745 2f3d
00000060: 7db8 79bc a708 24bd 1fd9 85bb 24b1 f5bc
00000070: 9800 c83b 33e0 37ba 1471 4b3d 3cb0 2cbb
00000080: 2739 5fbd 266d ba3c c978 703d 8f76 e2bd
00000090: a671 1e3d 2a65 833d ec05 b83d 9490 3a3d
000000a0: 08b8 a3bd 92be 6ebc 139b 8e3d 2842 b3bc
000000b0: 9f93 383d 8a10 a5bc d881 b0bd 8c56 0f3e
000000c0: a607 493d 6abd 653d ca21 1b3d 709f 093e
000000d0: 9208 023d 0958 003d 802e 81bd 2080 42bd
000000e0: 406c bdbb 592c 5cbd adc3 023c fd00 513d
000000f0: 4ff3 24bc ed39 4b3e 3bd4 053d 0c4f a5bd
00000100: d9f2 8d3d 703e 043d 5990 d1bd d662 813d
00000110: 335e 0c3c 203d 7a3c c6dc 81bd e840 933c
00000120: 537a 903d 3ab8 e1bd 0e08 e0bd 05e8 a63c
00000130: 0693 2abd ab21 d8bc 9b3f 553d dcec 6f3d
00000140: 8832 ab3d 4a58 013c d488 b23b 946b c5bc
00000150: 93e3 843c 96f8 d7bc 7a8c 993c 1b9d c3bd
00000160: 46ef a03d d9de 0a3c 40b2 0d3d e742 a5bd
00000170: 3321 c63c 2791 ee3d 5039 6c3d d44f 063b
00000180: e599 ed3c b1c7 00be 22ac 973d 9bc1 d8bd
00000190: 0d28 f33c 9203 d6bd 58fc 18bd 0b7c 683d
000001a0: 1a44 9dbd fd88 afbb ce2b c1bd 812a 0abe
000001b0: a2d8 033d 2b1a babd 6e37 c5bd ac6d 33bd
000001c0: 6d41 143c c5a2 913d aed2 933d 76bc 0fbe
000001d0: f8e9 52bd 8c87 893d 90a1 c5bc 69e8 7ebc
000001e0: 39b4 d23c 5ff5 1fbd 57ed 313d d3aa af3b
000001f0: 4b46 8cbd d82f 483d e6f4 913d 5ad1 4cbd
00000200: 5f13 cebd 485a b4bd c10d c2bd 0a1a 87bc
00000210: b310 9b3c ecda d5bd 01c2 70bd ecc3 783d
00000220: 5f8d c0bc b38c 9dbd e8d9 ef3c 987b d8bc
00000230: 1434 14bd 5b65 56bd a2b2 72bd c092 20bd
00000240: 2b11 ecbd a40c 00bd da2c 913d 038d 583d
00000250: 8fbb c4bd 5efa 4bbc 61fc 0ebd 3568 8dbd
00000260: 5766 313c 0573 3cbd 8193 973c 6a05 6b3c
00000270: 0149 2e3d 2de5 203c 5f7d 8ebd 89f6 ce3d
00000280: a511 abbd 642f 01bd c378 20bd 7ce2 8d3b
00000290: b4bc 3f3d d9fc 043d a62e 4cbd b309 243e
000002a0: 25ec ce3b e0be 69bd 0868 723d b774 7dbc
000002b0: c3d1 a63d 8480 05bc 3a30 f5bc c699 203c
000002c0: 8c52 1e3d 014f 7e3d d5c3 a03d 54f6 0b3d
000002d0: 2aa3 ba3d b392 dc3a bca8 803d 23c4 df3d
000002e0: 35bb b13a 2564 a7bd 404d da3c 8731 35bd
000002f0: 31e3 8ebd e366 d5bd 6179 32bd fdeb 55bd
00000300: 02c8 31bc 9388 e2bd 77b1 9abd ce3f e53d
00000310: 9f2b 393d e2aa ca3d 506e 89bd 0891 72bd
00000320: 7627 47bd 9f32 38bd b60a 6f3d 1bdc 33bc
00000330: a2b4 74bc 55be 9bbd 9a72 afbc a4ba 98bd
00000340: 49d2 c4bd 9e35 d2bd 5a5d 2b3d ded1 953d
00000350: 1eda 663d 72ae 69bd 85fd 203d f654 aa3d
00000360: 23dc 673d 8c45 90bd 85ba 83bc 8144 3f3c
00000370: 46d2 b9bc e95b 9fbd e2b3 013c 5366 ba3d
00000380: 80fc ae3c f446 a33c 1943 8fbd 150f b23d
00000390: 9e85 b23d 6f52 e03d 2031 b63d f802 89bd
000003a0: 8cdd e53c 01d2 9a3d 5ed2 433d d457 243e
000003b0: e1ee c5bd d4a4 dabd 2644 953d 04f7 3b3d
000003c0: 2456 803c 82f5 a13c 1e76 913d cf46 b13c
000003d0: f54f c7bc d935 ddbc 2377 b9bd 3428 9d3a
000003e0: cfcc 5b3d 5f60 82bd eebd c4bd 2a6e 69bb
000003f0: 4036 e33d b242 a73d dcb7 cfbc 255d b1bd

actor.2.bias f4 [128]
0.017141486 -0.0023771285 -0.06553954 -0.080544285 -0.03472276 0.02966091 0.00023936211 0.0064485148
0.044481963 0.04145246 0.07394341 -0.057489038 -0.057677865 0.012630996 0.058325868 0.022060942
-0.05171413 -0.07631591 0.0234093 0.02799115 -0.0030729845 -0.033076636 0.057424948 0.07540488
-0.049396105 -0.033295713 -0.012059418 -0.02201349 -0.03333112 0.09620438 -0.06670645 -0.05573549
0.061283793 -0.011502633 -0.019996956 -0.0007096361 0.037443798 0.03619702 0.027271569 -0.09056902
0.054769445 -0.041267887 -0.004302307 0.051989786 0.07683558 0.06957516 0.019233307 -0.018790446
-0.025907584 -0.046651766 -0.036537435 0.030906904 -0.08047287 -0.010083457 0.07727963 -0.026029889
-0.04818839 2.095267e-05 -0.04511307 0.05858065 0.06937965 -0.033199266 -0.026470158 -0.0130621055
0.023083724 0.006551295 0.024315743 -0.031401858 -0.007842528 0.03416742 0.08790897 -0.051274773
-0.03992462 0.08976904 0.012221448 0.053677548 -0.0037221354 0.045822673 0.009164666 0.041585665
-0.05015793 0.03399385 -0.08701217 -0.022034964 -0.05259861 -0.07867311 -0.053776693 0.015113339
0.048766177 0.002539442 -0.048955362 -0.0078073777 0.028468871 0.0043686135 0.092717215 0.04268897
0.05591156 0.061139215 -0.04815599 0.009300058 -0.07644821 0.039573465 0.018576285 -0.009105663
-0.06374678 0.011822306 -0.039948046 -0.069567904 0.06966885 0.0061841826 -0.063818656 0.03143767
0.049448457 -0.046600055 -0.060618903 0.013945212 0.032675125 -0.03637285 0.06296582 -0.0013388597
-0.08963713 -0.045076612 0.028873855 -0.005674185 -0.017704822 -0.046770778 0.055062525 -0.06581043
00000000: 4d6c 8c3c 99c9 1bbb 9839 86bd 67f4 a4bd
00000010: 7439 0ebd 70fb f23c 47fd 7a39 104e d33b
00000020: b832 363d 0eca 293d a46f 973d a079 6bbd
00000030: a03f 6cbd 3df2 4e3c 1be7 6e3d 26b9 b43c
00000040: 32d2 53bd 844b 9cbd dcc4 bf3c b24d e53c
00000050: 2064 49bb 5e7b 07bd 6c36 6b3d e06d 9a3d
00000060: 9253 4abd 1661 08bd dd94 45bc a255 b4bc
00000070: 3686 08bd cd06 c53d 649d 88bd e64a 64bd
00000080: b704 7b3d 8a75 3cbc a8d0 a3bc df06 3aba
00000090: ab5e 193d 5443 143d a068 df3c 407c b9bd
000000a0: ed55 603d 8408 29bd 5efa 8cbb 3ef3 543d
000000b0: f95b 9d3d 6c7d 8e3d 2b8f 9d3c 6cee 99bc
000000c0: 243c d4bc ec15 3fbd 47a8 15bd 7a30 fd3c
000000d0: f6ce a4bd 1635 25bc c844 9e3d a23c d5bc
000000e0: 3061 45bd 84c3 af37 7cc8 38bd 43f2 6f3d
000000f0: eb16 8e3d f4fb 07bd f2d7 d8bc 7102 56bc
00000100: 141a bd3c 3fac d63b cf31 c73c 3c9f 00bd
00000110: f27d 00bc 23f3 0b3d 9e09 b43d 7f05 52bd
00000120: 0088 23bd d5d8 b73d 783c 483c fddc 5b3d
00000130: 12ef 73bb 8eb0 3b3d 6527 163c bb55 2a3d
00000140: 6772 4dbd 233d 0b3d 7033 b2bd ab82 b4bc
00000150: a471 57bd 5e1f a1bd f344 5cbd f09d 773c
00000160: 0bbf 473d c46c 263b 6b85 48bd 08d5 ffbb
00000170: 8d37 e93c 9626 8f3b 86e2 bd3d a1da 2e3d
00000180: 8503 653d 1d6d 7a3d 373f 45bd 455f 183c
00000190: e190 9cbd c917 223d 4b2d 983c eb2f 15bc
000001a0: ac8d 82bd 58b2 413c 90a0 23bd 9e79 8ebd
000001b0: 8bae 8e3d afa4 ca3b 5bb3 82bd c9c4 003d
000001c0: 778a 4a3d b3df 3ebd 874b 78bd 757a 643c
000001d0: 5ad6 053d b3fb 14bd 39f4 803d ad7c afba
000001e0: ac93 b7bd 41a2 38bd dd88 ec3c 84ee b9bb
000001f0: b409 91bc b792 3fbd 3e89 613d 9ec7 86bd

actor.4.weight f4 [128, 128]
0.008059913 0.16145219 -0.044400595 -0.07714637 0.02722494 0.059317153 -0.040304273 -0.018955551
0.001856585 -0.03437607 -0.10042613 -0.07762528 0.0072332933 -0.1330172 -0.021386996 -0.046746567
0.037887756 -0.022999492 0.07929623 0.07480319 -0.086452976 -0.035030946 0.09101386 0.08325203
0.07041515 0.037268955 -0.053999256 -0.010256792 -0.10077345 -0.04261993 0.02343933 0.1537924
-0.0591854 0.07047551 -0.012700033 -0.09185284 0.06178738 0.107475065 -0.12980972 -0.037436645
0.079032995 0.06469755 -0.020661853 0.03474853 0.095180504 0.083305314 0.053640995 0.015462737
0.021917168 -0.0997341 -0.048174363 -0.042792518 0.10355013 0.09133115 -0.0148852235 -0.0044108895
0.018912757 0.041124452 0.08376372 -0.07246845 -0.075223364 0.0660686 0.11845022 0.042590242
0.01576074 0.03278799 -0.039779197 -0.01997592 0.013300806 -0.030581174 -0.07351017 0.038161237
-0.0045209806 -0.026676726 0.10859629 0.04643847 -0.033434253 0.06822047 0.02714394 -0.03929094
0.07511316 -0.036877226 -0.059582405 -0.11659156 0.016708016 0.1092912 0.036553796 0.011797132
-0.07980465 -0.055123378 -0.10909609 0.10350119 -0.085160114 0.0078045116 0.028753856 0.07355898
0.00066877005 -0.054550342 -0.050280422 0.05897107 0.00161369 -0.015698647 -0.05663674 0.00023385446
-0.036548834 -0.0048681325 -0.093672946 0.034180306 -0.047042184 0.04412883 0.08327379 -0.017440256
-0.09698337 0.060878925 -0.10798784 -0.11524354 -0.0022226295 -0.12320898 0.03582397 0.059861086
-0.014961023 0.053191375 -0.04287625 -0.07775133 -0.010908321 0.108370066 0.013081528 -0.047084644
0.038568616 -0.06228648 0.09717072 -0.05733475 0.10798646 -0.026503675 -0.040733308 0.06282383
0.017765565 -0.0059765773 0.041484546 -0.06473096 0.06248808 -0.036545295 -0.04690583 0.04569341
0.11128518 -0.084255144 0.043471705 0.07538711 -0.01136235 0.00033723834 -0.048092168 0.10409821
-0.102387056 -0.05611138 -0.001101791 0.0041047656 0.06518606 -0.003484851 0.033214428 0.04527915
0.028777739 0.036042385 0.036805246 0.036132984 0.056925453 -0.08361668 0.0231256 -0.06798634
-0.027197368 0.0445956 0.06146473 -0.0054824413 0.049889803 0.029952303 0.08490642 0.106745765
-0.06659968 0.07481414 -0.06446928 -0.13534507 0.12414687 0.051270235 0.13142598 -0.015775235
-0.05762515 -0.09258031 0.051038653 -0.11141075 -0.015311262 -0.041367974 -0.03101167 0.023614893
-0.053359147 0.065745674 -0.05303409 0.031613056 0.015169532 -0.019774495 0.07686754 0.06519197
0.0072886366 0.022954252 -0.018154234 -0.09378734 -0.054336585 0.08298317 -0.0044202665 0.079275705
0.0070243496 0.0023844626 -0.11922612 -0.0026561418 0.07981548 0.044461004 -0.05063178 0.060738735
-0.077573486 0.03149734 -0.037461106 0.05964724 0.04267381 0.035949655 -0.028014267 -0.06188064
-0.011394218 0.052271254 0.13345562 0.021562712 0.033960253 0.10052568 -0.019134441 0.029730305
-0.034538254 -0.0073167984 0.012328264 0.007875216 -0.012118409 0.09976018 0.08206686 -0.036896553
-0.029851684 0.011722366 -0.12763977 -0.0017531823 0.11188337 0.031100567 0.046774056 -0.12315977
0.07217935 0.025362993 -0.029471818 0.05363696 0.03790996 0.043748137 0.02896624 -0.066200875
00000000: ba0d 043c b953 253e 66dd 35bd ebfe 9dbd
00000010: d606 df3c 8bf6 723d 1816 25bd ac48 9bbc
00000020: a858 f33a eccd 0cbd 37ac cdbd 01fa 9ebd
00000030: 4305 ed3b a935 08be c833 afbc 5479 3fbd
00000040: 3130 1b3d 6e69 bcbc 1066 a23d 6a32 993d
00000050: 420e b1bd 9c7c 0fbd 7a65 ba3d 0a80 aa3d
00000060: d135 903d 55a7 183d 532e 5dbd 1b0c 28bc
00000070: 5062 cebd 3c92 2ebd d603 c03c c17b 1d3e
00000080: 646c 72bd 7755 903d cd13 50bc 571d bcbd
00000090: c414 7d3d e31b dc3d d7ec 04be 2b57 19bd
000000a0: 0ddc a13d 2680 843d 0c43 a9bc 7954 0e3d
000000b0: ffed c23d fa9b aa3d a9b6 5b3d 6b57 7d3c
000000c0: a28b b33c 6441 ccbd 7b52 45bd 3547 2fbd
000000d0: 1712 d43d d30b bb3d 27e1 73bc 3989 90bb
000000e0: edee 9a3c 1d72 283d 508c ab3d 576a 94bd
000000f0: b50e 9abd f94e 873d 0796 f23d 1b73 2e3d
00000100: ab1c 813c b34c 063d 83ef 22bd 8aa4 a3bc
00000110: a0eb 593c 5f85 fabc 808c 96bd f54e 1c3d
00000120: bc24 94bb 2689 dabc bb67 de3d 4436 3e3d
00000130: 5bf2 08bd 2cb7 8b3d f85c de3c 89ef 20bd
00000140: eed4 993d 930c 17bd ae0c 74bd 8ec7 eebd
00000150: 40df 883c 11d4 df3d 6fb9 153d c248 413c
00000160: 9f70 a3bd 0dc9 61bd c56d dfbd 6ff8 d33d
00000170: 6d68 aebd fdbc ff3b 358d eb3c 17a6 963d
00000180: 6650 2f3a 2e70 5fbd d8f2 4dbd a68b 713d
00000190: 7482 d33a 739a 80bc edfb 67bd d436 7539
000001a0: 3bb4 15bd db84 9fbb 9ad7 bfbd a600 0c3d
000001b0: 4eaf 40bd 6fc0 343d 738b aa3d dede 8ebc
000001c0: 389f c6bd 2e5c 793d bb28 ddbd ce04 ecbd
000001d0: 89a9 11bb fd54 fcbd 28bc 123d e630 753d
000001e0: 141f 75bc 33df 593d 029f 2fbd 173c 9fbd
000001f0: d0b8 32bc 20f1 dd3d e853 563c d4db 40bd
00000200: 20fa 1d3d 1c20 7fbd 7101 c73d d8d7 6abd
00000210: 0128 dd3d 3c1e d9bc f8d7 26bd c8a9 803d
00000220: 1789 913c 2ad7 c3bb b3eb 293d aa91 84bd
00000230: 80f3 7f3d 85b0 15bd 5420 40bd 0329 3b3d
00000240: 7ce9 e33d f68d acbd 630f 323d 8f64 9a3d
00000250: 2629 3abc 5dcf b039 4bfc 44bd 7131 d53d
00000260: 4eb0 d1bd 0cd5 65bd f969 90ba 4581 863b
00000270: 4580 853d 1962 64bb da0b 083d a176 393d
00000280: 4bbf eb3c 2ea1 133d 19c1 163d 2e00 143d
00000290: aa2a 693d 393f abbd e671 bd3c 6c3c 8bbd
000002a0: 04cd debc e0a9 363d 71c2 7b3d 0da6 b3bb
000002b0: 4059 4c3d 885e f53c 6be3 ad3d 869d da3d
000002c0: 6a65 88bd 2838 993d 7808 84bd e697 0abe
000002d0: b740 fe3d bd00 523d 8894 063e 113b 81bc
000002e0: 5908 6cbd bf9a bdbd e80d 513d 522b e4bd
000002f0: 16dc 7abc 7771 29bd 300c febc 0574 c13c
00000300: 1f8f 5abd aba5 863d 463a 59bd b17c 013d
00000310: a189 783c 1ffe a1bc bb6c 9d3d 5e83 853d
00000320: 84d5 ee3b 8e0a bc3c 30b8 94bc 9413 c0bd
00000330: 0a90 5ebd 15f3 a93d e2d7 90bb 4d5b a23d
00000340: 842c e63b a544 1c3b d32c f4bd aa12 2ebb
00000350: 4c76 a33d be1c 363d 4563 4fbd 2ec9 783d
00000360: d9de 9ebd 5b03 013d d170 19bd aa50 743d
00000370: bcca 2e3d f23f 133d 2d7e e5bc 8e76 7dbd
00000380: d0ae 3abc 621a 563d 97a8 083e 49a4 b03c
00000390: e819 0b3d 68e0 cd3d d5bf 9cbc f88c f33c
000003a0: fc77 0dbd c1c1 efbb 7dfc 493c 0d07 013c
000003b0: 4b8c 46bc 114f cc3d ab12 a83d d720 17bd
000003c0: 858b f4bc 2b0f 403c 00b4 02be 09cb e5ba
000003d0: 1c23 e53d 9ec6 fe3c 2796 3f3d 313b fcbd
000003e0: c4d2 933d 0dc6 cf3c e26e f1bc 6eb2 5b3d
000003f0: 7947 1b3d 3f31 333d 9c4a ed3c 5394 87bd

actor.4.bias f4 [128]
-0.012386536 -0.03761516 0.06416558 0.07033446 0.051310748 0.07653508 0.004844532 -0.051552046
-0.06752114 0.043853614 -0.0022275106 -0.030493675 -0.028136974 0.031287163 0.03063211 -0.06955055
-0.001962012 0.057195947 0.073769055 0.052317444 0.03411407 -0.046184447 0.035346586 0.06560909
-0.01966766 0.03214946 -0.07841975 0.0320532 -0.009033815 0.058100488 -0.006762475 0.019865185
0.0003861247 0.012826939 -0.00028116954 0.04360351 0.048699375 -0.03689925 0.0024400908 -0.005278094
0.027888307 0.010750365 0.029905597 0.03260645 0.07423289 0.06384617 0.032265868 0.06117293
0.012430403 0.084127225 0.016598258 0.046266336 0.030552436 0.012397257 -0.008073156 0.020899046
0.01039935 -0.055446234 -0.048741493 0.01036438 0.0017617735 -0.087453686 0.027248822 -0.06803844
-0.0016851806 -0.016609132 0.032404937 -0.06755817 0.057774596 0.075650305 -0.0062384917 0.0008433298
-0.041413717 0.09511599 0.0068177176 -0.030958414 0.0684256 -0.035032153 0.08256655 -0.021146746
-0.06313349 0.024047928 -0.01763506 -0.05961822 0.075669244 -0.018118493 -0.06436048 0.043737493
-0.040836453 0.08083481 0.055023007 0.06590958 0.07080507 -0.009178133 0.020814864 0.02154769
0.017012253 -0.036633216 -0.035802096 -0.06428516 -0.069624454 -0.033081777 0.07616598 0.059970614
-0.034267515 0.008635198 -0.07667495 0.0865785 -0.013571923 0.0103398515 0.017293846 0.008562817
-0.055899773 -0.0062575014 -0.004271718 0.0017990327 0.015154856 -0.08213839 -0.07891351 -0.04336216
0.061704084 -0.09399087 -0.018356577 0.08091979 -0.02168722 -0.05913763 -0.07126628 0.056496736
00000000: e6f0 4abc 5b12 1abd 3e69 833d 830b 903d
00000010: 382b 523d 6dbe 9c3d e1be 9e3b 3d28 53bd
00000020: 8648 8abd d99f 333d 6dfb 11bb dfcd f9bc
00000030: 837f e6bc f826 003d 31f0 fa3c 8570 8ebd
00000040: 1995 00bb 4c46 6a3d 3b14 973d d14a 563d
00000050: 32bb 0b3d e72b 3dbd 95c7 103d 0f5e 863d
00000060: 131e a1bc 27af 033d 899a a0bd 374a 033d
00000070: 9102 14bc c7fa 6d3d c097 ddbb 50bc a23c
00000080: c870 ca39 1528 523c f069 93b9 9899 323d
00000090: ff78 473d ab23 17bd eee9 1f3b ddf3 acbb
000000a0: 0576 e43c 4d22 303c 95fc f43c 578e 053d
000000b0: 6a07 983d c8c1 823d 3729 043d 7790 7a3d
000000c0: e4a8 4b3c e54a ac3d 12f9 873c c581 3d3d
000000d0: 1a49 fa3c dd1d 4b3c 4545 04bc 7a34 ab3c
000000e0: 0962 2a3c 971b 63bd 29a5 47bd 5ccf 293c
000000f0: 4feb e63a eb1a b3bd ec38 df3c bd57 8bbd
00000100: 47e1 dcba e00f 88bc 0abb 043d f05b 8abd
00000110: 0ea5 6c3d 8cee 9a3d 436c ccbb e812 5d3a
00000120: 6ea1 29bd 2ccc c23d 2967 df3b 809c fdbc
00000130: b922 8c3d e07d 0fbd a718 a93d f13b adbc
00000140: 224c 81bd 2900 c53c 6777 90bc 3c32 74bd
00000150: 7af8 9a3d 3c6d 94bc 6dcf 83bd 1626 333d
00000160: 2044 27bd b98c a53d ce5f 613d 9afb 863d
00000170: 4002 913d e15f 16bc ef83 aa3c c884 b03c
00000180: 485d 8b3c b60c 16bd 38a5 12bd f0a7 83bd
00000190: 4497 8ebd c280 07bd e9fc 9b3d bfa3 753d
000001a0: 185c 0cbd a57a 0d3c c207 9dbd 1250 b13d
000001b0: c55c 5ebc 7b68 293c d3ab 8d3c 0f4b 0c3c
000001c0: 29f7 64bd ba0b cdbb c5f9 8bbb 85cd eb3a
000001d0: 134c 783c 2c38 a8bd 689d a1bd 859c 31bd
000001e0: 6cbd 7c3d 497e c0bd 8860 96bc 46b9 a53d
000001f0: 66a9 b1bc 4d3a 72bd 0ef4 91bd 1f69 673d

actor.6.weight f4 [9, 128]
-0.015821751 -0.06768558 0.0043411693 -0.071367554 0.06265463 -0.060505442 -0.09829975 -0.0176012
-0.020860208 -0.04620975 0.017674109 -0.038588315 0.044382147 0.0037877625 -0.011206635 -0.07207833
0.100311846 -0.054786857 0.0720834 0.024924856 0.058593944 0.01941383 0.073568285 0.011742034
0.072862394 -0.02267931 0.08638254 -0.035800558 0.08260786 0.019399818 -0.03105646 0.008799997
-0.037151117 0.041600306 -0.019797292 0.08933142 -0.021995582 -0.07952788 0.10880631 -0.0099122375
-0.029264225 -0.08356622 -0.054820366 -0.016327154 -0.04825263 -0.063737854 -0.03033244 0.019943973
-0.0998298 -0.0514422 -0.062811375 -0.078557484 0.009290903 0.032199524 -0.0065129376 0.08806026
0.07199849 -0.015887478 0.07620996 -0.06891834 0.091385506 0.094091535 -0.03601879 0.010394003
0.043868244 -0.02032995 -0.023114318 -0.017510345 -0.00618325 0.07602977 -0.017714113 0.08023836
0.027707202 -0.05293997 -0.04255302 0.08461321 0.037601765 -0.07435687 -0.09405572 0.08654148
0.0067397356 0.05388169 0.03339439 -0.06805863 -0.039781194 -0.008577845 -0.0022058338 0.049329218
0.024073659 -0.08059475 -0.08556116 0.0054293624 -0.044941176 0.01807718 0.110965654 -0.055111848
0.004433061 0.03124855 -0.04725184 0.04382213 -0.038239498 0.04949493 -0.011629482 0.0493551
-0.0217192 0.03137463 0.03803086 0.022244137 0.08325601 0.04517538 0.09945786 0.016761528
0.026717773 -0.115405865 -0.040252708 0.0064692413 -0.06956989 0.027133314 0.0060026147 0.1146638
-0.107424326 0.013560553 0.06591402 -0.0765591 0.005008591 -0.01646785 -0.0039596753 -0.038137965
0.068354905 -0.040839035 0.12898818 -0.109673455 -0.13415562 0.06989395 0.05340542 0.020429952
0.076376565 -0.050107144 0.11516068 -0.099522464 -0.055569377 -0.061281398 -0.06111633 0.03380458
-0.083608694 -0.048711754 -0.10129089 -0.093307585 -0.030696401 0.12063036 -0.108401336 -0.03925665
0.07647324 -0.015084236 -0.040258322 0.0540169 0.057241034 0.13646191 -0.086983494 -0.016003266
0.10797544 0.09782974 -0.09790953 0.08205389 -0.07979839 -0.08442984 -0.049793556 -0.08359517
0.11114771 -0.046213046 -0.11853737 0.0813567 0.081206255 0.13175243 -0.0064732055 -0.08566045
0.114925124 -0.051360805 -0.14375745 0.098846786 -0.061638135 -0.0830585 -0.09429226 0.025542554
-0.06469253 -0.027854988 0.11177391 -0.028883856 -0.10491431 -0.053520605 0.078933015 0.14153619
-0.059629586 -0.10976821 0.09068559 -0.057370733 -0.0166218 0.04669624 0.060276594 -0.059821323
0.07105663 0.003608116 0.019053789 0.064797096 -0.0059000384 -0.02041425 0.09889602 -0.015483266
-0.10837865 0.117476925 -0.07206611 -0.11211643 -0.015054455 -0.10812858 -0.077946626 0.06872636
0.104548395 0.073071375 -0.13290536 0.072643265 0.07448624 0.0063062767 0.04682235 0.07066332
0.08529223 0.010467115 0.00096288323 0.03460333 0.09174858 0.052152313 -0.018914089 -0.0020641356
0.014955456 0.0962687 0.023910372 -0.0015773763 0.0753649 -0.09882114 0.033908475 -0.12027958
-0.12600818 -0.0149004245 0.06438928 -0.09694411 -0.05311494 -0.122681424 -0.016342567 0.0788205
-0.014250415 -0.06788861 0.041832726 0.006097436 -0.09823193 0.0093171 -0.042137817 0.09140345
00000000: 9e9c 81bc bd9e 8abd 5e40 8e3b 2729 92bd
00000010: 1251 803d 8ed4 77bd 6151 c9bd 6430 90bc
00000020: 07e3 aabc 6f46 3dbd 4bc9 903c c80e 1ebd
00000030: 0eca 353d 1c3c 783b 099c 37bc ce9d 93bd
00000040: 4c70 cd3d 2f68 60bd 76a0 933d 362f cc3c
00000050: 3400 703d c109 9f3c f8aa 963d a961 403c
00000060: e138 953d f6c9 b9bc 54e9 b03d 9ba3 12bd
00000070: 4f2e a93d 5eec 9e3c 1e6a febc dd2d 103c
00000080: c52b 18bd 1565 2a3d ee2d a2bc 64f3 b63d
00000090: 1430 b4bc 83df a2bd d8d5 de3d f066 22bc
000000a0: 87bb efbc c424 abbd 528b 60bd 86c0 85bc
000000b0: 8da4 45bd fe88 82bd bd7b f8bc 8b61 a33c
000000c0: 9173 ccbd 0eb5 52bd 40a3 80bd bfe2 a0bd
000000d0: df38 183c a6e3 033d 7b6a d5bb f058 b43d
000000e0: f273 933d 7526 82bc f813 9c3d 0f25 8dbd
000000f0: 5328 bb3d 10b3 c03d 7088 13bd 9c4b 2a3c
00000100: 30af 333d ff8a a6bc 3d5a bdbc db71 8fbc
00000110: dc9c cabb 7fb5 9b3d 301d 91bc 0254 a43d
00000120: 37fa e23c 95d7 58bd 134c 2ebd b149 ad3d
00000130: 4f04 1a3d 6a48 98bd 49a0 c0bd a93c b13d
00000140: 00d9 dc3b 0cb3 5c3d 8ec8 083d 5362 8bbd
00000150: 9bf1 22bd 178a 0cbc c08f 10bb 6f0d 4a3d
00000160: 1f36 c53c dc0e a5bd b13a afbd cbe8 b13b
00000170: 3d14 38bd 9816 943c f641 e33d f6bc 61bd
00000180: 3643 913b f6fc ff3c 258b 41bd d57e 333d
00000190: 05a1 1cbd 32bb 4a3d 9589 3ebc 9328 4a3d
000001a0: 77ec b1bc af82 003d 3fc6 1b3d 5639 b63c
000001b0: 2182 aa3d d209 393d 90b0 cb3d 794f 893c
000001c0: 3bdf da3c e959 ecbd 06e0 24bd eefb d33b
000001d0: a97a 8ebd af46 de3c 95b1 c43b dbd4 ea3d
000001e0: 4901 dcbd 152d 5e3c eefd 863d 04cb 9cbd
000001f0: 1b1f a43b 96e7 86bc 2ac0 81bb 8e36 1cbd
00000200: a8fd 8b3d d546 27bd 7a15 043e 7a9c e0bd
00000210: 1760 09be 8f24 8f3d a4bf 5a3d b75c a73c
00000220: 516b 9c3d 263d 4dbd 5dd9 eb3d 6fd2 cbbd
00000230: b79c 63bd 3402 7bbd 1e55 7abd ac76 0a3d
00000240: 093b abbd fa85 47bd 9971 cfbd 0c18 bfbd
00000250: 0577 fbbc 0d0d f73d 8501 debd 95cb 20bd
00000260: 019e 9c3d df23 77bc e9e5 24bd d340 5d3d
00000270: 9375 6a3d acbc 0b3e 6724 b2bd 4819 83bc
00000280: 3a22 dd3d f55a c83d cb84 c8bd df0b a83d
00000290: 576d a3bd 8de9 acbd 54f4 4bbd f233 abbd
000002a0: 69a1 e33d e449 3dbd b8c3 f2bd 579e a63d
000002b0: 774f a63d 1cea 063e 2f1d d4bb bf6e afbd
000002c0: dd5d eb3d b55f 52bd 2735 13be 2f70 ca3d
000002d0: 4578 7cbd 931a aabd 4d1c c1bd 9e3e d13c
000002e0: 847d 84bd 2530 e4bc b8e9 e43d d69d ecbc
000002f0: 50dd d6bd 6c38 5bbd a2a7 a13d ddee 103e
00000300: 273e 74bd 28ce e0bd 5eb9 b93d 93fd 6abd
00000310: 712a 88bc 8e44 3f3d 97e4 763d 3407 75bd
00000320: 2386 913d 2476 6c3b b116 9c3c 57b4 843d
00000330: 1c55 c1bb c93b a7bc ff89 ca3d 86ad 7dbc
00000340: a0f5 ddbd be97 f03d 6697 93bd 4d9d e5bd
00000350: f6a6 76bc 8472 ddbd 7ba2 9fbd 68c0 8c3d
00000360: 781d d63d 72a6 953d 5818 08be fec5 943d
00000370: 3e8c 983d e2a4 ce3b cbc8 3f3d eeb7 903d
00000380: b1ad ae3d 437e 2b3c 006a 7c3a 39bc 0d3d
00000390: aee6 bb3d aa9d 553d b8f1 9abc 7346 07bb
000003a0: bb07 753c 8628 c53d afdf c33c f7bf ceba
000003b0: ea58 9a3d bd62 cabd 9de3 0a3d 2455 f6bd
000003c0: 4a08 01be e920 74bc 87de 833d a28a c6bd
000003d0: 0d8f 59bd 6640 fbbd d9e0 85bc a46c a13d
000003e0: 937a 69bc 2f09 8bbd cb58 2b3d 00cd c73b
000003f0: d22d c9bd c0a6 183c b498 2cbd bb31 bb3d

actor.6.bias f4 [9]
-0.09959189 0.06805422 -0.043588564 0.011625801 -0.010998794 0.08854511 0.053914722 -0.07765489
-0.048675857
00000000: d5f6 cbbd 0360 8b3d ec89 32bd 257a 3e3c
00000010: 4934 34bc 2357 b53d afd5 5c3d 8709 9fbd
00000020: 5660 47bd
