ippo_algorithm/checkpoints/ppo_actor_0env_comp_exp_0_run_0_catmouse.pth (torch, 151820 bytes, 8 tensors)

actor.0.weight f4 [128, 21]
000000 db 37 ca 3d 45 3c 9f bc 1d f1 36 3e 64 82 60 bd
       0.09873935 -0.019437918 0.17865415 -0.05481185
000010 25 9f 91 bc 04 08 1a 3e 00 34 34 3e e5 c1 f0 3d
       -0.017776081 0.1504212 0.17597961 0.117557324
000020 39 b0 89 3d fe c1 51 3e e0 52 fc 3d cc 36 4d 3e
       0.06723065 0.20484158 0.12320495 0.20040435
000030 9f f4 68 be 19 cf 6a 3e 7a 22 c2 3d 9b eb 20 3e
       -0.22749566 0.22930564 0.09479232 0.15714876
000040 9c df 86 be 51 45 05 be a6 fd e7 bd 81 11 d1 3d
       -0.26342475 -0.13014723 -0.113276765 0.10208417
000050 ec 11 03 be 99 29 95 3d 22 05 00 be 01 f1 a6 bc
       -0.12799805 0.07283325 -0.12501958 -0.020378591
000060 9a fb 26 be af cf 28 be 75 f8 94 bd 3d 44 1a 3e
       -0.16306916 -0.16485475 -0.07273952 0.15065093
000070 33 ef 57 be 3a 15 60 be cd 84 2e be 3d 25 ab 3d
       -0.21087341 -0.21883097 -0.17042847 0.08356712
000080 7c e1 53 3e 2b 8c 68 be a3 d1 11 be e1 71 1a bd
       0.20691484 -0.2270972 -0.14240126 -0.03770626
000090 a3 6b 8d be f5 87 21 be 2b 12 1a 3e dc 7e 9f 3d
       -0.27621183 -0.1577452 0.15045993 0.077878684
0000a0 be cb ce 3d dd 24 44 be a9 08 1f be 44 b3 8b bc
       0.100974545 -0.19154687 -0.15530647 -0.017053254
0000b0 02 39 0c be a2 76 b9 bd fd 35 36 3e af 9c 90 bd
       -0.13693622 -0.090558305 0.17794032 -0.07061135
0000c0 21 64 8d 3b 2e 3f 3a be 10 b8 3e be 8b 04 47 bc
       0.004314915 -0.18188164 -0.18624902 -0.012147079
0000d0 4b d1 21 be 99 79 30 bd 32 2d 30 be f1 e1 ea bd
       -0.15802495 -0.043084715 -0.1720474 -0.11468876
0000e0 83 9f c9 3c 6e b3 4d 3d 83 76 0a 3e e0 1a 32 bd
       0.024612194 0.050219946 0.13521771 -0.04348266
0000f0 85 b7 09 be bc d2 49 3e 56 a8 a3 bd 22 51 4f 3d
       -0.13448913 0.19709295 -0.07991092 0.050614484
000100 ef 80 90 3d 39 17 16 3e e3 50 3b be d9 f4 fb bd
       0.07055842 0.14657296 -0.18292575 -0.1230256
000110 68 53 c0 3d 64 07 0e be 59 e2 2b be e3 b1 a1 3c
       0.093909085 -0.13870007 -0.16785564 0.019738143
000120 7d f4 21 3d 50 90 9d 3d 25 27 7b be ff 55 3b 3e
       0.039539803 0.07693541 -0.24526651 0.18294524
000130 b6 9a 02 be 84 45 ef 3d 2f d6 1e be e8 5a f6 3d
       -0.1275433 0.11683181 -0.15511392 0.12029058
000140 98 b4 57 be 11 c1 31 3e 28 65 3f 3e 0f 20 5e be
       -0.21064985 0.17358805 0.18690932 -0.21691917
000150 da bf 7d 3d 9d ef 67 3b fd a4 c5 3d 0f e2 68 3e
       0.061950542 0.0035390623 0.0965061 0.22742485
000160 d1 b8 aa 3d 54 bb 66 3d 01 f2 92 bd 45 98 bb 3d
       0.08336032 0.056330994 -0.07175065 0.091599025
000170 78 b8 2c 3e dc 71 a3 be 16 d8 10 bd da 3f 7d 3e
       0.16867244 -0.31922805 -0.035362326 0.24731389
000180 dc 1c 9c 3d 65 eb a7 bd 8f 48 5e 3e 68 7e 07 3e
       0.07622692 -0.08199195 0.21707366 0.13231814
000190 d7 c2 57 3e df 61 2d 3e 13 49 83 3d a6 3d 15 bd
       0.21070419 0.16931866 0.06410422 -0.036435746
0001a0 14 5c 03 3e 5f ed 4f 3e f5 7a 29 be fe 84 32 3e
       0.12828094 0.20305394 -0.1655081 0.17433545
0001b0 db ca c2 3d f2 10 51 be eb 54 68 bc 74 86 35 be
       0.09511348 -0.2041662 -0.014180402 -0.17727071
0001c0 9c 60 1d be ea 30 21 bd ff 0d ab 3e 11 5c 12 3e
       -0.15368885 -0.03935329 0.33409116 0.14292933
0001d0 22 01 51 3d 5f c8 4c bd 29 42 02 be a6 90 be 3c
       0.05102647 -0.049995776 -0.1272055 0.023262333
0001e0 b8 b5 0b 3e f3 ad d6 3d 79 07 51 be 27 68 e5 3d
       0.13643539 0.10482397 -0.20413007 0.11201506
0001f0 54 45 de bd 0e fd 01 bd 90 f0 42 be d3 14 82 3d
       -0.10853067 -0.031735472 -0.1903708 0.06351628
000200 db 1a b3 bd 71 ad e7 3d 2d d0 03 be 2a 6c b0 3d
       -0.08745357 0.11312378 -0.12872382 0.08614381
000210 d4 20 91 bd e7 4e ef bd fe 31 20 be be ed 25 3e
       -0.070863396 -0.11684971 -0.1564407 0.16203973
000220 11 2d 95 bd 8a 56 0a be f2 04 dc 3d 49 05 84 bd
       -0.07283986 -0.13509575 0.10743131 -0.064463206
000230 73 f9 93 3c 92 ad 9f bc c9 f6 51 3e 34 60 30 be
       0.018063283 -0.019491944 0.20504297 -0.17224199
000240 a6 c4 28 be f7 d1 a1 bd 40 af 84 bd c1 8a 92 bd
       -0.16481265 -0.07901376 -0.06478739 -0.071553715
000250 6e 46 16 3c 66 0b 96 bd a1 30 e5 3d 5e dc 4c 3d
       0.009172065 -0.07326393 0.11190916 0.050014846
000260 c7 31 27 bd eb 22 74 bc 0a 5d 14 3e 41 0c db bb
       -0.040818956 -0.014900903 0.14488617 -0.0066848104
000270 02 29 31 3e cb 52 b9 3d 03 ce 2c be ea d3 40 be
       0.173008 0.09048995 -0.16875462 -0.18830839
000280 de 18 a8 3d d5 35 10 bd 0d 0c 0c 3e c2 0f 6c 3e
       0.08207868 -0.03520759 0.13676472 0.23052886
000290 7a 11 92 3d 75 1c 81 bd 97 75 82 bd 83 4b 3d be
       0.0713224 -0.06304256 -0.06370085 -0.18485837
0002a0 11 7b 8e bd 87 20 6c 3d 65 17 48 bd e1 f0 44 be
       -0.06957067 0.057648208 -0.048850436 -0.19232513
0002b0 f5 4a 84 bc 31 c2 d3 bc 90 a5 ee bd 16 ec 22 3e
       -0.016149024 -0.025849434 -0.11652672 0.15910372
0002c0 a5 f0 ef bd 1d b9 39 3e 65 49 30 be 69 30 3a be
       -0.11715821 0.18137021 -0.17215498 -0.1818253
0002d0 2a 6c 14 3e cc 0f 19 3e f5 28 f7 3d 47 e9 1b 3e
       0.14494386 0.14947432 0.12068359 0.15225707
0002e0 88 76 ec ba 81 b2 5b bd e3 59 04 be e6 0e 30 bd
       -0.0018040696 -0.05363703 -0.12924914 -0.04298296
0002f0 6d 15 aa 3d f6 18 df bd 1a 3d 17 be 63 07 9b bd
       0.08304868 -0.10893433 -0.14769402 -0.07569768
000300 01 2f 1a be d7 2e 67 bd dd ec c7 3d 27 54 49 bd
       -0.15056993 -0.056441154 0.09761975 -0.04915252
000310 71 3e 78 bd ae 18 5f 3e 83 7a a7 3d e3 2c 12 3e
       -0.060606424 0.21786758 0.08177664 0.14274935
000320 b7 23 b0 bd 52 b0 85 3d 75 7f f2 bd 39 29 39 3e
       -0.08600562 0.06527771 -0.11840717 0.18082131
000330 b0 dd 86 bd 66 66 62 3e 0b a9 17 be 03 64 93 bd
       -0.06585252 0.22109374 -0.14810579 -0.0719681
000340 c8 35 85 3c 77 eb 84 3d c2 53 15 3e dd 96 9b 3d
       0.016260996 0.06490224 0.14582732 0.07597134
000350 1a 1f 02 3e b3 f9 26 3e de 3c d1 3c 55 41 36 3e
       0.12707177 0.1630619 0.025541719 0.1779836
000360 3c 97 d0 3d 03 d0 75 3e c9 55 97 3d db da 05 be
       0.10185096 0.24005131 0.07389409 -0.13071768
000370 5c 3e 08 be 99 35 00 3e 56 26 0e be ac e6 2f 3e
       -0.13305038 0.12520446 -0.13881811 0.17177838
000380 29 93 21 be 30 b6 30 3e 5d 25 be 3d 34 8d 2a 3e
       -0.15778793 0.17256999 0.0928447 0.16655427
000390 13 dc 88 bd 53 48 2b be a0 a7 4f be 5d 35 1a be
       -0.06682601 -0.16726808 -0.20278788 -0.15059419
0003a0 a8 39 fd bd 85 04 22 be 60 e1 ea bd b5 d1 62 be
       -0.12364513 -0.15822037 -0.11468768 -0.2215031
0003b0 c4 93 16 3e 15 15 16 3e e3 5b 42 3e 4b 8d 0c 3e
       0.14704806 0.1465648 0.18980365 0.13725774
0003c0 45 55 05 3e 36 90 1b 3d 06 12 3b be bc 1c 5f be
       0.13020809 0.037979327 -0.18268594 -0.21788305
0003d0 de c8 1f bc 71 4a 04 3e 35 66 fc bd fc cb bf bd
       -0.00975248 0.12919022 -0.12324182 -0.09365079
0003e0 de 15 4e be a3 1e 06 3e fd fd 1c 3e 5a 1e 3a bd
       -0.20125529 0.13097624 0.15331264 -0.0454391
0003f0 f4 78 f8 bd d0 97 16 3d 78 fb 2c be 00 fd 8f 3d
       -0.12132445 0.036765873 -0.16892803 0.07030678

actor.0.bias f4 [128]
000000 83 3f e1 3d c3 ec 96 bd b1 c8 30 be 16 31 cd bd
       0.10998442 -0.073693775 -0.17264058 -0.10019128
000010 3d fe 9a bd 5f 22 05 3e 80 30 1c be 81 e0 71 bd
       -0.07568023 0.13001393 -0.15252876 -0.059051994
000020 d1 ac 3d bd 2b 4b 50 be 3e fd e5 bd bd cf c9 3d
       -0.04630739 -0.20341174 -0.11229943 0.09854076
000030 9c fb 8d 3d cb 53 57 bd 42 bf 85 3d fa d1 53 3d
       0.06932756 -0.052570146 0.0653062 0.05171392
000040 5a 7f c6 3d d9 b1 24 be 0a ee 9b 3c b0 18 5a 3d
       0.09692259 -0.16083468 0.019034404 0.0532462
000050 07 f9 38 3e 86 fe 0b be 2b d9 c2 3d 98 07 d8 3d
       0.18063746 -0.13671312 0.09514078 0.105483234
000060 50 71 46 3e 06 06 f1 bd 71 bd 0e bd 46 d2 11 be
       0.19379163 -0.11768727 -0.034848634 -0.14240369
000070 b2 10 16 3e 1e fe 35 3e f4 11 a3 bc 0a 22 0f 3e
       0.14654806 0.1777272 -0.019906022 0.13977829
000080 9a 4f 20 3d 07 76 8f 3d f2 24 e7 bc 52 87 0b 3e
       0.039138414 0.07004934 -0.02821586 0.1362584
000090 4e 54 c1 bd af 8f 44 3e 64 3a 90 bc 4a 61 4e be
       -0.09439908 0.19195436 -0.017605968 -0.201543
0000a0 22 d4 db bc 75 96 4b bd 19 0d 83 bd 10 bf ff 3d
       -0.026834551 -0.049704034 -0.063989826 0.12487614
0000b0 8c 29 1d bd 0b be 66 3d a1 a6 44 be 77 35 1e 3e
       -0.0383697 0.056333583 -0.19204189 0.15450083
0000c0 1d d2 a6 bd c1 d2 f3 3c 42 36 e9 bd 0c 3e df 3d
       -0.08145545 0.029763581 -0.11387302 0.109005064
0000d0 c7 b5 04 be 08 ca 0e 3e 24 fa 52 3e 81 ec 23 3e
       -0.12959968 0.13944256 0.20603234 0.16008188
0000e0 be af 0c 3e e8 f9 9d 3b 78 ad 8b 3d 12 5c 45 3e
       0.13738915 0.004821051 0.06820196 0.19273403
0000f0 36 31 08 3a a9 75 1c be 2f 4d 2c be 55 c2 24 be
       0.0005195321 -0.15279259 -0.16826318 -0.16089757
000100 8d 56 01 bd 5a 7a ac 3d fd 25 5a bd 80 80 61 bc
       -0.031576682 0.08421774 -0.053258885 -0.013763547
000110 5f 0b 97 3d 1a b5 30 3e 40 3e 2a bd 5b d4 c1 3d
       0.07375216 0.17256585 -0.041563272 0.09464332
000120 89 9d 2d be b1 86 38 3b db 8b 46 bc 1c fc 17 bd
       -0.16954626 0.0028156454 -0.012118305 -0.037105665
000130 3e b7 c9 3d 27 8b e8 3d d5 f5 c4 3d 35 a5 1e 3e
       0.09849404 0.11354666 0.09617201 0.15492709
000140 dd e2 0f 3e fd 6e 0d 3e 59 83 1d 3d a5 d3 a5 3c
       0.14051385 0.1381187 0.03845534 0.020242522
000150 20 08 bf bd 51 1c 1b 3d bb 3a 89 bd 61 64 dc bd
       -0.093277216 0.0378688 -0.06700655 -0.10761333
000160 b5 2c 45 3e 8c e0 05 bd 73 1d a3 3d 41 36 5d bd
       0.19255336 -0.032684848 0.07964601 -0.05400682
000170 20 3e 51 3e c0 c7 2f be cb 29 3b 3e ef 09 7c 3c
       0.20433855 -0.17166042 0.18277662 0.015383228
000180 d9 f8 d1 bd f0 6b 70 3d 59 96 12 3e 47 55 12 3e
       -0.10252542 0.058696687 0.14315166 0.14290343
000190 6a ed 3f 3e 48 d6 25 be 11 a8 39 3c bb a7 36 be
       0.1874291 -0.16195023 0.011331574 -0.17837422
0001a0 8e 45 a4 3d a6 eb 3e 3d 43 82 d7 3d 96 a8 26 3e
       0.08021079 0.04661145 0.10522892 0.16275248
0001b0 ab 2e 3e bd c8 42 11 3e ab fd 03 3e 00 78 66 39
       -0.046431225 0.14185631 0.12889735 0.00021979213
0001c0 d0 20 13 3d b1 3c 06 3e b7 f9 74 bd 45 63 b1 3d
       0.035919964 0.1310909 -0.05980846 0.08661512
0001d0 be e4 41 3e 28 00 35 be c8 d7 8e 3c 20 c7 3d 3e
       0.18934914 -0.17675841 0.017436877 0.18532991
0001e0 44 3b ba bd 5f cf f8 bd 7d 7c a9 bc c4 c1 b4 3d
       -0.09093335 -0.12148928 -0.020689243 0.0882602
0001f0 89 72 94 bd b3 34 44 bd 78 7b ff 3d d8 6d de 3d
       -0.07248408 -0.04790182 0.12474722 0.10860795

actor.2.weight f4 [128, 128]
000000 44 4c 66 3d 5b a9 23 bd e3 de 82 3c 95 77 4f 3d
       0.056225076 -0.03995643 0.015975421 0.05065115
000010 b7 d7 c4 3d e6 6d 90 3d 6e 4f 3f 3d 85 af 59 bd
       0.09611457 0.070522115 0.04670661 -0.053145904
000020 25 1a 71 bd ff cf 55 bd e1 95 8a 3c f2 ce 08 bd
       -0.058862824 -0.052200314 0.016917171 -0.033400483
000030 88 d7 9d 3d 20 d5 08 bd 15 42 15 3d 3c 19 8c bd
       0.07707125 -0.033406377 0.036439974 -0.068407506
000040 3a 8e ff 3b c3 a9 29 bd 79 85 12 bd 0c ae e0 bd
       0.007798937 -0.041421663 -0.03577182 -0.10970697
000050 49 92 68 bd 38 02 d3 3c 67 a6 09 3d 58 9a 12 3a
       -0.056780133 0.025757894 0.03360596 0.0005592457
000060 8e 5f 75 bd 26 a1 81 bc 9c 35 b1 3c 35 11 02 bd
       -0.05990558 -0.015823912 0.021632008 -0.03175469
000070 3e 1d 47 bd 84 bc 9b 3d a6 ad 92 bd ab 07 ad 3c
       -0.048611872 0.07604316 -0.07162027 0.02112182
000080 fb ac 9a bd ac cd 20 bd 78 c2 3c bd bf 01 9c 3c
       -0.07552525 -0.039258644 -0.046083897 0.019043801
000090 87 b0 e9 3c 09 e9 7c bd 23 64 cb bb 43 d6 ad bd
       0.028526558 -0.061745677 -0.0062070056 -0.08488133
0000a0 82 97 01 bc 16 4b e7 bc 84 81 3c 3c 18 b5 ac bd
       -0.007909657 -0.028234046 0.011505488 -0.084329784
0000b0 d6 44 e2 bc 95 73 14 3a b5 74 42 3c 6e 39 9c bd
       -0.027620714 0.0005662975 0.011868645 -0.07628141
0000c0 fc e7 c5 3d 72 3a b8 bc e6 a3 28 bd 1a fc e5 bd
       0.09663388 -0.022488806 -0.04117193 -0.11229725
0000d0 3a 91 ef bb 4a 83 f4 bb f7 95 bb 3c 29 84 c6 bd
       -0.0073110135 -0.00746194 0.022898657 -0.09693176
0000e0 6b 1f b2 bd d2 e2 cd bd c9 05 e9 bd 4f a3 da bd
       -0.08697399 -0.10053028 -0.113780566 -0.1067568
0000f0 0d 01 b7 3c 5e fe 0b bd 3d bd e4 bd 46 79 90 3b
       0.022339368 -0.03417813 -0.11168907 0.004408988
000100 31 12 a2 bc e7 00 e6 bd aa 22 9a bd e9 0b 31 bc
       -0.019784065 -0.11230641 -0.07526143 -0.010806062
000110 f5 af 8d bc f9 aa 91 bd d3 3e 48 bd f8 22 7a 3c
       -0.017295817 -0.071126886 -0.04888804 0.015267126
000120 fb d9 81 3d d2 3f 6b 3d 0d b8 d9 bd 25 71 93 3c
       0.063404046 0.05743391 -0.10630808 0.017998287
000130 08 0e 34 3c 7a f7 cd 3b 74 b6 05 3d 7f 03 33 bc
       0.010989673 0.006285605 0.032644704 -0.0109261265
000140 e6 c4 a9 3d b0 a0 a7 3a 16 5c 0b bd 2b bb 79 3c
       0.082895085 0.0012788977 -0.034023367 0.015242378
000150 b9 7c 1b bd 17 be a3 3d 5e f7 5c bd 72 48 91 bd
       -0.03796074 0.07995241 -0.053946845 -0.07093896
000160 53 33 0f 3d 08 b7 ef bd 5b 30 11 bd 99 fa 88 3c
       0.034961056 -0.11704832 -0.035446506 0.016721057
000170 a4 2f 0f be a7 4d fb 3d 81 e5 3e bd 78 cf c5 3d
       -0.13983017 0.122706704 -0.04660559 0.09658712
000180 89 95 11 bd 68 df 85 bd c4 78 16 be b1 11 e6 bc
       -0.035543 -0.06536752 -0.14694506 -0.028084608
000190 71 bb 81 3d d2 8b 3f bd ea 81 3f 3d b7 97 cc 3c
       0.0633458 -0.046764202 0.046754755 0.024974687
0001a0 e0 6d d6 3d e1 c7 0a bd a0 0a 30 3d 20 29 75 bb
       0.10470176 -0.033882026 0.042978883 -0.0037408546
0001b0 2b ee 0b 3e 9a 2b 8f 3d da df 4c bd 2c d8 83 3d
       0.13665073 0.06990738 -0.05001817 0.06437716
0001c0 ff fc 87 3d e0 4b 9c bd 71 ef f1 bd 81 be 66 3d
       0.06640052 -0.076316595 -0.11813248 0.056334022
0001d0 40 2f c2 bd 85 d6 31 3d 9c 5a 55 bd 5a 33 0d bd
       -0.094816685 0.043417472 -0.052088365 -0.0344728
0001e0 b0 50 d1 3c 67 16 4e bb ab 19 11 bc 7f 03 97 bd
       0.02555117 -0.0031446458 -0.008856217 -0.07373714
0001f0 38 e1 d9 bc dd 54 be bc 96 4d 8e 3c 3f 97 67 3d
       -0.02659665 -0.023233825 0.01737098 0.056540724
000200 3c 8b ff 3d 3c fd e8 bc 88 5f 24 bd d0 94 4e 3d
       0.12477729 -0.028441064 -0.04013017 0.050434887
000210 fe 8e 29 bd 3a c1 05 bd 05 a9 c1 bd ae fe 8d 3d
       -0.041396134 -0.03265498 -0.09456066 0.06933342
000220 50 c2 e9 bc 93 ca 3a bd 22 7a a4 3d 41 c8 2f 3d
       -0.028535038 -0.045603346 0.080311075 0.042915586
000230 a6 fa 09 bc 7e 78 02 3d ce f2 db bd d9 46 b2 bc
       -0.008421576 0.03185319 -0.10739671 -0.021762298
000240 94 f2 ad 3c bb ad ef 3c 23 56 ed 3d 36 0b c1 3d
       0.021233834 0.029257646 0.11588695 0.094259664
000250 47 3f ef 3c c8 4a bf 3d 5b 76 7c 3d 2e 30 db bc
       0.029204978 0.09340435 0.06163631 -0.026756372
000260 d0 a6 61 3d e2 cd e0 3d d1 4f c9 3c 6c 26 d0 3c
       0.055090725 0.10976769 0.024574192 0.025408946
000270 1e 52 10 3d 05 76 1e 3d 9a 5c e2 3d db 62 ce bd
       0.035234563 0.03868677 0.110528186 -0.10077449
000280 75 19 5b 3c 24 ec 8a 3d 49 10 65 bd d3 5f 15 bd
       0.013372769 0.067833215 -0.055923734 -0.03646834
000290 37 a6 9e 3d 6d aa af 3c 57 c9 38 bc 61 de 19 bc
       0.07746547 0.02144357 -0.011278472 -0.009391398
0002a0 f0 e2 9a 3a 05 04 57 3d 50 0e ce 3d a1 70 7b 3d
       0.00118169 0.052494068 0.10061324 0.06138671
0002b0 bf 75 d7 bc 18 7c 6f bd 8a 8d b1 3d 64 1c 82 bd
       -0.026301263 -0.058467954 0.086695746 -0.06353071
0002c0 0d f5 d1 bc d5 f4 c3 3d 6b 27 91 3d 66 6f 91 bd
       -0.025629545 0.095681824 0.070875965 -0.07101326
0002d0 5b d4 0e bd 0c 4a a6 3d 39 05 97 bc ac 99 3f 3c
       -0.034870487 0.08119592 -0.018435108 0.011694353
0002e0 6f 6a f6 3c df 6d ac bd 59 0d bd bd 9e f6 61 3c
       0.030080048 -0.08419394 -0.092310615 0.013791708
0002f0 5c 05 33 3c 5c b1 74 bc 6c 3a 82 3d 5d b0 a6 3d
       0.010926571 -0.014934864 0.06358799 0.081391074
000300 ab 50 06 bc 84 6a 53 bc 4f 1c 59 3d 27 77 23 bd
       -0.008197944 -0.012903813 0.053005513 -0.039908554
000310 0c 42 5b 3c 2b 3f e3 bd 82 70 02 3c b7 25 a4 3d
       0.013382446 -0.11096033 0.007961394 0.08015006
000320 11 03 e3 3c bb 8b c5 3c bc 9a 43 3d 4b 88 ab bc
       0.027711423 0.02411448 0.047754988 -0.020939013
000330 ca 87 a5 bd be 11 7d bc ac 9d f2 bc 04 a9 02 3d
       -0.0808254 -0.015446125 -0.0296162 0.031899467
000340 75 9c 3c 3b 9e 67 28 3d 7e f0 2a 3d 96 ff ff bd
       0.002877978 0.041114442 0.041733257 -0.12499921
000350 f1 a1 ac 3d c2 70 ad bd e7 61 90 bd d5 24 84 3d
       0.08429325 -0.084687725 -0.070499234 0.06452338
000360 00 37 ac 3c 29 49 e4 3d a5 d1 39 3d cf eb 90 bd
       0.02102232 0.11146767 0.04536595 -0.07076227
000370 e7 a4 85 bd f4 28 d5 bd 56 17 65 3d f5 11 30 3d
       -0.06525593 -0.10408202 0.055930458 0.042985875
000380 90 5a a8 bd be 9a 8d bd c0 69 b8 3b 53 33 5d bd
       -0.082203984 -0.0691428 0.0056278408 -0.054004025
000390 a1 a8 f4 bd 17 55 ff bb 9c 64 a1 bc 77 5c c3 bd
       -0.11946226 -0.007792126 -0.019701295 -0.09539121
0003a0 a9 c5 ed bd a0 7f 91 bd 0c f3 de 3c 29 57 9d bd
       -0.11609966 -0.07104421 0.027215503 -0.0768264
0003b0 d7 0f f0 bd e8 08 99 3b 95 ef 0b 3d a1 33 7d ba
       -0.11721771 0.004670251 0.03416403 -0.00096588774
0003c0 ca c7 01 3d d4 b8 bd bd 0f 81 bf bd 84 6e 11 bd
       0.031684674 -0.09263769 -0.09350788 -0.035505787
0003d0 01 be 64 3c 58 44 ed bc 42 07 9e 3d 7a 3c b8 bd
       0.013961316 -0.028963253 0.07716228 -0.0899591
0003e0 f9 de 09 be fc 19 8f 3d e7 a6 9c 3d 7b 10 a5 3d
       -0.13463964 0.06987378 0.076490216 0.08059784
0003f0 95 5a 93 bd d2 3e c6 3d b6 e5 be 3c 9c 6e 87 3d
       -0.071950115 0.09679951 0.023302894 0.06612894

actor.2.bias f4 [128]
000000 5e 3f 51 bc 76 b1 80 bd 43 d5 29 3c f5 0e a1 bc
       -0.012771456 -0.06283848 0.010365787 -0.019660452
000010 ac d0 10 bc 25 a8 19 3d 5f 53 6c bc dc d9 79 bd
       -0.008838814 0.03751387 -0.014424174 -0.060998783
000020 d0 5b b9 3b d5 2b 4a 3d 90 dd 89 3d d2 20 43 bd
       0.005656697 0.049358208 0.06731713 -0.04763872
000030 e9 ab 6b 3d ac bb a3 3d f7 d3 e3 3c 43 bb 89 3d
       0.057536993 0.0799478 0.027811034 0.067251705
000040 b8 54 27 3c 2b 33 8c bd c1 ab 83 3d 86 2b 8b 3d
       0.01021307 -0.06845697 0.06429244 0.06795411
000050 6e a1 74 bd fb d6 f4 3c f5 9b 97 3c 65 bf 8f bd
       -0.059724264 0.029887667 0.018506983 -0.070189275
000060 cc d1 9b 3d 8d d1 ad ba 18 ff c6 3d 5c b9 73 3d
       0.07608375 -0.0013261304 0.09716624 0.059502944
000070 e1 86 24 bc dc f2 a7 3d ef e7 ad bc 5a 8e 6a 3d
       -0.010041923 0.082006186 -0.021228759 0.057264663
000080 7a 03 05 bd 69 ef a1 3d d9 85 53 3d 6b 84 e6 bc
       -0.03247402 0.07906992 0.05164132 -0.028139314
000090 b6 5b b3 3c 47 d1 8e bd 43 b0 2a 3d 0a 9b 19 3d
       0.021894317 -0.0697351 0.041672003 0.037501372
0000a0 6e 66 ae 3d 35 23 90 bc a7 1d 91 bd ff 5c 43 3d
       0.08515631 -0.017594913 -0.07085734 0.04769611
0000b0 a4 58 29 bc c0 ce d4 3a e3 b8 99 bd 29 69 c7 3d
       -0.010336075 0.0016235933 -0.075059675 0.097368546
0000c0 20 fe f5 39 14 e0 ff bc 12 50 89 bd 0d e8 2f bc
       0.0004691938 -0.031234778 -0.06704725 -0.010736478
0000d0 35 d0 e2 3c ce 14 b7 3d 60 17 8c 3d 2f 98 19 bd
       0.027687171 0.08939515 0.06840396 -0.03749865
0000e0 22 fe 9b ba 0f 08 dd 3b 0a 85 5b 3d d2 71 64 bd
       -0.0011901299 0.0067453454 0.053593673 -0.05577261
0000f0 6f d9 20 bd 81 ec 80 bd 07 d8 a4 3c 2c ee 34 bd
       -0.03926986 -0.062951095 0.020122541 -0.04417245
000100 cc cf 81 bd f5 55 ae 3d 23 98 86 3d ef fb 65 3c
       -0.06338462 0.08512489 0.065719865 0.014037116
000110 bb 3b 89 bd e3 83 3e 3d 68 8f 1c 3d f3 8d 71 3d
       -0.06700846 0.046512496 0.0382227 0.058973264
000120 6f 78 bc bd 14 e7 d5 3c 0a 5e a0 bd 6f 05 56 3d
       -0.092026584 0.026111163 -0.078304365 0.052251276
000130 2f 6f 62 bd 7b d5 0e bd 0b de 49 3d 6a 84 5e bd
       -0.055281814 -0.03487156 0.049284022 -0.0543255
000140 b4 bb 97 bb c4 7d 3a 3d af 00 8a 3d a1 aa e8 3c
       -0.0046305303 0.045530096 0.06738412 0.028401675
000150 d8 05 2b 3d 5f 7c 9c 3c 8e 85 83 3d 66 18 f9 3c
       0.04175362 0.019102274 0.06421958 0.030407142
000160 10 54 3b 3c c1 05 96 3b 0b 48 78 3d 0a 51 c0 bb
       0.011433616 0.0045783226 0.06061558 -0.0058690356
000170 14 73 a4 3d 6c 33 30 3d a9 05 84 bc b5 de bc 3c
       0.08029762 0.04301779 -0.01611598 0.023055414
000180 8c 61 5f 3d 6b 27 3f 3d a6 b2 e9 bb 49 a6 8a bc
       0.054536387 0.04666845 -0.0071318923 -0.016924994
000190 e1 f5 07 3c 9d 58 4f 3b 85 bf 56 3d fc b0 2b 3d
       0.008298368 0.003163851 0.05242874 0.041916832
0001a0 f9 f9 93 3d 4d 31 77 3d 1f 56 4c bd e8 ec 31 bd
       0.07225413 0.06034975 -0.04988682 -0.043438822
0001b0 84 75 11 3c 42 d5 7a 3d 0e a9 bc 3d e9 3b 75 bd
       0.008878116 0.061238535 0.09211932 -0.059871588
0001c0 95 3f 96 3b 60 3e 2a bd 31 01 20 bd db fc 1f 3d
       0.0045852163 -0.04156339 -0.039063636 0.0390595
0001d0 4c ec 68 3d b9 21 1d 3d 6d 55 67 bb 8f 44 80 bd
       0.056865975 0.03836224 -0.003529872 -0.062630765
0001e0 c6 f5 7f 3c e2 b6 af 3c 23 78 a7 bb 48 9a 09 bd
       0.015622562 0.02144951 -0.005110757 -0.0335944
0001f0 7b 1f ab 3d 49 62 71 bd 86 71 93 3c ae f3 42 3c
       0.08355614 -0.058931623 0.017998468 0.011898918

actor.4.weight f4 [128, 128]
000000 67 7d 45 3c 4f c7 ac bd a4 3b 11 be 2d 57 68 3d
       0.012053824 -0.084364526 -0.14182907 0.056723762
000010 4a 03 d7 3d 07 2b 6a bd bf cf d7 3c a2 f5 65 bb
       0.10498674 -0.05716994 0.026344178 -0.0035089036
000020 68 3d 11 be 14 4b 99 bc 9a 81 d4 bd 46 e3 b7 3d
       -0.14183581 -0.018712558 -0.10376282 0.08978896
000030 3d cd 0a 3d 0f 5a 1e 3e 14 5b 73 3d ad 81 07 be
       0.033887137 0.15464042 0.05941303 -0.13233061
000040 6e 7d c9 3d 15 03 18 bd 92 19 9c 3c 4e 6d d6 bd
       0.09838377 -0.037112314 0.019055162 -0.10470067
000050 c6 9e 93 3d 2b 4b ec bd 0e b2 c1 3b d2 0b 85 3c
       0.07208018 -0.11537775 0.0059111184 0.016240988
000060 c0 f8 36 3d 2a a6 cf 3c 25 62 ff 3d 3a e7 7e bc
       0.04467082 0.025347788 0.124698915 -0.015558058
000070 a2 05 12 3e de ea 63 bc c1 7e 21 bd fa 37 4d 3d
       0.14259961 -0.013910977 -0.039427523 0.05010221
000080 61 ea d3 bd b5 2e 5e 3d 3f 1f 6c 3c d7 3a 82 bc
       -0.103474386 0.054243762 0.0144117465 -0.015897198
000090 e2 f0 4c bd a4 18 70 bd e5 19 06 3c 0e 54 66 bc
       -0.05003441 -0.05861725 0.008184885 -0.014058126
0000a0 98 c6 b3 bd 8e 6b ca 3d fe e7 a3 bd ec bf d7 3c
       -0.08778113 0.09883796 -0.080032334 0.026336633
0000b0 95 aa f7 3c b7 e1 04 be 53 17 aa bd f0 03 cf 3d
       0.030232707 -0.12976728 -0.0830523 0.10108173
0000c0 64 d2 d2 bd f2 b0 8d bd 59 c3 0f 3d fc df 0d 3e
       -0.10294035 -0.06918515 0.035098407 0.13854975
0000d0 ff a0 ea 3d 82 be 1b 3e d8 c2 fd 3c d8 43 d3 3d
       0.11456489 0.15209392 0.030976698 0.103156745
0000e0 7b ad ca 3d 54 75 75 3d b5 f4 07 bd 8b f3 ad ba
       0.0989637 0.059926346 -0.033192355 -0.0013271434
0000f0 8f 2d ad bb aa d6 18 3e ed a2 80 3d c0 5c fe 3c
       -0.005284972 0.14925638 0.062810756 0.031050086
000100 a1 2d 27 3d b9 b4 e8 bb c4 98 5a 3c 78 c9 8f bd
       0.040815 -0.007101622 0.013342086 -0.07020849
000110 b8 9d 75 bd c0 87 b8 bd 2a 92 09 bc c8 9b 73 bd
       -0.059964865 -0.09010267 -0.008396665 -0.059474736
000120 33 21 f8 bc ef 16 b3 3c ff e1 53 3d 93 a3 25 be
       -0.030289268 0.021861522 0.0517292 -0.1617568
000130 a3 dd 8c bd d2 ef 0f 3d 77 a6 08 bc e5 e6 d7 3d
       -0.06878211 0.03514082 -0.00834047 0.105420865
000140 69 d0 c6 3b b9 62 85 3c 2c 3f cf 3d 70 f6 c0 bd
       0.006067325 0.016282426 0.10119471 -0.09422004
000150 20 a4 a6 bd 96 b6 88 bc 56 a7 81 3d 4c 21 ab bc
       -0.08136773 -0.016688626 0.06330745 -0.0208899
000160 49 a7 68 bd 90 3f c9 bd 6f 30 7c 3c be 09 06 3b
       -0.05680016 -0.09826577 0.015392407 0.0020452584
000170 10 c7 82 bc 7c 9b c2 3c ea f1 05 3e 7b 77 6c 3d
       -0.015964061 0.023755781 0.13080564 0.057731133
000180 27 5a 77 bc 59 f3 0a 3d a6 74 b3 3d 91 9a f4 3c
       -0.015097178 0.03392348 0.08762483 0.02985886
000190 15 dc cb bd 0e 19 a4 bc 69 f0 da bc 4e 6e 35 bd
       -0.09954087 -0.020031478 -0.026725965 -0.044294648
0001a0 01 c5 14 3c b7 60 36 3e 8b 0b d5 3d 03 b9 b5 3c
       0.0090801725 0.17810331 0.10402592 0.022182947
0001b0 a0 de c5 3d 26 b3 97 bd d2 45 94 3d 4c 7e e6 3c
       0.09661603 -0.07407217 0.0723988 0.028136395
0001c0 d0 cc 03 be b1 a7 1e 3d 79 59 c9 3b 34 a0 26 3b
       -0.12871099 0.03873414 0.006144699 0.0025425078
0001d0 a8 06 08 bd 81 bb 39 3e 19 1e b8 bd 5a 10 2e bd
       -0.033209473 0.18137933 -0.08990116 -0.042496063
0001e0 12 ee 5b bd 2b 70 41 3d d1 3a fe bd f3 04 1b bd
       -0.05369384 0.047226112 -0.12413562 -0.037846517
0001f0 ef 0c 06 3c 32 69 d2 bd 1c 3f 44 3d ed 02 32 bd
       0.008181795 -0.10273971 0.04791175 -0.04345982
000200 e5 47 5f bc 04 e4 85 3d 46 6d 07 be ca 4d c8 3d
       -0.013627981 0.06537631 -0.13225278 0.09780462
000210 e5 d6 2c bd 69 b5 81 bd c5 1d 84 3d c1 03 f9 3d
       -0.042197127 -0.06333429 0.064509906 0.12158919
000220 d5 ee 0a bd 9d d7 77 bd b6 84 ab bb 3c 70 98 3d
       -0.033919174 -0.06050836 -0.0052343262 0.07443282
000230 48 01 f2 39 17 74 3b 3d e8 28 1c bd 2f 33 7d bd
       0.00046158792 0.04576501 -0.03812495 -0.06181639
000240 ac 0d 0d 3e 18 7e 9f bd 33 fb 01 3d a3 b2 0e be
       0.13774747 -0.07787722 0.031733703 -0.13935332
000250 9b ad 2e 3e 0f e3 b6 bd d9 95 10 3d 1e 16 b7 bd
       0.17058413 -0.08930027 0.035299156 -0.089397654
000260 90 ce c2 bb 8f 42 a4 bd df ca 4e 3d ed 9d 25 3c
       -0.0059450343 -0.080205075 0.05048644 0.010108453
000270 1d ce 19 3e 6b be c1 bd 3c 98 dc bc b8 d8 04 3d
       0.15020032 -0.094601475 -0.02692806 0.03243324
000280 47 c8 ee bd 28 0b ce bd c1 c3 b2 3c 5d d3 cd bd
       -0.116592936 -0.10060722 0.021821858 -0.1005008
000290 ea e4 78 3d 11 95 66 bd ca c3 b1 3c a7 51 76 bd
       0.060765184 -0.056294505 0.021699805 -0.060136463
0002a0 40 b6 1c bd 2c 99 c6 bd 5b 5d 00 bd b9 22 e8 3c
       -0.038259745 -0.09697184 -0.03133903 0.02833687
0002b0 43 b4 a3 3d 0a 1d 9e bd 29 b2 00 be 08 a7 6b 3c
       0.079933666 -0.077203825 -0.12567963 0.014383085
0002c0 58 c6 c6 bc b4 c7 6c 3d 8c e9 83 bd 38 ae 01 3d
       -0.0242645 0.05780764 -0.0644103 0.03166029
0002d0 72 43 4e bd 50 19 11 3e 46 ae e6 3d 47 a5 e2 3c
       -0.05035729 0.14169812 0.11263709 0.027666701
0002e0 72 23 8d bc e8 db a4 bc 88 dc 18 bd ba 91 ee 3c
       -0.017228816 -0.02012439 -0.03731969 0.029122222
0002f0 4b 9a b1 3d 26 83 92 3d 8e df 57 3d b6 9e 13 bd
       0.08672007 0.07153921 0.052703433 -0.03604003
000300 05 8c 9b bc 85 0e 0c bd 32 51 07 3d a9 e6 e5 bd
       -0.018987665 -0.034193534 0.03303642 -0.112256356
000310 e0 6e 8d bb fe 0b 08 3d d5 02 34 3c 8c ce d7 bd
       -0.004316196 0.03321456 0.010987003 -0.105374426
000320 6f 2e 0e 3c 5a a3 03 bd 68 c3 c3 bd 82 7b 85 bd
       0.008678063 -0.032138206 -0.09558755 -0.06517698
000330 0b d2 ea 3d 7b 7b 59 3c 9e b3 ba bd 24 ed bb 3c
       0.11465844 0.013274069 -0.091162905 0.022940226
000340 3f ab ae 3d 95 0f b9 3d 9a 38 3c 3c 97 f5 30 bd
       0.08528756 0.09036175 0.011488104 -0.043202963
000350 bd b8 85 3d 7e 1b f7 3d 05 43 24 3d 3d 19 93 3d
       0.06529377 0.120657906 0.040102977 0.07182548
000360 38 5a c5 bd 41 6b 9c bd 9e 58 73 bd 11 20 38 bd
       -0.096363485 -0.076376446 -0.059410684 -0.044952456
000370 75 21 f7 bb 82 93 41 3b 06 25 8c bc 2f 18 3e bc
       -0.00754183 0.0029537384 -0.017107498 -0.0116024455
000380 b0 60 24 3d 5e f0 92 bd 99 c4 87 bd 04 54 cc 3d
       0.04013127 -0.07174753 -0.06629295 0.09976962
000390 c5 7c d9 bd 6f 2d ad 3b cd 64 a0 3d 11 5d 10 3a
       -0.10619501 0.005284957 0.07831726 0.0005507032
0003a0 45 b6 7c bc 21 ea aa 3d 99 f9 41 3d 7a 79 df 3d
       -0.015424316 0.08345438 0.047357175 0.10911842
0003b0 e3 63 29 3d 71 20 0a bd 0f cc d1 3c 8e a3 1d 3d
       0.041355025 -0.033722345 0.025609998 0.038486056
0003c0 02 cb 1d 3d af 49 32 bd 1f eb ca bd 41 f4 94 3d
       0.03852368 -0.0435273 -0.09908127 0.0727315
0003d0 1c af 00 3d f5 b3 e1 3d 0b ad bc 3d 25 53 0a bd
       0.031416997 0.11020652 0.09212693 -0.0337707
0003e0 cc cf fc 39 a5 b6 a6 3c 25 24 53 bd 57 e6 a4 bb
       0.00048220006 0.020350764 -0.051548142 -0.0050323415
0003f0 6c aa ba 3c 64 2c b8 bd 8d af 17 bd 7c b1 e6 bd
       0.022786342 -0.08992842 -0.037032653 -0.11264321

actor.4.bias f4 [128]
000000 47 6e 06 3c 1e a4 fc bc 66 ee 51 bd 0d 49 ce bd
       0.008205003 -0.030839976 -0.051252745 -0.10072527
000010 ba 05 a6 3d 14 fe 43 bd 6d d6 41 3d 36 69 4e 3d
       0.08106561 -0.04784973 0.047323633 0.050393306
000020 bf 54 48 bd ca 03 20 bc 5a 76 a2 3d ce 2b 1d bc
       -0.048908945 -0.009766528 0.0793273 -0.009592963
000030 6b 6d d3 bc 21 a9 3b bd 7d 9a 70 3d 0b b8 5b 3d
       -0.02580901 -0.04581559 0.05874108 0.053642314
000040 b7 ae 65 bc 7f 62 4c bd ca 2e 1f 3d 0e 30 27 bd
       -0.014018706 -0.04989862 0.03886298 -0.040817313
000050 2e 39 bc 3d 8f d0 d6 bc 98 88 cf bb 48 6b 75 bd
       0.09190594 -0.026222495 -0.006333422 -0.059916764
000060 15 14 8c 3b 4a 8a 70 bd 2c 03 85 3d 82 3b 4e 3d
       0.004274855 -0.058725633 0.064947456 0.05034972
000070 ac 90 d4 bd a8 dd 5e bd 47 a8 ea bc 46 25 7f bd
       -0.103791565 -0.054410607 -0.028644694 -0.062291406
000080 70 3e 0a 3c c4 91 74 3c b6 3c 14 b8 1a c3 db 3c
       0.008437738 0.014927331 -3.534249e-05 0.02682643
000090 01 14 b8 bd 8c ab d2 3b ea 6d b7 bc 13 c3 b4 3c
       -0.089881904 0.0064291414 -0.022391278 0.022065675
0000a0 50 6f a4 bd c2 fc 49 bd ba 20 a4 bd 2c 61 03 bd
       -0.08029044 -0.049313314 -0.080140546 -0.032075092
0000b0 f5 a7 91 bd 6d f6 7b bc bd c2 cf 3d 2d e3 21 bc
       -0.071121134 -0.015378577 0.10144565 -0.009880823
0000c0 0c f1 8e bb 34 2d 6d bc 1f d5 4a bb 1f e8 0c bc
       -0.004362231 -0.014476109 -0.0030949784 -0.008600264
0000d0 01 0d 8e 3d 6b 43 9e 3d 68 24 08 bd f0 55 81 3c
       0.06936074 0.07727703 -0.033237845 0.015788049
0000e0 0a bf 74 3d 6e 56 53 bb d2 ab 95 3d 39 e4 32 3d
       0.0597525 -0.003224756 0.07308163 0.04367468
0000f0 e5 77 91 3b da 81 57 bd ff 29 8b 3d 3e f1 ce 3c
       0.0044393414 -0.05261407 0.067951195 0.025261518
000100 76 74 81 3c 4f c9 c9 bc 46 56 a8 bc 98 59 68 3d
       0.015802603 -0.024632124 -0.02054895 0.05672607
000110 61 c4 8a bd 9b 48 a3 3d cb 38 5d 3d dc 7d a2 bd
       -0.067757376 0.07972833 0.05400924 -0.07934162
000120 fb 3d a5 bd aa 08 4c bd 80 67 02 bd f7 cb 5f 3d
       -0.080684625 -0.04981295 -0.031836987 0.054637875
000130 5c 30 d7 bc b3 95 84 bd ed dd 80 bd 79 a9 9b bd
       -0.026268177 -0.06473865 -0.06292329 -0.07600684
000140 ce e5 d0 3c ee df a6 3d aa c6 8d 3d 17 3d 99 3d
       0.025500204 0.0814818 0.06922658 0.07482355
000150 e4 53 76 bc 2c 31 89 3c 37 c3 97 3c 4c bd ae 3c
       -0.0150346495 0.01674708 0.018525703 0.021330498
000160 a0 ff 20 3b 75 8f c8 3d 65 1e 26 bd 78 48 88 bd
       0.0024566427 0.09792987 -0.04055633 -0.06654447
000170 56 9a 74 bd d6 38 ff bc 59 87 cf 3d e2 57 64 bd
       -0.0597175 -0.031155031 0.101332374 -0.055747874
000180 66 14 56 3b 36 70 99 bd ca e6 44 3d 09 fe 2a 3d
       0.0032665967 -0.07492106 0.04807166 0.041746173
000190 93 3f 07 3d ac 73 af bd 95 b9 46 3d e0 94 5c bd
       0.033019613 -0.085669845 0.04851683 -0.053852916
0001a0 b8 68 94 bc a4 9f 63 3d 75 3b 35 bd c5 e0 f3 bc
       -0.01811634 0.055572167 -0.044246156 -0.029770264
0001b0 fd 1d e0 bc e2 5f 0e 3d 49 0e 91 3d e9 0c 2a 3d
       -0.02735805 0.03475941 0.07082803 0.04151622
0001c0 df 51 17 3d 4b 15 a2 3c 9c 1c 41 3d 0e f1 a0 bc
       0.036943313 0.019785544 0.047146425 -0.019646194
0001d0 de 8f 24 3d 33 1f 10 3a 30 6f b1 bd 67 8c 58 bd
       0.040176265 0.0005497813 -0.086637855 -0.052868273
0001e0 6e f7 6c bd dd 99 c8 3d 4a d4 25 bd 5e 14 4f bd
       -0.057853155 0.09794972 -0.040485658 -0.050556533
0001f0 19 83 3c bc 38 76 45 bd 93 ce 16 3d 19 da 65 bb
       -0.0115058655 -0.048208445 0.0368181 -0.0035072623

actor.6.weight f4 [9, 128]
000000 df a1 84 3d d7 2e 67 3d f3 64 ba 3d b3 46 e1 3d
       0.06476187 0.056441154 0.09101286 0.10999813
000010 ff 15 23 bd b9 6f c6 bb f9 c3 65 bc 91 28 90 3d
       -0.0398159 -0.006055799 -0.014023774 0.070389874
000020 22 c3 f8 3d 89 0b 94 3d 37 b5 72 3d 07 36 8e 3d
       0.12146594 0.07228763 0.05925485 0.06943899
000030 d0 1f d0 ba 24 7b b9 3b 19 ee 78 bd f9 10 b4 3c
       -0.0015878621 0.0056604315 -0.060773943 0.02198075
000040 5d 3c 18 3d 02 0d d8 3c e8 8b 86 bd 84 80 8c bd
       0.037166942 0.02637339 -0.06569654 -0.0686045
000050 d9 88 57 3d 2a cc 0f bd 62 b0 bd bd 33 27 b8 3d
       0.052620742 -0.035106815 -0.09262158 0.08991852
000060 23 9a 5e bd 5a 6b 73 3d d9 a3 7f 3d 9a 48 58 3d
       -0.054346215 0.05942855 0.062412117 0.052803613
000070 ee c2 96 3d 7e 18 b4 3d a5 4a 98 3c d2 e3 6c bd
       0.07361399 0.08793734 0.01859028 -0.057834454
000080 62 69 b1 bd 64 25 38 bc dd cf 6f 3d 4d e8 9d bd
       -0.08662678 -0.011239383 0.058547843 -0.077103235
000090 a6 34 57 3d 38 e4 7a 3d 75 a5 c4 3c 9b ed 4f bd
       0.052540444 0.061252803 0.024004677 -0.050763708
0000a0 f1 24 79 3d b5 17 73 bd c1 a8 75 3d 42 f0 3c 3b
       0.060826246 -0.05934878 0.05997539 0.0028829728
0000b0 3b 9f 8a 3c 29 d5 2a 3b 7e 50 8a bd 3a 7d 50 3d
       0.01692163 0.0026066995 -0.06753634 0.050900675
0000c0 55 ac 07 bc a7 03 92 bd c0 ca 8e 3d a8 66 06 ba
       -0.008280833 -0.07129603 0.06972265 -0.00051269913
0000d0 cc 81 b0 3d 72 92 81 bd 49 59 a2 3d a9 3e 5a 3b
       0.08618507 -0.0632676 0.07927186 0.0033301509
0000e0 8d 32 ad bd 0a d1 14 3d 44 51 88 3d 58 0d bc 3b
       -0.084569074 0.036332168 0.06656125 0.0057388954
0000f0 d7 83 40 3d fa 5a 9f 3d 6a ec da 39 e2 a1 5c bc
       0.047000732 0.07781024 0.00041756342 -0.01346633
000100 7f 70 62 3d c1 d6 9d bd c9 84 44 3d 69 b7 b5 bc
       0.055283066 -0.07706977 0.047978196 -0.022182183
000110 c2 be cf bc b2 76 71 3d 28 d5 91 bd 9d f8 e2 3c
       -0.025359515 0.058951087 -0.071207345 0.027706439
000120 5b 8c a7 3c 59 0b 42 3d 74 ab 42 3d 6b 08 cd 3d
       0.020452669 0.047374103 0.04752679 0.10011371
000130 7f 0f b4 3d 8d ba b7 3d 82 a7 9d bd 36 78 06 3d
       0.08792018 0.089711286 -0.07697965 0.032829486
000140 bf a9 44 bd ad 8e 99 bc 85 40 67 bc 6c 2c 7d bd
       -0.048013445 -0.01874479 -0.014114504 -0.061809942
000150 f7 c3 b0 bd ee c1 96 bd 4c 30 9c bc d3 9d 95 3b
       -0.08631127 -0.07361208 -0.019065998 0.0045659333
000160 04 d7 8a 3d 80 58 e6 bd ff 53 bc 3d 32 64 b0 3d
       0.06779292 -0.11247349 0.091957085 0.08612861
000170 44 d4 c8 3a e4 ad b4 3d b2 11 99 bd 4c ce 84 bd
       0.0015322049 0.088222295 -0.07474078 -0.064846605
000180 53 94 fd bc ad 6c b3 3d 21 66 80 bc dc 49 6a 3d
       -0.030954516 0.08760963 -0.015673699 0.057199344
000190 65 13 1b bd 81 08 57 3d bd 05 33 bd 30 a5 a2 bc
       -0.037860293 0.052498344 -0.043706644 -0.019854158
0001a0 f2 12 55 3d cf 9c b3 bc 21 07 ac 3c 0a 54 4e bd
       0.05202002 -0.021925358 0.020999493 -0.050373115
0001b0 9a 95 a8 bc f4 84 5f bd 3e f9 97 3d 20 00 2c 3b
       -0.020579148 -0.054570153 0.07420586 0.0026245192
0001c0 ab 0c 69 3d 72 f7 57 3d 17 0f f0 3b 34 a3 81 bd
       0.056896847 0.052726217 0.0073260176 -0.06329957
0001d0 4b 12 ca bd 6d f3 ac 3c c5 95 e0 bc 00 65 4e 3d
       -0.0986677 0.021112168 -0.027415166 0.05038929
0001e0 c8 7a 17 bd 30 d4 c5 bd f1 69 a4 bd 0b 0f 97 3c
       -0.036982328 -0.09659612 -0.08028019 0.01843979
0001f0 72 e8 92 3d a1 f6 b3 bd c2 4d ea bc a2 28 82 bd
       0.07173242 -0.08787275 -0.028601531 -0.06355406
000200 e0 36 71 3c 5f 1a c9 3c 6b e7 c2 bc c8 98 76 3c
       0.014722556 0.024548708 -0.02379199 0.015051074
000210 41 1f 38 3d 7e 25 bd bb 4b 83 55 bd f7 f7 6f 3d
       0.04495168 -0.0057722917 -0.052127164 0.058586087
000220 fc c4 ba 3c 8f a1 bb 3d f1 55 11 3d 34 62 b1 3c
       0.022799008 0.09161674 0.03548235 0.021653272
000230 5f cf 03 3d 8c 18 45 3d c0 96 0a bd 79 e0 4c 3d
       0.032180186 0.048119113 -0.033835173 0.05001876
000240 c4 37 3b 3d 76 5c 3e 3c 58 9b 71 3d 45 c6 23 3d
       0.04570748 0.011618724 0.058986038 0.039984006
000250 43 da a2 bd a3 ef 88 ba c6 d7 bd 3c 41 3d cd bd
       -0.07951786 -0.0010447394 0.023174178 -0.10021449
000260 d2 ce ef 3d 83 3d 19 bd 19 8b 0f bd 58 9c e4 bd
       0.1170937 -0.037412178 -0.035044763 -0.11162633
000270 9c ab e9 ba c7 93 bb bb 9f 55 17 bc d3 5b 92 3c
       -0.0017827633 -0.0057244035 -0.009236722 0.01786605
000280 e0 bd 2f bc ae 8e 3d 3d f1 52 d1 bd ad c3 8b bc
       -0.010726422 0.046278648 -0.10220898 -0.017061079
000290 31 f5 85 bd 77 85 81 bc 6a 08 96 3d 22 f6 7c bd
       -0.06540907 -0.015810711 0.073258236 -0.061758168
0002a0 31 e5 ea bc 94 2d 4d bd e0 79 15 3e ce 71 51 bd
       -0.02867374 -0.050092295 0.14597273 -0.051133923
0002b0 ad ea cc 3c 33 0a c5 bd d7 33 d9 bc a6 24 d0 bd
       0.025014246 -0.09621086 -0.026513977 -0.1016324
0002c0 c9 c5 f6 3c fc 22 9a 3c cf 92 70 bd ad 6c 9b bd
       0.030123608 0.01881551 -0.058733758 -0.07589088
0002d0 dc ab be 3d d0 f0 fe bc b4 39 d1 3d e2 7b 7d 3d
       0.09310123 -0.031120688 0.10216084 0.061885722
0002e0 69 91 74 bd e8 af 47 bd 4d 19 55 3d 7b b3 da bd
       -0.059708986 -0.04875174 0.05202608 -0.106787644
0002f0 1b 8d c4 bd b5 99 75 3c 95 a5 b9 bc f1 00 bf bd
       -0.09597226 0.01499026 -0.022661963 -0.093263514
000300 b8 cd 8e 3d 76 00 9f bd 4c 1c 69 3d 0d 3e ba 3d
       0.069728315 -0.0776376 0.05691175 0.090938665
000310 73 70 bb 3d 54 64 1f bc c0 da 39 bd 6d bd f4 bc
       0.09152307 -0.00972851 -0.045374632 -0.029875482
000320 0d b5 31 3d d3 a7 c9 3d f2 c0 64 bd 19 1e 2a 3c
       0.043385554 0.09846463 -0.05584807 0.010383152
000330 15 00 98 bd 40 ba b6 3d c2 ee f4 bd 44 ca 21 3d
       -0.07421891 0.08922243 -0.11959602 0.039499536
000340 94 48 ac 3d 64 d5 1d bd c8 56 cb bd 0e a6 be 3d
       0.08412281 -0.038533583 -0.099286616 0.09309016
000350 af 3a f8 3c 8c 46 8e bc 30 97 94 bd 7e 90 36 3c
       0.03030142 -0.017367624 -0.07255399 0.011142848
000360 31 5f 28 bd b6 a7 98 3d c0 c7 93 3d 44 15 e2 3c
       -0.041106407 0.07453863 0.07215834 0.02759803
000370 43 af 45 3d 23 16 18 3d 9e 93 1e 3c a7 b7 6d bd
       0.048262846 0.037130486 0.009678749 -0.058036473
000380 2a 36 21 3d 07 df be bd 47 f5 1f 3d 84 df fc 3d
       0.039358296 -0.09319883 0.039052274 0.1234732
000390 01 b8 d7 bd 87 f6 1b bd 6d 21 a3 3b 4f 64 92 3d
       -0.10533143 -0.038076904 0.00497835 0.071480386
0003a0 74 b1 e0 3d e3 c7 9c 3d 1b a2 0a be c1 a6 0e 3c
       0.109713465 0.07655313 -0.13538401 0.008706749
0003b0 98 03 97 bc c5 bf 6a bd 8e 07 96 bd fc b4 6d 3c
       -0.01843433 -0.057311792 -0.0732566 0.014508482
0003c0 cb 68 b4 bd ec 8a 05 3b 9b e2 c2 3d 31 7c aa bd
       -0.0880905 0.0020376993 0.09515878 -0.08324469
0003d0 36 aa 1f bd cb 29 a8 3d cb 08 11 bd 6b b6 bc 3d
       -0.038980685 0.082110964 -0.035408776 0.09214481
0003e0 f3 0a 28 3b dc b8 6f 3d 56 4d 8b 3d 7d ef e5 bd
       0.0025641292 0.058525905 0.0680186 -0.112273194
0003f0 88 6e 50 bd 6f da 1f 3d 30 60 02 bc 74 93 a4 3d
       -0.05088666 0.039026674 -0.007957503 0.08035937

actor.6.bias f4 [9]
000000 42 98 d6 bd 00 74 92 bc 13 c0 8b 3d f7 c0 6c 3c
       -0.104782596 -0.017877579 0.068237446 0.014450303
000010 b2 9b 19 bc 4f b4 5c 3d fd aa 71 3d 59 c6 21 bc
       -0.0093755 0.053882893 0.059000958 -0.00987395
000020 f2 99 94 bc
       -0.018139813
