ippo_algorithm/checkpoints/ppo_actor_2num_agent_exp_3_run_0_lumberjacks.pth (torch, 165116 bytes, 8 tensors)

actor.0.weight f4 [128, 51]
00000000: 1639 0f3d aa46 5c3d dc5e 45bd 4815 c73c
00000010: 7f93 ccbd 4f20 ce3d 8a0e 1abe 70a7 023e
00000020: 96ed 8c3d fe3e 7f3d a6e6 9cbd 90aa 34bd
00000030: dd83 7cbc 8584 a6bc b6f4 d83c 7ecf fd3d
00000040: 4f53 d33d e3bb e2bd 3754 bcbd b3fa bc3d
00000050: 397b cbbd ae24 6bbc 0857 fb3c 9f26 00be
00000060: a08a 483e 3f64 bfbd 07d9 73bd 3790 19bd
00000070: ae8d d7ba f3d0 91bc 5de9 79bd c4d5 fb3d
00000080: 73a3 103d 07cf 69bd 568e 423d 5eec 42bd
00000090: cd58 e63d eb81 09be 5927 05be 4dba d93d
000000a0: b3f9 89bd 0161 48bd b7b0 92bb 6f13 353b
000000b0: d34d 70bd 4245 93bd f806 593d 6a02 b1bd
000000c0: 4574 b23d 46c3 00be 77e2 c73d 0ccc e83b
000000d0: 8aa0 0abd 30b6 ad3b 3689 74bd 960d 1e3d
000000e0: 5744 1dbe 6a8a 43bc 5409 0cbe 649b c33c
000000f0: 016c 87bd c50c b73d d5c9 8b3d fb74 0abe
00000100: 97ab d13d c42c f2bd 695c 3ebd 657d c9bd
00000110: 5c49 e73d b31f d2bd c22e c1bd 4826 6a3d
00000120: 2dcc 8abd 29e0 563d 4ccc 94bd 7ac3 93bd
00000130: 8688 2dbb 7695 08bd aee5 a83d fa49 19bd
00000140: 6c53 26bd 63b0 8f3d dbbd 2bbc a720 c13d
00000150: d5d8 cd3d fadf 043e c25f c73d b934 a83d
00000160: fd2c ae3d e54d 21bd 2670 05be 75c7 13bd
00000170: c35f a63c 82b0 053d b1b5 e23a a04e c5bc
00000180: b044 cd3d 9459 b93d 23db 633d 2f90 083e
00000190: 64e5 91ba 8139 273c 05c5 673d 212f 8ebd
000001a0: e1f4 b0bc 5797 063c 8c8d ae3d 1131 fd3d
000001b0: 35ad 8abd 161d 603d cdd6 743d 4131 4c3d
000001c0: e3e6 e2bc 9c77 48bd df91 923d 6336 c43d
000001d0: 3d51 b8bb 3cf2 a1bd bc79 a73d f441 cfbd
000001e0: 926c 81bd 2457 743c c6da a0bb 36d8 983d
000001f0: e926 ca3d 23cd 173d 15d1 cb3b bd90 15be
00000200: c8cf 27be 692d dfbc 44a2 8eba 5ebe b13d
00000210: 81ba d1bd d288 d8bd 5ada dbbd d064 4c3d
00000220: 708c bebc dd7b c1bc a850 d6bd b9a2 013e
00000230: 324a 07bd a91b 21bd 8134 febd 6ba6 583d
00000240: 124c f2bd 353e f9bd 3e9f 553d 2dd4 e1bc
00000250: 4131 02be 25b2 083e 87c5 c23d 5a29 003d
00000260: d1ca fbbc f355 c73d 8d8b ae3b 1068 32bd
00000270: 95ff 67bd 8433 cb3d 1680 19bd 02d4 26bd
00000280: 9f67 afbd 03ce 8a3d b0db 42bd 5da5 e23d
00000290: 31be e93d b642 43bc 8590 7f3c ca8e bf3d
000002a0: 9818 eb3d abbe 08be ecf8 b5bd 2166 963d
000002b0: 1101 93bd 364a 8ebd f1a1 38bb f010 d63c
000002c0: ae9d 8abc b779 07bd e393 fc3c 33fc c2bd
000002d0: a744 283d 8551 f03d f447 7d3d f74f 3e3d
000002e0: 05ca 773c 4a21 6cbd 7daa edbd ac29 db3d
000002f0: 3229 c8bd a24c fbbd 8a77 76bd 3a46 51bc
00000300: 748a 1e3d 10a1 e2bd 4167 eabd 8959 afbd
00000310: 2fe1 45bd 0e85 be3c 9bbc 763c c942 be3c
00000320: c226 b53d f615 b3bd 1d0d 3d3d ce53 0fbe
00000330: f2fc cc3d e7a1 b4bd 3feb babc 5adf 29bd
00000340: 4e76 46be 1210 4f3d d148 90bd e155 21bd
00000350: 4bc5 363d 3d1c f83d 59d7 893d e13e 923c
00000360: da42 f6bb 726f ad3d 625d 983d d46d 713d
00000370: 65cd 0d3e b510 05be fe6d 863d 6c31 06bd
00000380: 35b8 4b3d 089b 8abd 316f 173e abf7 3ebd
00000390: e577 24be 7c4a 10bc 6085 813b d74c be3c
000003a0: f0fe e8bd 4af2 b9bd 505c 9f3d 0112 5d3c
000003b0: 706f 09be 4228 fc3d ebc9 debd 8664 9b3d
000003c0: d779 9d3d 0a46 38bd 6692 67bc 5799 ba3d
000003d0: 4322 a73d ab85 6ebd c619 953d 2388 d53d
000003e0: 7a01 01be 352d 7a3d ccd6 e3bd ffd6 3abd
000003f0: 2df9 81bc f67a 15bd b3fc ddbd 6bd0 ac3d
0.03496655 0.053778328 -0.048186168 0.02430214 -0.0998907 0.10064756 -0.15044609 0.12759185
0.068812534 0.062315933 -0.0766118 -0.044107974 -0.015412298 -0.020326862 0.026483875 0.123930916
0.10318624 -0.11070993 -0.0919575 0.092275046 -0.09935612 -0.014352007 0.030681148 -0.12514733
0.19584131 -0.09345292 -0.059533145 -0.03749105 -0.0016445422 -0.01779983 -0.06101357 0.12296632
0.035312127 -0.057082202 0.047499023 -0.0475887 0.11247406 -0.13428466 -0.13003291 0.10631237
-0.067370795 -0.048920635 -0.0044766325 0.0027629992 -0.05866797 -0.07190944 0.05298516 -0.086430386
0.08713583 -0.12574491 0.097599916 0.0071044024 -0.03384451 0.0053012595 -0.059701167 0.038587175
-0.15358101 -0.011934856 -0.13675433 0.023877807 -0.06612397 0.089379825 0.06825606 -0.13521187
0.10237806 -0.118249446 -0.046474848 -0.0983837 0.11293289 -0.102599524 -0.094327465 0.057165414
-0.06777225 0.05245987 -0.07265529 -0.072150186 -0.002647908 -0.033345662 0.08246933 -0.037424065
-0.0406069 0.07016065 -0.010482277 0.09430056 0.10051123 0.12976065 0.09735061 0.08213181
0.085046746 -0.039380927 -0.13031062 -0.03607889 0.020309335 0.032639034 0.001729658 -0.024085343
0.10022867 0.09050289 0.055628907 0.13336252 -0.0011130986 0.010206581 0.056584377 -0.06942583
-0.021601142 0.008214793 0.08523092 0.12362874 -0.06771318 0.05471524 0.059775162 0.04985166
-0.027697986 -0.048942193 0.07156729 0.09580686 -0.0056249187 -0.07907531 0.08177516 -0.101200014
-0.06319536 0.014913354 -0.0049088923 0.07463114 0.09870703 0.037060868 0.006219993 -0.14605995
-0.16387856 -0.027243333 -0.0010882099 0.08678888 -0.10240651 -0.105729714 -0.10735007 0.04990083
-0.023260325 -0.023618633 -0.10464603 0.1265973 -0.033029743 -0.03933302 -0.12412358 0.052893084
-0.118309155 -0.12170068 0.05215382 -0.027566994 -0.12714101 0.13349207 0.095103316 0.031289436
-0.030736359 0.097331904 0.0053266943 -0.043556273 -0.056640226 0.09921935 -0.037475668 -0.04072953
-0.08564686 0.06777575 -0.04757279 0.11066697 0.11413229 -0.011917761 0.015598421 0.09353407
0.114793 -0.13353984 -0.08885369 0.07343698 -0.07177938 -0.06947748 -0.0028172696 0.026131123
-0.01692089 -0.03307506 0.030832237 -0.095207594 0.041081097 0.117342986 0.061836198 0.04646298
0.015123849 -0.057648934 -0.11604784 0.10701308 -0.097734824 -0.12270476 -0.060172595 -0.012773091
0.038706258 -0.110658765 -0.11445475 -0.08561999 -0.048310455 0.023256805 0.0150596155 0.023225205
0.08845283 -0.08744423 0.046155084 -0.13996813 0.10009183 -0.08819943 -0.022817252 -0.04147277
-0.19381067 0.050552435 -0.070451386 -0.03938854 0.044621747 0.12114761 0.067305274 0.017852249
-0.0075152935 0.08468522 0.07439686 0.05894263 0.13847883 -0.12994654 0.06563948 -0.032761976
0.04973622 -0.06767851 0.1478851 -0.046622913 -0.16061361 -0.008806821 0.003952667 0.02323
-0.113767505 -0.09079416 0.07781279 0.013493062 -0.13421416 0.12312366 -0.108783565 0.07587533
0.07689255 -0.04498867 -0.014134025 0.091112785 0.08160832 -0.058232944 0.072803065 0.10426357
-0.1259822 0.06107827 -0.11124954 -0.045615193 -0.015865887 -0.036494218 -0.10839214 0.0843819

actor.0.bias f4 [128]
00000000: 657a 1d3d e31d dd3d 5a51 68bd a67c 95bc
00000010: 5245 643d 029f f43d 2867 90bd be1c 82bd
00000020: 3935 51bc 0593 d33d 377b 7dbd 8b86 32bd
00000030: ecef 8a3d 5cff 583d 746d ac3d 6405 a9bd
00000040: 44dc 19be 6543 6abd 84c4 053c 20e6 ac3d
00000050: b504 86bd af25 7abd 3882 403d 2bac eb3d
00000060: 9760 5f3d 6052 cdbd 0610 bd3d 97f1 07be
00000070: ce8d 4cbd 674c a13c 6b71 353d f2ee d23d
00000080: ca58 193e df30 a33d ce21 003c b33a 103e
00000090: 303b e9bc c1c3 5dbc 1895 033e 8f1a 3f3d
000000a0: f576 593d afaa 2c3d d86c 573d d028 e4bd
000000b0: 7048 a0bd 5586 c8bd 7516 ed3d e476 1fbd
000000c0: c3db 113a afe8 ecbd 78c7 99bc 95f9 d53d
000000d0: 4bd5 813b 05e6 e4bc 3a8a 923d 1075 52bd
000000e0: f169 e3bc 35be e9bc e248 6cbd cbe7 92bd
000000f0: 0b0f 193e 382c d33d 325e 92bc c314 80ba
00000100: c856 e23d 8555 b83c 0daf 093d 154f 273e
00000110: 1201 b43d 7a61 e8bd c47e 55bd f779 d33d
00000120: 5f07 32be b483 3c3d 9e95 113d b429 bfbd
00000130: 5668 78bd dfbe f4bd 713b 6bbd 47ca a7bd
00000140: 1d25 7f3d f3dc 63bd 8b88 fc3d ced4 1e38
00000150: 653c 813d 0a7f 7bbd 4404 07be 3da4 0a3e
00000160: 4fa9 9ebd 6463 8abd 809f 44bc 0380 043e
00000170: 6f73 37bd 62d0 c93d 7bfd d6bd 4020 2abd
00000180: a448 353d 8ffd 1bbd e380 f1bc c290 d3bb
00000190: 0f77 a13d 2855 dc3d 7ef8 2b3d 0900 2abd
000001a0: f256 98bd 5093 923c 225c c6bb cec2 9b3d
000001b0: 3b8e cfba 29bf a8bd 8d16 89bd 18a6 b8bd
000001c0: b063 12be c4a2 ecbd 59ac 3a3c 78a4 e93d
000001d0: 51c5 d73c 1205 10bc 57f4 c63d 6aee fb3d
000001e0: ed41 f1bd fefa df3d 365d d43d 1bad bb3d
000001f0: 3ee2 c5bd 23cd ea3c 4187 c0bc b45d a93d
0.038446803 0.10796716 -0.056718208 -0.018247914 0.05573017 0.11944391 -0.070509255 -0.063531384
-0.012769037 0.10330776 -0.061885085 -0.04358534 0.06784043 0.052977905 0.08419314 -0.08252981
-0.15025431 -0.05719318 0.008164529 0.0844233 -0.065438665 -0.061071094 0.046999186 0.11507448
0.054535475 -0.100254774 0.09231572 -0.13275753 -0.049939923 0.019689752 0.044297617 0.102994815
0.14975277 0.07968306 0.00782056 0.14084892 -0.028470606 -0.013535441 0.12849844 0.046656188
0.053091962 0.042154964 0.052594036 -0.11140597 -0.07826316 -0.09791247 0.11576549 -0.038931742
0.0005564058 -0.115678184 -0.018771872 0.104479946 0.003962194 -0.027941713 0.07155271 -0.05138117
-0.027760478 -0.02853308 -0.057686694 -0.07173117 0.14947145 0.103111684 -0.017867181 -0.0009771812
0.110517085 0.022501716 0.033614207 0.16338761 0.08789267 -0.11346717 -0.052122846 0.10325997
-0.17385624 0.04602404 0.035543077 -0.09334126 -0.060646378 -0.11950468 -0.057429735 -0.08192878
0.062291253 -0.055630635 0.12330731 3.7868325e-05 0.063103475 -0.06140045 -0.13185221 0.13539214
-0.07747137 -0.067572385 -0.012000918 0.12939458 -0.04478782 0.09854199 -0.10497566 -0.041534662
0.04425873 -0.03808361 -0.029480403 -0.0064564655 0.07884037 0.1075843 0.041985027 -0.04150394
-0.074384585 0.01789251 -0.0060534636 0.076055154 -0.0015835235 -0.08239586 -0.06693754 -0.09016055
-0.1429584 -0.115544826 0.01139363 0.11408323 0.026339205 -0.008790271 0.09714573 0.12301333
-0.117801525 0.10936545 0.10369341 0.091638766 -0.09662293 0.02866227 -0.023501994 0.082698256

actor.2.weight f4 [128, 128]
00000000: f8e3 1fbd d2f5 c53c 7ad3 1cbd 0ecf efbc
00000010: d49d 5ebd 98bd 983c 1077 c83b 3ab3 9bbd
00000020: e053 be3b 58a6 9fbd 1045 e23d 1269 c8bc
00000030: 5a15 403d a667 4dbd 9388 c6bc 0031 43bd
00000040: e8c4 5d3d 61d1 d3bc 76ac 4cbd 63ca 8f3d
00000050: a2c7 8a3d 1a3b aabc 95d8 d039 c3d7 53bd
00000060: a11b 963d 20dd 65bc f91e 59bc 3b4f a83c
00000070: 8a40 70bc c142 be3c cde7 553c 885f 95bd
00000080: 627c 2c3d 762d 25bd 7e97 953d 6766 ea3b
00000090: 2ce4 a5bd 8bb5 0b3d aa0c 0fbd b99b 8c3d
000000a0: ee46 a8bd 4458 85bb 20a0 4b3d ae57 5fbb
000000b0: 3848 bdbb ac18 903c 8de7 623c 87bb 533d
000000c0: 6ddc c2bd 5740 8cbd 2193 953d f579 a2bd
000000d0: 76df 3abd 1ee5 a13d 7965 133d c17e 913d
000000e0: fa57 433d 83c7 f63c fac3 f13d 5b79 31bd
000000f0: 6bdc 3c3d 0114 d53c 7c34 9bbd be8e 03bd
00000100: 80be b43d 2099 09bd 4ca3 29bd 6173 e5bc
00000110: 357f d3bb 2fd5 883b 91bd 8dbd 2428 dfbd
00000120: a312 80bc edec 02bd ba35 7c3d 07bb 473d
00000130: 4345 54ba 6176 9c3b ebf9 bd3b 1364 e43d
00000140: 4b74 e6bc 1a8e f6bc c7a9 9e3d 794b 953d
00000150: 78ab 63bd c014 3ebd c4aa a33d 1917 84bd
00000160: 55d1 b3bd a752 ddbd 4576 363d b8d5 f0bc
00000170: 53ab 93bd 509b 4dbd 6aeb 643d d46e 6d3d
00000180: 5dd8 09bd 6cb0 783d f681 ecbd 27ad 763c
00000190: 7eee 2cbd 3e02 f73c afac 92ba 97ba 133d
000001a0: 2b7c 883c a874 a4bc 35d0 70bd 13ca 91bb
000001b0: b757 9d3c fc37 863d 8482 403d f754 c1bb
000001c0: 2532 713d 09b0 c8bd 1160 143d f4c7 3fbc
000001d0: 86b3 453c 911d 363a 7aa6 783d db1d 7abc
000001e0: 412b a2bc 7acf 55bc e953 9dbb ef49 0b3d
000001f0: e5a0 1abd cdb0 3abc f0e5 8abd 6129 603b
00000200: c315 98bd 1f4f 0c3d 6245 1dbd 35b4 90bd
00000210: c7a8 fc3d 9f04 1a3d ae9b b63d d4ef e03d
00000220: 0be9 9f3d 288f 17bb 8523 b63c eb4c 8e3d
00000230: ec95 66bc 78e1 03bd 3e2b 673d 1c03 1c3c
00000240: 90e9 98bc d587 6d3c 5a26 3bbd 0796 a83c
00000250: 451f 2ebc e553 fc3c 2933 0ebc a1bd 2e3d
00000260: bb63 2fbd 67f9 8ebd 6ab3 423d b4ae 1b3d
00000270: 48a5 293d d731 b43b bfc4 da3c ffd2 7e3d
00000280: af5a 16bd 0fd6 0ebd bc3e eebd c876 883c
00000290: c408 383c eaad 37bd 2937 99bc e1db 723d
000002a0: 00a0 133d 539b a6bd c493 77bd 9be3 b1bd
000002b0: aa66 223d 90bd 9f3c 22f3 4cbc 37b8 17bd
000002c0: 55aa 08bd c903 21bd b787 b63d 4366 1fbd
000002d0: 0896 99bd 449b c9bc cf97 753d bf8d 893d
000002e0: 2a60 1ebd 12d5 4bbd 0a1a e53c 6651 9c3b
000002f0: 0b3a bcbc 9a67 983d adf1 ca3d def7 3b3d
00000300: 7ac7 15bc c2b7 9e3c edf1 1cbd 75b1 033d
00000310: a1c1 92bd c73a a33d 6e30 e0b8 806c b13d
00000320: 9839 a2bb c6f7 cb3c ca17 6cbb b02a ae3d
00000330: 94be acbc ac4f 953d 43bc 793d 3a19 b13b
00000340: 723d 7b3d 681f b7bc b074 97bc 36a1 873d
00000350: 6f2d cd3b 1667 c2bc c390 dabd 8c65 0c3d
00000360: 2d7a 93bc 35fa 62bc 4eea 67bc 8810 11bd
00000370: cc6e dbbc 9c36 0abc 5fd9 ca3b 5dbf a2bd
00000380: 7982 c13b be9c 143b 8432 153d 5f7d a7bd
00000390: 73c2 20bd be60 953d 0282 a9bd c893 473d
000003a0: 8777 24bd 1b8e 023d 365f c23b c2fa 8d3d
000003b0: 26b8 233d eb2e 843d 407f 003c 2445 c53b
000003c0: ef14 d73d 74ed 073d 1b64 78bc 8b24 793d
000003d0: e3f5 173c 772d 96bd a6b7 17bd 37bd 4d3c
000003e0: c00e 89bc 8979 693d 1dd6 6d3d 8131 a33c
000003f0: 1f08 e1bb 9a6d 3b3c 945a 2cbc ebbc 9f3d
-0.039035767 0.024165068 -0.038287617 -0.029273536 -0.054349735 0.018645093 0.006117709 -0.07602544
0.0058083385 -0.077953994 0.11048329 -0.024464164 0.046895362 -0.050147675 -0.024235046 -0.047654152
0.054142863 -0.025856676 -0.04996916 0.07021024 0.06776358 -0.020780135 0.00039834218 -0.05171944
0.073294885 -0.014029771 -0.013252013 0.020545593 -0.014663825 0.02322519 0.013055754 -0.07293612
0.04211081 -0.040326558 0.073042855 0.0071533206 -0.08100161 0.03410868 -0.034924187 0.06865639
-0.08216654 -0.00406936 0.049713254 -0.003407936 -0.0057764314 0.01758989 0.013849151 0.051692512
-0.09514699 -0.06848209 0.07303453 -0.07933418 -0.045623265 0.07905029 0.035985444 0.071042545
0.047691323 0.030124431 0.11804958 -0.043328624 0.046108644 0.026010515 -0.0757837 -0.03211855
0.088253975 -0.033593297 -0.041415498 -0.028009119 -0.0064543732 0.004175804 -0.069209225 -0.10896328
-0.015633887 -0.03196423 0.061574675 0.048762348 -0.0008097479 0.004774854 0.005797615 0.111519
-0.028131625 -0.030097056 0.07747226 0.07289786 -0.055583447 -0.046406507 0.07991555 -0.06449718
-0.08780161 -0.1080678 0.044546384 -0.029398784 -0.07210412 -0.050196946 0.05588857 0.057967022
-0.033653606 0.060715124 -0.115482256 0.015055931 -0.04221963 0.030152436 -0.001119038 0.036066618
0.01666077 -0.020075157 -0.05879231 -0.004449138 0.019206865 0.06553647 0.04699947 -0.005900021
0.058885712 -0.09799201 0.03622443 -0.011705387 0.0120667275 0.0006947155 0.06070564 -0.015265907
-0.019796016 -0.013049955 -0.0048012626 0.034006055 -0.037751097 -0.011394692 -0.06782138 0.0034204351
-0.07426026 0.034255143 -0.038396247 -0.07065622 0.12336879 0.037602063 0.08916412 0.109832436
0.07808121 -0.00231261 0.022233734 0.06948265 -0.01407383 -0.032197446 0.056437723 0.009522226
-0.018666059 0.014497717 -0.04569087 0.020579351 -0.010627572 0.030801723 -0.00867919 0.042661313
-0.04281972 -0.069811635 0.047534384 0.038008407 0.04141739 0.0054991054 0.026705144 0.06221294
-0.036707576 -0.03487211 -0.116330594 0.016658202 0.011232559 -0.04484359 -0.01870306 0.059291724
0.03604126 -0.081350945 -0.060443655 -0.086859904 0.03964869 0.01949957 -0.012509139 -0.037040915
-0.033365566 -0.03931025 0.08912604 -0.038915884 -0.07499319 -0.02461017 0.05995923 0.06716489
-0.038665928 -0.049763747 0.027966518 0.0047704456 -0.022976896 0.074416354 0.09909377 0.04589068
-0.009141797 0.019374732 -0.038316656 0.032151658 -0.07165838 0.07970195 -0.00010690173 0.08663273
-0.0049507134 0.024898421 -0.0036024922 0.08504236 -0.021086968 0.07290587 0.060970556 0.0054046186
0.061337896 -0.022353843 -0.018488258 0.066225454 0.0062615196 -0.023730796 -0.10672142 0.03427653
-0.018002594 -0.013853599 -0.014154984 -0.035416156 -0.02678623 -0.008435871 0.0061904634 -0.07946656
0.005905446 0.0022676433 0.03642513 -0.081782095 -0.03924794 0.07293843 -0.0827675 0.04872492
-0.040153053 0.031873804 0.00593176 0.06932594 0.03997054 0.064542614 0.007842839 0.006020205
0.1050204 0.033185437 -0.015160586 0.060825866 0.009274933 -0.073328905 -0.037040375 0.012557319
-0.016730666 0.05700067 0.058065522 0.019921066 -0.006867423 0.011439705 -0.010519642 0.07799705

actor.2.bias f4 [128]
00000000: 2b31 313b ce8c 93bd 9b72 203d 2d22 e23c
00000010: 07f9 3cbd a81c 463d 44fa a63c 013a b7bc
00000020: 38a7 95bc 652f 0dbd 393f 053b cfdb 383d
00000030: 3ede 85bd 5f96 5ebd 8f02 0a3c 536b 693d
00000040: afd0 623d 6d5b 8fbd e756 8ebd ac54 20bd
00000050: bb13 c23c 4ab0 fd3c 81b9 5c3c 3517 3b3d
00000060: e6ce b0bb c9dc 353d 10bd 873d 3d67 123c
00000070: 0166 583d 2e12 2fbd e484 8cbc b02f 03bd
00000080: 81a9 863d 90b8 84bc b5a4 efbc d058 8fbc
00000090: 2291 683d 79b9 6ebd 338c 903d 4248 1d3d
000000a0: fe11 1d3d 039d 95bd 016a e3bc ddb7 483d
000000b0: 438f f5bc 6cfc 873a af15 833d 39d1 353d
000000c0: 901e a0bc ee27 dbbc 3569 0cbd 178f ff3c
000000d0: eb4e 0fbd 69b1 bebc 3cbe 5e3d d9ba 00bc
000000e0: cf0d 503d 1603 a9bc 87f8 28bd 8c72 433d
000000f0: de90 a23c 9b10 02bd f35a f8bc 365d 34bc
00000100: a690 523c 674b 5abd 0bad e43b 79c0 1bbd
00000110: 1813 1e3c 9b8a 8bbd b006 8f3d 92bd 89bd
00000120: 7b2e 233d 5414 0f3c 64fc a8bc d6f6 d3b9
00000130: feb2 123d 70f9 613d e88c 163c c753 383d
00000140: c6fc 863d 6e32 3f3d d3ca 383d 4bed 21bd
00000150: dbbc 8d3d 42b1 283c 96d1 fdbc 5b20 333c
00000160: c357 343d b3ee cbbc 1b53 84bd 1429 27bd
00000170: b7cb 8c3d f09d 7d3d 6e83 5bbd 78ae 023b
00000180: 72ee 52b9 9a6d c03c 3cfd 9e3d ae9b 263d
00000190: 7274 493b 8fae 04bc 2746 c2bb 3f5d ae3c
000001a0: a53e b7bc 1eb3 6ebd 26a7 02bd 72f6 393c
000001b0: 2aeb a6bc 3c08 b8bc 6ce5 0bbc 1be5 203d
000001c0: 1590 d5bc 4ab5 c13c 3a1c b7bb 6fc4 52bd
000001d0: f06e 9f3c 5abe 373d 764a 5f3d 8949 883d
000001e0: 8631 783d b40c 6d3c 600d 99bc 8690 83bc
000001f0: 1861 00bd b6db a3bc 8306 bebc 5f69 13bd
0.0027037363 -0.07204591 0.039171796 0.027604187 -0.04613593 0.048367172 0.020383008 -0.022366526
-0.018268213 -0.034469027 0.0020331873 0.0451315 -0.0653653 -0.054342624 0.008423462 0.056987118
0.055374797 -0.0699986 -0.06950169 -0.03914325 0.023691049 0.03096785 0.013471962 0.04567643
-0.005395758 0.04440001 0.06627858 0.008935747 0.052831654 -0.042741947 -0.017153211 -0.0320279
0.06575299 -0.016201288 -0.029253343 -0.017498404 0.056779034 -0.05828235 0.07057991 0.03839899
0.038347237 -0.07305338 -0.027760508 0.04900347 -0.02997554 0.001037491 0.0640062 0.044388983
-0.019545823 -0.026752438 -0.03428002 0.03119616 -0.03498737 -0.023277955 0.05438064 -0.007857048
0.05079442 -0.020631354 -0.04125264 0.047716662 0.019844469 -0.031754117 -0.030316805 -0.011008551
0.01285187 -0.053294566 0.006978636 -0.038025353 0.009648107 -0.06813546 0.069836974 -0.06725611
0.03983925 0.008732874 -0.020628162 -0.00040428963 0.03581523 0.055169523 0.009188868 0.04500177
0.065911815 0.046678953 0.045115303 -0.03953294 0.06920787 0.010296168 -0.030983727 0.010933007
0.04402901 -0.024894094 -0.064611636 -0.04081066 0.06874793 0.0619182 -0.053592138 0.0019940417
-0.00020115988 0.023489762 0.077631444 0.04067581 0.0030739573 -0.008098259 -0.005928773 0.021284698
-0.022368738 -0.05827629 -0.031897686 0.011350261 -0.020375807 -0.022464864 -0.008538585 0.039280992
-0.02606968 0.023646016 -0.0055880817 -0.051456865 0.019462079 0.044859268 0.05451437 0.06654651
0.060594104 0.014468361 -0.018683136 -0.016060125 -0.031342596 -0.020002227 -0.023196464 -0.03598916

actor.4.weight f4 [128, 128]
00000000: 24f3 3a3d c9e0 a5bd 54b0 843c c027 ef3c
00000010: 67cf 303c be2b 403b 256d 03be 854b 083b
00000020: 6ceb 573c af0c d73a 4332 043d dc97 973c
00000030: f5c3 843d b2d1 c13d c745 5abc b93e 71bd
00000040: 6835 933d e83e a03c 6887 8dbd 4b36 183d
00000050: f891 ab3d bb11 843d dde7 9a3d 73e9 afbd
00000060: 7e14 0d3d 8823 aa3d b4fa 7e3d ef66 a3bd
00000070: 1003 98bc 0240 7b3c 7662 cdbc 1b52 853d
00000080: 40e0 16bc 68f0 ecbd e0ba 623d 4d5b 53bd
00000090: 0492 f13d d736 223c 3ba3 26bd f95f 57bd
000000a0: 7e89 a7bd 1e01 643d 382b 353b a3ae bdbd
000000b0: 3501 173d 2a60 863d 9d16 a03d 1fd8 4fbc
000000c0: f27a a1bd 9f53 10bd 1939 2f3c ac44 acbd
000000d0: 2cf0 353d d638 8e3d 2106 3c3d 2f4b a33d
000000e0: ba9a b33d db93 943c 49ca 4abd b621 84bd
000000f0: 03b6 873d e6cd 09bd 301a eb3a 50f4 1dbc
00000100: a063 043d 40de 463d ba78 97bd 4d2f 0ebd
00000110: a098 50bd c40a 753b 11fa 063e 4e09 393d
00000120: 8c6a aebd 5c22 d338 1633 a03d fffa 4ebd
00000130: 7de8 883d 1c0c e7bc abc0 feba 7a18 be3d
00000140: ca54 9e3d 762f a9bd 86aa acbc 6a0b 4bbd
00000150: 0ab9 c6bd bf51 af3b b363 59bd 2125 4bbd
00000160: 749c 9bbc 97fe 8b3d 0164 9d3d 6c30 94bd
00000170: 93d4 923d e00d 3e3d 6e4f 82bd ea01 febc
00000180: 9151 6c3c 6bee cd3d c448 87bd 1b25 a43d
00000190: b678 8dbd b491 a23b 9171 953c e4eb 873d
000001a0: b49a 4cbc c4fb 903d bbfa bdbd a262 283c
000001b0: d1fa 843b a564 c53c 1e99 5e3d 8357 c43c
000001c0: 409b 88bd 8818 343d 64ba 7d3a 47ea 90bd
000001d0: 046e 60bd 8011 d4bd c94e 923d b5ed 1abd
000001e0: 86f1 1f3c 8036 b93c 5bab f03c a988 363c
000001f0: 5fe5 ebbc 96e9 d13c b03c 033d 97ec 223d
00000200: fec5 cd3c 421f 673d 5ed8 c73a 0dca 7ebd
00000210: 72e9 dcbc ba65 87bd 7a81 fd3c b174 b43d
00000220: 2290 1b3d 4449 ecbd c08d 8d3d 9b96 9ebc
00000230: d3c0 22bd 0479 f7bc ec32 57bc ef90 a6bd
00000240: e4f3 663d c0a1 993d 9187 5dbd 0156 af3d
00000250: c73a a33c eb02 b7bd b2bb 443b a486 b3bd
00000260: 9954 96bc b252 a83d 5a07 56bc a25a a83c
00000270: 4277 4dbd aa73 b2bc 7d3b 5dbd ff23 9ebc
00000280: 61bf d73b be92 033d dcca 84bd a3a5 863c
00000290: e3ff 153d 88ed 4e3d 7cef a8bd a6c0 0ebb
000002a0: 78f4 7abd a3b6 7abd 2154 56bc ebf5 763d
000002b0: 1a2a 5abd dd35 8abc d6ad 77bc e758 af3c
000002c0: 9fa5 a13d 1c3b 1b3d 02aa 96bd eaee 0ab9
000002d0: acc0 753d 2759 72bb 762e 61bd 7ae4 72bc
000002e0: 47bc 1bbd 82b7 d63c da7f 81bc 52cf d33c
000002f0: 5e57 20bd 3c5b 903d 9046 d93d 8c4b 933c
00000300: 2b44 763d 14b6 35bd f6ce 4dbd 1ab6 493d
00000310: f0ae 8bbd 99e3 e63d 4f2d 8c3d 10f6 07bd
00000320: 164a 5e3c c46a 863c e9d7 813d 17b4 bfbd
00000330: 7afa 8a3c 9b88 0cbd 5d5e 9f3d 9b16 123d
00000340: 17e1 56bd aca5 f3bc e7c5 d0bc 72e5 a03b
00000350: 3594 f43c 514c 94bc 01f1 023b 5e13 63bd
00000360: 1f14 bb3c 30be 64bd 0a1c a73d a930 d7bc
00000370: 2c25 a63d 0aa5 af3d 86e9 063d 30d6 91bd
00000380: e82c 89bd d93e 91bd 64ae f1bc 509d f3bc
00000390: 924c 33bb 1ab7 6bbd 130d f3bb 29bb b5bc
000003a0: 3c59 0cbd 0153 9fbb 096d 92bd feb0 3ebd
000003b0: 52ac 0cbd 9eec 1cbd 887d bdbd 89af 49bd
000003c0: 2cf5 9eba 8f78 313d c8ae 323d 5845 a13d
000003d0: f22a 31bd 3674 a23c 957e e8bc 6b26 263d
000003e0: 3188 953d 98be a5bc 83be ac3c c409 7abc
000003f0: 4b65 9ebd dfb4 15bd 573a 943d 3131 f9bc
0.045642033 -0.08099515 0.016197361 0.029193759 0.010791636 0.0029322947 -0.12834604 0.0020796966
0.013178688 0.0016406978 0.032274496 0.01850503 0.06482688 0.09463824 -0.0133223 -0.058897708
0.07187921 0.019561246 -0.06910592 0.037161153 0.08377451 0.06448694 0.07563756 -0.08589449
0.03444337 0.08307558 0.062250808 -0.079786174 -0.018556148 0.015335085 -0.025071364 0.06509801
-0.009208739 -0.11569291 0.055354 -0.051600743 0.117954284 0.00990077 -0.040683012 -0.05258176
-0.081805214 0.055665128 0.0027644169 -0.09261825 0.036866385 0.065613106 0.07816813 -0.012685805
-0.07884778 -0.035235997 0.0106947655 -0.084115356 0.0444185 0.06944434 0.045904282 0.079733245
0.08769746 0.01813691 -0.04950932 -0.06451742 0.06626513 -0.033643626 0.0017936882 -0.009640768
0.032321572 0.048551798 -0.07396074 -0.03471308 -0.050926805 0.003739045 0.1318133 0.04517489
-0.08516416 0.00010067664 0.07822244 -0.050532337 0.066849686 -0.028204016 -0.0019436082 0.09282012
0.07731016 -0.082610056 -0.021077406 -0.049571432 -0.09703262 0.005350321 -0.053073596 -0.049595956
-0.018995501 0.068356685 0.0768509 -0.07235798 0.071694516 0.04639995 -0.06362806 -0.031006772
0.014423744 0.1005524 -0.06605676 0.0801489 -0.069077894 0.004961217 0.01824263 0.066367894
-0.012488056 0.070792705 -0.09276339 0.010277422 0.00405822 0.024095843 0.054345243 0.02396751
-0.066702366 0.043968707 0.00096789584 -0.07075935 -0.05479242 -0.103549 0.07143933 -0.03782435
0.0097621735 0.022608995 0.029378584 0.011140981 -0.028795896 0.025624078 0.032040298 0.03977641
0.025118824 0.056426294 0.0015246978 -0.06220441 -0.026966784 -0.066112 0.030945528 0.088113196
0.037979253 -0.11537412 0.06911802 -0.019358924 -0.039734673 -0.030209072 -0.013134699 -0.08133113
0.056384936 0.075015545 -0.054084364 0.08561326 0.019925488 -0.089361034 0.0030019102 -0.08765915
-0.018350886 0.08218898 -0.013063276 0.02055103 -0.05016256 -0.021783669 -0.05401181 -0.019304274
0.0065840934 0.032122366 -0.06484005 0.016436404 0.036620986 0.050519496 -0.08248803 -0.0021782308
-0.0612683 -0.061209332 -0.013081581 0.06029312 -0.053262807 -0.016871387 -0.015117129 0.021404697
0.07892918 0.037898168 -0.07356645 -0.00013249708 0.0599982 -0.0036979408 -0.05497595 -0.014824981
-0.038021352 0.02621055 -0.015808035 0.025855694 -0.03914582 0.070486516 0.10609162 0.01798036
0.060123604 -0.044363096 -0.0502462 0.04924593 -0.06820476 0.112738796 0.068445794 -0.033193648
0.013567468 0.016408332 0.0634001 -0.09360521 0.01696514 -0.034309965 0.0778167 0.03566609
-0.052460756 -0.029742084 -0.025484992 0.0049101645 0.029855827 -0.018102797 0.0019980075 -0.055438392
0.022836743 -0.05584544 0.08159645 -0.02626832 0.08112559 0.085764006 0.03293755 -0.07120931
-0.06698018 -0.07092065 -0.029502101 -0.029738098 -0.0027358872 -0.057547666 -0.00741733 -0.022183971
-0.034264788 -0.0048621898 -0.07149703 -0.04655551 -0.034344025 -0.038311593 -0.09252459 -0.04923967
-0.001212751 0.043327864 0.043623716 0.078745544 -0.043253846 0.019830804 -0.028380672 0.040563982
0.07301367 -0.020232484 0.021086937 -0.015261117 -0.07734164 -0.036549445 0.0723769 -0.030418964

actor.4.bias f4 [128]
00000000: d6bf 533c 7f3a c13c a6a9 01ba e20f aa3d
00000010: d9a2 46bd 2d3c e8bc b267 8dbb eb41 09bd
00000020: d99e bebd 197f 00bd fa9e 6b3a a69b 243c
00000030: 68ad 0e3d 2d77 00be e86a 3cbd 53fa 5c3b
00000040: d4b9 953c 940c de3a c8d1 3bbd b1a8 1cbd
00000050: 37c4 6c3d 6ebe 75bd 9fa4 07bc 23bf 483d
00000060: cd03 58bd 2ad7 5bbd bb8c ddbc 14e0 1cbd
00000070: 374a b9bc 5edc 1ebb 0252 8cbd fcef f6bc
00000080: 6b12 1d3d 9e58 96bc 86a1 6cbc a9da c23b
00000090: 9fa8 10bd dd89 3bbd 0629 1c3d 8946 65bd
000000a0: 8c4e b3bc d74f c3bd 4462 f5bc 4775 8d3c
000000b0: 2ef0 0ebd f65a 383a 7747 963c 8e47 c1bc
000000c0: a54c ac3c ea6a a5bd e688 17bd 9808 8dbd
000000d0: 04b8 22bc 9e11 803d 9e86 013d 880d e83c
000000e0: a83a a9bb 1372 0cbd 6509 013c 0534 37bd
000000f0: a709 33bd 4edb 99bb ac1c 56bd 31b1 203d
00000100: 2be1 d1bc 4725 32bd 3d08 67bd 5e00 5e3c
00000110: c629 dcbc eaf7 c1bb a5e7 8ebc 30a8 ecba
00000120: 2075 de3d c832 b8bd 10d8 5bba dc60 38bc
00000130: 0a7c 2c3b 62bf 59bc 492b 893d 9fdb 433c
00000140: 5b50 e53c 72c9 3d3c b87d 8cbd aa64 debd
00000150: c770 333d ff9d 2cbd a809 32bd 8df8 263a
00000160: 8c9f 3c3b 5f72 4b3d 67ce 7d3c bbaf 93ba
00000170: 9bf5 a43c 1258 163d 9618 df3c 8f0f 5a3c
00000180: e922 213b 649c babd ce70 9a3d c422 36bb
00000190: 6ebc db3a e201 963c 2217 283d c537 173c
000001a0: 1c86 603d a463 07bd 6fe4 8b3d 0ae4 89bc
000001b0: 1101 66bd 36be 263c 49ff 063d 23d8 65bd
000001c0: 56ba 003d 8392 8a3d d171 a9bd 9f1f 6abb
000001d0: 2bb7 b6bc 945f d2bc b810 9e3d 8943 3d3d
000001e0: 37ed 6dbc 26eb 0f3c 9dd0 093c d2f4 473c
000001f0: 93c3 82bd 89b8 bc3b e581 833d 5259 ef3c
0.012924155 0.023587463 -0.0004946239 0.08303811 -0.048495147 -0.028349007 -0.00431534 -0.03351013
-0.093076415 -0.03137121 0.0008988228 0.010046875 0.03483334 -0.12545462 -0.04600039 0.003371854
0.018277086 0.0016941004 -0.04585436 -0.038246814 0.057804313 -0.05999606 -0.008278995 0.049010407
-0.052738 -0.053671993 -0.027044645 -0.038299635 -0.022618396 -0.0024240236 -0.06851579 -0.03014373
0.038347643 -0.018352803 -0.014442807 0.0059464765 -0.03531706 -0.045785774 0.03812506 -0.05597547
-0.02188804 -0.095367126 -0.029954083 0.017267836 -0.034897022 0.0007032597 0.018344624 -0.02359369
0.02103264 -0.08077033 -0.03699579 -0.06886405 -0.009931568 0.0625336 0.03162252 0.028326765
-0.005164463 -0.034288477 0.007875775 -0.044727344 -0.043710377 -0.0046953326 -0.052273437 0.039231483
-0.025620064 -0.04349258 -0.05640434 0.013549892 -0.026875388 -0.0059194462 -0.017444441 -0.0018055495
0.108621836 -0.08994061 -0.0008386383 -0.011253562 0.002631905 -0.013290258 0.06697709 0.011954217
0.027992418 0.011583673 -0.068599164 -0.10859044 0.043808725 -0.042142864 -0.04346624 0.00063694344
0.002878162 0.04966962 0.015491105 -0.0011267582 0.020136645 0.036705084 0.027233403 0.0133093735
0.0024587458 -0.091118604 0.07541047 -0.0027791718 0.001676453 0.018311445 0.041037686 0.009229605
0.054815397 -0.03305401 0.068306796 -0.01683237 -0.05615336 0.010177186 0.032958303 -0.056114327
0.031427704 0.06766226 -0.08273662 -0.0035724414 -0.022304138 -0.02568034 0.077180326 0.046206985
-0.014521888 0.008784091 0.008411554 0.012204366 -0.06384959 0.005759303 0.0642126 0.029217396

actor.6.weight f4 [5, 128]
00000000: fe64 203d 11df 383d 3422 d83c 3434 30bd
00000010: 58a6 7fbb 4a26 15bc 990e 223c 1c19 e1bc
00000020: 1177 0f3d 4896 0d3c af65 3f3d c8a0 0cbd
00000030: 23c5 25bd 4d10 083d ee3f 87bc 4db6 12bc
00000040: 5c6b ab3c e60b 073c cede dbbb c6ff 683c
00000050: 443f f4bc c6e3 fabc 9622 653d 2a8b d4bb
00000060: aaf2 903c 9de9 843d 3d55 153d 56f5 8dbb
00000070: 3e1c 2d3d 27f5 6dbc 6a08 23bd 5bcb 773d
00000080: 321c 92bc 34fb 41bd 05a5 5bbc 84bc fe3c
00000090: 536a 2cbd 0c0c 64bc 46cd 4f3b 4a2f b53c
000000a0: d095 253d b3de 223d 6f6b 9ebc 2afc 923b
000000b0: c710 d7bb eb94 e3bc 60ff 06bd 5c98 0ebc
000000c0: d94b 9c3c 9037 d63c 8185 ac3b 27d0 333d
000000d0: f6ba 65bc 64d2 923c c350 463d d4c2 033d
000000e0: 6a2f 1e3d dffc 3fbd 0d78 483c 6654 083d
000000f0: 6a6a e8bb b6af 163d 405b 86bb 09db eabc
00000100: 07ea 95bb 96e6 3d3d 6f15 dfbc 8968 97bc
00000110: aca5 3dbd ab5e a7bc 460e 833c 397f bcbc
00000120: ceb7 4cbd 92e2 9abc ac95 ef3c ed6e 383c
00000130: 8a0d 113d c5a4 14bb c306 e53c 1e24 db3b
00000140: 015d 37bb 6321 283b 62a0 783d a0ef afbb
00000150: f1bd 233d d6e4 c3bb 7847 0dbc 5499 d9bc
00000160: 5511 8fbc 59ec 903a c060 773b 58fe 573d
00000170: 210d ecbc 2aac 08bc 27e3 90bc a01c e63b
00000180: b6b5 7b3a f780 2a3c 589c 6abc 8139 3cbc
00000190: 2f58 fcbc 9e0e a93c af25 b2bb 5896 43bc
000001a0: 483d 70bc 0327 863d edbb a8bc 7eb0 3b3c
000001b0: a4a3 263d 9f41 533c 747d 09bd c283 18bd
000001c0: 04f4 82bc f880 e83c 4333 ee3c 57d6 7cbc
000001d0: 683e 99bc dc1f acbb f8cc 24bd c63c 31ba
000001e0: daa1 4bbc 1e09 2dbd 9674 67bc 6ea9 3fbb
000001f0: a087 503c 8dbc 963c 87fc a4bb 935a 7abd
00000200: 22af 22bd 0726 0e3d b6ea 81bb 2f36 34bb
00000210: 9441 8c3d ba17 403c 841d 5cbb ae84 2fbd
00000220: d4ed 19bc 43fe 553a ee97 f93c eee0 34bd
00000230: e2cf 17bc 60f0 c23c f48d 0fbd 3aa1 a1bb
00000240: b17c 31ba 8d0b 8c3c e71c a63c 120b 0bbc
00000250: 4fe0 0abc e7a9 00bd ef8f 253d 3862 4dbc
00000260: ca20 143c cc81 393d f72a 953c ab5a b4bc
00000270: 9d3f 183d 82ed 7fbc 4a98 e8bc 1a2e 263d
00000280: 7092 573b 3017 5abd acd6 5a3c 1b7b d5bb
00000290: 3f15 823c 3857 833b 407c 3d3c c7a6 85ba
000002a0: 5d64 5d3d 3e80 ce3c 7ca7 83bc 555d 7c3c
000002b0: 2ea9 dfbc 3b19 70ba 7bd0 eabc 8da6 303b
000002c0: f6a9 a13a 81e5 bb3c 4901 a93c 2afd 2e3d
000002d0: 1c08 81bc 3d9f a23a 6217 fb3c 7fba 4c3c
000002e0: 9504 263c ca52 74bd fb97 bf3c ba05 933c
000002f0: 8749 b5bc 6539 293d c2b6 65bc 5207 ac3c
00000300: 6dd7 03bd a5a4 263d e42b 9dbc 0ebf 153b
00000310: ce3b f9bc 483e debc 85c7 37bb 451d bebc
00000320: 9dfd edbc f251 d3bc e3b9 0b3d 0049 73bd
00000330: 40ea 1e3d 2b6f 41bc 0575 66bc 7cae 4d3c
00000340: b7fa 17bc d277 953c 4b4b 9d3d 9201 7c3b
00000350: e33f 363d 892e 4f3d cb41 a0bc 50f0 8fbc
00000360: 62a8 603b 7f0d 90bc c28c 153a 9d27 8e3d
00000370: 3ae3 8f3a f5b3 0e3c f16f c7bc ff67 36bc
00000380: 84c0 63bb 98a5 10bd 0c8b cd3c 3155 c3bc
00000390: 176c 92bc d9dc 4e3c 563d c33b 015a b0bc
000003a0: 7ced 4cbc c2ac 303c 3460 50bd eee6 6f3b
000003b0: 1ee0 bf3c 8789 5d3b 1ca3 6bbc 862d 61bd
000003c0: 513f 32bb 564b edbc 2932 a93c 2ae3 e8bc
000003d0: 8d64 0cbd a5a3 6e3c f3fa 85bd a8f1 d2ba
000003e0: ef9e 423c 02e3 25bd be55 89bc 450f 543c
000003f0: 8a84 23bd 8521 673b 5314 9e3c a255 62bd
0.039158814 0.045134608 0.026383497 -0.043018535 -0.003900906 -0.009103367 0.009891176 -0.027477793
0.03502566 0.008641787 0.046727832 -0.03433302 -0.040471207 0.03321867 -0.016509976 -0.008954597
0.020925216 0.008242583 -0.00670991 0.014221137 -0.029815324 -0.030626189 0.055941187 -0.006486316
0.017693836 0.06489871 0.036458243 -0.004332225 0.042263262 -0.014523781 -0.039802946 0.06049667
-0.01783571 -0.047358707 -0.013406043 0.03109575 -0.042093586 -0.013918888 0.0031708046 0.022117276
0.040426075 0.039763164 -0.019338338 0.0044856267 -0.0065632793 -0.02778097 -0.03295839 -0.0087033175
0.019079136 0.026149541 0.0052649383 0.04389968 -0.014021626 0.017922588 0.048416864 0.032168224
0.038619436 -0.046872016 0.012235654 0.033283614 -0.0070927637 0.036788665 -0.0041002333 -0.028668897
-0.0045750174 0.046362482 -0.0272319 -0.018482463 -0.046300575 -0.020430883 0.015998017 -0.023009883
-0.049979977 -0.018906865 0.029246174 0.0112569155 0.035413302 -0.0022681218 0.027957326 0.006687655
-0.0027979019 0.0025654666 0.060699828 -0.0053691417 0.039976064 -0.005978207 -0.0086229965 -0.02656237
-0.01746432 0.0011056765 0.0037746876 0.052732795 -0.028814854 -0.008341828 -0.01768644 0.0070224553
0.0009601967 0.010406724 -0.014319502 -0.011488319 -0.030803768 0.020636853 -0.005436621 -0.0119377
-0.014663048 0.0655041 -0.020597422 0.011455653 0.040683404 0.012894063 -0.033566907 -0.03723503
-0.015985496 0.02838181 0.029077178 -0.015431962 -0.018706515 -0.0052528214 -0.040234536 -0.000676107
-0.012428725 -0.042245023 -0.014126917 -0.0029245275 0.012727648 0.018400455 -0.0050349864 -0.061121535
-0.0397178 0.034704234 -0.0039647473 -0.0027498116 0.068484455 0.011724407 -0.0033586929 -0.042851143
-0.009395082 0.0008163193 0.030467954 -0.044159822 -0.009265872 0.02379626 -0.035047486 -0.00493255
-0.00067705946 0.017095352 0.020277454 -0.008486526 -0.008476331 -0.03141203 0.04042047 -0.012535624
0.009041021 0.0452898 0.018208964 -0.02201589 0.03717004 -0.015620591 -0.02839293 0.04057131
0.003289368 -0.05324477 0.013356846 -0.0065149195 0.015879272 0.0040082 0.011565268 -0.0010196798
0.054050792 0.025207635 -0.016071074 0.015403111 -0.02730235 -0.0009159033 -0.028663864 0.002695474
0.0012333978 0.022936584 0.020630496 0.042721905 -0.015750937 0.0012407076 0.030650798 0.012495636
0.010132928 -0.059649266 0.0233879 0.017947067 -0.022129787 0.0413145 -0.014020624 0.020999584
-0.032187868 0.04068436 -0.019185968 0.0022849473 -0.030424025 -0.027129307 -0.0028042507 -0.023207316
-0.029051596 -0.02579591 0.034112822 -0.05939579 0.038797617 -0.01180629 -0.014065986 0.012553807
-0.009276084 0.018245611 0.076803766 0.0038453084 0.04449452 0.05058149 -0.019562623 -0.017570645
0.0034280051 -0.01758456 0.00057048735 0.069411494 0.0010977753 0.008709897 -0.02434537 -0.011133193
-0.00347522 -0.035314173 0.025090717 -0.023844333 -0.017873807 0.012625896 0.0059582395 -0.021527292
-0.012507793 0.010783376 -0.050872996 0.003660615 0.023422297 0.0033803897 -0.01438215 -0.054975055
-0.0027198384 -0.028966587 0.020653801 -0.028428633 -0.03427558 0.014565383 -0.065420054 -0.0016093748
0.011878713 -0.040499695 -0.016764518 0.012943094 -0.03992132 0.0035267782 0.0192968 -0.055257447

actor.6.bias f4 [5]
00000000: c1eb b3bc c8a8 123d 9118 e1bc 8a0d 8cb9
00000010: 4927 a8bc
-0.021963002 0.035805494 -0.027477534 -0.00026712968 -0.020526545
