ippo_algorithm/checkpoints/ppo_critic_None_lumberjacks.pth (torch, 163824 bytes, 7 tensors)

critic.0.weight f4 [128, 53]
000000 1e fc c9 3d 70 27 8f bc b0 ff 31 3d d3 91 e0 3d
       0.09862541 -0.01747486 0.043456733 0.10965314
000010 0d b2 05 3e 10 ae 1b 3e 68 30 8a 3d db 37 4d 3e
       0.13056202 0.15203118 0.06747514 0.20040838
000020 b8 05 b6 3d 35 49 d2 3d 64 5e d6 3c 43 16 0a 3c
       0.088878095 0.102678694 0.026168056 0.008428159
000030 1f d4 b4 bc 2d 8d 28 3d 2c 2e 9a 3d 29 22 6b 3d
       -0.022073803 0.04115026 0.07528338 0.057405625
000040 b6 be 9c bd 15 22 5a 3d fb f8 f8 3c 08 ae 06 be
       -0.07653563 0.05325516 0.03039216 -0.13152325
000050 93 d6 dc bd c5 78 b1 3d c0 64 86 3d 3c cf d3 3d
       -0.10783114 0.08665613 0.06562185 0.10342261
000060 fd 53 af bd cf df f5 bd d3 bb 07 3b 49 dd 33 3d
       -0.08560941 -0.12005579 0.0020711317 0.043912206
000070 90 af 68 be 22 93 38 be 80 54 6b be ac b4 88 3d
       -0.22723222 -0.18024877 -0.22981453 0.066750854
000080 29 59 73 bd 04 8a 16 be 3d 9c 30 be ec e1 a7 bd
       -0.0594112 -0.14701086 -0.172471 -0.08197388
000090 e4 02 5a 3c 5a be 16 3c 3e c8 cc 3d 30 9a d6 3d
       0.013306353 0.009200657 0.09999131 0.10478628
0000a0 64 db 08 3e c8 a5 b3 3d 0d 22 db bc ad 23 bf 3b
       0.13364941 0.08771855 -0.026749635 0.0058331103
0000b0 8c 59 86 bd 97 e2 dd bd 09 81 07 3d f4 88 79 3d
       -0.065600485 -0.10834234 0.033082042 0.060921624
0000c0 05 6b f5 3d 8b fd 0e 3d 90 92 51 bc 91 f4 ce 3d
       0.11983303 0.034909766 -0.012791291 0.10105241
0000d0 d8 e4 05 3e 95 29 ca bd 07 ea 33 bc cb e2 6f 3b
       0.13075578 -0.098712124 -0.010981089 0.0036603685
0000e0 17 ef 67 3e 74 0d 70 3e 7e e4 4b 3e 6c 21 bb 3d
       0.226498 0.23442632 0.19911382 0.09137234
0000f0 83 e7 29 3d 75 f0 85 3e 50 40 b8 3d fb 5f cb 3d
       0.041480552 0.26160017 0.08996642 0.09930416
000100 42 4f 23 3e 91 ff a6 bd 7e 2c a4 3d e4 b4 01 bd
       0.15948203 -0.08154214 0.08016299 -0.03166665
000110 8a 67 2b 3d 24 a6 e4 3b c3 0c bf bd 55 ef 3c 3d
       0.04184679 0.0069778133 -0.09328606 0.046126682
000120 37 82 36 bd 62 6a 48 3d b3 cc 6c bd 29 d2 82 3d
       -0.044557776 0.04892958 -0.057812404 0.06387741
000130 17 60 8c bd 83 7a 46 3d 4a cc e3 bd 58 05 37 3d
       -0.06854265 0.04845668 -0.111229494 0.04468283
000140 c3 9f 9f 3d c4 8c 98 bd 21 81 fd 3d b8 e0 5d 3c
       0.07794144 -0.07448724 0.12378145 0.013542347
000150 3e 3f 09 be db 8e 26 3d 06 ec 08 3e cf 62 0c 3e
       -0.13403031 0.04066358 0.13371286 0.13709567
000160 7b 12 a5 bd d5 35 2e 3d 2d ea df bc 41 64 c2 3d
       -0.080601655 0.042531807 -0.027333343 0.09491778
000170 8e 96 97 3b 54 9d 60 3a 72 9d f6 bd 20 fb b3 3b
       0.004626102 0.00085683656 -0.12041749 0.005492583
000180 2f 96 e3 bd 50 29 e5 bd f1 9e 4b bd f7 65 7d 3c
       -0.111126296 -0.1118952 -0.049712125 0.015466205
000190 96 b9 0a be 3c 2a 95 bb d0 1f 01 3e b2 90 d5 3d
       -0.13547358 -0.004552154 0.12609792 0.10427989
0001a0 7b ff 97 3d 33 7b c3 bd c1 65 19 be 7e 70 29 bd
       0.07421776 -0.09544983 -0.14980222 -0.041367047
0001b0 af 65 42 3d 25 57 34 be 1a 60 d3 bd 8d 46 1d be
       0.047460254 -0.17611368 -0.10321064 -0.15358944
0001c0 d2 08 31 be cc 4a c6 bd a2 81 6e be 68 22 2b be
       -0.17288521 -0.09682235 -0.23291638 -0.16712344
0001d0 89 e7 6c bd 8a 0c b4 bd 3f 67 f1 bd 8e 6b b5 3d
       -0.057837997 -0.08791454 -0.11787271 0.08858405
0001e0 f2 d1 32 bc 0c 61 d8 3d 42 8d e5 3d 74 ad fa 3d
       -0.010914313 0.10565385 0.112085834 0.12240115
0001f0 b5 ce db bd b8 3f d0 3d 9c d3 0b 3e d1 e4 da 3d
       -0.107327856 0.101684034 0.13654941 0.106881745
000200 41 73 11 3d 20 38 15 bd 45 e2 06 be a6 fb 64 bc
       0.035510305 -0.036430478 -0.13172252 -0.013976013
000210 12 43 96 3c 2e 9a be bd 7b 1c 09 bf 44 20 d9 3d
       0.018342528 -0.09306751 -0.5355908 0.10601857
000220 0a 8e fe be 1c db 98 bd f0 5a c7 3d 10 2b e2 bc
       -0.49717742 -0.07463667 0.09734142 -0.027608424
000230 2a a6 4c 3d 05 b5 38 be 3f db 99 bd c9 6a d7 3d
       0.049963154 -0.18037803 -0.07512521 0.105184145
000240 5d 8c b6 bc fb 0f 18 3c cc 22 bb 3c d2 72 a8 3d
       -0.022283727 0.009281154 0.02284374 0.08225025
000250 77 89 a2 bc 53 bc f7 3d 55 5a fb 3d ec 3c 10 bc
       -0.019840939 0.12096467 0.12273089 -0.008803587
000260 f9 89 74 bd c3 19 8b bd 48 15 56 3c a6 4c f4 bd
       -0.059701893 -0.06792023 0.013066597 -0.11928682
000270 64 4f b9 3c 50 3d f2 3d 17 e9 d1 3d 9d a8 6b bc
       0.022620864 0.11828101 0.102495365 -0.014383462
000280 68 01 82 3c 2d 60 bd 3d 1b 01 7a be 3d 54 4d be
       0.015869811 0.0924686 -0.24414484 -0.20051666
000290 5d 70 78 be 79 ed 5b be d4 62 20 be 41 e4 64 be
       -0.24261613 -0.21477307 -0.156627 -0.22352697
0002a0 78 6f 9e bd 7a 8f 80 be 71 76 82 be 11 a9 03 3e
       -0.07736105 -0.25109464 -0.2548099 0.12857462
0002b0 b1 c0 41 3c ed d7 d2 3d 6b 6b a5 3d 33 92 b0 3b
       0.011825726 0.10295091 0.08077129 0.005388522
0002c0 61 2a 1c bc 93 be 43 3d d3 34 71 3d c8 a5 10 3d
       -0.009531588 0.047789168 0.058888268 0.03531435
0002d0 88 3e 54 3d ea 06 f7 bc 95 b9 7a 3d 07 da eb 3d
       0.051817447 -0.030154664 0.06121214 0.11516195
0002e0 6b 96 1a bd 8f bd 84 bc c4 18 a7 3d 62 c2 84 bd
       -0.037741106 -0.01620367 0.081590205 -0.06482388
0002f0 e9 50 24 be 27 27 98 3c 24 ac fe 38 93 6b 2f be
       -0.1604649 0.018573357 0.000121437275 -0.1713088
000300 c5 66 2b be e5 94 99 bd 9d 26 2d 3d 68 05 b7 bd
       -0.16738422 -0.074991025 0.042273153 -0.08936578
000310 e9 06 6b 3d a7 29 7b 3c 8a a7 08 3e 2a 19 ba 3d
       0.057379637 0.015329755 0.13345161 0.09086831
000320 81 12 96 3d 0d b5 97 bb c7 82 cc bd 49 c4 d1 39
       0.07327748 -0.004629737 -0.09985881 0.0004000983
000330 f7 54 e0 bd 27 08 b3 3d 4d 0d 71 3d 16 9a 3d bd
       -0.10953706 0.08741789 0.058850575 -0.046289526
000340 2d f3 a8 bd ad 03 16 3c 58 28 c9 3d f8 34 f2 3d
       -0.08249507 0.00915615 0.09822148 0.11826509
000350 5d 5f e2 bd 4d 6d 92 bd ff 11 dc 3d 7c 70 bc 3d
       -0.11053345 -0.07149754 0.1074562 0.09201142
000360 52 3a 43 3e ff 8a 52 3e 76 6e 66 3e 96 44 49 3e
       0.19065216 0.20560835 0.22503075 0.1965507
000370 42 d1 4b 3c 71 32 d7 3d 81 d7 91 bc dc 12 61 3e
       0.012440028 0.10507668 -0.017802956 0.2197985
000380 ef 18 e4 3c 59 74 9c 3c 34 ca 6e 3d df d0 72 bb
       0.02784392 0.019098448 0.058298305 -0.0037050766
000390 a9 7b be bd ac c6 ec bc 30 1d 94 3d 8b 75 9b 3c
       -0.0930093 -0.028903328 0.072321296 0.018976947
0003a0 94 50 fe bd 17 b1 86 3d 55 d3 b4 bd a7 b7 bb bd
       -0.12417713 0.06576746 -0.08829371 -0.09165888
0003b0 57 53 83 bc 58 dd e4 3d 27 d4 f2 bd 55 dc da bd
       -0.01603095 0.111750305 -0.11856871 -0.10686556
0003c0 e9 53 08 3d 73 e9 d8 bd 24 14 07 be ff ee 69 3d
       0.033283148 -0.10591402 -0.13191277 0.05711269
0003d0 3d dc b9 3d be fe 3f be 7f 5b a0 bc f2 23 cd 3d
       0.0907521 -0.1874952 -0.019574879 0.10016622
0003e0 af ce d3 bd 52 e1 30 3c 0f d0 47 3d 17 1d 64 3d
       -0.10342156 0.010795908 0.048782405 0.055691805
0003f0 f2 78 fb 3d 5b 2f 07 3e 24 50 09 3e 87 67 00 3e
       0.12278928 0.13201658 0.13409477 0.12539493

critic.0.bias f4 [128]
000000 5a dd 28 be 85 7c 91 3a bb 4c 56 3d 10 2e 01 3e
       -0.16490689 0.0011099732 0.05231927 0.12615228
000010 3f 89 0a be a7 4d 57 3d d0 a4 2d 3e b1 66 20 be
       -0.13528918 0.05256429 0.16957402 -0.15664174
000020 3a 1b 4d 3b 6c c4 be 3d 1c cd 6f 3d 7f 67 dc bd
       0.0031296746 0.09314808 0.058545217 -0.10761928
000030 09 7b 9a bd f5 46 66 3d 36 ca 8d 3d 76 23 f0 3d
       -0.07542998 0.056220014 0.06923334 0.11725514
000040 ff 8a f6 bd 6a 42 31 be 12 b3 ee 3d 61 6f 31 bd
       -0.1203823 -0.17310491 0.11655249 -0.04331911
000050 5d 4c 2c 3d 3c 8a d0 bd 6c 37 b5 3b a3 d2 23 3e
       0.042065013 -0.10182616 0.0055302884 0.1599832
000060 36 57 8b 3d 2e 98 59 bd 53 ab 69 3c f9 d2 84 bd
       0.068037435 -0.053123645 0.014262038 -0.06485552
000070 f4 aa fa 3d af 88 52 be 5d 1e 7e 3d 10 3b aa bd
       0.12239638 -0.20559953 0.062040675 -0.083120465
000080 ed 6e da bd ec dd 18 bd 6b 2e 07 3e 43 ef f2 bd
       -0.10665689 -0.037321016 0.13201301 -0.11862042
000090 5f 2f f8 bd 15 b4 13 3e 68 99 f1 bc b9 ef fa 3b
       -0.1211841 0.14424165 -0.029492095 0.0076579717
0000a0 fb e4 de 3d a0 07 41 3d bf dd 25 bc b4 33 e1 bd
       0.10883518 0.047126412 -0.010123669 -0.1099619
0000b0 c5 5d f3 bd 0f 66 14 be f6 bc e9 3d f4 65 ef bd
       -0.118831195 -0.14492057 0.114129946 -0.11689368
0000c0 c3 d0 1b 3e db ad 0e 3e 49 e6 23 be 76 8e 25 be
       0.15216355 0.13933508 -0.16005816 -0.16167626
0000d0 fd a9 43 3c ec 9f 1c bc 7a 5d 81 3d d3 c5 ff bd
       0.011942384 -0.009559613 0.06316657 -0.12488904
0000e0 2d c3 d0 bd 3d f0 b6 bc 4e 94 da 3d 2d e2 ec 3d
       -0.10193477 -0.022331351 0.10672818 0.11566577
0000f0 5c c1 16 3e 0c 5a c1 3c 5d 06 08 3e c6 ae 8b 3d
       0.14722198 0.023602508 0.13283677 0.06820445
000100 51 92 f1 3d c5 d1 c1 3d 05 ba de bd c3 ca ff 3d
       0.11795486 0.094638385 -0.10875324 0.124898456
000110 ad 1d 14 be 86 53 89 3d 46 88 94 3d 6b 5e 4b bd
       -0.14464445 0.06705384 0.072525546 -0.04965059
000120 2a 32 ba bc d2 2a 8e bd ef ba a9 bd 22 23 45 3d
       -0.022728998 -0.06941761 -0.08287608 0.04812921
000130 6c d4 b9 3d e2 4f b7 bd 4b 5c 86 3d 5a b7 d8 bc
       0.090737194 -0.08950783 0.06560572 -0.026454616
000140 b8 0c a7 bc 4e 9d cc bd da 9c 51 3d 96 ee be bd
       -0.020391807 -0.09990941 0.051174976 -0.093228504
000150 93 f7 c3 3d 4e 37 0c bd 23 09 25 3e b9 4b 1d 3e
       0.095687054 -0.03423243 0.16116767 0.15360917
000160 4c ff 55 3c d8 be cd bd 80 12 bd bd 6a 4f ee 3d
       0.013061356 -0.10046166 -0.09232044 0.11636241
000170 dd 81 ef 3d b3 46 e5 bc 7b 17 cd bd 8e 9c ba 3d
       0.11694691 -0.027987814 -0.10014244 0.09111892
000180 6f fe ea 3d 5e da 0d 3d 59 ee 87 bd 4a d3 85 3d
       0.114743106 0.03463208 -0.06637258 0.06534441
000190 97 ae 25 3e 5b 40 b7 3d c4 fd 63 3b 78 a0 d7 bd
       0.16179882 0.08947822 0.0034788707 -0.10528654
0001a0 8d 75 99 3d fa 42 3d 3d 51 c6 cd bd fb ff 94 3d
       0.07493124 0.046206452 -0.100475915 0.07275387
0001b0 31 5b f6 3c 7d bc d5 3a da ed cf 3d 8d 96 48 ba
       0.03007278 0.0016306784 0.101527885 -0.00076518283
0001c0 26 11 0c be 53 d5 39 3e 6f 24 d4 3d 42 50 43 be
       -0.13678417 0.18147783 0.10358512 -0.19073585
0001d0 0b 77 9d bd 64 fb 22 3d 04 a6 97 3d db 0f 99 3b
       -0.07688721 0.039790526 0.07404712 0.0046710796
0001e0 97 59 08 be d5 77 44 3d b2 91 49 3e 48 3e 19 be
       -0.13315426 0.047965843 0.19684485 -0.14965165
0001f0 4e 62 d7 3d 06 35 e6 3d 62 0c 21 3d 82 fe 10 be
       0.10516797 0.11240582 0.03931845 -0.14159587

critic.2.weight f4 [128, 128]
000000 75 12 a0 bb 2b 1d 07 3c fa ad 02 3e 09 a9 fd bc
       -0.0048850127 0.0082467 0.1276168 -0.030964391
000010 d9 de 07 3e cc bc 86 3d cf 9f 9c 3c c5 3e 99 3b
       0.13268603 0.06578979 0.019119171 0.004676672
000020 e9 81 aa 3d e2 b0 14 3e e6 b1 33 be 3e 01 3c be
       0.0832556 0.145206 -0.17548332 -0.18359849
000030 60 ef 82 bd 2a 2f 34 bd 52 ca e6 3d 3d 96 14 bd
       -0.063933134 -0.04399029 0.11269058 -0.03627609
000040 90 31 ab bd 5d ca 32 bc 07 e5 06 3e f4 f1 48 bd
       -0.08359063 -0.010912505 0.13173304 -0.04905887
000050 d7 45 1e 3e 75 7b 8d 3d f4 f7 41 3d fa 25 b1 3d
       0.1545633 0.06908313 0.047355607 0.086498216
000060 2f f1 5c ba d0 cd fd bd 14 f0 75 bd 47 bb 58 3b
       -0.0008428273 -0.12392771 -0.06004341 0.003307061
000070 30 2d 0e bd 79 a8 2f 3d ed a7 c5 3d 58 d4 1b 3e
       -0.034711063 0.042885277 0.0965117 0.15217721
000080 92 29 ab bd ae e4 91 3c fe 4b ec 3d f3 7f 95 bd
       -0.08357538 0.017809238 0.11537932 -0.07299795
000090 34 e6 9c bb f5 b8 c2 bd 42 d0 9c 3d 17 d3 13 be
       -0.0047881845 -0.09507934 0.076569095 -0.14435993
0000a0 d5 a2 14 bd 4c d8 38 bd 8b b1 14 be f3 9b b0 bc
       -0.0362881 -0.04512815 -0.14520852 -0.021558737
0000b0 be 7e 51 3d 8f ae 66 3d d0 3c 52 3d a5 e2 5d bd
       0.05114626 0.056318816 0.051327527 -0.054171223
0000c0 78 50 3a bd 6a 54 b3 3d d3 cd 4e bc cc 25 9a 3d
       -0.045486897 0.08756335 -0.0126223145 0.075267404
0000d0 17 cc a2 3c f2 42 2b 3e 70 e1 f2 bd 16 0c 86 bd
       0.019872708 0.16724756 -0.11859405 -0.06545274
0000e0 5d 0f b2 bd 16 c7 c2 bb 4c 50 4a 3c 36 48 c8 3c
       -0.086943366 -0.005944143 0.012348246 0.024448495
0000f0 cf de 8d 3d 4d 53 05 bb 69 0c f3 bc c9 79 37 bd
       0.06927263 -0.002034384 -0.029669004 -0.044793878
000100 55 b4 b4 3d 28 89 90 3d 7d 7a f0 3c ea 20 03 3d
       0.08823458 0.070574105 0.029355282 0.03201381
000110 c6 77 84 bd 38 e8 dd bc 9e 41 40 bd db 3e 92 3d
       -0.064681575 -0.02708827 -0.046937577 0.07140895
000120 bc 5b a2 3d 17 a9 b6 3c 79 49 b9 3d 32 24 6a 3d
       0.07927653 0.022297425 0.09047217 0.057163425
000130 a8 3c 8b 3d 63 c5 1d 3d ff 6b 3e 3d 6b 41 6e 3b
       0.06798679 0.03851832 0.04648971 0.003635491
000140 a5 e6 4d 3d 68 ac 05 3d 7f cc 00 3e 72 6f d3 bc
       0.050268788 0.032635123 0.12578009 -0.025809977
000150 ad 6a 6d 3d 8e 7b 68 bd 63 3b f0 bc ec bf 6b bd
       0.057963062 -0.056758456 -0.029325193 -0.057556078
000160 49 93 95 bc 43 1b c8 3c a1 40 99 3c e9 b2 2c 3d
       -0.018258708 0.024427062 0.018707575 0.04216281
000170 bd 49 6b bd e6 0c aa bd f9 e6 75 bc f9 11 58 3d
       -0.05744337 -0.083032414 -0.015008681 0.052751515
000180 36 af fd bb 26 3f 07 3d f3 5a 64 3d 86 ea c4 bd
       -0.007741834 0.033019207 0.0557508 -0.09615044
000190 24 c6 44 bd b1 0a 89 3d 98 02 50 3d ec d5 a3 3d
       -0.048040524 0.06691492 0.050783724 0.07999787
0001a0 73 18 13 3e b6 47 64 3d e7 4a 10 be 22 c5 d3 3d
       0.14364795 0.05573245 -0.14091073 0.103403345
0001b0 b3 91 74 bc 6b 90 40 3d 52 09 b6 3d 3d 6a c6 3d
       -0.0149273155 0.047012728 0.088884965 0.09688232
0001c0 3d 4b 14 be 8f 64 03 be 20 65 a4 bd 24 ba 82 bd
       -0.14481826 -0.12831329 -0.080271006 -0.0638316
0001d0 96 69 ee bd ab 90 9f bd f5 8b a0 3d 85 f0 9c 3c
       -0.11641233 -0.07791265 0.07839195 0.019157657
0001e0 4a d2 24 be 31 7f 6d bd ed f1 d4 3d 07 f6 ec 3c
       -0.16095844 -0.057982627 0.10397706 0.028925909
0001f0 3e ef 0b 3e 52 9e 43 3c b5 6a a9 3c f3 02 37 bd
       0.13665482 0.011939602 0.020680765 -0.044680547
000200 0b 84 17 3e 9b 50 de bd 95 91 d7 3d 0a e5 93 bc
       0.14796464 -0.10855218 0.105258144 -0.01805355
000210 73 ad 0b 3c d3 fb 8b 3d 0e 1c 03 3e e4 da b2 3d
       0.00852524 0.06835141 0.12803671 0.08733156
000220 3b ac b2 bd 63 c9 1a 3e a4 74 8b be ac 8b 3e be
       -0.087242566 0.15115885 -0.27237427 -0.18607968
000230 d1 b3 5f 3c d4 b7 bb bc e2 ee 9e 3d 06 64 2f 3d
       0.013653711 -0.022914805 0.07760407 0.04282
000240 b1 4b c9 bd 14 88 03 bc 00 14 9c 3d 42 c0 b1 3d
       -0.0982889 -0.008028049 0.07621002 0.086792484
000250 c0 d4 84 3c 3f db 94 3c c9 3b 1d 3e cc 57 08 bd
       0.016214728 0.018170951 0.15354837 -0.033286855
000260 84 da fb bc db 04 14 bc 93 02 d7 bd 2e 0a c1 3b
       -0.030743845 -0.009034361 -0.10498538 0.005891106
000270 a1 23 a4 3c a7 3d d6 3b c0 3b 2a 3d 4d bf fd 3d
       0.02003652 0.0065381113 0.04156089 0.12390003
000280 30 5b 05 3d ee 36 fe bc c0 a9 3b 3c 36 74 b5 bd
       0.032557666 -0.031032052 0.011454046 -0.08860056
000290 6f 35 ae bc fa b5 c0 bd 4a 1f b9 3d 4e c7 5e bc
       -0.021265713 -0.09409709 0.09039171 -0.013597323
0002a0 b1 95 0c 3e bc 21 3a bc 6d f3 62 be 4e 8c 42 bd
       0.13728978 -0.011360582 -0.22163172 -0.047497086
0002b0 5b 1d 64 3d b5 4c df 3c c3 3c 24 3e 89 1e 13 bc
       0.055692058 0.027258256 0.16038804 -0.008979448
0002c0 da ff 05 3d ea d8 c5 bc b4 07 b9 3c 79 b0 88 3d
       0.032714702 -0.024151284 0.022586681 0.066742845
0002d0 36 e6 2a 3e d8 79 cf 3d d2 39 17 be 91 a6 24 bd
       0.16689381 0.10130662 -0.1476815 -0.040197913
0002e0 b4 24 fe bd a9 5a 2c 3d 5e 00 d9 bd e3 19 5f 3d
       -0.12409344 0.042078648 -0.10595773 0.054468047
0002f0 22 b9 8c bd 54 8b 0b bc 18 b6 af 39 99 99 9d 3d
       -0.06871249 -0.008517105 0.00033514271 0.07695312
000300 82 4a e7 3d b5 ab 0e bd a8 7d 70 3c aa 83 af bd
       0.11293508 -0.03483172 0.014678396 -0.08570035
000310 26 1c 91 bc 23 de 64 bd 10 f0 5b bd af d2 05 3e
       -0.017713618 -0.05587591 -0.05369574 0.1306865
000320 1c e1 b7 3d 4e 83 d4 3c 4b fd 97 3d 8f c4 22 bd
       0.08978483 0.025941517 0.07421359 -0.039738234
000330 90 21 d1 3d 4e 1d 30 3c d4 e8 d3 3d cc b4 8e bd
       0.1021148 0.010749174 0.10347143 -0.06968078
000340 77 dd a8 bd b9 91 b6 3d 8c 7a c0 3d 5c 00 89 bc
       -0.08245366 0.08914513 0.09398374 -0.016723804
000350 65 09 6f 3d ab 4e 25 bd ba 67 15 3d ec 1e ef bc
       0.05835857 -0.040358227 0.036475874 -0.02918955
000360 f1 48 7c bd a8 63 a7 3d d7 c9 bd bd 62 10 f7 3b
       -0.061593 0.08173305 -0.092670135 0.007539795
000370 df fb fc bd ed 45 96 ba 29 c2 32 3d 24 9c ba 3d
       -0.12352728 -0.0011464931 0.043642197 0.09111813
000380 ec 76 c2 bc bf c9 9e bd a1 9c d0 bd 62 6d 08 3d
       -0.023738347 -0.07753324 -0.101861246 0.03330744
000390 98 4c b1 3c f6 b4 dd 3c 91 53 1a 3b d2 27 85 3d
       0.021642968 0.027063828 0.0023548345 0.06501736
0003a0 c7 80 f5 3d 28 75 cc 3d 0a f7 2f be c2 cf c1 3c
       0.11987453 0.09983283 -0.17184082 0.023658637
0003b0 b1 81 48 3d 80 a0 10 3e 5a 5c a7 bd ce 92 a7 bd
       0.04895181 0.14123726 -0.081719115 -0.08182298
0003c0 c8 a9 27 be 0a 5b f9 bd 8d c6 c1 3d de f8 d6 bc
       -0.1637336 -0.121755674 0.09461699 -0.026241716
0003d0 3c bc 85 3c 7e df a3 bd 4d 3d 1d bb ea 55 da 3d
       0.016325109 -0.08001612 -0.0023992837 0.10660918
0003e0 a4 ca a8 bd 69 59 48 3d 9e a9 5f 3b da 3a 28 3d
       -0.08241776 0.048913393 0.00341282 0.04107175
0003f0 8e cd bd 3d ee 4a c2 3c f2 db 6d 3d da ce 12 bd
       0.09267722 0.02371737 0.058071084 -0.0358418

critic.2.bias f4 [128]
000000 7f 72 c1 bc 4e c5 ce bd 9a ec 75 3d 8c 23 0a 3d
       -0.023614166 -0.10096227 0.060040094 0.033725306
000010 55 bd 93 bb 00 08 e4 bb e1 9d a3 bb 33 3c a4 bd
       -0.004508654 -0.0069589615 -0.004993186 -0.080192946
000020 b1 14 98 3d 4f 01 4a 3d 32 67 f6 3d 12 61 e1 bd
       0.074258216 0.049317654 0.12031402 -0.11004843
000030 0b 19 f6 3d a3 a7 89 bc 88 f2 2c be 71 3b ad 3c
       0.12016495 -0.016803568 -0.16889393 0.021146508
000040 53 a7 30 bd b8 a7 e7 bd 4e b1 2a bc d1 99 df 3d
       -0.043128323 -0.11311287 -0.010418249 0.1091801
000050 d2 e8 5b bd 79 8f 0e be 21 7f 40 3d 84 2c 97 bd
       -0.05368883 -0.13921918 0.04699624 -0.073815376
000060 92 7d 04 bd ba e5 48 3e 52 0a 29 3d 4a a9 82 bd
       -0.032346316 0.19618884 0.041269608 -0.063799456
000070 6a a2 75 3c c4 56 2f bd 19 28 1f bd 67 d0 55 3d
       0.014992336 -0.042807356 -0.0388566 0.0522007
000080 57 1c a9 3d 5c c3 cb 3c cf f7 19 3d 30 df 1f bb
       0.082573585 0.024873428 0.037589844 -0.0024394505
000090 e6 e2 52 bd 73 00 d8 bd 9c 95 0a 3d 0d b2 28 3d
       -0.05148592 -0.10546961 0.033834085 0.041185427
0000a0 7d 17 d2 3b 15 91 0d be 98 05 90 bc 4d dd e5 3d
       0.0064114914 -0.13824876 -0.017580792 0.112238504
0000b0 56 80 d0 bc 0c 47 81 3c ef 20 39 3c 22 40 b2 3c
       -0.02545182 0.015780948 0.011299356 0.021759097
0000c0 70 18 1a bc ee 86 9b 3c 44 61 48 bd 69 33 81 3d
       -0.00940524 0.018985238 -0.048920885 0.06308634
0000d0 ee 78 a4 bc b3 7a 6c bd 4d 87 87 bd 0e c0 7d 3d
       -0.020077195 -0.057734203 -0.066176035 0.061950736
0000e0 0a 32 62 3d 68 c3 f2 3d 9b d1 90 3d cc a9 2b be
       0.055223502 0.11853677 0.07071229 -0.16763991
0000f0 f0 8f bb 3d 51 48 5c 3b 23 e7 b1 bd d4 3f b7 3d
       0.09158313 0.003361244 -0.08686664 0.08947721
000100 b8 e3 ff 3d b5 fa 68 3c 7b 92 6c bd 06 6d f1 3c
       0.12494606 0.014219929 -0.057756882 0.029470932
000110 d0 39 cc bd 3c a8 dd bd fb 90 1c 3e 4a 12 1f bc
       -0.09971964 -0.10823104 0.1528968 -0.00970895
000120 68 f4 f3 bc c8 96 0c 3c 42 0a e1 3d c2 70 a7 bd
       -0.029779628 0.008580871 0.10988285 -0.08175804
000130 e5 ee 0a 3e 2c b1 5e bd 1b fb 62 bd 77 e1 d8 3c
       0.13567694 -0.054368183 -0.055415254 0.026474698
000140 ea 08 90 3d 7e 52 5d ba 8a f5 f2 3b 06 9a 03 3e
       0.0703295 -0.0008442773 0.0074145244 0.12851724
000150 86 1e cd 3c b2 12 86 bd 70 71 df bd 39 20 7f 3d
       0.025038969 -0.065465346 -0.10910308 0.06228659
000160 52 b6 d0 3d 9b e7 e8 bd b2 0e bf bd a6 6c a1 bc
       0.10191025 -0.113723 -0.09328975 -0.019705128
000170 8f e6 c4 3d 17 ff b5 3c 4d 4c 24 3d 0e d2 bb bc
       0.09614288 0.022216363 0.04011183 -0.02292731
000180 df d2 f9 bd 2a 15 a6 3c 0a 83 67 bc 17 ee 76 3d
       -0.121984236 0.020273764 -0.014130363 0.060285654
000190 4a 3f 3a 3d 2c 8d 90 3b c4 88 6f bd ed 64 8e bc
       0.045470513 0.0044113602 -0.05848004 -0.01738211
0001a0 95 b7 b3 bd bc 14 fd bd 36 49 93 bd c2 d9 24 3d
       -0.0877525 -0.123574704 -0.07191698 0.040246733
0001b0 22 c1 b0 3b 1d 4e 19 3e 9d 44 72 3d 6d 23 b4 3d
       0.005394117 0.14971204 0.059147466 0.087958194
0001c0 69 2b ad 3d 7b 27 ab 3d 06 0f 69 3d 18 b6 1b 3d
       0.084555455 0.0835714 0.056899093 0.038015455
0001d0 7e d0 0d 3e 47 25 08 3e e5 29 cd 3d 44 06 a6 bd
       0.13849065 0.1329547 0.100177564 -0.08106664
0001e0 32 ea 28 bd d1 b6 46 3c 8a 38 14 3c 26 15 05 3e
       -0.04123897 0.012128548 0.009046683 0.12996349
0001f0 d3 3f f3 3c 74 86 d9 3c 0d 5d ac 3d 1c 30 be bd
       0.02969352 0.02655337 0.084161855 -0.0928652

critic.4.weight f4 [128, 128]
000000 76 89 59 3d 8e 90 fd 3d e7 5d 83 3c 6b 55 04 3e
       0.05310961 0.12381087 0.016035987 0.1292321
000010 06 75 4a 3d 10 35 2c bd 4e c9 c6 3d 69 23 5c 3c
       0.04942801 -0.04204279 0.097063646 0.013436177
000020 cd 40 a5 bd ef 5e 82 3c 97 16 84 bc 28 62 bf bc
       -0.080690004 0.015914408 -0.016124053 -0.023362234
000030 49 f9 61 bd 6d 2c e6 3d bc 60 96 bc 7b 98 88 3d
       -0.055169377 0.11238942 -0.018356673 0.06669708
000040 bb dd 4e bd 00 24 6a 3c f5 ff 9c 3b a6 ac 17 be
       -0.050504427 0.01429081 0.0047912546 -0.14811954
000050 b6 22 c1 3d 99 36 41 bc 9c 43 ce 3d ba ca cf 3c
       0.09430449 -0.011792802 0.10071489 0.025365222
000060 3f 2b 1e 3c 00 5d d1 bb 74 6b d8 3d 2a 5c a5 bd
       0.009653865 -0.0063892603 0.1056737 -0.080742195
000070 8f d1 79 3c 96 93 0c 3d f4 b7 9e 3c 2a d3 29 3b
       0.015247717 0.034320436 0.019374825 0.0025913217
000080 9f d3 1a 3e 00 a5 76 bd 17 64 c2 bd 29 a5 8a 3d
       0.1511979 -0.06021595 -0.09491747 0.06769783
000090 03 43 19 3e de 0a c6 bc c8 f1 20 3d 81 de 62 3d
       0.14966969 -0.024175104 0.03929308 0.055387978
0000a0 6f 38 a6 3d 1e b5 22 3d 1f a5 94 bd d2 6b 4a 3b
       0.081162326 0.039723508 -0.07258057 0.003088702
0000b0 a2 1e 6b bd f6 dd 7a bd 1d ed ef bc 9d 5d cb bd
       -0.05740226 -0.061246835 -0.02928787 -0.09929965
0000c0 5b bd 2f bd fe b1 20 bc 17 43 59 bc ab 39 3e 3b
       -0.042905193 -0.009808062 -0.013260624 0.0029026072
0000d0 94 67 79 bd 68 d4 71 3d 9f 6a 82 3b 15 72 7c 3c
       -0.060889795 0.059040457 0.0039799954 0.015408059
0000e0 46 45 eb 3c 84 ec cd 3b e8 af c4 bd 00 d4 ae 3d
       0.028719556 0.0062842984 -0.09603864 0.085365295
0000f0 d2 24 53 bd 8e be 63 3d 36 5d c2 3d 4f a7 db bc
       -0.051548786 0.05560165 0.09490435 -0.026813177
000100 d6 a5 3f 3c 80 23 9b bb 29 fb be 3d 1d 5b e3 3d
       0.011697253 -0.0047344565 0.09325249 0.11101363
000110 1e f3 6e bc 76 bd 1d bd a0 5b 88 3c f9 18 8a bc
       -0.014584331 -0.038510762 0.016645253 -0.016857611
000120 dc 22 b9 3b 6f 3e 8b bd 36 50 78 bd c0 f8 84 3d
       0.0056499075 -0.06799018 -0.06062337 0.06492758
000130 00 09 05 bd 33 76 fa 3b 8c 69 92 bd e2 fa 75 bd
       -0.032479286 0.007643485 -0.07149038 -0.060053714
000140 35 f4 ea 3d a3 fe 09 3e 51 ee aa 3d 3c 69 39 bd
       0.1147236 0.13476042 0.083462365 -0.045266375
000150 5c 4c e1 bc b0 57 83 bd ad 4a 92 3d 04 6c 87 3c
       -0.027502231 -0.064132094 0.071431495 0.016530998
000160 70 bc a0 bc 92 94 0f bd 13 15 b8 3d ec 95 92 bc
       -0.019621104 -0.035053797 0.089883946 -0.017893754
000170 64 16 76 bd 8f df 93 bd 8a b9 ae 3d a1 64 57 bd
       -0.060079947 -0.07220375 0.085314825 -0.0525862
000180 9f 7a 5b 3d e6 1f 8f bb 20 d5 c1 3d 20 bf 1d 3e
       0.053583737 -0.0043678163 0.094644785 0.1540494
000190 df 9b 83 3d 3b 45 6e bd 6c d3 0c bd f7 aa 4b bd
       0.064262144 -0.058171492 -0.034381315 -0.04972359
0001a0 4a 9d 0d 3d 1f d2 5b 3c 52 0f e7 3c 6d 27 98 bd
       0.03457383 0.013416796 0.028205547 -0.07429395
0001b0 6d fd d3 bd 5f 38 df bd 9d e3 db bc cd e4 08 b9
       -0.103510715 -0.10899424 -0.026841933 -0.00013055206
0001c0 6e 16 80 bd 5d 77 c4 3d a6 cd 83 3c 12 c6 7a bc
       -0.06254278 0.09593079 0.016089272 -0.015306013
0001d0 21 1b 3a bd 67 42 aa 3d 80 f1 e3 bd 4d 11 c5 bd
       -0.04543603 0.083134465 -0.11130047 -0.096224405
0001e0 b1 7c a4 bc dc 67 b0 bb 76 20 8a 3d d1 fe 5d bd
       -0.020078989 -0.0053834748 0.06744473 -0.05419809
0001f0 20 4e 6e 3c ee e4 bf bc df 58 8e bd f7 b7 46 bd
       0.014544994 -0.023424592 -0.069505446 -0.048515286
000200 6f 70 6a bd 3c d8 1e 3c 26 59 24 bc 08 a4 b6 bd
       -0.05723613 0.009695109 -0.01003102 -0.08918005
000210 e0 d9 e0 bd 8f 43 b1 3d 27 bf da 3b fd 40 29 3d
       -0.10979056 0.08655464 0.006675619 0.041321743
000220 ed a7 1a bc 62 77 39 be 91 d8 0b 3d 61 b9 cc 3b
       -0.009439451 -0.18111947 0.03414208 0.006247685
000230 e7 ad 51 3d 66 f6 f2 bd 61 5e c3 bd e7 03 d7 3c
       0.051191237 -0.11863403 -0.09539486 0.026246978
000240 6b 23 bd bc a1 84 85 3d 46 20 a6 3c c9 81 00 3d
       -0.023088178 0.065194376 0.020279061 0.031373773
000250 d9 92 07 be 4e 4f 16 3d 26 1e b3 bd 47 52 f1 bc
       -0.13239612 0.036696725 -0.08745985 -0.029458178
000260 58 25 47 be a5 9c 21 3e b7 3f 8a bb b6 08 86 3c
       -0.1944784 0.15782411 -0.004219021 0.016361576
000270 40 19 60 3d 8d 7c d4 3c 16 d5 f4 bc a9 41 15 3b
       0.05471158 0.025938297 -0.029886764 0.0022774732
000280 ad 15 6b bc 55 e3 22 3d 9d 0a 55 3d d7 0e 8d 3c
       -0.01434843 0.039767582 0.052012075 0.01721899
000290 4d bf 8b bc 65 ea dc bc 4e f8 17 be c5 99 b8 bd
       -0.017058993 -0.026967237 -0.14840814 -0.09013704
0002a0 ff 14 aa bd 82 36 cc bc ea 09 a5 3c 34 c9 0c 3e
       -0.08304786 -0.024928335 0.020146329 0.13748628
0002b0 3d 3a 79 bd 4b 95 02 3d f4 6d 05 3d 61 02 f2 3c
       -0.060846556 0.031880658 0.032575563 0.02954215
0002c0 40 5b 49 3d 29 94 ce 3d 8e f7 9d bd 85 41 f5 3d
       0.04915929 0.10086853 -0.07713233 0.119753875
0002d0 36 f6 23 be 5f 1b 48 be 0f c9 9d 3b d0 6f 4d 3d
       -0.16011891 -0.19541691 0.004815228 0.05015546
0002e0 1e a8 59 be 81 a4 73 3d d1 7a 8e 3d c7 30 be bd
       -0.21255538 0.059483055 0.06957019 -0.09286647
0002f0 38 e5 af 3d 9e e4 2b bd 38 67 8a 3d 0d 08 28 3e
       0.08588642 -0.041966073 0.06757969 0.16409321
000300 29 17 96 3d c7 00 e6 bc a9 ea 36 be a2 75 d5 bd
       0.07328636 -0.028076543 -0.17862953 -0.10422827
000310 69 35 1e 3c 77 94 4d bc 40 63 09 3d ed fe cc bb
       0.009656289 -0.012547604 0.033541918 -0.0062559755
000320 94 fe 4d be d8 d9 b5 3d f2 5d e4 3c d9 16 74 bd
       -0.20116645 0.08879441 0.027876828 -0.0595921
000330 04 4f 0b 3e 10 b4 2f 3e 21 d2 84 3d 9b b0 db 3d
       0.13604361 0.17158532 0.064853914 0.10727044
000340 61 5f 6b 3d c6 e6 6a 3c 5d 23 93 3d 83 9f 03 be
       0.057464007 0.014337247 0.071844794 -0.12853818
000350 99 a6 3d 3b 6a b6 bc 3d 3d 65 e2 bc d4 97 50 3d
       0.0028938411 0.0921448 -0.027636165 0.050926045
000360 f2 95 f5 bd cc 43 ab bd 7f b5 83 3c 0b 92 fc bd
       -0.119914904 -0.083625406 0.016077755 -0.12332543
000370 41 5d e7 3d 93 f4 55 3d 7f 70 65 bd 48 e8 23 3e
       0.11297084 0.052235197 -0.056015488 0.16006577
000380 6f 37 cd 3d cf b2 8d 3d 81 a5 bc bc 51 67 05 be
       0.10020339 0.06918871 -0.023028137 -0.13027693
000390 5b fe 9e 3d 77 e3 c0 bd 9c 3d c9 bb 74 0d 41 bc
       0.07763358 -0.094183855 -0.0061413776 -0.011782993
0003a0 9b a2 d1 3c 0e 58 a7 bc 1d cb 82 bd 24 9f 7b bd
       0.025590232 -0.02042773 -0.06386397 -0.061431065
0003b0 24 9f b4 3d 58 5b 23 3c 74 e4 33 3c 73 1f 51 bd
       0.08819416 0.0099705085 0.01097976 -0.051055383
0003c0 26 d2 1a 3d d3 ff bb bc 10 15 10 3e 76 e9 cf bd
       0.03779807 -0.022949135 0.14070535 -0.10151951
0003d0 49 1a 93 3d e0 17 b8 bd 65 47 09 3d 7b 20 65 bc
       0.07182748 -0.08988929 0.033515353 -0.013984795
0003e0 b8 76 42 bc 47 2b 6a bd a9 b7 8f bc 35 71 dc bd
       -0.011869125 -0.05717018 -0.01754363 -0.1076378
0003f0 22 45 c1 bc e3 50 11 3e ba fa e4 bb dc 0a 2f bc
       -0.023592535 0.14191012 -0.0069878967 -0.010683741

critic.4.bias f4 [128]
000000 a9 79 9c bd 2e 98 88 bc 63 be 64 3b f7 84 a3 bd
       -0.07640392 -0.016674127 0.0034903518 -0.079843454
000010 3c 27 50 3d 1c 57 08 3d 67 2e bb 3d d2 86 76 bd
       0.050818667 0.0332862 0.0913971 -0.06018717
000020 32 55 8e 3d 0b b2 20 3d 83 0b 44 bd b2 6c ff bc
       0.069498435 0.039232295 -0.04786254 -0.03117976
000030 4e 31 d0 bb 1e 51 e7 3d 80 0d f8 bd 69 ce b5 3b
       -0.006353534 0.11294769 -0.1211195 0.0055482876
000040 f6 43 cd bb 6f ae 80 bd 59 57 cc 3b 08 e7 01 bc
       -0.006264205 -0.062832706 0.0062359986 -0.007928617
000050 4d 6c f2 3d 07 fe 03 bc 97 93 79 bd 2b 80 a9 bd
       0.11837063 -0.00805617 -0.06093177 -0.08276399
000060 39 22 b2 3d 35 5c cf bd 61 d9 ca bb 66 e8 9e 3d
       0.08697934 -0.10125009 -0.0061904644 0.0775917
000070 01 f2 7f 3d 09 89 75 3d bc 6e 98 3d 77 55 26 be
       0.062486652 0.05994514 0.07442996 -0.1624354
000080 7d fe a1 3d 06 26 a3 3d f9 9c c9 3d b6 04 ea 3b
       0.07909868 0.07966237 0.09844393 0.007141675
000090 e2 d7 b2 3d 07 ae 0a be 12 77 e3 bd 7b fe 4d bb
       0.08732583 -0.13542949 -0.11106695 -0.00314322
0000a0 9a d5 ce bd c2 e8 d8 3c 42 a1 b8 3d be 92 70 bd
       -0.10099335 0.026478175 0.090151325 -0.058733694
0000b0 5e 97 0a 3e d1 4a af 3d 63 09 82 3c 00 80 f7 bb
       0.13534304 0.08559192 0.015873617 -0.0075531006
0000c0 b5 3b a7 3b c3 b0 c2 ba fe d3 76 bd 75 18 19 3e
       0.005103553 -0.0014853704 -0.060260765 0.14950736
0000d0 e5 aa ff bd b4 fa 2c 3d a2 ea 55 bd ee 56 9e 3d
       -0.124837674 0.042231277 -0.052225716 0.07731424
0000e0 2e be b3 3c 1b 0d e1 3c 77 8a d5 bd fc fe 99 3d
       0.02194127 0.02747207 -0.10426801 0.075193375
0000f0 cb 63 22 3e 65 a0 25 3c 42 a6 19 3c 63 41 e8 3d
       0.1585838 0.010109042 0.009378018 0.113405965
000100 a4 9b 40 3d 2b b3 48 bc e9 27 2e bd 28 bb 8e 3c
       0.04702343 -0.012249748 -0.04251853 0.017423227
000110 ad 28 14 3c bb f5 06 bd 9f c9 a9 bd 80 a4 ed 3c
       0.009042901 -0.03294919 -0.08290409 0.029009104
000120 5a 92 ab bd 8d 99 ed bd 99 d3 98 bd 72 8e 83 bc
       -0.08377524 -0.11601553 -0.07462234 -0.016059134
000130 11 cc b9 bd c4 ad 17 3d 94 d8 d4 bd b5 34 00 3e
       -0.09072126 0.03703095 -0.103928715 0.12520106
000140 f7 19 71 bd 86 6c 14 3e 02 99 0f 3e 27 da ef 3d
       -0.058862653 0.14494523 0.14023212 0.11711531
000150 d2 40 a8 bd f3 12 fd 3c e5 9e ea 3c 45 f5 55 3d
       -0.082154885 0.030892825 0.02864022 0.05223586
000160 37 1f ba bc fc 96 cd bd 93 b0 76 3d ca fd 3a bd
       -0.022719963 -0.100385636 0.060226988 -0.04565219
000170 e2 af 58 bd 43 83 67 3d 01 05 91 bd bf 12 14 be
       -0.05290211 0.056521665 -0.070810325 -0.14460276
000180 8e 23 21 3e d6 5d cf bd 60 e4 e4 bc a1 bb ea bd
       0.1573622 -0.1012532 -0.027940929 -0.114615686
000190 14 d9 fe bd d2 60 0d 3c f5 ab cb 3d 98 75 52 bc
       -0.12443748 0.008629041 0.099449076 -0.012845419
0001a0 76 95 ed 3c 22 b7 87 bd 8b c7 8d bd 6d 8f e9 3d
       0.029001933 -0.06626727 -0.069228254 0.114043094
0001b0 b5 df 84 3c 00 af 1c be 10 44 af ba bc c8 3e bd
       0.016219953 -0.15301132 -0.0013371725 -0.046578154
0001c0 22 2f 24 be ed 40 8c bd 11 97 ae 3b 80 68 30 bd
       -0.16033605 -0.06848321 0.005328067 -0.04306841
0001d0 24 3e 60 bd 9a 18 42 bd 78 0c de 3d 84 92 cb bd
       -0.054746762 -0.047386743 0.10842222 -0.09940055
0001e0 84 08 83 bc 43 c6 cc bc 09 49 da 3d 0b eb 73 3d
       -0.015995272 -0.024996882 0.106584616 0.059550326
0001f0 cf 60 e6 bd 35 c6 8a bd 9f aa 73 3d 87 8a cb bd
       -0.112489335 -0.06776086 0.05948889 -0.09938531

critic.6.weight f4 [1, 128]
000000 e8 19 a2 bd ff 4a f1 3d e2 bd 74 3e 93 fd 2f be
       -0.079150975 0.117818825 0.2390056 -0.17186575
000010 84 a0 80 be f1 11 04 3e 4c 8a 30 3e 95 12 3f be
       -0.25122464 0.12897469 0.17240256 -0.18659432
000020 d1 63 09 3e 6a b0 a9 bd 6b 3e 3f be 80 81 89 bd
       0.13416983 -0.082856014 -0.18676154 -0.06714153
000030 da 69 81 bd 6f f0 a1 bd 99 18 f8 3d ef 7a a6 bd
       -0.06319018 -0.07907187 0.12114067 -0.081289165
000040 33 2e 15 3e b3 fe f6 3d e8 7a b7 3d 48 30 9c bd
       0.14568405 0.12060299 0.089589894 -0.076263964
000050 d3 fc 6c 3e b3 c3 62 be 86 a8 5e 3e 1e aa 93 be
       0.2314332 -0.22144966 0.21743974 -0.28840727
000060 a0 63 3b 3e c7 9f 18 be 74 ba c4 bd 14 07 f9 bd
       0.18299723 -0.149047 -0.096058756 -0.12159553
000070 e1 26 73 3e 62 97 aa bd 37 3c 03 3e b1 26 fb 3d
       0.237453 -0.08329655 0.12815939 0.12263239
000080 b3 37 b7 3d c5 d4 a3 3d d8 b4 51 3e 80 68 03 be
       0.08946171 0.07999567 0.20479143 -0.12832832
000090 36 00 a8 3d 8b f3 11 3e 95 eb cd 3d 7e 9f f0 bd
       0.08203165 0.1425306 0.10054699 -0.11749171
0000a0 96 72 a3 bd 11 55 51 be 2b b7 0b 3e e9 5b b0 bd
       -0.0798084 -0.20442607 0.13644092 -0.086112805
0000b0 16 d0 c9 bd f5 52 02 be 00 d4 1d 3e 57 13 1b be
       -0.09854142 -0.12726958 0.15412903 -0.15144096
0000c0 3b cf a0 bd 0b b0 cb 3d ef c8 ad bd 1a da 28 3e
       -0.07852026 0.09945687 -0.08485591 0.16489449
0000d0 79 70 0d be ea 34 de bd 33 db 1c be 7b ad 10 be
       -0.13812436 -0.10849936 -0.15317993 -0.14128678
0000e0 13 cf 0e be 47 a0 9a 3e fe 8e 94 bd f5 4c 07 3e
       -0.1394618 0.30200407 -0.07253836 0.1321295
0000f0 06 13 0d be 41 fc 0e be 39 09 b2 3d be 2b 1d 3e
       -0.13776788 -0.13963415 0.08693165 0.15348718
000100 cd b4 fa 3d 40 30 1d be 35 e7 f1 3d 47 e4 1c 3e
       0.12241516 -0.15350437 0.11811677 0.15321456
000110 4a ed 11 3e e3 1f 16 be f6 9b eb bd 52 54 0e 3e
       0.14250675 -0.14660601 -0.115043566 0.13899353
000120 58 f4 ac bd 00 13 8e bd d0 7a 13 be 01 a6 b5 bd
       -0.08445042 -0.06937218 -0.14402318 -0.08869553
000130 b6 b1 27 be b0 1b be 3d 37 6b f8 3d b4 3f 05 3e
       -0.16376385 0.09282625 0.121298246 0.13012582
000140 2f 4d b0 bd 39 01 05 be c2 fc 0c 3e cf 44 01 be
       -0.086084716 -0.12988748 0.13768294 -0.12623905
000150 d8 5e 2c be 6c f3 1d 3e a3 f5 84 bd 12 38 e5 bd
       -0.16833055 0.1542489 -0.06492164 -0.11192335
000160 c0 95 c6 bd c1 59 6c be ee 92 82 3e 45 04 20 be
       -0.09696531 -0.23081113 0.25502723 -0.15626629
000170 f1 68 3f be 71 92 a7 3d c0 10 e3 bd b5 8a 82 bd
       -0.18692376 0.08182228 -0.11087179 -0.063741125
000180 42 74 40 3e 8c 15 12 3e 79 2d 0d 3e 40 d6 0d be
       0.18794349 0.14266032 0.13786878 -0.13851261
000190 eb e2 db 3d fb 0e 04 be 66 83 f0 3d 51 8d 10 3e
       0.107366405 -0.1289634 0.11743812 0.14116408
0001a0 f6 ad cb bd 44 19 b2 3d 5e 01 07 be e2 15 03 be
       -0.0994529 0.08696225 -0.13184115 -0.12801316
0001b0 17 16 0d be d7 a3 c8 3d d0 f8 46 3e e8 a6 a0 3d
       -0.13777958 0.09796875 0.19430852 0.07844335
0001c0 37 b8 a6 3d 6f 34 77 be d3 97 0b be b4 99 48 be
       0.08140605 -0.24141096 -0.13632135 -0.19589883
0001d0 58 b5 f6 bd 2f 3b 38 3e 8b a7 97 3d f3 9a b1 bd
       -0.12046307 0.17991327 0.07405003 -0.08672132
0001e0 26 98 89 be 6b 43 4f 3e 19 4d e5 bd 17 41 03 3e
       -0.26873893 0.20240562 -0.11196346 0.12817799
0001f0 a9 0f 3c be fe 0b 16 be 83 cb 1c 3e 76 d2 bd 3d
       -0.18365349 -0.14653012 0.15312009 0.09268658
