ippo_algorithm/checkpoints/ppo_critic_1env_comp_exp_1_run_0_lumberjacks.pth (torch, 175356 bytes, 7 tensors)

critic.0.weight f4 [128, 75]
0.124022625 0.021989388 -0.114742234 -0.2410152 -0.12885629 -0.07187548 -0.1321092 -0.14187402
-0.048831094 -0.17677292 -0.08016397 -0.060591027 0.03544174 0.012042786 0.026938431 0.0018302081
0.09521451 -0.016355503 -0.038612064 0.07916228 0.009858429 0.001138374 -0.0027103487 0.005753414
-0.03239986 0.11136862 -0.09625293 0.043694057 -0.073486306 0.017629903 0.09114347 -0.08186392
0.05209948 0.013941709 -0.103999935 -0.059885632 0.01669155 0.088531226 -0.067044444 0.021894105
-0.027540892 -0.095457174 0.08151285 -0.0041827853 -0.13093829 -0.16400842 0.050193507 0.0076578325
-0.009682222 0.022648027 -0.024416195 -0.07207712 -0.0040374286 -0.100814275 -0.054442 0.0745211
0.023264896 -0.06452366 0.07969703 0.0702499 -0.068160966 -0.046341155 0.06775608 -0.054921687
0.049684823 -0.044893272 0.06683361 -0.0014662175 0.01921432 0.09987921 -0.014244858 0.0342484
-0.012231546 0.08127087 -0.10677078 0.11074712 -0.108715735 0.018655062 -0.14002007 -0.11228409
-0.2534898 -0.14637709 0.008539428 -0.034861285 -0.07614893 -0.026931303 -0.06380489 0.096966095
0.019249547 0.048066873 0.04952866 -0.032541625 -0.010586369 0.050926764 0.086035736 0.09274022
0.0011828353 -0.112995304 0.075018615 -0.08491543 -0.09987583 0.087309115 0.010661912 -0.01887252
-0.020118153 -0.082435675 -0.016280496 -0.027062895 0.027903529 0.087899886 0.10544698 0.11238909
0.0322292 0.02870785 0.0043791174 -0.061900567 0.068136156 -0.028805437 0.018894024 -0.046327878
0.034541864 0.032969154 0.05647645 0.050210427 -0.024279136 -0.04208552 0.08191829 0.011518266
0.09494558 -0.07489079 -0.023616787 -0.06230993 -0.054732073 -0.031719368 -0.09328503 0.0060566454
0.07516443 -0.098729044 -0.09017922 0.10255256 -0.040554967 0.055986512 -0.11451872 0.03530852
0.014833647 0.113699526 0.011142741 0.054243095 -0.05955459 0.038233414 0.017031142 0.08323625
-0.06884356 0.054925386 0.20254989 -0.042965468 0.30338323 0.028076366 0.11748401 0.26433045
0.26737922 0.25976565 -0.065172516 0.06690531 0.081786126 0.08166579 -0.057795443 0.050687514
-0.062756814 0.09874831 -0.091037795 -0.0019237419 0.010376836 0.04075785 -0.041817047 -0.020179559
-0.04457047 -0.05073565 -0.07853272 0.0025180364 -0.07007628 0.002284415 -0.0090996 -0.02719815
0.013593535 -0.095273234 -0.053322952 -0.10949283 -0.09627624 0.2720945 -0.0082748905 0.2957198
-0.049681917 0.04411891 0.077951446 0.14065115 0.07437884 0.110726245 -0.018320264 0.0075130067
-0.055355288 0.045635458 0.08436925 -0.08279394 -0.046460483 -0.07133778 -0.020533115 -0.0802431
-0.060857393 -0.06704376 0.011346313 0.006521231 -0.02249628 0.10122851 -0.013014217 0.096191585
-0.010960381 -0.009791833 -0.10483531 0.10637894 0.037170265 0.041085336 -0.044541106 -0.11261726
-0.046131484 -0.060764186 -0.0054626665 0.01255948 -0.032349568 -0.03405863 0.04420371 0.019758295
0.011741048 3.0151445e-05 -0.00023199302 0.015863746 0.10740522 -0.047577288 0.04635946 0.004815019
0.013299828 -0.0533829 0.041188464 -0.042671695 0.11187658 0.04724266 -0.055069882 0.05949638
-0.040391132 0.006733076 0.082506746 -0.08386342 0.022281062 -0.05496276 -0.00043212788 0.018377073
00000000: 93ff fd3d 1723 b43c fafd eabd b0cc 76be
00000010: e7f2 03be 7433 93bd a247 07be 6c47 11be
00000020: 1d03 48bd f603 35be 022d a4bd 4c2e 78bd
00000030: 5c2b 113d 1b4f 453c fcad dc3c 98e3 ef3a
00000040: d3ff c23d fafb 85bc af27 1ebd d51f a23d
00000050: 4085 213c 7e35 953a 1ba0 31bb 2287 bc3b
00000060: b7b5 04bd 3b15 e43d 4220 c5bd 8af8 323d
00000070: fd7f 96bd 966c 903c 6da9 ba3d 45a8 a7bd
00000080: 4466 553d c46b 643c ebfd d4bd a34a 75bd
00000090: b8bc 883c dc4f b53d 994e 89bd 445b b33c
000000a0: 709d e1bc 0d7f c3bd 36f0 a63d bf0f 89bb
000000b0: b014 06be d3f1 27be b597 4d3d 8eee fa3b
000000c0: 2fa2 1ebc 5b88 b93c 7904 c8bc 2b9d 93bd
000000d0: 684c 84bb b777 cebd 93fe 5ebd 859e 983d
000000e0: 0696 be3c fb24 84bd 3238 a33d 2edf 8f3d
000000f0: fa97 8bbd 39d0 3dbd b3c3 8a3d 90f5 60bd
00000100: 5082 4b3d 02e2 37bd 0fe0 883d 182e c0ba
00000110: 5a67 9d3c 798d cc3d 4463 69bc 0d48 0c3d
00000120: d366 48bc 5871 a63d a4aa dabd 63cf e23d
00000130: 5ba6 debd 80d2 983c 6c61 0fbe 33f5 e5bd
00000140: 6ac9 81be e0e3 15be f5e8 0b3c b5ca 0ebd
00000150: f8f3 9bbd 099f dcbc 23ac 82bd 2996 c63d
00000160: 3ab1 9d3c c5e1 443d 90de 4a3d 5e4a 05bd
00000170: 7372 2dbc 9598 503d 8133 b03d 96ee bd3d
00000180: 5e09 9b3a 156a e7bd 5ca3 993d 24e8 adbd
00000190: b38b ccbd 1fcf b23d 4daf 2e3c 8b9a 9abc
000001a0: d3ce a4bc 09d4 a8bd ad5e 85bc 01b3 ddbc
000001b0: f195 e43c db04 b43d 96f4 d73d 402c e63d
000001c0: c402 043d ba2c eb3c b37e 8f3b 738b 7dbd
000001d0: f88a 8b3d 61f9 ebbc a4c7 9a3c 4dc2 3dbd
000001e0: c57b 0d3d aa0a 073d da53 673d 73a9 4d3d
000001f0: 0ae5 c6bc de61 2cbd c7c4 a73d 1cb7 3c3c
00000200: d472 c23d 5860 99bd fe77 c1bc b238 7fbd
00000210: bd2e 60bd 2bec 01bd 390c bfbd d376 c63b
00000220: cfef 993d 7432 cabd e2af b8bd 1407 d23d
00000230: f71c 26bd 1d52 653d ca88 eabd ab9f 103d
00000240: d308 733c 4cdb e83d 0b90 363c 022e 5e3d
00000250: 84ef 73bd a49a 1c3d e584 8b3c c477 aa3d
00000260: dafd 8cbd 71f9 603d 3d69 4f3e 8ffc 2fbd
00000270: 0c55 9b3e 6800 e63c 759b f03d 5256 873e
00000280: eee5 883e 0100 853e 2b79 85bd a705 893d
00000290: 7c7f a73d 6540 a73d eaba 6cbd b69d 4f3d
000002a0: a586 80bd 8e3c ca3d 0672 babd 1126 fcba
000002b0: 9b03 2a3c b4f1 263d 5a48 2bbd 9a4f a5bc
000002c0: 868f 36bd 2fd0 4fbd c3d5 a0bd a405 253b
000002d0: 2784 8fbd 20b6 153b 7d16 15bc a8ce debc
000002e0: 6bb7 5e3c 9d1e c3bd 2b69 5abd c73d e0bd
000002f0: 7a2c c5bd f84f 8b3e 6893 07bc 9668 973e
00000300: 447f 4bbd 08b6 343d 02a5 9f3d db06 103e
00000310: ef53 983d 71c4 e23d 6114 96bc ab2f f63b
00000320: 3abc 62bd 3fec 3a3d c9c9 ac3d df8f a9bd
00000330: 594d 3ebd 8b19 92bd 1035 a8bc 7f56 a4bd
00000340: 9a45 79bd 3d4e 89bd e3e5 393c 0db0 d53b
00000350: 1e4a b8bc e550 cf3d 9539 55bc 1800 c53d
00000360: 2b93 33bc ed6d 20bc e5b3 d6bd 34dd d93d
00000370: d93f 183d 1949 283d bc70 36bd e1a3 e6bd
00000380: 5ef4 3cbd dee3 78bd 2b00 b3bb 47c6 4d3c
00000390: fb80 04bd 1081 0bbd f30e 353d 26dc a13c
000003a0: 865d 403c bced fc37 2743 73b9 b0f4 813c
000003b0: 45f7 db3d 67e0 42bd 6be3 3d3d 4fc7 9d3b
000003c0: 86e7 593c 07a8 5abd 3cb5 283d 84c8 2ebd
000003d0: 8c1f e53d 8581 413d f590 61bd 7ab2 733d
000003e0: 2c71 25bd 23a1 dc3b 4cf9 a83d 96c0 abbd
000003f0: c686 b63c a220 61bd 398f e2b9 848b 963c

critic.0.bias f4 [128]
0.11371427 0.15798193 -0.101572804 0.03427559 -0.06149605 0.040848672 -0.02932403 0.07883494
-0.05083464 -0.05936724 0.093266316 0.0056845453 -0.12984613 -0.08237267 -0.10232485 0.08898721
0.107859366 0.10206013 0.14165585 -0.04407213 0.056731008 -0.16039991 0.015215935 -0.08583423
-0.061271638 0.06323542 -0.07748677 0.032428082 0.00095279573 0.10674792 0.0043872935 -0.118124075
-0.10775554 0.018738763 -0.024342874 0.1225515 -0.071614414 -0.039533276 0.010264634 -0.1418005
-0.0028471446 -0.006022298 -0.026511261 -0.14095761 0.0977344 0.079613395 0.06951415 -0.115303166
0.13373189 0.031636167 -0.11629409 -0.07589149 0.053299308 -0.027133668 -0.025813183 0.053858783
-0.08957381 0.12277372 0.040985607 0.14127624 0.0388386 -0.0718248 0.06848104 0.050688
-0.00299401 0.10793546 0.015380531 -0.08375332 0.13337836 0.012394066 -0.06193034 -0.05931008
8.497213e-05 -0.13659383 0.10324281 0.109918885 0.106874295 -0.13041781 -0.0235561 0.10534925
-0.07370005 0.08832264 0.05245087 0.03407607 0.09013232 -0.00711056 -0.05472936 -0.08924506
-0.0527376 -0.08239526 -0.108600795 0.050978687 0.121838905 0.0044138725 0.029059198 0.10262977
-0.15433627 -0.050650615 -0.009037773 0.03172779 -0.057434894 -0.11371931 -0.10876471 0.0012640873
0.0033600102 -0.040744085 -0.05820591 -0.12846485 -0.040612977 0.11755625 0.08938839 -0.013085373
-0.07369532 -0.04266088 -0.014681359 0.09963166 0.04305699 0.06480404 0.04272716 -0.038571753
0.100444496 -0.0843422 -0.09211298 -0.065733984 0.13686787 -0.07640808 -0.03567956 -0.09421703
00000000: 07e3 e83d 04c6 213e 6705 d0bd 9064 0c3d
00000010: 48e3 7bbd f050 273d f338 f0bc 3774 a13d
00000020: fc37 50bd 102b 73bd 6902 bf3d 6c45 ba3b
00000030: 62f6 04be 01b3 a8bd b18f d1bd ed3e b63d
00000040: 5fe5 dc3d e704 d13d 3b0e 113e fa84 34bd
00000050: c65e 683d e03f 24be 424c 793c dbc9 afbd
00000060: f8f7 7abd 9281 813d 62b1 9ebd 4fd3 043d
00000070: 0ac5 793a a79e da3d 49c3 8f3b 09eb f1bd
00000080: f0ae dcbd 0982 993c b56a c7bc 48fc fa3d
00000090: 94aa 92bd a5ed 21bd ff2c 283c 2634 11be
000000a0: 2997 3abb b256 c5bb 252e d9bc 3157 10be
000000b0: f928 c83d 590c a33d 6f5d 8e3d 1124 ecbd
000000c0: 03f1 083e ed94 013d 992b eebd ff6c 9bbd
000000d0: 6050 5a3d 6d47 debc 2b76 d3bc 079b 5c3d
000000e0: 7972 b7bd ca70 fb3d 86e0 273d b8aa 103e
000000f0: 3915 1f3d e118 93bd ca3f 8c3d 389e 4f3d
00000100: 2737 44bb 440d dd3d 9ffe 7b3c dc86 abbd
00000110: 5694 083e 7b10 4b3c abaa 7dbd 20ef 72bd
00000120: 1133 b238 41df 0bbe f770 d33d 271d e13d
00000130: e9e0 da3d 3f8c 05be b9f8 c0bc 59c1 d73d
00000140: 0df0 96bd 80e2 b43d b9d6 563d 5993 0b3d
00000150: 4b97 b83d b3ff e8bb e52b 60bd 1dc6 b6bd
00000160: 6203 58bd d9be a8bd 186a debd 07cf 503d
00000170: ad86 f93d 3fa2 903b 8e0d ee3c 8f2f d23d
00000180: 540a 1ebe 0577 4fbd 2b13 14bc 00f5 013d
00000190: da40 6bbd abe5 e8bd 08c0 debd bbaf a53a
000001a0: 9e33 5c3b 45e3 26bd 5269 6ebd 4a8c 03be
000001b0: cb59 26bd 55c1 f03d 4311 b73d 0864 56bc
000001c0: 92ed 96bd 2dbd 2ebd 158a 70bc af0b cc3d
000001d0: 875c 303d fbb7 843d ad02 2f3d 6afd 1dbd
000001e0: d8b5 cd3d 9abb acbd bba5 bcbd 8a9f 86bd
000001f0: 1727 0c3e d77b 9cbd bb24 12bd dcf4 c0bd

critic.2.weight f4 [128, 128]
-0.012914624 -0.031303328 -0.057080086 -0.00673208 0.07210272 0.035766914 -0.13722643 -0.08285108
0.09306342 -0.003663833 -0.09134094 0.08652537 0.06949971 0.09031887 -0.0050313803 -0.023088742
-0.044789657 -0.08427562 -0.037105482 -0.0994826 0.037630476 0.04270775 -0.11135601 -0.04839552
-0.014676591 0.011258302 0.01599037 -0.067440845 0.08920377 0.010907913 -0.0739086 0.046043947
0.020233937 -0.053842746 0.056718513 -0.09144341 0.004516251 -0.05950139 0.053792927 -0.028269274
0.038440995 0.07439604 -0.10253162 0.0128660565 -0.09231389 0.05211904 0.0047269883 0.001256772
-0.06370243 -0.014432655 0.028088225 -0.034232352 0.03100508 -0.024790835 -0.09161258 -0.07692832
-0.013275069 0.011152651 -0.0137518365 -0.016166626 -0.05138645 0.051747933 -0.12210335 -0.012757844
-0.08601633 -0.07208721 -0.07461329 -0.06358355 0.010233749 0.083273254 0.042720996 -0.05098759
-0.025523968 0.06950513 -0.019300463 -0.061250944 -0.039631866 0.011237629 -0.03849685 -0.0063842987
-0.028864704 0.0015567248 -0.08749671 0.054299355 0.03557305 -0.06599509 -0.062374886 -0.03618776
-0.067501366 0.08748569 0.06864568 -0.09357143 0.0051557263 0.06187976 -0.062075056 -0.07967212
0.05258445 0.049434397 -0.100713134 -0.008451563 0.05939215 0.078598715 -0.01876878 0.05232961
-0.099099666 0.03247757 0.0032684645 -0.042297132 0.049210288 -0.0373777 0.054157257 -0.08058577
0.06494993 -0.012541622 -0.08821601 -0.02115127 -0.013010653 0.09116603 -0.086089134 -0.06801637
-0.0994245 -0.079621166 -0.015393883 0.087149516 0.011611083 0.05754599 0.10187444 0.17158747
0.047268234 -0.0054056672 0.09900666 -0.004251956 0.005084038 -0.008275263 -0.033716056 -0.054893225
-0.023478676 -0.01735879 0.06295655 -0.044662103 -0.079935 -0.02967201 0.04924565 0.09181183
-0.051797472 -0.08278331 -0.033130612 0.061586794 0.07702018 -0.022753801 -0.048911653 0.00946647
-0.02374106 0.0014293555 0.02353549 0.09502543 0.06256901 0.06846109 0.08507192 0.12024307
0.009115747 -0.09092859 -0.07783567 -0.10587651 -0.006044965 0.03272455 -0.045449384 0.06499174
-0.043904167 -0.15611766 0.024357023 -0.022813499 -0.17490315 -0.15205157 -0.035634585 -0.05912998
0.071440935 0.053149 0.010499924 0.10818053 0.12224368 -0.0032981886 -0.017539576 0.048091374
0.0665137 -0.049779426 0.056259762 -0.023431998 0.016468357 -0.11740789 -0.0422955 -0.05718674
0.10078898 -0.13972527 0.06741186 -0.02399068 -0.06462423 -0.09066663 0.111001775 -0.026535371
-0.08388482 0.070251 0.1783922 0.082345515 0.05862502 -0.09045313 -0.13243079 -0.0747489
0.122866265 -0.02918927 -0.078365006 -0.017757066 0.058353886 -0.06850428 -0.0069952453 -0.13786666
0.06569985 -0.10280641 -0.018847058 -0.0764352 -0.0058817817 0.009195016 -0.047600627 0.13184173
0.080309756 0.07827548 0.029854171 -0.012184123 0.057572845 -0.028989332 0.15812273 0.1973308
0.044346146 0.07780834 0.020496272 -0.02272446 -0.12257477 -0.053915646 0.115028016 0.17412297
0.05032216 0.12913318 0.090254635 0.100193225 0.096564576 -0.05745398 -0.02020756 -0.018186387
-0.05222821 0.048916128 0.02918923 -0.013088802 -0.039635085 0.10467256 -0.06665678 -0.1099089
00000000: dc97 53bc eb37 00bd cfcc 69bd c898 dcbb
00000010: 97aa 933d 5480 123d 1685 0cbe d4ad a9bd
00000020: 0998 be3d eb1c 70bb f510 bbbd 3734 b13d
00000030: dd55 8e3d 1af9 b83d 47de a4bb 9a24 bdbc
00000040: 5c75 37bd b298 acbd ebfb 17bd 89bd cbbd
00000050: 6a22 1a3d 52ee 2e3d 9f0e e4bd 613a 46bd
00000060: 1676 70bc be74 383c 3dfe 823c 6d1e 8abd
00000070: 77b0 b63d 1ab7 323c 645d 97bd 9498 3c3d
00000080: a4c1 a53c 368a 5cbd ac51 683d af46 bbbd
00000090: 0ffd 933b bbb7 73bd f955 5c3d f794 e7bc
000000a0: 4e74 1d3d f35c 983d 19fc d1bd 27cc 523c
000000b0: 110f bdbd c67a 553d dae4 9a3b 45ba a43a
000000c0: 6b76 82bd f176 6cbc 4719 e63c 3937 0cbd
000000d0: 5efe fd3c 2616 cbbc 609f bbbd 988c 9dbd
000000e0: ad7f 59bc 9cb9 363c 624f 61bc df6f 84bc
000000f0: 997a 52bd a4f5 533d 5211 fabd 4706 51bc
00000100: 5429 b0bd 76a2 93bd dace 98bd 1838 82bd
00000110: 74ab 273c 2b8b aa3d 36fc 2e3d 5dd8 50bd
00000120: a417 d1bc b558 8e3d 011c 9ebc 45e2 7abd
00000130: 0655 22bd 081e 383c dfae 1dbd 6133 d1bb
00000140: ac75 ecbc 040b cc3a 7a31 b3bd 0069 5e3d
00000150: 0cb5 113d 6f28 87bd cf7c 7fbd 9e39 14bd
00000160: 283e 8abd b32b b33d 1b96 8c3d 61a2 bfbd
00000170: 5ef1 a83b a275 7d3d 6a42 7ebd 232b a3bd
00000180: cb62 573d b97b 4a3d b042 cebd 6d78 0abc
00000190: 2f45 733d 5df8 a03d fcc0 99bc 9357 563d
000001a0: c4f4 cabd 3307 053d bc33 563b c23f 2dbd
000001b0: ba90 493d 5c19 19bd 00d4 5d3d 270a a5bd
000001c0: 7804 853d 607b 4dbc 98aa b4bd 6e45 adbc
000001d0: a22a 55bc 41b5 ba3d 804f b0bd 2b4c 8bbd
000001e0: 129f cbbd 6c10 a3bd a036 7cbc 727b b23d
000001f0: 693c 3e3c 58b5 6b3d 8ca3 d03d a0b4 2f3e
00000200: 569c 413d 0622 b1bb 01c4 ca3d fe53 8bbb
00000210: 0098 a63b f894 07bc d919 0abd b8d7 60bd
00000220: 5a56 c0bc 0534 8ebc 5def 803d 9cef 36bd
00000230: f6b4 a3bd b712 f3bc cfb5 493d d707 bc3d
00000240: 9629 54bd 4c8a a9bd f7b3 07bd 6f42 7c3d
00000250: c2bc 9d3d 2e66 babc 9657 48bd 4119 1b3c
00000260: 9d7c c2bc 3659 bb3a 80cd c03c b19c c23d
00000270: 2e24 803d 5435 8c3d 303a ae3d 0042 f63d
00000280: 375a 153c c538 babd 4f68 9fbd c9d5 d8bd
00000290: d714 c6bb 2e0a 063d 2229 3abd 641a 853d
000002a0: dbd4 33bd 4fdd 1fbe 6188 c73c 60e3 babc
000002b0: d019 33be 68b3 1bbe 92f5 11bd 4732 72bd
000002c0: a04f 923d c4b2 593d e007 2c3c c18d dd3d
000002d0: e55a fa3d 6c26 58bb 28af 8fbc 76fb 443d
000002e0: 5638 883d 83e5 4bbd a370 663d 76f4 bfbc
000002f0: a6e8 863c 8c73 f0bd 0c3e 2dbd a53c 6abd
00000300: 746a ce3d 2414 0fbe 3b0f 8a3d 1a88 c4bc
00000310: b559 84bd 6daf b9bd e654 e33d b560 d9bc
00000320: cecb abbd c2df 8f3d 72ac 363e c4a4 a83d
00000330: ca20 703d 7e3f b9bd f09b 07be f415 99bd
00000340: 4fa1 fb3d 561e efbc d57d a0bd 4477 91bc
00000350: 7c04 6f3d f94b 8cbd 5f38 e5bb eb2c 0dbe
00000360: a58d 863d 2b8c d2bd 2565 9abc 0f8a 9cbd
00000370: f6bb c0bb b1a6 163c e0f8 42bd 8501 073e
00000380: 7179 a43d e54e a03d bc90 f43c ea9f 47bc
00000390: 81d1 6b3d 097b edbc edea 213e 1611 4a3e
000003a0: 4ea4 353d fb59 9f3d cce7 a73c a628 babc
000003b0: 7b08 fbbd a7d6 5cbd cf93 eb3d 4b4d 323e
000003c0: 9c1e 4e3d 7d3b 043e 6cd7 b83d 1b32 cd3d
000003d0: a6c3 c53d dd54 6bbd 538a a5bc 9efb 94bc
000003e0: 3fed 55bd 475c 483d 411e ef3c 6a72 56bc
000003f0: 6658 22bd 915e d63d 5a83 88bd eb17 e1bd

critic.2.bias f4 [128]
-0.06738629 -0.0708078 -0.12692478 0.1079448 -0.020316722 -0.06050988 0.05044813 -0.056428935
0.062494446 -0.0043307394 -0.05168996 -0.009116153 -0.020270817 -0.09620347 -0.082997985 0.07789355
-0.08037145 0.01069827 -0.03720894 -0.06830325 0.08594765 0.033784162 0.07464331 -0.01472248
-0.05436653 0.061722502 0.030341337 0.032664686 -0.11706313 -0.00850604 -0.12017808 -0.037865
-0.0036421344 0.045708697 -0.085622534 -0.0881217 0.13594835 0.10526931 0.020533327 0.023127627
-0.034493674 0.14238448 -0.08889057 -0.017103765 -0.032240048 -0.09326409 -0.069698095 -0.03211098
-0.12053211 -0.008486424 0.09373748 -0.04379581 -0.027828064 0.10955442 0.107727535 0.035387035
-0.04268796 -0.11015142 0.09872595 -0.05342306 0.111643344 -0.03423325 -0.06863463 -0.117981255
-0.010529953 -0.0626408 -0.14760014 0.065098844 -0.034573764 -0.041261703 0.052436788 -0.025695134
0.06295294 0.11547182 0.12839346 -0.041244984 -0.0048646517 -0.050340023 -0.13123749 -0.023884248
-0.011682228 -0.11279681 -0.11712724 0.027200095 0.080297045 -0.07013696 -0.01772292 0.028659578
0.085266344 -0.008207002 0.11078183 -0.015478846 0.014987617 0.065071315 -0.05858764 -0.059198122
-0.033228677 0.08437974 0.094646476 -0.058029454 -0.013902231 0.15309137 -0.09640355 0.13865982
0.01671465 -0.041613672 0.06312957 0.059084415 -0.09284884 -0.07475292 -0.042180855 -0.10884609
-0.07627948 -0.10520759 -0.070566334 -0.122143 0.14485744 0.023392148 -0.0031545234 0.0424685
0.09836384 -0.03260614 -0.04617839 0.0802948 -0.027508065 -0.11110969 -0.097285494 0.10192408
00000000: d301 8abd ae03 91bd 92f8 01be 2a12 dd3d
00000010: 416f a6bc 35d9 77bd b3a2 4e3d 0722 67bd
00000020: 2dfa 7f3d e0e8 8dbb dab8 53bd eb5b 15bc
00000030: fc0e a6bc 5306 c5bd d9fa a9bd a786 9f3d
00000040: c999 a4bd cc47 2f3c 6768 18bd 93e2 8bbd
00000050: 5205 b03d 4361 0a3d 97de 983d 8f36 71bc
00000060: 70af 5ebd bcd0 7c3d 658e f83c 68cb 053d
00000070: cbbe efbd eb5c 0bbc ed1f f6bd 5518 1bbd
00000080: e0b0 6ebb 0b39 3b3d de5a afbd 2679 b4bd
00000090: 0b36 0b3e 7097 d73d 8235 a83c 2676 bd3c
000000a0: 3d49 0dbd 3dcd 113e 420c b6bd 321d 8cbc
000000b0: 240e 04bd 3e01 bfbd e0bd 8ebd ce86 03bd
000000c0: 8ad9 f6bd a40a 0bbc 70f9 bf3d 3c63 33bd
000000d0: aef7 e3bc 115e e03d 41a0 dc3d fff1 103d
000000e0: 92d9 2ebd 1197 e1bd d530 ca3d 23d2 5abd
000000f0: 44a5 e43d 2a38 0cbd 5090 8cbd 28a0 f1bd
00000100: d385 2cbc d249 80bd 7e24 17be 8b52 853d
00000110: 389d 0dbd 0802 29bd f5c7 563d 9a7e d2bc
00000120: 79ed 803d 7d7c ec3d 9379 033e 80f0 28bd
00000130: a867 9fbb 5731 4ebd 1f63 06be e6a8 c3bc
00000140: d166 3fbc 0402 e7bd 68e0 efbd bcd2 de3c
00000150: c772 a43d f7a3 8fbd a82f 91bc 7ec7 ea3c
00000160: 1fa0 ae3d a976 06bc 96e1 e23d fc9a 7dbc
00000170: 9f8e 753c 1c44 853d 98f9 6fbd bb79 72bd
00000180: cb1a 08bd 49cf ac3d 03d6 c13d 4bb0 6dbd
00000190: 2fc6 63bc fcc3 1c3e 396f c5bd d7fc 0d3e
000001a0: 29ed 883c 1973 2abd 134a 813d 8002 723d
000001b0: 8827 bebd 0f18 99bd d5c5 2cbd b3ea debd
000001c0: 6a38 9cbd 1477 d7bd 1585 90bd 1c26 fabd
000001d0: 8255 143e e4a0 bf3c 1fbc 4ebb 73f3 2d3d
000001e0: fb72 c93d 048e 05bd 8d25 3dbd 9a71 a43d
000001f0: 9858 e1bc 7a8d e3bd 9e3d c7bd 92bd d03d

critic.4.weight f4 [128, 128]
-0.035454534 -0.026359601 0.044193067 0.09317768 -0.01392729 -0.05377728 -0.07390351 -0.06958477
-0.037829522 -0.075140655 -0.072649814 -0.022746274 0.014843562 0.060303096 -0.04470231 -0.06251181
0.09190622 -0.056522813 -0.06703927 -0.02411986 0.03201523 -0.0048550847 -0.0581448 0.030257152
-0.07061951 -0.03649118 0.06306356 0.08436171 -0.09096589 0.01609616 0.04477407 0.057617825
0.06445121 0.042100813 0.06344427 -0.04986267 -0.008897719 0.050828066 0.007061068 0.067770846
-0.0015260783 -0.03725461 -0.0122554805 0.0703918 0.03338623 -0.010870181 0.04521143 -0.082854725
-0.028212087 -0.023478612 0.05050596 -0.06824948 -0.076232746 0.023419777 -0.017431676 -0.025855133
-0.012378202 -0.0031510447 0.048819307 0.022002084 -0.028894298 0.031186957 0.07963821 -0.075987615
-0.016189374 -0.075680904 0.058819726 0.010602796 0.07316396 -0.020692576 -0.04687982 -0.056228433
-0.050853312 -0.019499531 -0.045998927 0.08116037 -0.089828484 -0.09797619 -0.08740589 0.017184148
-0.07605192 0.07032986 -0.0063145855 0.08162254 -0.10373924 -0.065437 0.05271311 0.025011174
0.008720265 0.05128991 -0.017743222 -0.09238732 0.053778823 -0.0905946 0.049102806 0.09369977
0.07465968 0.07651875 -0.025956849 -0.059269726 -0.023852708 -0.030935593 0.03353304 0.07109792
0.064624764 0.017739277 -0.029003905 -0.02521051 -0.037236214 -0.03999177 -0.094983675 -0.0064569702
-0.0007231908 0.013803643 -0.03845302 -0.09230979 -0.0060421424 -0.013922337 -0.05112124 0.0016098223
-0.018109016 0.047238883 0.012849721 0.024081396 -0.055648237 0.05805134 -0.078523114 -0.04139549
0.015300325 -0.06888732 -0.041013133 -0.0057353848 0.058668613 -0.027249442 0.057003263 0.043699116
-0.055408657 0.0745264 0.07761236 0.058087233 0.030752363 -0.010727054 -0.05808152 0.077214174
0.042501237 0.08170676 0.021901522 0.069096655 -0.059751343 -0.0670727 0.010333581 -0.021174492
-0.03036863 -0.086144485 -0.03685742 -0.039530188 -0.0015602072 0.012562383 0.060754903 -0.052809488
0.05796683 0.046088096 -0.024449488 -0.0770463 0.015029666 0.051316187 0.07044835 0.056922078
0.037175976 -0.028113592 0.09497691 0.010435369 -0.06559844 -0.08332985 0.034249973 0.013473941
-0.032545745 -0.022033524 -0.07154355 -0.0067891255 -0.08483926 -0.0696152 0.07367211 -0.008482539
0.079251036 0.04622706 -0.025567707 0.046434186 0.033891656 0.03984384 -0.048785064 0.060859468
0.06155816 0.08961097 -0.056781076 -0.058040846 -0.06633152 -0.09879874 0.006158927 -0.031040085
0.08596263 -0.054259047 -0.009600466 0.05579347 0.022804286 0.039604176 0.060963925 -0.017226491
0.07775917 0.046457864 -0.020216797 -0.044464268 -0.064160295 -0.012800963 0.04579437 0.03602768
0.08397033 -0.039950196 0.04092181 -0.06532335 0.089933775 -0.04504282 0.03696758 -0.018956825
-0.014896565 0.050055902 0.053759538 0.00030238263 -0.051780522 0.058026325 0.011818047 -0.09253366
-0.0036676326 -0.08868439 0.092763074 -0.012938509 0.016482556 -0.013649625 0.029934194 0.024581147
-0.041356854 0.04474201 0.014684554 -0.05576046 -0.089312725 0.08738474 -0.076722264 0.04762295
0.013617032 0.008705089 0.012630612 0.011104851 -0.027091553 -0.08501492 0.041787457 -0.075842544
00000000: c638 11bd 17f0 d7bc ca03 353d f1d3 be3d
00000010: 4a2f 64bc 9145 5cbd b95a 97bd 7682 8ebd
00000020: 21f3 1abd 58e3 99bd 6dc9 94bd 6556 babc
00000030: 6932 733c 6100 773d c519 37bd 3106 80bd
00000040: 5439 bc3d 7784 67bd e34b 89bd 0397 c5bc
00000050: 6722 033d 6717 9fbb 3e29 6ebd d9dd f73c
00000060: f6a0 90bd c777 15bd 7827 813d d5c5 ac3d
00000070: 534c babd 18dc 833c 0465 373d ab00 6c3d
00000080: fffe 833d e771 2c3d 12ef 813d cd3c 4cbd
00000090: bdc7 11bc 1731 503d 8860 e73b 71cb 8a3d
000000a0: b106 c8ba 4a98 18bd 36cb 48bc 9329 903d
000000b0: 00c0 083d d818 32bc 9f2f 393d bdaf a9bd
000000c0: 091d e7bc 3856 c0bc 56df 4e3d 62c6 8bbd
000000d0: ea1f 9cbd d5da bf3c e0cc 8ebc 25ce d3bc
000000e0: f1cd 4abc c281 4ebb c1f6 473d b73d b43c
000000f0: bcb3 ecbc ca7b ff3c 5c19 a33d 659f 9bbd
00000100: 949f 84bc 97fe 9abd f4ec 703d 5ab7 2d3c
00000110: fcd6 953d 7a83 a9bc 0e05 40bd c94f 66bd
00000120: 904b 50bd 7bbd 9fbc 5f69 3cbd 6837 a63d
00000130: fff7 b7bd bea7 c8bd dc01 b3bd c5c5 8c3c
00000140: 1cc1 9bbd 1a09 903d 95ea cebb b829 a73d
00000150: 3d75 d4bd d503 86bd b4e9 573d 3ce4 cc3c
00000160: 71df 0e3c 5e15 523d 3c5a 91bc 9035 bdbd
00000170: 2f47 5c3d a989 b9bd 0620 493d aae5 bf3d
00000180: 2de7 983d ddb5 9c3d 75a3 d4bc d0c4 72bd
00000190: c166 c3bc a46c fdbc f159 093d c99b 913d
000001a0: fd59 843d f651 913c 9999 edbc 4586 cebc
000001b0: 0085 18bd 69ce 23bd cd86 c2bd fe94 d3bb
000001c0: 8394 3dba ad28 623c ea80 1dbd ea0c bdbd
000001d0: 2afd c5bb 841a 64bc 8164 51bd ac00 d33a
000001e0: 5c59 94bc 8f7d 413d a387 523c 5946 c53c
000001f0: 68ef 63bd 3ec7 6d3d bad0 a0bd 518e 29bd
00000200: 37ae 7a3c cc14 8dbd 63fd 27bd e5ef bbbb
00000210: 804e 703d 393a dfbc 417c 693d d8fd 323d
00000220: 30f4 62bd 4ca1 983d 3bf3 9e3d e1ec 6d3d
00000230: 61ec fb3c 87c0 2fbc e3e6 6dbd 7722 9e3d
00000240: c715 2e3d e055 a73d d26a b33c 8c82 8d3d
00000250: d3bd 74bd 695d 89bd 2e4e 293c 2176 adbc
00000260: a2c7 f8bc 856c b0bd cef7 16bd 68ea 21bd
00000270: de7f ccba 74d2 4d3c 22da 783d c34e 58bd
00000280: a06e 6d3d dfc6 3c3d 4b4a c8bc 73ca 9dbd
00000290: fd3e 763c ec30 523d 3947 903d 2027 693d
000002a0: d645 183d 7a4e e6bc 4183 c23d 1cf9 2a3c
000002b0: 7a58 86bd d7a8 aabd b349 0c3d cec1 5c3c
000002c0: b04e 05bd a67f b4bc 6d85 92bd 5077 debb
000002d0: 35c0 adbd 6a92 8ebd 67e1 963d 59fa 0abc
000002e0: 5e4e a23d 9658 3d3d 5e73 d1bc c631 3e3d
000002f0: fad1 0a3d 4b33 233d d9d2 47bd c747 793d
00000300: 6924 7c3d f585 b73d 4693 68bd 3dbc 6dbd
00000310: d2d8 87bd fe56 cabd d3d0 c93b c747 febc
00000320: 2d0d b03d bc3e 5ebd 464b 1dbc b287 643d
00000330: 0ed0 ba3c fd37 223d 4fb5 793d 921e 8dbc
00000340: 3340 9f3d 9a4a 3e3d b29d a5bc 2a20 36bd
00000350: 7966 83bd 21bb 51bc e192 3b3d c391 133d
00000360: a3f8 ab3d d1a2 23bd a19d 273d 40c8 85bd
00000370: 332f b83d d27e 38bd 516b 173d 584b 9bbc
00000380: b910 74bc 6b07 4d3d f632 5c3d 1c89 9e39
00000390: d017 54bd 03ad 6d3d 7ba0 413c 4a82 bdbd
000003a0: aa5c 70bb 29a0 b5bd 91fa bd3d 0afc 53bc
000003b0: 6d06 873c ada2 5fbc 8e38 f53c 675e c93c
000003c0: ce65 29bd 6643 373d 7c97 703c 1565 64bd
000003d0: 97e9 b6bd c5f6 b23d 9020 9dbd 4810 433d
000003e0: f919 5f3c ca9f 0e3c a0f0 4e3c 1ff1 353c
000003f0: 1bef ddbc 4d1c aebd 5329 2b3d 5653 9bbd

critic.4.bias f4 [128]
0.042084686 -0.034101866 0.093483254 -0.026886182 0.0617364 0.101204745 0.035582885 0.046547845
0.08636901 -0.028215772 -0.15488204 0.14175558 0.099926904 0.1778428 0.0034714658 0.15543689
0.018663395 0.12693478 -0.030843273 0.10911099 0.026714286 0.089353405 -0.14849599 -0.0033544044
0.10215414 0.09174721 -0.11600024 0.07997413 0.09743594 -0.013250326 0.09290957 -0.11136549
0.11301398 0.15770741 0.059086956 0.111978255 0.06538179 0.1615661 -0.013077476 -0.016321607
-0.0076400754 -0.10707345 -0.10695767 -0.0103194155 0.038335957 0.1177269 -0.04154995 -0.08619701
-0.062555626 0.062291283 0.060220543 -0.031532396 -0.10910128 0.006813522 -0.035274267 -0.09195851
-0.05702165 0.009142259 0.102654144 0.010854236 0.109303735 -0.09245526 -0.07583294 -0.13975933
-0.06491918 -0.0047130464 -0.024743833 0.11483267 -0.034527887 0.050507586 0.079098634 0.10025346
0.17600171 -0.075474806 0.082644016 -0.055831596 -0.1207909 0.12076953 0.025548713 0.019013075
0.04994109 0.03252099 -0.0679744 -0.031149628 0.0791389 -0.04098764 -0.010691231 -0.07077144
0.0042496976 0.03520062 -0.0066588297 0.07325536 -0.044805095 -0.05319338 -0.06874034 0.087941505
0.025684377 0.03760159 0.090148404 -0.07333287 -0.15896371 -0.093485236 0.016037533 0.0834092
0.018562524 -0.05485305 -0.032546606 0.031921927 0.037527625 0.069402575 0.035943024 -0.0379419
0.16312474 -0.10613871 0.08014659 -0.10604725 -0.18004912 0.06822797 0.07444764 0.018508108
-0.05817922 -0.008480015 0.098809615 -0.05057996 -0.10062947 0.016236564 0.09312545 0.026857128
00000000: fe60 2c3d 66ae 0bbd 2674 bf3d 6940 dcbc
00000010: 4fdf 7c3d 6f44 cf3d 5cbf 113d f4a8 3e3d
00000020: 3ce2 b03d c324 e7bc 6699 1ebe 6028 113e
00000030: 7aa6 cc3d 6c1c 363e 8881 633b d92a 1f3e
00000040: fae3 983c 31fb 013e 08ab fcbc 9575 df3d
00000050: ebd7 da3c ebfe b63d 550f 18be 91d5 5bbb
00000060: 3136 d13d f6e5 bb3d 8991 edbd 7ac9 a33d
00000070: 7e8c c73d e517 59bc 5f47 be3d 9713 e4bd
00000080: e073 e73d 0d7e 213e 2a05 723d db54 e53d
00000090: e3e6 853d 9571 253e e942 56bc e4b4 85bc
000000a0: 9959 fabb 5349 dbbd 9f0c dbbd c412 29bc
000000b0: 2a06 1d3d cd1a f13d 4830 2abd 0f88 b0bd
000000c0: 2a1d 80bd 2525 7f3d d1a9 763d 1d28 01bd
000000d0: 7e70 dfbd f743 df3b c07b 10bd be54 bcbd
000000e0: 898f 69bd 6ac9 153c 563c d23d f7d5 313c
000000f0: a3da df3d 2f59 bdbd 4d4e 9bbd 121d 0fbe
00000100: 59f4 84bd e66f 9abb 94b3 cabc 642d eb3d
00000110: 1d6d 0dbd 0be1 4e3d 77fe a13d b051 cd3d
00000120: cb39 343e 8992 9abd 4441 a93d acaf 64bd
00000130: 3861 f7bd 0456 f73d 894b d13c 4fc1 9b3c
00000140: 078f 4c3d bb34 053d 2a36 8bbd 812d ffbc
00000150: 9313 a23d a8e2 27bd 462a 2fbc 9ef0 90bd
00000160: 0c41 8b3b 862e 103d 5032 dabb e806 963d
00000170: 8c85 37bd 4de1 59bd bcc7 8cbd ad1a b43d
00000180: 0b68 d23c 2004 1a3d ba9f b83d 8b2f 96bd
00000190: 62c7 22be 3075 bfbd 2561 833c 71d2 aa3d
000001a0: 6f10 983c 97ad 60bd 974f 05bd 91c0 023d
000001b0: 91b6 193d f022 8e3d fe38 133d f768 1bbd
000001c0: 2c0a 273e 415f d9bd e523 a43d 4d2f d9bd
000001d0: cc5e 38be 1bbb 8b3d 0178 983d 519e 973c
000001e0: 554d 6ebd c3ef 0abc b25c ca3d ef2c 4fbd
000001f0: d316 cebd 8b02 853c 8eb8 be3d 7b03 dc3c

critic.6.weight f4 [1, 128]
0.00218504 0.0011676662 -0.054678652 0.0017926437 -0.0045374054 0.0019140616 0.105241925 -0.0017693928
-0.03302599 -0.002647229 0.014606939 -0.07326318 -0.08694361 -0.06331638 0.08838916 -0.03078851
-0.003777396 -0.063375644 0.0005228725 -0.06458013 -0.022193553 -0.004248376 0.052900475 0.021875845
-0.013617274 -0.0011513622 0.03602741 0.0007505455 -0.051056627 -0.053281263 -0.014996536 0.053307906
0.0007684105 -0.04090662 -0.0024466554 -0.015318219 -0.030246107 -0.00387368 0.012243826 0.035444845
0.08246216 -0.0042174202 0.05695444 -0.0014259032 -0.0022044538 -0.04046185 0.037464563 0.042345095
0.03908055 0.096875906 -0.035407934 0.048281945 0.0011677049 -0.0006263295 -0.0009603183 -0.00119759
-0.02208856 0.0035293656 -0.0028862748 -0.0040377663 0.00017680314 0.078487225 0.0015580757 0.046731822
0.000640985 -0.0033812153 -0.0015375799 -0.010983356 0.033713154 -0.0010471108 -0.0017940964 -0.0016217323
-0.04807749 0.04068086 -0.044719316 0.0020640956 0.025681043 -0.050054576 0.0004368339 -0.012669735
0.059382107 -0.00030607704 0.021797493 -0.015870525 0.022437634 0.07490534 -0.0024351438 -0.08222541
0.07270395 -0.08208994 -0.07663405 -0.05156446 0.0010678172 0.0762238 -0.0433719 -0.0014023042
-0.03426712 -0.0047982526 -0.0657318 0.02133545 0.018508028 0.046394087 0.034880757 -0.069439575
0.0029022077 0.0020560343 0.03225612 0.042157914 -0.03181525 0.046141196 -0.019500596 0.012960596
-0.011791163 0.0015210797 -0.007713929 0.065737575 0.060457535 -0.011165315 -0.01865737 0.006823734
-0.002481057 -0.0018686781 -0.0035174084 0.00096644025 0.031499173 -0.03709777 0.00013115162 0.07269313
00000000: e332 0f3b 600c 993a b9f6 5fbd 24f7 ea3a
00000010: 84ae 94bb 40e1 fa3a 1489 d73d f8ea e7ba
00000020: 4346 07bd 227d 2dbb f151 6f3c 020b 96bd
00000030: 7e0f b2bd 05ac 81bd 6005 b53d 2f38 fcbc
00000040: 308e 77bb 17cb 81bd 6111 093a 9642 84bd
00000050: 41cf b5bc f635 8bbb 2bae 583d f934 b33c
00000060: fd1a 5fbc 4ee9 96ba 7a91 133d 42c0 443a
00000070: c120 51bd 743d 5abd 08b4 75bc 6459 5a3d
00000080: 286f 493a b38d 27bd 1158 20bb 44f9 7abc
00000090: afc6 f7bc 91dd 7dbb 549a 483c 9d2e 113d
000000a0: ece1 a83d 4932 8abb 0f49 693d 5fe5 baba
000000b0: 9978 10bb 53bb 25bd 7174 193d 0d72 2d3d
000000c0: ed12 203d e066 c63d e907 11bd 4ac3 453d
000000d0: ad0d 993a 4330 24ba dfbd 7bba 74f8 9cba
000000e0: 11f3 b4bc ee4c 673b a827 3dbb 3d4f 84bb
000000f0: 3b64 3939 e9bd a03d 5838 cc3a de69 3f3d
00000100: c607 283a 6197 5dbb 9f88 c9ba 89f3 33bc
00000110: ce16 0a3d 353f 89ba e327 ebba 4e90 d4ba
00000120: e7ec 44bd f9a0 263d 9a2b 37bd c745 073b
00000130: 0d61 d23c 0706 4dbd db06 e539 b894 4fbc
00000140: a73a 733d f778 a0b9 a890 b23c e702 82bc
00000150: 21cf b73c f967 993d ef96 1fbb cc65 a8bd
00000160: cfe5 943d c51e a8bd 50f2 9cbd 4135 53bd
00000170: 00f6 8b3a 391b 9c3d bca6 31bd 85cd b7ba
00000180: ae5b 0cbd a93a 9dbb 659e 86bd aec7 ae3c
00000190: 269e 973c ba07 3e3d 20df 0e3d 5636 8ebd
000001a0: f732 3e3b 88be 063b fe1e 043d c7ad 2c3d
000001b0: b550 02bd 8dfe 3c3d b7bf 9fbc ae58 543c
000001c0: b92f 41bc f75e c73a 20c5 fcbb 6ca1 863d
000001d0: 52a2 773d baee 36bc 57d7 98bc a199 df3b
000001e0: 3b99 22bb 6fee f4ba 5284 66bb b558 7d3a
000001f0: 4705 013d d5f3 17bd bf85 0939 23e0 943d
