ippo_algorithm/checkpoints/ppo_actor_2num_agent_exp_4_run_0_lumberjacks.pth (torch, 173308 bytes, 8 tensors)

actor.0.weight f4 [128, 67]
00000000: 2772 9b3d 4906 00bd 2c76 e2bc 6581 3dbe
00000010: 028e 4cbd 36af ae3d c5e8 823c 5e1a 913d
00000020: f42c 6abd 5b91 ad3d f647 a7bc 7508 bcbd
00000030: e3d2 643d 362d 843c 669e 043a 2aca cfbd
00000040: 3696 a2bc 7595 8abd 2438 99bd 1d49 873b
00000050: b4a4 a33d f53b 61bd 8f29 a03c 694a 983d
00000060: ae55 f73c 9271 923d a960 d2bc a83e 803b
00000070: d782 1ebd 389c 82bd daf8 3ebc 17f6 bd3d
00000080: 3884 a6bd 5e64 c03a 74b1 4a3c 1cee 7c3c
00000090: f4a5 aabd c392 e03d 1b73 57ba a929 923d
000000a0: 1300 8abc 0faf 01bc 09e2 f03d 6a48 b53c
000000b0: b453 4f3d 86db dfbd a9fe d2bd 2680 bebc
000000c0: d375 57bd b1ff e1bc 9d5b 083d 3afa 483d
000000d0: ab40 643d 89c2 963d 5ba3 e43d 62ed f9bd
000000e0: 8fb4 bdbd c401 203d 4883 e8bd df88 6cbd
000000f0: bd52 e63d 136a 243d 35ee db3d 6deb 2cbd
00000100: e80c e3bd a349 123c a6c2 95bd 414d 8abd
00000110: 2c80 dd3c 2557 453d 0901 a13d bfa1 d63c
00000120: f4df 5e3d 27c5 de3d ad09 2a3d ed8d 913d
00000130: d1bf 49bc 79c4 d33d f8e5 993c a48b c3bd
00000140: e1a7 bdbc 15c6 c2bc 65f6 e4bd c8dd 213d
00000150: 4b05 d1bd 4e74 3f3c 71d0 223d 9dda f93c
00000160: c108 d8bd 9166 023d 0a4c 653d 2d16 d4bc
00000170: 2d96 803d 59cb f63d ef42 bfbc 471d e2bd
00000180: 6807 c3bd 0f72 12bd d253 23bd d19b 90bc
00000190: 4ac3 8d3d 21e7 d13b f074 2cbd 3c7f 963c
000001a0: 1d3c 0e3c c746 0c3d 4794 373d 9259 ff3c
000001b0: eba4 f6bd b30c 073d f215 abbd 0da8 39bd
000001c0: 98e6 afbd 987d 72bd 7f9f 01bd ac3d a73d
000001d0: c6c3 003d ce61 da3d d6b6 393d 4f1e 193d
000001e0: 52ed 6b3d a355 8f3d 4963 b43c db83 a23c
000001f0: 09e6 01bc 853b f83d 8c67 da3d cefa 84bd
00000200: ef64 b4bd ac16 d0bd 31b2 ea3d 4fb0 c63d
00000210: 6519 8a3c 9034 eb3d 8781 febc 585a d13d
00000220: b46a 87bc 4abb b0bd 2820 573d 7a5c 9bbd
00000230: 3da8 3dbe 43a9 cebc 2611 9fbd ae6a df3d
00000240: b621 94bc b0e7 013e 5535 efbd 0758 1dbd
00000250: c23f ae3c 2798 bebc 0a8e ee3d ffba 603c
00000260: ee9b ce3d 0d81 953d 7955 813c 6ea3 893d
00000270: ad57 93bd f830 75bd 4d22 143c 4f56 54bd
00000280: 714e 10be 3270 cc3d d06f 803d ff1f cbbd
00000290: d179 c8bd 839f 1dbd f8ba fabc cacf c2bd
000002a0: fce8 69bc 9c0c a43d 04d4 e73d 5cc0 9abd
000002b0: 47e5 5a3d 41e5 3dbd bece ea3d 967d d339
000002c0: 13f5 c2bd e764 18bd 8503 16bd c629 a2bd
000002d0: 537f 873b 9d48 eabd 2006 ae3d 0ab0 c8bc
000002e0: 58d5 e23d 58c3 b7bd 24a2 9c3d 8d1b d5bd
000002f0: f74a 6a3d 11b3 443c a4c2 873c 0b81 8b3d
00000300: 3f7e 3abd 08cf 333d 4a4c 46bd df7f e03d
00000310: 0c25 6fbd 0eec 43bd d19b ebbc abe9 2c3d
00000320: d677 15bd 07b5 253d cb40 51bd 993c 3ebc
00000330: 2ae7 0ebe 4ecf 5cbc 7b49 903d 15e5 88bd
00000340: 836e 1dbe edd5 de3d a4ed 123d 8186 82bd
00000350: 9fd6 203d 3adf a6bd 7081 00bd bf37 843c
00000360: 229c 83bb 07d9 483c 8459 dd3d e883 c2bd
00000370: a648 58bd 5cfc 9cbc 6f9a c83c 5ab0 ac3b
00000380: 3679 f8bc 73bc 28bd ccc3 8dbc 57f6 263d
00000390: 0e3b 5ebd d73d dcbd 2582 ecbd 6358 493d
000003a0: 474b 853d e280 d4bd e630 173d c071 94bd
000003b0: be71 debc 262f 75bd 6676 4cbc 9592 adbd
000003c0: dcb3 b6bd e725 ef3d 7ab5 bebd 17a5 6e3c
000003d0: f7a6 8fbd cc19 b2bd 36e9 dd3d c768 54bd
000003e0: 1e47 9b3d fe8f f4bc 8fda 533c 4bae a9bc
000003f0: 0c39 0cbc 312c d4bd 221c 7fbd 5321 ee3d
0.07590132 -0.031255994 -0.02764424 -0.18506391 -0.049940117 0.085295126 0.015980134 0.07085107
-0.057171777 0.0847499 -0.020420056 -0.091813006 0.05586518 0.01613484 0.00050590036 -0.101459816
-0.019847017 -0.06766788 -0.07481411 0.004128589 0.07990399 -0.05498882 0.019551067 0.074360676
0.030192222 0.07150568 -0.025680857 0.003913719 -0.038698997 -0.063774526 -0.0116560105 0.092754535
-0.081306875 0.0014678349 0.01237141 0.015437629 -0.08332434 0.109654926 -0.0008218751 0.07136852
-0.016845739 -0.007915272 0.11761863 0.022129256 0.050616935 -0.10930543 -0.10302479 -0.023254465
-0.0526026 -0.027587743 0.033290494 0.04906676 0.055725735 0.073613234 0.1116397 -0.1220348
-0.092629544 0.039064184 -0.11353165 -0.057747718 0.1124625 0.040140223 0.10738794 -0.042216707
-0.11086446 0.008928689 -0.07312517 -0.06753016 0.027038656 0.04817881 0.078615256 0.026200173
0.054412797 0.108774476 0.041513134 0.07107148 -0.012313799 0.103402086 0.018786415 -0.09548119
-0.02315134 -0.023776093 -0.111798085 0.039518148 -0.10206088 0.011685444 0.039749566 0.03049975
-0.10548545 0.031836096 0.05598072 -0.02588948 0.06278644 0.12050504 -0.023347346 -0.110407405
-0.09522897 -0.035753306 -0.03987486 -0.017652424 0.06922014 0.0064057265 -0.042103708 0.018371217
0.008681324 0.034247186 0.044819143 0.03117064 -0.12043174 0.032971095 -0.08353795 -0.04532628
-0.08588904 -0.059201807 -0.031646248 0.0816606 0.031436704 0.10663186 0.04534038 0.03738242
0.057599373 0.06998756 0.02202 0.019838264 -0.00792838 0.121207274 0.10664281 -0.0649315
-0.08808314 -0.10160574 0.114597686 0.09701597 0.016857812 0.11484635 -0.031067623 0.1022231
-0.016530372 -0.086294726 0.0525209 -0.07585998 -0.18521209 -0.025227195 -0.07766943 0.109090194
-0.01808248 0.12686038 -0.11680094 -0.038414028 0.021270636 -0.023265911 0.116481856 0.013716458
0.10088335 0.07300005 0.015787827 0.06720625 -0.07194457 -0.059861153 0.009041381 -0.051840123
-0.14092423 0.09982337 0.062713265 -0.09918212 -0.0978886 -0.0384822 -0.030606732 -0.09512289
-0.014276739 0.080102175 0.11319736 -0.07556221 0.053441312 -0.04636121 0.11465214 0.00040338625
-0.095194004 -0.037205603 -0.03662445 -0.07918124 0.0041350513 -0.11439631 0.08497262 -0.024498004
0.11075848 -0.08972806 0.07648113 -0.104056455 0.0572004 0.012005583 0.016572304 0.06811722
-0.045530554 0.043898612 -0.0484126 0.109618895 -0.05838494 -0.04783254 -0.028760822 0.04221503
-0.036491238 0.040455844 -0.051087182 -0.011611127 -0.1395537 -0.01347716 0.07045265 -0.06684319
-0.15374188 0.10880647 0.035871163 -0.06373311 0.03926718 -0.08148046 -0.03137344 0.016139863
-0.004016415 0.012258775 0.108080894 -0.09497815 -0.052803658 -0.019163303 0.024487702 0.005270046
-0.030331235 -0.041195344 -0.017305277 0.04076227 -0.054255538 -0.107539825 -0.115482606 0.049156558
0.06508499 -0.10376145 0.036911868 -0.072482586 -0.027153846 -0.059859417 -0.0124794 -0.08475224
-0.08921024 0.11677151 -0.09311958 0.014565728 -0.07014268 -0.086963266 0.10835497 -0.051857736
0.07581924 -0.029853817 0.012930526 -0.020712992 -0.008558523 -0.10359991 -0.06228269 0.1162745

actor.0.bias f4 [128]
00000000: 1cc0 32bd b765 cebd c324 68bd 5e23 d43d
00000010: 0c62 0ebe 0a44 fcbc 57cf 563c 8163 b8bd
00000020: f2bc e2bc 68a5 8f3b 9cb4 7d3d f45b cf3d
00000030: 1e71 16bd 572e 793d dc91 08bd dc83 053e
00000040: 8af5 373d 61aa 6e3d b130 823c 7f03 96bd
00000050: ba9d cabd 4623 8cbd cad2 b9bd 4493 213c
00000060: 30ad a53d 1838 3ebd b981 733d 9a40 e53d
00000070: 77dc 1bbd 3af7 98ba 4c5b 433c 56b0 4c3d
00000080: 86bf 273c f4b0 b13d 165b 40bd 8b00 7c3d
00000090: d4bf ddbc edfa 233d 0e4b 32bd 3859 883d
000000a0: 44e7 acbc f147 89bb 3007 5a3c b3ef ab3d
000000b0: d62f e03d 924b 843d eafb 483b f94b 6dbd
000000c0: c6e3 2f3d ba4e 983d 5080 c23d aa8f 113e
000000d0: b99e debd 166c 28bc 5eaf dbbb 7ed1 01bd
000000e0: 0368 90bc 958a 08bd 9175 97ba 6a30 623b
000000f0: b01e 81bd 45e4 033e f02d 86bc 593a 92bd
00000100: 3a60 cabd 72d8 213d 219d 5e3c 9efd bdbc
00000110: a14d 84bd 2fc6 efbc 1f87 bebd 70c7 813d
00000120: 5191 30bc 639c 913d 0c3e 8a3d 45e0 e23d
00000130: cfa4 7bbd 5483 96bd 79d3 86bd 85bd 86bb
00000140: bc8a f53d a5f0 773d a1cf e4bc 9a09 03bd
00000150: ee8e 78bd 39c1 6cbd 535b 883d 6da9 1ebd
00000160: 541f 6bbc ffb2 10bc 0623 4bbd 9096 a5bd
00000170: 9023 433d cef2 323c 8c8c 8b3b c435 87bd
00000180: 4dbd f73b c5ee a0bd c4d3 143e 6dbc cb3c
00000190: 59e6 cdbd f5b0 98bd 47b5 a6bc a213 983d
000001a0: 90d2 193c 94eb 7e3d faf9 963d 54d7 f8bc
000001b0: 2cef acbd 0a16 60bc a79e 3d3d 3da1 593d
000001c0: af25 893b 1016 463d b24f 003c 055d 93bc
000001d0: 2683 c5bd 5dfb b53d ecc3 0cbd a1a3 4b3d
000001e0: 96e0 a2bd 50f3 fdbd 5d97 6ebd dd9b ad3d
000001f0: c75b 553d f6a9 8dbb 40e6 b33d dab5 ad3d
-0.04364024 -0.10077994 -0.056675684 0.10358308 -0.1390459 -0.030794162 0.013110957 -0.09003354
-0.027677987 0.0043837316 0.06193982 0.101249605 -0.03672897 0.06083521 -0.033342227 0.13038582
0.0449119 0.058267955 0.015892358 -0.073248856 -0.09893365 -0.068426654 -0.09073408 0.009861771
0.080896735 -0.046440214 0.059449885 0.111939624 -0.03805205 -0.0011670359 0.011923622 0.049972855
0.010238534 0.08676329 -0.046961866 0.061523955 -0.02706901 0.040034223 -0.04352861 0.06657642
-0.02110637 -0.0041894843 0.013307378 0.083953284 0.10946624 0.064597264 0.003066773 -0.05793378
0.04294183 0.07436891 0.0949713 0.1421496 -0.10870118 -0.010279676 -0.006704255 -0.031693928
-0.017627722 -0.033335287 -0.0011555423 0.003451372 -0.06304681 0.12880047 -0.016379327 -0.07140035
-0.09881635 0.03951306 0.013587267 -0.023192223 -0.06460119 -0.029269306 -0.09303116 0.06336868
-0.010776834 0.071099065 0.06750116 0.11077932 -0.06143647 -0.073492676 -0.06583304 -0.004111948
0.11989352 0.06053223 -0.027931036 -0.03199158 -0.060683183 -0.05780146 0.06658044 -0.038735796
-0.014350731 -0.0088317385 -0.049593948 -0.08085358 0.047641337 0.010922147 0.004258698 -0.06602052
0.007560408 -0.07858042 0.14533907 0.024870122 -0.10053701 -0.07455627 -0.020350112 0.0742562
0.009388581 0.062236384 0.07371898 -0.030376114 -0.08444056 -0.0136771295 0.04629388 0.053132284
0.0041854004 0.048360884 0.007831501 -0.017988691 -0.09644155 0.08885834 -0.034366533 0.049716596
-0.079529926 -0.12399924 -0.05824982 0.08476994 0.05208948 -0.0043232394 0.08784151 0.08481951

actor.2.weight f4 [128, 128]
00000000: e9a4 cbbd 6134 08bd 8277 b8bd 798c 593d
00000010: 8990 15bc f87a f63c d23f 5ebd 6920 2e3c
00000020: 1654 8cbc 9e4a 9ebd 274f 853d 036f 6c3d
00000030: d528 dabd c1da 8dbd 769a 263c 2670 893d
00000040: 5c87 66bd 77a9 eb3d c263 c5bc 93ef 94bc
00000050: b67d 07bd eec0 9d3c 12ce 103d 7865 993d
00000060: 97fe 9aba 3a5d e63c d981 f73c 48bd 0e3d
00000070: 9e7b 543d 0917 ab3d fb79 943d 3108 81bd
00000080: c327 7dbd 620c 48bb 5e2b 353d fb5b 0dbd
00000090: 2147 a63d 28bc 933d 73ac 2abd 781e 24bc
000000a0: 358a 80bd 8ec8 2e3d b4c2 a4bd ee3f 23bd
000000b0: 9b85 333c f410 b5bd a7b1 47bd 4e84 e7bd
000000c0: b6e3 27bd a72d 373d 46ad b0bd bd6f 4fbc
000000d0: db0f 483c cf82 c03d 7b81 7abd ecb5 5d3d
000000e0: a824 5ebd 7643 dd3c 5c31 85bd bb35 a6bd
000000f0: 6cac 103b d863 843a a244 babd 09ff 9dbd
00000100: a87c bcbd 268e 9dbb cb38 1f39 0f68 983c
00000110: 8559 8ebd 05f4 debc 4178 08bd e0b5 073d
00000120: a086 4f3d 0e7d 14bd 77e3 023d acc1 8d3d
00000130: c4c3 78bd ea91 41bd d6cd c93c da31 0d3d
00000140: 8429 8abd 1781 0a3d 193e 923c 2abd 823d
00000150: 8581 8ebc d9ca 7ebd bc4e e33d ebc7 a83d
00000160: 7ce8 33bd b4db 7ebd 5f3f 823d 47df 0f3d
00000170: d93c 43bd c237 16bd 5c1e c33d d110 2c3d
00000180: bf3f 9e3d f975 65bd 9984 af3b 9964 463d
00000190: 5965 013b 6568 713d 4dfe 193d c936 a3bd
000001a0: de7d c03c 2d35 e4bd 681c f53b e603 9b3b
000001b0: 67dd a2bd f8af 5b3b bc18 533d dcbe ab3b
000001c0: cfa3 a33c 5c5d 9eba 722d d7bc f2d5 623c
000001d0: eebc 853d 5c1e 753d 75a8 10bc b428 773d
000001e0: 918f 343d 0a10 5ebd 09d6 5d3d 42fc 863d
000001f0: ccd4 893c f2bd 1abd 9065 b53d 8c58 533d
00000200: 6f6e 43bd d834 553d 3da6 75bd b5b3 873c
00000210: b51a 8f3d c3c7 0d39 d722 a9bc b3ad efbc
00000220: 7998 28bd 8ce3 3c3d 3108 24bd d45c b5bc
00000230: 100f 70bc 555c df3c ec96 823d c6db 1a3d
00000240: 1ef0 e83b 8a88 83bd 6d25 9bbd c585 20bd
00000250: 9850 6a3d a23e 893d 8afb a23c 98a8 a03c
00000260: 9a34 e73c 4ee9 2a3d 09ee 3e3d 4878 81bd
00000270: 8ce5 4fbd 4e95 6a3d d8b9 97bd 3454 4f3c
00000280: 2409 613d 5158 1a3d f722 7bbd 5fbf 173d
00000290: eb6a bc3c d83f db3b 135e 2dbd d07f e33a
000002a0: cd84 093d cc7f 94bd e64e 92bb be4d 36bd
000002b0: d80d d83d 5992 33bd c979 9ebd e4f3 a43c
000002c0: aa6e 0c3d a850 35bd e06d b3bd baff d43c
000002d0: 96a1 7e3d 409f 933c 45b7 88bc bb20 67bd
000002e0: e4bc 7d3d 8bd5 88bd ead2 873b b29c ef3c
000002f0: eab1 afbd c02f 0e3d e228 a13d 6210 763d
00000300: 15eb 5ebd ac57 8fbd b259 b43c b612 81bc
00000310: 2b94 46bd f569 7bbd 0345 7a3c 0e37 7abc
00000320: 5f5f d73c 6c22 a0bd 6dcf 3f3c 680a a13d
00000330: 958a 86bd 45e1 4c3d 983e 963d 6678 41bd
00000340: f5a0 523d 97df f5bd fe5c 8a3c cb3e 1d3d
00000350: a181 6cbc 68a1 a5bd 68a1 98bd d2b3 373b
00000360: 949a 76bd a585 ffba 7a2d bd3d c858 b5bc
00000370: 8c5c 623c 2fe2 643d e28c c8bc e669 9d3c
00000380: 9886 403d 9c74 c43d f779 08bd a627 0e3d
00000390: 5ed6 32bd fe4f 42bd fbdd 013d 0c45 aebd
000003a0: 96cb 83bd 397a 27bc 9718 a5bd b0f3 bfbd
000003b0: 9813 ea3c e0a0 89bd 6bbd b1ba 2fc2 7b3c
000003c0: e6fb 47bd c080 c23c 3547 863d fd23 7fbd
000003d0: 1464 6fbc 68c9 953d d545 d3bc f9bb 193c
000003e0: 0e4b 82bb cfc8 c2bc 2428 12bd 607e 9b3a
000003f0: ace5 043d 90da 783c 3344 303d 7d25 80bc
-0.099435635 -0.033253077 -0.09007169 0.05311248 -0.009128698 0.030087933 -0.054260083 0.010627844
-0.017129939 -0.07729076 0.06509238 0.057723057 -0.10652319 -0.069264896 0.010168662 0.06710844
-0.056281433 0.11506932 -0.02409542 -0.018180644 -0.03307887 0.019257035 0.035352774 0.07490057
-0.0011825141 0.028120626 0.030213283 0.03484848 0.051875703 0.08354003 0.072498284 -0.063003905
-0.061805498 -0.003052496 0.04423081 -0.034511548 0.081190355 0.07213622 -0.041668367 -0.01001703
-0.06276361 0.042671733 -0.08044949 -0.03985589 0.010957147 -0.08841124 -0.048753407 -0.11304532
-0.040988646 0.04472127 -0.08626799 -0.012660918 0.0122108115 0.0939995 -0.06115864 0.054128572
-0.054234177 0.027009707 -0.06503555 -0.08115717 0.0022075428 0.0010100557 -0.09095122 -0.0771466
-0.09203464 -0.004808205 0.00015184579 0.018604307 -0.06950668 -0.027215967 -0.033317808 0.033132434
0.050665498 -0.036252074 0.03195521 0.069217056 -0.06073357 -0.047258295 0.024634283 0.03447137
-0.067462 0.033814516 0.017851876 0.063837364 -0.017395744 -0.06220517 0.11099002 0.08241256
-0.043922886 -0.062221244 0.06359743 0.035125043 -0.04766545 -0.03667427 0.09527275 0.042008225
0.07727002 -0.05602071 0.005356383 0.04843578 0.0019744246 0.05893745 0.037596036 -0.07969434
0.023497518 -0.11142955 0.007480193 0.0047306893 -0.079523854 0.0033521634 0.05153726 0.005241258
0.019975571 -0.0012082267 -0.026266787 0.013844954 0.06530176 0.059843406 -0.008829226 0.060341552
0.044082228 -0.054214515 0.054159198 0.06591083 0.016825102 -0.037778802 0.08857262 0.051598117
-0.04771274 0.05205235 -0.05997299 0.016565183 0.06987516 0.00013521225 -0.020646496 -0.02925763
-0.041161034 0.046115443 -0.040046874 -0.02213899 -0.014652029 0.027265707 0.06376442 0.03780725
0.0071087023 -0.06422527 -0.07575498 -0.039190073 0.057205766 0.067013994 0.019895334 0.019611642
0.028223325 0.041726403 0.046613727 -0.0632177 -0.050756022 0.057271294 -0.07408494 0.012654353
0.054940358 0.03768188 -0.061312642 0.03704774 0.023000201 0.0066909604 -0.042326044 0.0017356817
0.033573914 -0.07250938 -0.004464972 -0.044507734 0.105495155 -0.04384074 -0.077380724 0.020135827
0.034285225 -0.044266373 -0.08761191 0.026000846 0.06216582 0.018020272 -0.016688952 -0.0564277
0.06194772 -0.06681355 0.004145016 0.029249523 -0.08578856 0.034713507 0.07869126 0.060074218
-0.05442341 -0.06999144 0.022015426 -0.015755992 -0.048481148 -0.061380345 0.015275243 -0.015271915
0.026290594 -0.078190655 0.011707169 0.07863313 -0.06569401 0.05001952 0.073361576 -0.04723396
0.05142303 -0.12005537 0.016890045 0.038389962 -0.014435203 -0.080874264 -0.07452661 0.0028030765
-0.06020601 -0.0019494785 0.092371896 -0.02213706 0.01381601 0.055879768 -0.02448124 0.019215535
0.04700336 0.09592554 -0.03331944 0.03470578 -0.043661468 -0.047439568 0.031705838 -0.085092634
-0.06435315 -0.010222011 -0.08061331 -0.093726516 0.028573796 -0.067201376 -0.0013560479 0.015366121
-0.048824213 0.023743033 0.065565504 -0.06229018 -0.014611263 0.07313806 -0.025790134 0.009383195
-0.0039762324 -0.023777394 -0.035682812 0.0011863224 0.032445595 0.015188828 0.04303379 -0.015642876

actor.2.bias f4 [128]
00000000: 1940 943d 00e2 273d affb 93bc b0b5 93bd
00000010: 8327 e2bc fb39 f13c 1d8f e03c db7d da3c
00000020: 521c 42bd 75a1 e73c d8a1 b7bc eab3 9cbd
00000030: 07a4 16bc 7bc7 c33c b45d b6bc d7c4 8a3c
00000040: ac79 0cbd 8089 fabc ffbb 76bd 7589 b7bc
00000050: 14ec c73c 1c95 2abd a8ca 96bd 9d79 86bd
00000060: 8ad6 84bd a632 1a3d bf4f 59bd d1f9 b43c
00000070: 4d06 04bc 0401 47bd c4a7 55bd 5103 363d
00000080: fd9c 74bd f4a7 243d e0bd e0bc c95f 583d
00000090: 98e1 9a3c 0bb5 84bd cba1 2cbd 8ecb 5fbd
000000a0: 9662 7dbd 9254 c23d d491 f73c 0652 dcbb
000000b0: 07c2 b6bb 96d8 523d 52e0 56bd a791 02bd
000000c0: 1684 7a3d 7625 33bb 61a8 a53c 6fad ef3b
000000d0: 2f60 4e3d 5af7 0bbd 1f24 5abd 6fd7 c23c
000000e0: 897a 65bc c7ce 9d3d e08c 5d3a a54f a63c
000000f0: 514f debc ba83 64bc 3293 e4bc 347d 623d
00000100: 835d f53c 74bf ff3c e16b 5c3d 5384 cbbc
00000110: 0b3e e3bb 903c 82bd aade 253d ee4f 58bc
00000120: 4f72 17bc e0cc 27bd 184c 4d3c ef56 1e3d
00000130: 5449 a1bd d59b 433c 27cb 013d cc95 8dbd
00000140: 68e6 55bd ebb1 b33b 5840 1abc e990 02bd
00000150: 4f48 923d 0468 99bc 2d1a 433d 4097 92bc
00000160: 9571 59bd efb0 1b3c c05d 11ba 0deb 963d
00000170: 2fd2 87bc bde0 8e3d db3b 56bd 69e7 2c3d
00000180: a370 053d f493 87bc 0018 dc39 7759 a5bb
00000190: b7fc 0d3d db2d 693d 99ac f5bc f08e 1bbc
000001a0: 8c1c 173d 4638 9b3b 5c64 bebc be2c 7fbd
000001b0: 8cc1 d9bc e07c 963d f204 463d 89a7 ab3b
000001c0: a441 4ebd 2ebb 8a3d d9e8 873c 1499 40bd
000001d0: 911b cbbc ec8f 65bd 548b 323d ea07 80bd
000001e0: f4c9 74bd 947b d03c d52d 7fbc 9069 473d
000001f0: 2e8a c9bb 3a80 8d3c e6ce fbbc ef56 293d
0.07238788 0.040987015 -0.018064348 -0.072123885 -0.027606731 0.029446593 0.027411992 0.02667134
-0.04739029 0.02827523 -0.02241604 -0.076515034 -0.009194381 0.02389883 -0.022261478 0.016939564
-0.034295723 -0.030583143 -0.06023788 -0.022404412 0.024404563 -0.041646108 -0.07362872 -0.06566165
-0.064862326 0.03764596 -0.053054567 0.022091778 -0.008058143 -0.048584953 -0.052161947 0.044436757
-0.05972003 0.040199235 -0.02743429 0.052825723 0.0189064 -0.06479844 -0.042146485 -0.054637484
-0.061861597 0.09488787 0.030220903 -0.006723645 -0.005577329 0.051476084 -0.052460022 -0.031877186
0.061161123 -0.002733556 0.02022189 0.007314376 0.050384697 -0.03417144 -0.053257104 0.023784367
-0.014006265 0.07705455 0.0008451473 0.02030165 -0.02713743 -0.013947422 -0.02790222 0.055295184
0.029951816 0.031219222 0.05381382 -0.02484337 -0.0069348863 -0.06359208 0.040495552 -0.0132026505
-0.009243562 -0.04096687 0.012530349 0.038657125 -0.07875314 0.011939009 0.03168788 -0.06913337
-0.052221686 0.005483856 -0.009414755 -0.03187648 0.07142698 -0.018726356 0.047632385 -0.017894387
-0.053086836 0.0095026335 -0.0005545281 0.07369051 -0.016579716 0.06976459 -0.052303176 0.042212877
0.032578122 -0.016550042 0.0004197955 -0.0050460654 0.034664836 0.056928497 -0.029989528 -0.009494528
0.03689246 0.004736933 -0.023241214 -0.06229853 -0.026581548 0.07348037 0.04834456 0.0052384776
-0.05035557 0.06773983 0.016590523 -0.047020987 -0.024793418 -0.056045458 0.043589905 -0.062515095
-0.05976291 0.025449552 -0.015574892 0.048684657 -0.0061505055 0.017273057 -0.030738305 0.041342672

actor.4.weight f4 [128, 128]
00000000: 9bae f6bb 6fdc 1fbd c786 193c a9b0 6b3d
00000010: fb4b e23c 2f52 fbbc b7b2 99bc 457e e9bc
00000020: d8f3 24bd 58cd 8bbd 35fd 4f3c e835 213d
00000030: fd8f 05bd be68 f53d e210 393c e6c9 9dbd
00000040: b16c 1cbd 825b 90bd 96d5 fc3c 68d0 833c
00000050: fbae 123d 2a5b 303d 6225 3ebc 7c31 24bd
00000060: 9332 493c 84db 29bc 5594 74bc 37bf e43c
00000070: e17f 1f3d 7ec3 5cbd de1f fd3d f828 d8bd
00000080: 8983 e9bd 2cc5 12bc dcf7 01bc b9ab ae3d
00000090: 0bf5 763c cab3 263d 6c1c 04bd ecae 4cbd
000000a0: b261 8bbb e623 55bd 3e7e abbc 9295 ebbd
000000b0: 85af 9f3c 58f9 153b 3c13 273c bc7c 853d
000000c0: c235 3a3d e94a 1ebd 03d9 6dbd 981a 8cbd
000000d0: 8cd9 4fbd 9875 dcbc 222d 6b3d 456b b23d
000000e0: 8cdb d2bc a68d 123d ce2e d3bc 02c8 803c
000000f0: 6bd8 febc 4063 1bbd 1f0c dc3c 20e2 263d
00000100: 7ea8 a3bd ccff 9cbd ea3d b2bd 0559 cabc
00000110: 7ae8 89bc 6a06 783d a674 b8bd c818 073d
00000120: 0691 b73c c679 943d bd65 ecbc f36a dfbc
00000130: 83ea 5cbc ffed 6dbd 481b d23b f603 acba
00000140: 5dc7 acbd f192 a7bd 0281 78bd 9701 24ba
00000150: ddb3 19bd 8666 a4bc a669 49bb 35db 0ebc
00000160: 21cb 8abd a49d f13c 9efb 98bc 21cd 7bbd
00000170: da88 f4b8 25f6 3cbd 9b65 8d3c 88c5 f1bb
00000180: 508b 363c 49e7 2cbd 3110 9a3d c821 2b3d
00000190: 3882 a2bd 9ee9 903c 721e a33d fcdb 1f3d
000001a0: 22e8 703d f1be 4d3d fd4f a73d 91ca 97bd
000001b0: e626 4cbd a54b 3ebd 722d bd3d 0d99 5ebd
000001c0: 0298 933d cb14 823d 3cab ba3a 8746 a2bd
000001d0: b9c9 193c 4c50 06bc f0dd 953d 161a 973b
000001e0: c511 af3c 97ea f0bc 4950 933d df03 0bbd
000001f0: 364f 22bc 2cfa 443c fa24 4e3b 52a7 9f3d
00000200: e572 06bc c76c 9fbd aeb9 f03c ba05 26bd
00000210: e5a3 24bc 6a29 13bd 7015 4b3d c947 8dbc
00000220: e391 a43b 21d9 35bd e80e 383d effd a33d
00000230: a4c0 1bbc b3b7 85bd ea6b 083e a3d3 683d
00000240: 2f27 b2bc fd10 133d 4c27 48bd b7e3 36bd
00000250: a7fb fb3c 2396 74bc 636c c83c bd34 633d
00000260: 5be0 58bc b92f cb3d 20cd 81bc 259a 82bc
00000270: 943b 883d 49ca 943d 43eb cf3c aa60 a93d
00000280: 0e7d 3a3d 497e 5cbd 5bc3 713d 197a 4e3d
00000290: 4c83 443d e222 4c3d 2797 a4bc ee34 753d
000002a0: 6f68 df3c 3fef bebd 3f1f 3a3c 89b3 573d
000002b0: 7ff7 493d 4aff 92bc 2e48 8dbd fd35 b03d
000002c0: e7b9 733d eb9e 263d f786 89bc b47c 083d
000002d0: 82ff b03d 581b c63c 0663 4b3d 7260 45bd
000002e0: ee7e 863c ee52 febc fa21 7ebd 5c22 31bc
000002f0: 8ab5 733d 8e8b 52bd dae9 d7bd 3300 873d
00000300: cec2 9bbd f5c6 eebc 9257 233d e69b b1bd
00000310: 672d ee3d c354 65bd dece 6fbd 7770 d63c
00000320: a11c 8b3d e96e f83c e464 913d 9039 39bd
00000330: 1035 523c 985e 7bbd f767 bdbc 6d93 cebb
00000340: d2ec 14bd d373 62bd 6178 12bd e55b c33c
00000350: 12a3 41bd af75 44bd 52c7 8e3c c6e7 75bb
00000360: 35b2 25bd e5f7 663d 9d71 8cbd 7cb6 0b3d
00000370: 974d 213d 62a3 3e3c da6b 35bd 0718 a63d
00000380: 6ce8 84bd befa 09bc 31a2 6e3d 5851 03bd
00000390: 717a c03c 24ad a7bd 1b83 8dbd cde6 83bc
000003a0: f44a 013d 3ae5 e33c 46d5 8cbc a29b 75bd
000003b0: 9d4e a0bc 4fe7 803c 3455 21bd c2fd 213d
000003c0: 3751 26bd b85e 213d bcd8 b03d 7c90 643c
000003d0: 01af d13c 49ea 5dbd 5bb2 7c3d 1e94 c6bd
000003e0: 779a 593d 2c00 95bd 84f2 9abd 4792 213d
000003f0: c22e 55bb a451 1d3d ed1c 993d f7d4 01bc
-0.007528139 -0.03902858 0.009370512 0.057541523 0.027624121 -0.030678837 -0.018761976 -0.028502593
-0.04027161 -0.068262756 0.012694647 0.03935805 -0.03260802 0.119828686 0.011295529 -0.07704525
-0.038189594 -0.07048704 0.030863564 0.016090587 0.035811406 0.04305569 -0.011605592 -0.040086254
0.012280124 -0.010367278 -0.014927943 0.02792321 0.038940314 -0.053897373 0.12359594 -0.10554689
-0.114020415 -0.008958142 -0.007932629 0.08528847 0.015073071 0.040698804 -0.032253668 -0.049971506
-0.0042535895 -0.05203619 -0.02093422 -0.11503138 0.019492874 0.0022884216 0.010197457 0.06517932
0.045461424 -0.03864566 -0.058068287 -0.0684101 -0.05074458 -0.026911542 0.05741609 0.08711866
-0.025739454 0.035779618 -0.025779154 0.015720371 -0.031109056 -0.03793645 0.026861249 0.040742993
-0.07991122 -0.07665977 -0.087032154 -0.024700651 -0.016834486 0.060552992 -0.09006624 0.032982618
0.02240802 0.07249789 -0.028857106 -0.027272677 -0.013483646 -0.0580883 0.0064119436 -0.0013123739
-0.08436463 -0.08182324 -0.060669906 -0.00062563404 -0.037525047 -0.020068418 -0.0030733137 -0.008719255
-0.06777025 0.029494114 -0.018674668 -0.061474923 -0.00011660317 -0.04613318 0.017260363 -0.007378284
0.011141613 -0.04221276 0.075226195 0.041780263 -0.079349935 0.017689522 0.07964791 0.039028153
0.05881513 0.050230924 0.081695534 -0.07411683 -0.049841784 -0.04645886 0.09237184 -0.05434518
0.072067276 0.06351622 0.0014241706 -0.07923608 0.009386473 -0.008197855 0.07317722 0.004611264
0.021370778 -0.029408736 0.071930476 -0.03393924 -0.009906581 0.012022536 0.0031455145 0.07795586
-0.008206104 -0.077844195 0.029385414 -0.040532805 -0.010048841 -0.035928167 0.04958099 -0.017246144
0.005022274 -0.044396523 0.04493609 0.08007418 -0.009506378 -0.065291785 0.13322416 0.056842458
-0.0217472 0.035904873 -0.0488656 -0.04465076 0.030759646 -0.0149283735 0.024465745 0.055470217
-0.013237084 0.09921212 -0.015844882 -0.015942642 0.066519886 0.07265145 0.025380736 0.0827039
0.045529418 -0.053831372 0.059024196 0.05040941 0.047976777 0.049837954 -0.020091606 0.05986493
0.027271478 -0.09322976 0.011359989 0.052661452 0.049308296 -0.017943997 -0.06898533 0.086040474
0.059503462 0.0406789 -0.016787989 0.03332205 0.08642484 0.02418296 0.049654983 -0.04818768
0.016417947 -0.031045403 -0.06204412 -0.010811415 0.0594993 -0.05140262 -0.105426505 0.06591835
-0.076055154 -0.029147604 0.039878435 -0.086723134 0.116297536 -0.05598904 -0.058546893 0.026176674
0.0679257 0.030326324 0.070993215 -0.04522091 0.012830034 -0.06136951 -0.023120863 -0.0063041956
-0.036358662 -0.05528624 -0.035759334 0.02384753 -0.047274657 -0.047963794 0.017429028 -0.003752218
-0.040453155 0.056388754 -0.068576075 0.034109578 0.039380636 0.011635633 -0.04429231 0.081100516
-0.064896435 -0.008421598 0.058260147 -0.032059997 0.023495885 -0.08187321 -0.06909772 -0.016101265
0.03156562 0.027819265 -0.01719154 -0.059962876 -0.019568736 0.015735297 -0.039387897 0.039548643
-0.040604796 0.03939697 0.08635089 0.013950463 0.025596144 -0.05417851 0.06169353 -0.0969622
0.053125825 -0.072754234 -0.075657874 0.03944614 -0.003252909 0.038407937 0.0747622 -0.00792431

actor.4.bias f4 [128]
00000000: 326d e6ba 116c 773d 0b71 5abd 29e7 513d
00000010: 661d 40bd 947b 893d 1f27 fb3b 1684 dbbb
00000020: 89ec 07bc 4005 84bd bc0a 803d 3f85 083d
00000030: 2039 6d3d 2266 253d 2d25 173d 5ce2 9abd
00000040: 1662 1abc 94f3 a73d bb71 be3c 26c8 10bc
00000050: 9df8 c0bb c389 f5ba 2941 043d 921f 92bb
00000060: cfcd ec3c 9561 023d d212 e5bc 7bde 093c
00000070: 7fee 8f3d 0ca4 97bd 48f6 d53c b0ac 99bd
00000080: f128 d2bc 6723 b4bc a70f 85bc 645f 6fbd
00000090: 463c ba3c bd87 273d 3120 6a3d ef08 893d
000000a0: a61a e5bc 78e2 7e3d 9c28 813b ef9e a43c
000000b0: 1014 903c f0ec ea3c c5a9 7cbd bd6e 7bbc
000000c0: 9c9d cabc fd66 a2bd 2a48 333d c59a 123d
000000d0: 2983 0b3d add1 9dbd 6933 da3d f2c3 213c
000000e0: 9ac2 c93d 4965 30bd f6e7 2a3d 5310 4c3d
000000f0: 28e6 d4bc 39cb 69bd 7d07 3ebc fdf9 d03c
00000100: 0ee5 b6bb 4d60 853d 1985 773d afeb 933d
00000110: 7d91 b53c dad4 4a3d d7ab 89bd 9196 d5bc
00000120: 8559 9cbd de71 953c ca7f 28bc 630c a13b
00000130: f0b9 5ebb b997 3a3d 30d5 8c3d 97fd 67bd
00000140: cf40 0b3d da4e 723c 0f2d c63d a134 983d
00000150: 049e 55bb f1d9 15bc a386 1d3c 5ce4 a9bd
00000160: ae48 813d 8929 1bbd 9b90 983c 7476 eb3d
00000170: f651 313d f999 a3bc 8d8e 243d a7de 493d
00000180: ded7 963c 04ce b13d 013d 063d 0d53 4abd
00000190: 8501 61bd 5a3f b03c 0dd9 b73d c2e7 6ebc
000001a0: 1d90 bebc 5a17 033d 3d9b 3c3d c05a 323c
000001b0: a3de 5d3c 748d 42bd 9550 723c 45a9 8d3c
000001c0: 1513 81bd 01dd d23c 6f5c 87bc 12d2 083d
000001d0: c954 c13c 0a05 c3bd da45 af3c 46bc 94bc
000001e0: dd6d eb3c e797 8c3d 5bae 803a bb21 48bd
000001f0: 5f91 d4bc 67f2 613d 9b15 193d c7c5 aebc
-0.001758015 0.060405795 -0.053330462 0.051245842 -0.046903037 0.06713024 0.0076645757 -0.0066990955
-0.0082961405 -0.06446314 0.062520474 0.0333302 0.057915807 0.040380605 0.036900688 -0.07562706
-0.0094228 0.08200756 0.02324759 -0.008836782 -0.005889012 -0.0018733073 0.032288704 -0.00445933
0.028906731 0.031831343 -0.027963076 0.00841486 0.070279114 -0.07404336 0.026118413 -0.07503641
-0.025654288 -0.021989537 -0.016242815 -0.05844058 0.022733819 0.040900934 0.057159606 0.06691157
-0.027966809 0.062227696 0.0039416086 0.020095317 0.017587692 0.028677434 -0.061685342 -0.015346226
-0.024733357 -0.079298 0.043769993 0.03579213 0.03406063 -0.07706008 0.10654337 0.009873377
0.098515704 -0.043065343 0.04172512 0.049820255 -0.025988653 -0.057078574 -0.011598465 0.025509829
-0.0055815047 0.065125085 0.060429666 0.072226875 0.0221641 0.049519397 -0.06722229 -0.026072772
-0.07634262 0.018242773 -0.010284374 0.0049148067 -0.003398534 0.04555485 0.068766 -0.056638326
0.033997353 0.0147893075 0.09676563 0.07431913 -0.0032595405 -0.0091462 0.009614619 -0.08295509
0.06312691 -0.037881408 0.01862364 0.114972025 0.043291055 -0.01997088 0.04017501 0.049284603
0.01841348 0.086818725 0.03277302 -0.04939561 -0.05493309 0.021514583 0.08976946 -0.014581623
-0.023262078 0.03200469 0.046046484 0.010885894 0.01354185 -0.04749818 0.01478972 0.017292628
-0.06302468 0.025740148 -0.016523568 0.033403464 0.023599999 -0.095224455 0.021395613 -0.018156182
0.02873891 0.068649106 0.0009817587 -0.048860293 -0.025948225 0.055162814 0.03737412 -0.021334542

actor.6.weight f4 [5, 128]
00000000: 98de 8c3c 9cc5 993c e83d 23bb 2baf 813c
00000010: 2500 193b 22e8 9eba b6c1 13bc 85a4 803d
00000020: f74a 41bd 9058 81bc 48d4 a1bc 63ea 33bc
00000030: bfd9 acbc abe5 aabc dbaa c0bb b3ea b63c
00000040: 5b03 ed3c bc0d a33c 0927 27bd b2ad b2bc
00000050: c9f1 a93c c754 303c 1007 abbb c1d8 e33b
00000060: ea49 71bc 89f4 223d 9140 0dbd 226c 24bc
00000070: 6128 3fbc b820 20bc 93c6 883c 3cd1 41bd
00000080: dc63 563c 574b f1bc 1451 18bc 1867 0dbd
00000090: 05c1 8cbb 56eb c3bc ca17 debc 4d64 cf3c
000000a0: e246 03bc ead5 95bc d718 abbc 0ce4 bdbc
000000b0: 7a2f 773d 8214 fa38 e34b 90bb 0c41 37bd
000000c0: 2d11 9ebc 0452 423c 3e84 7ebd 1e46 53bb
000000d0: ee98 063d 9c9e e33c 9bb9 393a 3a4e 9fbc
000000e0: 2878 973c 7e4b 2abc bcd3 a6bc f396 6ebc
000000f0: 6d68 803d 9a58 08bd 23b6 21bc 1553 d1bb
00000100: c046 803b 8d7b 1c3d bbcb 573c 44b5 8dbc
00000110: e987 d73b cd19 1f3d f258 16bc 37bd 153c
00000120: 1ac0 663d 55fe 2e3b d346 10bd 3709 423c
00000130: 463d 64bc ad3a 583c 650c 76bb 0dab 04bd
00000140: 0d6d 033d 27a0 1fbb fa7b 0bbd 2461 b7bc
00000150: 09b4 d0bc d4cd a23c 4ec2 8dbc 3a9b c1bb
00000160: f946 6f3c 6fa2 473c 5dfb b13b a390 803c
00000170: ac39 0b3c 30be 09bc a17c e6bc dd6d c6bc
00000180: 8094 1cbc 7c55 a9bc 7a74 4b3c e2c8 61bc
00000190: 6b6e bebc 0966 20bc d3cc 9cbc 9422 1bbc
000001a0: 10b3 233b 7120 8f3b 61c4 6ab9 42e7 0a3b
000001b0: 2d0e 2b3b a4b5 003d a99a b739 dff3 03bd
000001c0: 7c32 2b3b 22e9 bf3c db5c 1d3c a53d 79bd
000001d0: 42b8 393d f51e 273d 8e54 283d 192b e3bc
000001e0: 0e89 24bd 328b 1fbd c4c8 593c 1ba4 c3bc
000001f0: 3c28 a73c 03d2 debc 0226 afbc a6bc 1bbc
00000200: c912 0e3d a1e9 793c f199 223b ea7a 2d3c
00000210: 9d22 42bc c30d 6d3c b692 883b f9ff a63d
00000220: f88e 51bd b06e bdbc a4cc 00bd 363d 3abc
00000230: 474d cebc 428f 13bc 01e2 2b3b d6f1 623c
00000240: 49c6 0e3d 5f45 0d3d 5f08 00bd d1ba 69bc
00000250: 312d bb3c babc 563d 0e91 08bc 41f5 7e3c
00000260: 3901 35bc 89c7 223d 7134 19bc 57cb 7c3a
00000270: 2286 f3bb de36 4ebd cb1d a13c 2d92 8dbd
00000280: 13d6 b6bb fcab e8bb 30c8 e1bb b09c 39bd
00000290: caa3 fd3a e71c aabc 3fe4 7dbc e0a8 283d
000002a0: afd5 73bc ffe7 8abc 28b2 7abc 9878 16bb
000002b0: afc1 923d 08d1 253c 23f0 7bbc b63d 3cbd
000002c0: 8da8 61bc 22f7 a23c e1ca 2fbd 8539 95bb
000002d0: 58cd 563d 4ad3 8e3b 14f9 163d ed8c 35bc
000002e0: c1a7 0f3d a36e f5bc be59 b5bc 70e3 413c
000002f0: bd38 3b3d f13b 3fbd 31b9 b2bc db79 ad3c
00000300: 7a88 c83b dc07 223d 30ae b03a 59fc 40bb
00000310: 398a 863a 2d1f 313d b304 27bc c0ef bd3b
00000320: 0445 bc3c 1b15 c03c d78a f3bc c216 d83c
00000330: 828d afbc d999 de3c 8480 8cbc 0a49 f7bc
00000340: efcb f73c dd0d 88bb b5d6 82bc 51e5 3cbb
00000350: 8b66 a9bc 021b ae3c 3279 cbbc 2b7c 84ba
00000360: 65d9 d93b 728e bf3b c019 a73c a0c9 4e3d
00000370: 695f a63c 2307 32bc f6b4 61bc e566 f9bc
00000380: ff17 9dbc 3935 cd3c 6c44 583c e011 b6bc
00000390: 3d4f a2bc 9a47 f83a 0692 9bbc 035e 60bc
000003a0: 19ff 23bb 30ba 013b 69c8 11bc 4ba6 593c
000003b0: 51ed 783c ab5c f3ba 6ff8 e23b 994e babc
000003c0: 2aff e138 9cea ac3c ae54 133b 594b 6dbd
000003d0: 1278 7b3d 104a b7ba a43b 5abd 5e18 f3bc
000003e0: 65df 8cbd 7ea3 79bc 3a88 b63a ec53 31bd
000003f0: 0a07 b33c b7d1 20bd 01c8 d3bc 1bcc a0bc
0.017195985 0.018770985 -0.0024908725 0.015830597 0.0023346033 -0.0012123624 -0.009018352 0.062813796
-0.047190633 -0.0157893 -0.019754544 -0.010981175 -0.021099923 -0.020861467 -0.0058797426 0.02232871
0.028932264 0.01990401 -0.04080871 -0.02181134 0.020745175 0.0107624 -0.005219348 0.0069533293
-0.014727095 0.03978399 -0.034485403 -0.0100355465 -0.011667342 -0.009773426 0.01669625 -0.047318682
0.013085332 -0.02945487 -0.009296674 -0.034522146 -0.0042954707 -0.023915928 -0.027110953 0.025316382
-0.008012505 -0.018290479 -0.020885868 -0.02318003 0.06034801 0.00011924749 -0.0044035777 -0.044739768
-0.0192953 0.011860374 -0.062137835 -0.0032237838 0.03286069 0.027785592 0.00070848473 -0.019446481
0.018489912 -0.010393975 -0.020364635 -0.014562356 0.06269918 -0.033287622 -0.009870085 -0.006388078
0.003914684 0.038203765 0.013171132 -0.017298348 0.006577481 0.038842965 -0.00917648 0.009139351
0.056335546 0.0026701887 -0.035223793 0.011843017 -0.013930624 0.013197583 -0.0037544009 -0.03238969
0.03208642 -0.0024356933 -0.03405378 -0.022385187 -0.025476472 0.019873537 -0.017304566 -0.005908397
0.014604324 0.012184723 0.005431576 0.015693968 0.008497637 -0.008407161 -0.0281356 -0.024222309
-0.0095568895 -0.020670645 0.012417907 -0.013780804 -0.02324601 -0.009789952 -0.019140637 -0.009468693
0.0024978556 0.004367881 -0.00022389136 0.002119497 0.0026100979 0.031423226 0.0003501971 -0.032214995
0.002612262 0.023426596 0.009604658 -0.060849804 0.045341738 0.040801007 0.041096263 -0.027730512
-0.040169768 -0.038951106 0.013292495 -0.023881963 0.020404927 -0.02719975 -0.021380428 -0.0095054265
0.034685884 0.015253455 0.0024810995 0.010588387 -0.011849073 0.014468613 0.00416788 0.08154292
-0.051161736 -0.023124069 -0.03144516 -0.011367133 -0.025183333 -0.009006323 0.0026227238 0.0138516035
0.03485707 0.034489986 -0.031257983 -0.014265732 0.022848697 0.052426077 -0.008335365 0.015561403
-0.011047655 0.039741073 -0.009350882 0.0009643337 -0.0074317614 -0.050345294 0.019667527 -0.069126464
-0.005579719 -0.0071005803 -0.0068903193 -0.045315444 0.0019351181 -0.020765735 -0.015496313 0.041176677
-0.014882489 -0.016956327 -0.015301265 -0.0022960063 0.071658485 0.010120638 -0.015377077 -0.04595729
-0.013773096 0.019893233 -0.04291809 -0.004553976 0.052441925 0.0043586837 0.036858633 -0.011080963
0.035072092 -0.029959982 -0.022137519 0.0118340105 0.045708407 -0.046688024 -0.021816822 0.02117627
0.006119785 0.039558277 0.0013479646 -0.0029447286 0.0010264582 0.043242622 -0.0101939915 0.0057964027
0.022982128 0.023447564 -0.02972929 0.02637804 -0.02142978 0.02717297 -0.017151125 -0.030186195
0.03024861 -0.0041520433 -0.01597152 -0.0028823207 -0.02067878 0.021253113 -0.024838064 -0.0010107806
0.00664823 0.005845838 0.02039802 0.050485253 0.020309167 -0.010865959 -0.013776055 -0.030444572
-0.019176481 0.025049793 0.013199907 -0.02222532 -0.019813174 0.0018942237 -0.018990528 -0.013694289
-0.0025023876 0.0019794814 -0.008897879 0.013284276 0.015193299 -0.0018567046 0.0069265882 -0.022742556
0.00010776364 0.021107964 0.0022480893 -0.057933185 0.061393805 -0.0013983864 -0.053279534 -0.029674705
-0.068785466 -0.0152367335 0.0013926097 -0.043292925 0.021853942 -0.0392625 -0.025852205 -0.019628575

actor.6.bias f4 [5]
00000000: cd41 b9ba e4ba 8ebc d49a b43c 6afc 1d3a
00000010: cd6e 4e3d
-0.001413399 -0.0174231 0.022046484 0.00060266873 0.050398637
