ippo_algorithm/checkpoints/ppo_actor_3num_agent_exp_4run_0_catmouse.pth (torch, 151820 bytes, 8 tensors)

actor.0.weight f4 [128, 21]
00000000: 66bc 28be 9466 f1bd 5707 9c3d 5c69 2fbe
00000010: b26f 1e3e bb0f d8bd abc9 babd f18d 503e
00000020: 7b8c 07be 3c48 87bb 5c7b 2abe 7fc8 2e3e
00000030: abef 42be be9c cabc 9944 513e 91fe 28be
00000040: 2ab0 36bd 19f2 103e bbbb 753d 27cc 1dbd
00000050: 4f9a c8bd a31d 793c 5df1 463e 7119 f93d
00000060: 84e6 1bbe 1fb9 02be 340a 593e 4f0d 79bd
00000070: fbc9 1dbe 8c6b 3dbd a95f 0d3e 1e61 3e3e
00000080: 4e08 07bd bd46 57be fe60 1e3d dfca 383d
00000090: bd78 ab3d 734e ce3d e4cd 613e cc44 a1bc
000000a0: 18c6 3d3e 25dc a5bd d709 43be bbfc 08be
000000b0: c536 0fbd 5e43 aa3d 3dcc fb3d 3370 53bd
000000c0: 46cc a03d 0d01 393d 4aaf 243e c6dd 79bd
000000d0: 5944 493e 38ec 123e 44e9 52bb 9cb2 e53c
000000e0: f90b 453e ee12 dc3b 5500 66bd d3aa 4d3e
000000f0: 49eb 14be 9ebc 16bb 71b1 e53c 1316 c83c
00000100: 1a86 e33c 04e8 1a3e 8bb3 19bd 6780 563e
00000110: 3069 26be ad4a 36be 747e 29be fcd6 2c3e
00000120: bd07 253e dc09 01be fc35 163d 4835 403e
00000130: 9a63 a6bd 458a 003e e404 dc3d de65 98bd
00000140: dbb1 2ebe bfe8 4c3e 3765 1cbe 41e9 babd
00000150: 8c6c 0cbe e8cd bbbd da4d c6bd 64b2 863c
00000160: 793a 2dbd b089 61bd 479b 1fbc ada0 8b3c
00000170: b314 33be 7725 533e 8f7c 12be ee26 dd3d
00000180: 7853 ba3d 2467 56be abbf 87bd eeb5 12be
00000190: b9e8 e8bb 0512 703d 3b87 abbd 844d a9bd
000001a0: 312d d4bd 95f0 44be d927 54be a070 c83d
000001b0: a0f5 ab3d 4861 e63c 8f7a 1ebe 8dc7 dfbb
000001c0: 1ecb ff3d 8768 e3bd 88eb 3e3e 186d 0a3e
000001d0: 3863 f4bd b4da 393e b7ed 03be 95fd 133d
000001e0: cae9 98bd f7bd b1bd b876 283e 4778 933d
000001f0: 8c19 44be 34f1 913d 180e 36bd 4118 283e
00000200: 358b 2dbe dd8f 1fbe db5e 8dbd 998d 27bc
00000210: dd60 583e 5a74 f03d 1967 5d3e 964c 963d
00000220: 5dc6 28be cd01 a03d f6cd 343d aa14 57be
00000230: 9ec7 813c 2533 4abe 33b5 373e 185e e13d
00000240: 3ebf 26be d42b f43d a04f 533d 7822 17be
00000250: ad4d 4dbe d984 163e 49a1 843c c8e0 d13b
00000260: d082 483e 07de f03c 91ec a43d f5b8 1f3c
00000270: f650 fa3d 1c7c ca3d 598f 593e 29bf e5bd
00000280: 782f 9d3d 3a05 dbbd e4f0 17be 91cf 56be
00000290: 185e ff3b 7874 acbd 377a 863d a24b 11be
000002a0: fc69 36be 9c85 433e 07ac 723d 5270 30bd
000002b0: fb99 23be 8ebc 9a3d 7497 e93d 420e 20be
000002c0: e26f 99bd 2767 2a3e 8e9c 9abd 1582 70bd
000002d0: 462d a83d 87c9 7c3d 94d3 343e d563 303d
000002e0: 554e f43d f192 833d bbed 89bb bb65 d03d
000002f0: d40e 3fbe 1435 983d e58b ebbd 67b3 253e
00000300: a839 7cbd c5fc 60be be58 07be b605 25be
00000310: ada2 3bbc c7cd e6bd c414 10be 2c38 493e
00000320: bc1b 36be 1936 bfbd 9d9f 4ebe 3339 d43d
00000330: a1a9 5cbd d221 f4bd fae2 38be 4dba f5bd
00000340: 2d54 50be 398b 52be f9b9 f63d 18d2 0ebe
00000350: e87e 4e3e 95a8 0bbe e8d9 4ebd e595 0bbe
00000360: cfce 1c3e a1ec 02be eed0 07be 0f72 14be
00000370: 5f01 aa3d 8527 563d b767 433e 270e 1fbe
00000380: 94fa a2bd 14e7 583d 8e69 153e c71b 233e
00000390: f3ff 9cbd b5a6 f1bd cbab 59be 2559 08bd
000003a0: 1e5c d03c c14a d93b b5d5 d2bb 75dc 4dbe
000003b0: ea66 21be 43c3 c53d aab5 d0bd 62d2 27bc
000003c0: 0bd5 463e ef78 9d3d ad6b 603d 667f e23d
000003d0: e400 483d 8b1f 103d edd6 3fbe e55b 9c3c
000003e0: 6179 283b 1f5e 32be dcf6 253d ba48 8d3d
000003f0: 60bb 093e e207 9d3d 3bcc c13d d2c1 123e
-0.16478118 -0.11787143 0.076185875 -0.17130035 0.15472296 -0.10549875 -0.09120496 0.20366646
-0.13237183 -0.004128484 -0.1664862 0.1706867 -0.19036739 -0.024732944 0.20436324 -0.1650336
-0.044601597 0.14154853 0.059993487 -0.038524773 -0.09795057 0.01520482 0.1942801 0.12163056
-0.15224653 -0.1276593 0.21195298 -0.060803708 -0.1540908 -0.046245143 0.13806023 0.18591735
-0.032966904 -0.21023078 0.038666718 0.045115348 0.083726384 0.10073557 0.22051197 -0.019686125
0.18532598 -0.0809863 -0.19046722 -0.13377659 -0.03496434 0.083136305 0.12294815 -0.051620673
0.07851462 0.045167018 0.16082492 -0.061002515 0.19654979 0.14347923 -0.0032182494 0.02803927
0.19242848 0.006716124 -0.05615266 0.20084696 -0.14542879 -0.0023000608 0.028038712 0.024424588
0.027773906 0.1512757 -0.03752474 0.20947419 -0.16251063 -0.17801924 -0.16552144 0.16878885
0.16116233 -0.12601417 0.036672577 0.18770325 -0.08124466 0.12552746 0.1074312 -0.074413046
-0.17060034 0.2001066 -0.15272985 -0.09126521 -0.13713282 -0.09170133 -0.09682818 0.016442485
-0.042292092 -0.05506295 -0.009741611 0.01704439 -0.17488365 0.2061976 -0.14305328 0.10798441
0.09097952 -0.20937783 -0.06628355 -0.14327213 -0.007107821 0.058610935 -0.083754025 -0.08266738
-0.10360182 -0.192324 -0.20718326 0.097871065 0.083964586 0.02812256 -0.1547644 -0.006829208
0.124899134 -0.111039214 0.18644536 0.13518178 -0.11932987 0.18149835 -0.1288365 0.036130507
-0.07466467 -0.08678811 0.16451538 0.072006755 -0.1915037 0.07126084 -0.044447035 0.16415502
-0.16947635 -0.15582223 -0.06902858 -0.010226631 0.211307 0.11740942 0.2162136 0.07338826
-0.1648192 0.078128435 0.044141732 -0.21003976 0.015842255 -0.19746073 0.17940216 0.11004275
-0.1628389 0.11922422 0.05158961 -0.14759243 -0.20049162 0.14699115 0.016190188 0.00640497
0.19581151 0.029402746 0.08052934 0.009748687 0.12222473 0.09886953 0.21246089 -0.112181015
0.076750696 -0.10694356 -0.14837986 -0.20977618 0.0077931993 -0.08420652 0.065662794 -0.14189008
-0.17813867 0.19093937 0.05924609 -0.043075867 -0.15976708 0.07555495 0.114058405 -0.15630439
-0.07492043 0.16640912 -0.07549392 -0.058717806 0.0821176 0.06171563 0.17658836 0.043063957
0.11929003 0.06424511 -0.004209248 0.101756535 -0.18658 0.07431999 -0.11501292 0.16181718
-0.061578423 -0.21971424 -0.13217446 -0.1611546 -0.011452359 -0.11269718 -0.14070421 0.19650334
-0.17784017 -0.0933649 -0.20178075 0.103624724 -0.05387271 -0.11920513 -0.18055335 -0.11998425
-0.2034461 -0.20560922 0.1204719 -0.13947332 0.20165598 -0.13638528 -0.05050078 -0.13631399
0.15313266 -0.1278558 -0.13263294 -0.14496635 0.08301043 0.052283783 0.19082533 -0.15532742
-0.0795795 0.05295475 0.14591047 0.15928565 -0.07666006 -0.11799375 -0.2125694 -0.03328814
0.02543455 0.006631226 -0.0064341673 -0.20103629 -0.15761915 0.09656384 -0.101909 -0.01024303
0.19417207 0.07689082 0.054790188 0.110594556 0.048828974 0.03518633 -0.18734331 0.019086787
0.0025707113 -0.17418717 0.040518627 0.06898637 0.13450384 0.07667519 0.09462782 0.14331749

actor.0.bias f4 [128]
00000000: 41d5 073c ba92 e2bd 946b 33bc 3a9a 4d3e
00000010: c93e af3d 1c8a fdbd b081 43be b585 083e
00000020: 730c a3bd fc26 85bc e38f 643a cb7d c3bd
00000030: f189 113d a067 a7bc 0197 c03a 86a5 ed3c
00000040: 66d3 573e ecb2 d13d e0fd 383e a7a5 3fbd
00000050: 2756 9fbd 9ccc f9bd 9284 ddbd c95a 213e
00000060: 7e3d 29bd 7760 863c 9107 a4bd 4f08 473c
00000070: 73c1 2e3d 845a d73b b9f3 1bbe 128d 0ebd
00000080: a093 dc3c be49 e6bd e829 173e 46d4 59be
00000090: 12f4 c6bd 6c0a a53d 4562 77bd 8c0c 603e
000000a0: 39c7 fcbd dc0c 42be f329 543e 6059 d73d
000000b0: a167 473e c3f8 1a3e a75c 253e 09ea 61bd
000000c0: 3b60 863d 8fa8 4d3e 4ff5 bebd b293 43be
000000d0: a60b 90bd 5633 093d 330a afbd 4154 243c
000000e0: 9d9e 88bc a1e2 15be 34f3 3bbe eb91 643d
000000f0: 2c20 e5bd 23f8 1cbe f57c 823d 00d2 13be
00000100: 351d f13c e2dd 8b3c 30d4 b1bd 3b41 5ebe
00000110: 98e2 e43c 0d15 0bbe ba31 133d dea6 a93d
00000120: d5d1 283e 86cc 1bbe 084d d3bd 5011 69bd
00000130: a1cf 0b3e 9f70 d13d 98f9 55be 5639 08bc
00000140: 8d71 153c be05 b73d d6dc 4e3e 22f3 2bbc
00000150: f66b 7d3d fcd3 353d d4a2 3d3c ccc7 373d
00000160: 638d 8bbd 9573 3d3d 4e47 fbbc 7406 85bc
00000170: 6953 1bbe d904 2dbb d775 3e3e bc8f a83d
00000180: 609a 0fbe 0add fcbd 2d31 803d 2316 c7bc
00000190: 2af1 0d3e d7cd 413d c08d ac3d a602 13be
000001a0: 2c75 a0bd 18e4 5e3e a7d2 bb3d be4d 473e
000001b0: de95 60be 8a09 febd 38ee cbbb 4cbe dfbd
000001c0: 2e0d 203e 241f 8dbd 7560 edbd 14ea b43d
000001d0: d8fa 7fbd 2b2b 0e3e 6613 95bd bce5 8c3d
000001e0: aa14 29be d628 62bb a005 e7bd 184d fc3c
000001f0: d7c2 a1bd 0be4 46be 0a9a 463e 7f59 37bd
0.00829059 -0.11063142 -0.010950942 0.20078364 0.08556897 -0.12379858 -0.1909244 0.13332255
-0.07961359 -0.01625394 0.00087189506 -0.095454775 0.03553194 -0.020435154 0.001469344 0.029009592
0.21076736 0.10239205 0.18065596 -0.046788838 -0.07780104 -0.12197229 -0.108163014 0.15757288
-0.04131841 0.01640342 -0.08009256 0.012147977 0.042664956 0.0065720696 -0.15229692 -0.034802504
0.026925862 -0.11244534 0.1476208 -0.21272382 -0.097145215 0.080586284 -0.06039645 0.21879786
-0.12342686 -0.18950218 0.20719127 0.10515094 0.19473125 0.15133958 0.16148625 -0.055154834
0.06561323 0.20083831 -0.09324133 -0.1909931 -0.07033472 0.033496223 -0.08546867 0.010029853
-0.016677195 -0.14637233 -0.18354493 0.05580322 -0.11187777 -0.15329032 0.0637149 -0.14435577
0.029432872 0.017073575 -0.0868305 -0.21704571 0.02794008 -0.13582249 0.035936095 0.082837805
0.16486295 -0.15214738 -0.10317427 -0.056901276 0.13653423 0.10226559 -0.20895994 -0.008314451
0.009121311 0.08936642 0.2020143 -0.010494979 0.061870538 0.044391617 0.011574466 0.044868276
-0.06814077 0.046252806 -0.03067365 -0.016238429 -0.15168537 -0.0026400595 0.1859964 0.0823054
-0.14023733 -0.12346847 0.062593795 -0.024302548 0.13861528 0.047315445 0.08425474 -0.14356479
-0.07834849 0.21766698 0.09171038 0.1946325 -0.2193217 -0.12404163 -0.0062234662 -0.10924968
0.15630028 -0.06890705 -0.11590663 0.08833709 -0.062495083 0.13883655 -0.072790906 0.06879756
-0.16511789 -0.0034509203 -0.1128037 0.03079848 -0.07898491 -0.19422929 0.19394699 -0.044763085

actor.2.weight f4 [128, 128]
00000000: 2d02 313d 3347 62bc 2bd6 57bd 963f 3f3b
00000010: 65c7 72bd a7e9 263d 1bbc 163d b2b4 003d
00000020: 0dda 8e3c f01f 333d b18c 99bd b225 9c3b
00000030: 21c3 82bd 04eb 4bbd 609c 963d 02d5 01bd
00000040: 67d5 44bc a062 b1bd dbb4 9c3c 4d8f c5bc
00000050: ea58 b83c 1923 d43c dc8d 8f3d cd22 4bba
00000060: b76d 15bc 1e4c 36bd a015 8d3d 0199 81bd
00000070: 6c7f ae3d 53d1 833d b2ae 463d 7cf0 58bc
00000080: bb27 90bd 1b47 9bbc 5c7a 0b3d dc25 64bd
00000090: a677 72bd 46ad 3a3d c737 083d 0358 27bd
000000a0: ab40 7e3d 2129 84bc a46e 94bd dfac 47bd
000000b0: eed7 3e3b 3ffd 9abd 6209 b1bd c9eb 9b3c
000000c0: 5cb0 0cbc 9ea3 7e3d f67b 343d 9063 563c
000000d0: 874c 8e3d 3271 0e3c 2a70 053d b440 4fbc
000000e0: 8514 d93c 401d a73d 52cc 04bc 2e86 153d
000000f0: ea0f a73d 9684 863d 31bb a73c 7fe3 973d
00000100: d2af 333d bdc0 26bd 03af a53d 419e 913d
00000110: bfe2 17bd 9bf7 3e3d 5225 e2ba a035 b1bd
00000120: c853 65bd 0628 3fbd d282 b6bd 4270 98bd
00000130: 04ab a13c a963 983c be15 8ebb 5899 833d
00000140: 5a64 c33c 4fa4 2e3d da00 3b3d fd80 48bd
00000150: 4a59 b9bd fc7b 54bc 8c1d d43c 7016 79bc
00000160: be05 e53c 5fad 0dbd 4ac3 833b 671f a03d
00000170: a5a0 60bd b70f a33d 00aa a9bc dd72 463c
00000180: e9bc 55bd d7f6 5d3c d456 10bd c4be 973c
00000190: 4cf1 4ebd 928e 5fbd a960 813d 881a ec3b
000001a0: 9ca6 adbd 0bd9 78bd 5420 4e3d 1683 f1bc
000001b0: 7f8f e83c 1f15 a8bd 8dca 693d 91bd 713c
000001c0: dd94 3b3d b027 2b3d 8dba cb3c 1fc0 033d
000001d0: 0e25 49bd 6c67 8bbd 47dc d93b aa88 a9bd
000001e0: 3236 6ebc 7e2e 403d 8d88 e0bc a837 6ebd
000001f0: e9b6 1fbb 03f7 1abd f284 1abd 1897 913d
00000200: 174f a43c 57c2 a6bd d76e 9b3d dde8 f1bc
00000210: 6d3f 183d fa43 f83c 899b a03c 2c6b d13c
00000220: 0a81 b1bd 0cc0 453c 4581 68bd 7870 563c
00000230: ff99 a1bd d270 8c3d 79f1 73bd 221e 16bc
00000240: c0c4 0fbd 9b6f 893c 43e6 84bd cbd8 8fbd
00000250: 54a2 143d a571 963d fa50 e83a c22d 99ba
00000260: 5a3b be3c 6221 8e3d a1e4 173d a4b9 99bd
00000270: 20a5 2ebd ccc0 693d f287 8f3d 7932 2c3d
00000280: f89e acbd 9a2d 28bd 92e3 0abd 146f a93d
00000290: 7184 dfbc 75dd 6f3d e156 873d adec 64bd
000002a0: 609a 50bd 45f1 bcbc 0db7 eebc aa2d ae3d
000002b0: 717c b9bd 8c5b 3c3d 25a6 823d 7d9a 6fbd
000002c0: 31a3 9e3a edf6 26bd 3c32 afbd e6c3 2b3d
000002d0: d714 de3c d2ea 423d ba4e 8bbd 69c4 87bd
000002e0: c4ca 97b8 ea29 463d dabc a6bd 63a2 8ebd
000002f0: 7962 e43c ac29 113d 3acd 833c 47cc 6fbc
00000300: 4c4c 983d 8db0 b9bc 0378 6abd 8203 173c
00000310: 98ff 62bb c51d afbc aa81 e93c 1c5b 883d
00000320: c89c 003d f435 ddbb 8db5 cdbc c1ab 86bd
00000330: 7da8 903c 28ea 11bd 101a 333c 0048 5f3c
00000340: b61c e3bb 391a 2bbd 1252 9dbd aeaa 8bbd
00000350: f88e 04bc f510 cd3b a7ef b9bd 6d68 af3d
00000360: a678 a93d f428 a9bb cf9e b23d 2594 5c3d
00000370: e8e4 9a3d 80b6 39bd 7f84 a5bd 24f4 8c3d
00000380: ca02 743b 4c21 9bbd b21a 7cbb d0f1 5a3d
00000390: c509 0dbc 21b3 853d f9cb 863d 709c 4bbb
000003a0: 15f2 58bd 9660 64bc 3fb3 43bd 2e73 50bb
000003b0: d173 bc3c 5de6 b73d a736 d4bc d34f 28bb
000003c0: 6dbd 3a3d 9c86 30bc 4861 003d 1411 6abd
000003d0: 1dbc dd3c 7e14 673c 6119 5d39 7888 15bd
000003e0: a077 813d c4f8 82bd 0bef 0cbd 9133 6f3d
000003f0: 1596 573d 2533 4e3c a23f df3b 062b a13d
0.043214966 -0.0138109205 -0.05269448 0.0029182187 -0.05927219 0.040750172 0.036800485 0.031422324
0.01743796 0.04373163 -0.07497538 0.004765236 -0.06384874 -0.049784675 0.07354045 -0.03169728
-0.01201377 -0.08661389 0.019129207 -0.024116183 0.022503335 0.025895642 0.070094794 -0.0007749021
-0.009120396 -0.044506185 0.0688889 -0.06328011 0.085203975 0.0643641 0.048506446 -0.01324093
-0.07038828 -0.018954804 0.034052238 -0.055700168 -0.059196137 0.045575403 0.03325632 -0.04085542
0.06207339 -0.016132893 -0.072476655 -0.048748847 0.0029120403 -0.07567834 -0.08644368 0.01903333
-0.008586969 0.062167756 0.04406353 0.013085261 0.0694819 0.00869398 0.03257767 -0.012649704
0.026499042 0.08159876 -0.008105354 0.036504917 0.08157332 0.065682575 0.020475002 0.07416438
0.043868847 -0.040711153 0.080900215 0.07110263 -0.037081476 0.046622854 -0.0017253554 -0.08652806
-0.055988103 -0.04666903 -0.08911671 -0.074432865 0.019734867 0.01860221 -0.004336088 0.064257324
0.023851562 0.042637166 0.04565511 -0.048951138 -0.09050234 -0.012969013 0.025892995 -0.015203103
0.02795684 -0.034589168 0.004021083 0.078184895 -0.054840703 0.07961982 -0.020710945 0.0121123465
-0.052182112 0.013547621 -0.035239056 0.018523581 -0.050523087 -0.054579325 0.063172646 0.007205311
-0.08479044 -0.060753863 0.0503238 -0.029481452 0.028388737 -0.082071535 0.057077933 0.014754669
0.045796264 0.041785896 0.024869228 0.032165643 -0.049107604 -0.068068355 0.0066485736 -0.0827802
-0.014539288 0.04691934 -0.027408862 -0.058158547 -0.0024370498 -0.037833225 -0.037724443 0.07108897
0.020057244 -0.08142536 0.075895004 -0.029529983 0.037169863 0.030305851 0.019605415 0.025563799
-0.086671904 0.012069713 -0.056763906 0.013088338 -0.078907005 0.06857456 -0.05955646 -0.009162458
-0.035099745 0.01677685 -0.064892314 -0.07023772 0.03628762 0.07345895 0.0017724328 -0.001168661
0.02322166 0.06939961 0.037083272 -0.07506111 -0.042637944 0.05706863 0.070083514 0.042040322
-0.084287584 -0.041059114 -0.033908434 0.082731396 -0.027284833 0.058560807 0.06608368 -0.055889774
-0.050928473 -0.023064265 -0.02914002 0.085048035 -0.090569384 0.045985743 0.06379346 -0.05849694
0.0012103078 -0.04076283 -0.08554503 0.04193487 0.027109547 0.047587223 -0.06802125 -0.06629259
-7.238009e-05 0.048379816 -0.08141489 -0.069645666 0.027878987 0.035440132 0.01608907 -0.014636106
0.074364275 -0.022667194 -0.05724336 0.009217145 -0.003463721 -0.0213765 0.028504211 0.06658003
0.03139952 -0.0067508165 -0.025110984 -0.06575728 0.017658466 -0.0356237 0.010931507 0.013628006
-0.006930913 -0.041773055 -0.07681669 -0.06819664 -0.008090727 0.006258125 -0.09078913 0.085648395
0.08274965 -0.0051623527 0.087216966 0.05385222 0.07563192 -0.04534006 -0.08081912 0.06882504
0.0037233108 -0.0757471 -0.003846806 0.053453267 -0.008608286 0.06528307 0.065818734 -0.0031068586
-0.052965242 -0.0139390435 -0.047778364 -0.0031806934 0.023004444 0.08979485 -0.025904967 -0.0025682345
0.045590807 -0.010774281 0.031342775 -0.057145193 0.027067238 0.014104007 0.00021085657 -0.0365071
0.06321645 -0.063951045 -0.034407657 0.058398787 0.052633364 0.012585436 0.0068130055 0.07869534

actor.2.bias f4 [128]
00000000: 6a1b 873d 46a4 f73c 0b40 99bd 4183 f0bc
00000010: 9452 7cbc ede1 643d 239a 963d bfbb a9bd
00000020: 9fa3 d5bb af74 993d abae e7bc c940 0dbd
00000030: 388d 55bd ef89 3e3c 12f8 763d 1ebe a03d
00000040: 92dd 90bd 55f4 833d 7d6b e23c 5550 23bd
00000050: 0595 f63c d165 5ebd 8047 b6bc ddbe 1dbb
00000060: 7905 1bbd 3152 a13d 36d2 84bd dc45 e83c
00000070: cfb7 203d 787a 193b 4e1d a83c db1e adbd
00000080: a452 debb bbc4 6f3b ee17 1b3d ac46 92bd
00000090: f0a5 1b3d 1b17 87bd af81 a4bc d160 9cbd
000000a0: 8bdf 383c e7f2 093d c6fe 78bd 58ed 7fbb
000000b0: f96a 4abb 4240 8bbc e1de 083d 45f5 063d
000000c0: e1c1 ad3c d61e 83bb 9019 a03c 605f 2a3c
000000d0: a4a4 f8bc 42bc 483d 9cf9 a1bd 7fc6 87bd
000000e0: 0d01 70bd 26cb 3ebd d9d5 cd3c 6731 54bd
000000f0: cd0e 79bd 3a73 88bd 3b96 a33d c711 db3c
00000100: 7493 22bd edeb 19bd 4113 123d 041d 90bd
00000110: db34 7ebd 1644 99bd 80dc e9bc 862c b03b
00000120: 03ad 803d 69a9 1ebb 0820 a5bd 8b67 363d
00000130: b4c5 013d 83c3 e03b 7382 2abd c9b2 94bc
00000140: c226 b2bd d027 9c3d 9a3e b53c 2ecd 0a3d
00000150: 2df9 ec3b 3038 14bd 710e a93c 4b2d 09bd
00000160: 4410 31bd c131 81bd 10b4 e2bc 18e4 b9bc
00000170: 1400 693d adb2 bcbb 4b02 8c3d f119 7f3d
00000180: 22ee b6bd 0247 9b3d 1caf 84bd 150b 833d
00000190: 3e6c 5b3d f216 b53d a284 97ba 7785 063c
000001a0: 491d 343d 8f35 b23d eccf 9abd d36a 113d
000001b0: ed1e 7b3d b7ec b93c 6ca6 56ba ef46 a43d
000001c0: 5057 b9bd f2da 013d 4db9 8f3c e839 9c3d
000001d0: b26e 43bb 7b9a 12bd 9e7d 2dbb 6798 e1bc
000001e0: 562f b53d 180b a9bc 7818 893d 3fb0 88bd
000001f0: 55f4 bfbc 1b27 aabd c211 683d 9196 d13c
0.06597026 0.030229699 -0.07482918 -0.029359462 -0.0154005475 0.055879522 0.07353618 -0.08287763
-0.0065197493 0.07492959 -0.02828153 -0.034485612 -0.05213663 0.011629566 0.060295172 0.07848762
-0.07073511 0.06443087 0.027639145 -0.039871532 0.030100355 -0.05429632 -0.02225089 -0.0024070062
-0.037847016 0.07877005 -0.06485407 0.028353624 0.039237794 0.0023418944 0.020521786 -0.08453151
-0.006784754 0.0036585766 0.037864618 -0.07142386 0.038000047 -0.06596204 -0.02008137 -0.07635654
0.011283766 0.033678915 -0.060789846 -0.003905138 -0.0030886515 -0.016998414 0.03341568 0.03294875
0.021210613 -0.0040014787 0.01954344 0.010398716 -0.030351944 0.04900766 -0.07908937 -0.06629657
-0.058594752 -0.046580456 0.025126385 -0.051804926 -0.06080513 -0.06662603 0.079876386 0.026741875
-0.039691404 -0.037578512 0.035662893 -0.07036784 -0.062062126 -0.074836895 -0.028547525 0.0053764014
0.06282999 -0.0024209863 -0.0806275 0.04453234 0.031682685 0.0068592443 -0.041628312 -0.018151658
-0.08698799 0.07624781 0.022124577 0.03388708 0.0072318525 -0.036186397 0.020636769 -0.03349046
-0.043228403 -0.06308318 -0.027673751 -0.022691771 0.05688484 -0.0057586045 0.06836375 0.0622806
-0.08932139 0.07581903 -0.06478712 0.06398598 0.053570025 0.08842267 -0.0011559913 0.008210531
0.04397324 0.08701622 -0.07559189 0.035502266 0.06130879 0.022695882 -0.0008188251 0.08021342
-0.09049857 0.031702943 0.017544413 0.07628232 -0.0029820618 -0.035791855 -0.0026472579 -0.027538491
0.08846919 -0.020635173 0.0669412 -0.06674241 -0.023431936 -0.0830824 0.05665756 0.025584491

actor.4.weight f4 [128, 128]
00000000: 23be 6dbd 5abf 74bd b6c5 6abd 4b66 8bbb
00000010: 4adf 35bc 1651 77bd 45be 513c 0cea cd3c
00000020: 1dbf 0f3d a95a 453a 89dd 393c ab80 21bc
00000030: 13f9 6bbd 3d13 8a3d 114f 4fbc 09cc 98bd
00000040: c728 473d e9ec a03d 5205 33bd 6fcb af3d
00000050: 33d7 083d 71d9 0abd ca2f 95bb f46c 603d
00000060: c504 cf3a b03e efbc d325 973c a4f8 4a3d
00000070: 7070 aa3d 5fb6 543d 5750 6abc 039d 4e3c
00000080: a124 9cbc 74de 95bd a603 993d c063 adbd
00000090: da83 64bd 62f4 603d 66a3 353d fbdc a8bd
000000a0: 1951 cf3c 8d73 b6bd cd45 5f3d 0e72 2a3d
000000b0: fb53 0bbd 91f5 8dbd 7b71 9dbd 75b3 9dbd
000000c0: 25ea a43d 69df 8fba 522f 863c ae84 a43d
000000d0: f19f 163a 4180 86bd 8dc2 9f3d c78a cd3b
000000e0: 7576 61bb 1056 34bc 0f0a a5bb b175 94bd
000000f0: 7091 fbbc d3d4 9e3d 632a 26bc 7c0a e83c
00000100: 31f4 3ebc 8b72 b9bd 6775 913b d380 9abd
00000110: 30ab 9f3d e2bf 57bd 02f1 853c ebd7 49bd
00000120: 39db 3d3d cf13 083d 1be6 993d 10df 893d
00000130: 0c3e 453d a4d9 87bd 7c05 3f3d 429a d9bc
00000140: 0553 6e3d 4244 62bb d642 f03b b654 aabd
00000150: dca8 b53d 831f 36bd fb9e 7fbc fa7a 603d
00000160: 6bfd 8dbc aac1 fb3c bd16 69bd 7488 33bd
00000170: f4e7 27bc 2059 a13a 0eff c8bc aebc eb3c
00000180: 53ae 45bb a7c4 43bb 24e7 833d 9581 0ebd
00000190: 1cdf 9b3b b0f5 82bd aa66 8f3d a450 6cbd
000001a0: 55f7 953d 6c28 3d3d b4af adbc b432 cfbc
000001b0: 9499 983d 3600 07bd 5fd0 2cbd 5282 243d
000001c0: 99c2 a7bd 5c09 2bbd 1743 ab3d 68e9 9abd
000001d0: 0a08 94bd b17c 1bbd b82f 3f3d d120 0ebd
000001e0: 508e 1fbc 5cbe aebd 07d2 213d ec56 0abd
000001f0: 7c00 353d 18fa e5bc d099 1fbd 3e61 6cbc
00000200: f610 78bd a235 403d fb3a 33bd 5ec0 11bd
00000210: 83ce 183b 2ec3 863d 7be8 633d 17ca 923d
00000220: db52 4fbd 8dc8 f0bc a4f5 8e3d 925c 6f3d
00000230: 08b9 c0bc 2abc 9cbd 0b04 49bd 705b 8c3c
00000240: 8286 4cbc 2e09 afbc da58 2dba a570 9fbd
00000250: 2a35 3a3d c197 89bd 8c32 053b 3312 933b
00000260: 15f2 22bd dcbb 8a3d eb00 083c 6044 a03d
00000270: 43bc 1b3d 264a 863d 0b3f 9fbd 2862 783d
00000280: 7cea c1bc 2f63 24bd 8900 e7bc 82fb 833d
00000290: 01fb 2c3c 2213 fe3c a0a0 aebd 7f47 d0bb
000002a0: f1e4 a43b a2a1 d5bc 2bde 87bd c6dd a1bd
000002b0: 8986 d13b b7d9 3fbd e4de 6f3d 3bb8 cdb9
000002c0: fa96 303d 7d69 9d3c 959a 5b3c bb35 09bd
000002d0: 1065 b2bd 28e6 92bb 974a adbc 79f2 b7bc
000002e0: 9569 b13d 8dcc 8c3d 56ef ee3b b664 8d3d
000002f0: 35ee ebbc 1a6b 59bd d0ca 713c 3129 023d
00000300: 4f0a 36bd a9e2 0b3c 08ef 273d f41d 713d
00000310: 600b 773d 7980 95bc 4749 813d 330c 8ebd
00000320: 7c1f e13c 07f8 9b3d 8c12 cabc 24e8 bb3c
00000330: 32a4 ecbc b235 1e3c e42a b6bd 4371 af3c
00000340: 6dd1 90bd 9c88 85bd 4bbe 7c3d 77b6 38bd
00000350: 5964 91bd 36f4 8c3d 34ee a7bc 6981 92bd
00000360: 3199 533d 5f61 873d 3ceb 31bd 1078 dfbc
00000370: dc41 35bd 682d 1dbd 71fe 103d 4801 a3bd
00000380: a28b 343d 591e deba 4b62 bbbd d9ff 57bd
00000390: 4907 e13c 2e1a f43c e90c d2bc 0bde 973d
000003a0: 2b7d 363c ae7e 37bc cee8 9cbd 862e 003d
000003b0: 40ca 903d cedf 4a3d 5502 8ebd 98f8 96bd
000003c0: 1f44 a6bd f111 043d 1bdb 2e3d 8518 933d
000003d0: 993f b13c 4e4b c33b 8cb2 4d3d b8e5 68bd
000003e0: bada 843d a346 25bd c77f 813d 444c e3bc
000003f0: 5d3e b2bd 8414 14bd e73d 6cbd 8f8d 9bbd
-0.058042657 -0.0597528 -0.057317458 -0.0042541376 -0.0111006 -0.060380064 0.012801711 0.025136016
0.03509437 0.0007528463 0.011344322 -0.009857337 -0.057610583 0.06741951 -0.012653128 -0.074607916
0.048622873 0.07857687 -0.043706246 0.08583724 0.033408355 -0.033898775 -0.004552816 0.054791406
0.0015794268 -0.029204696 0.018450653 0.04955353 0.08322227 0.051931735 -0.014301381 0.012610677
-0.019060435 -0.0731782 0.07471399 -0.084662914 -0.055789806 0.05492056 0.044345282 -0.08245274
0.025307225 -0.08908758 0.054509927 0.041612677 -0.034015637 -0.06931604 -0.0768766 -0.07700244
0.08052472 -0.0010976616 0.016379986 0.08033119 0.0005745879 -0.06567431 0.078007795 0.006272647
-0.0034402881 -0.011006847 -0.0050365995 -0.0724901 -0.030708998 0.07755437 -0.010141942 0.028325312
-0.011654899 -0.090550505 0.0044390443 -0.075441025 0.07796323 -0.052673228 0.016350273 -0.04927818
0.046351645 0.033222016 0.07514592 0.06731999 0.048154876 -0.066333085 0.04663609 -0.026562814
0.058184642 -0.0034525548 0.007332186 -0.083169386 0.08870098 -0.044463646 -0.015601869 0.05480478
-0.017332753 0.030731995 -0.05690645 -0.043831304 -0.010248173 0.0012309887 -0.024535682 0.028776493
-0.003016372 -0.0029871853 0.06440571 -0.034791548 0.0047568213 -0.063945174 0.070020035 -0.057694092
0.073225655 0.046181127 -0.021201946 -0.025292732 0.07451168 -0.032959186 -0.042190906 0.040163346
-0.081914134 -0.041756973 0.08362406 -0.0756405 -0.07228096 -0.037960712 0.046676368 -0.034699265
-0.00973852 -0.08532402 0.03950694 -0.0337743 0.044189915 -0.028073356 -0.038965046 -0.014427481
-0.06056305 0.04692615 -0.04375742 -0.035583846 0.002331645 0.06580196 0.055641633 0.07167452
-0.050616127 -0.029392505 0.06980446 0.05843789 -0.02352573 -0.07653077 -0.04907612 0.017133445
-0.012483241 -0.021366682 -0.0006612666 -0.07785157 0.045460857 -0.06718398 0.0020324318 0.0044882535
-0.03978165 0.067741126 0.008301 0.078255415 0.038021337 0.065571114 -0.07775696 0.060640484
-0.023671381 -0.04013365 -0.028198497 0.06444456 0.010557891 0.031014983 -0.085267305 -0.0063561792
0.0050321748 -0.02607805 -0.06634172 -0.07903628 0.0063942117 -0.04683849 0.058562174 -0.0003923791
0.043112732 0.01921534 0.013403554 -0.033498507 -0.087106824 -0.004483003 -0.021153731 -0.022454487
0.08662716 0.068749525 0.0072917147 0.06903975 -0.02880011 -0.053080656 0.014757827 0.031777564
-0.044443425 0.008537927 0.040999442 0.058866456 0.060313582 -0.018249737 0.06312805 -0.069359206
0.027480833 0.07615667 -0.024667047 0.022937842 -0.028886888 0.009656357 -0.088948995 0.021416312
-0.07071195 -0.06520197 0.061704915 -0.045095887 -0.07099218 0.06882517 -0.020499326 -0.07153589
0.051659767 0.06610369 -0.043437228 -0.02727893 -0.04425226 -0.03837338 0.035398904 -0.07959229
0.044078477 -0.00169463 -0.09149607 -0.05273423 0.027469294 0.02979764 -0.025640922 0.07415398
0.011138241 -0.011199636 -0.076615915 0.03129437 0.07069826 0.049529843 -0.069340385 -0.07371634
-0.08118462 0.032243673 0.042689424 0.07182411 0.021636771 0.0059599048 0.050219104 -0.056859702
0.06487031 -0.040350568 0.063232 -0.027746327 -0.08703301 -0.036152378 -0.057676222 -0.075953595

actor.4.bias f4 [128]
00000000: ce28 223c ec56 b8bd 7718 50bd 5858 2f3d
00000010: 0ea6 283d 61be 2ebc bf89 09bd f106 173d
00000020: 2ae8 66bd 94b2 b43c bc09 803d 41f1 a9bc
00000030: dac2 75bd 9fea d73c 182f bdbc a3ec acbd
00000040: 5ce1 4cbd b586 52bd a675 813c 20eb 1dbd
00000050: 6e4c 7cbc a1f4 863c 6e8a eabc dc21 dabc
00000060: 12e7 1c3d 3635 9b3c 737a f8bc 35aa 913d
00000070: 4f7f 083d 22d0 68bc c3a5 87bd 08cd 92bd
00000080: 1fcd 91bd 8157 3a3c 4f60 bebc 7163 56bd
00000090: 8dfc 063c 477e 3fbd f569 eabc 70a6 28bd
000000a0: 80d4 033d e2d2 e7bb 29ef aebd b45a 66bd
000000b0: 1468 343d 9791 42bd 5b0d 86bd 6919 a23d
000000c0: da7a 063d cada e6bc efe1 fdbc cc87 393d
000000d0: a380 a93d cd36 8bbd 53d1 e0bc 6845 29bb
000000e0: ed49 713d dd4f 82bd 4683 94bd 6c44 b2bd
000000f0: b159 2f3d f8a5 babb 92dc 2f3d 68a3 ab3d
00000100: c861 25bd cf7a 56bd b7ae d3ba 063c 2bbd
00000110: a6d6 14bb f630 44bd 967d 96bc 777d 35bd
00000120: e008 203d 8394 9dbc 0098 9f3d 6dfe 9b3d
00000130: 207c 90bd f214 093d bc74 18bd 1eb0 84bd
00000140: 4794 fbbc 39f0 c13c fed7 74bd 6410 de3c
00000150: 8094 a1bc daf1 73bd c685 a2bc 5ed2 a93d
00000160: 631c 8e3d 7626 40bc 01e9 ddbb f530 8b3d
00000170: baaa 32bd 19a0 dc3c ed31 80bd 0831 7dbd
00000180: e7e1 bdbd e215 b7bc 75de 65bd dd63 ccbc
00000190: af4c 503b dfbb 893c 67a8 773c f992 aabd
000001a0: 9448 a03d 7833 39bc 6cbd 583c 0b75 a93d
000001b0: ea11 a2bc 65be 953c f2bc c83c 684d 8ebc
000001c0: d27b 31bd e982 d63c 86e8 8a3c c962 2a3d
000001d0: 5c66 323d 2ab2 0cbd 3b86 983d 9c92 f43b
000001e0: b5e2 8f3d 059f 8d3d 1795 303d bc55 a03d
000001f0: 19fc 8fbc bb49 dbbc 6804 f9bc a1e5 0f3d
0.009897424 -0.09000954 -0.05080458 0.04280886 0.041173987 -0.010665507 -0.03357863 0.036871854
-0.056373753 0.022057809 0.06251857 -0.020744922 -0.060000278 0.026356993 -0.023093745 -0.08443572
-0.050019607 -0.051397998 0.01580317 -0.03855431 -0.015399082 0.01647407 -0.028630462 -0.026627474
0.038306303 0.018946271 -0.030331826 0.071125425 0.033324536 -0.014209779 -0.066234134 -0.07168013
-0.07119202 0.011373402 -0.023239283 -0.05234093 0.008238924 -0.046751287 -0.028614977 -0.041174352
0.032185078 -0.0070746997 -0.0854171 -0.056238845 0.04404457 -0.047502127 -0.06545516 0.07915003
0.032832004 -0.028180499 -0.030991523 0.04529552 0.08276489 -0.06797562 -0.027443564 -0.0025828723
0.05890839 -0.06362889 -0.07251601 -0.08704457 0.042810146 -0.0056960545 0.04293496 0.08380777
-0.040376455 -0.052363213 -0.0016150092 -0.04180529 -0.0022710948 -0.047898255 -0.01837043 -0.044309106
0.039070964 -0.019235855 0.077926636 0.07616887 -0.07054925 0.03346724 -0.0372207 -0.06478904
-0.030710353 0.023674117 -0.0597763 0.027107425 -0.01972413 -0.05955682 -0.019839179 0.082920775
0.06939008 -0.01172792 -0.006772161 0.06796447 -0.04361985 0.02693181 -0.062595226 -0.061814338
-0.09271603 -0.022349302 -0.056120355 -0.024949962 0.0031783988 0.016813217 0.015115834 -0.08328814
0.07826343 -0.011303775 0.013228755 0.08274277 -0.019783933 0.018279264 0.024504159 -0.017370895
-0.043330975 0.02618547 0.016956579 0.041598115 0.04355465 -0.034349598 0.074474774 0.0074637663
0.07025663 0.06915096 0.043110933 0.078288525 -0.017576264 -0.026768556 -0.030397609 0.0351311

actor.6.weight f4 [9, 128]
00000000: 65ac 8c3d 4719 a43d e2b8 a0bc e1a5 a3bd
00000010: 2e9c 7dbd 70cd b037 dbb5 a2bd 51e5 953c
00000020: 2a05 9c3d 1c70 6f3d 705b 51bc 050f b33d
00000030: c3a3 30bd 62b4 a1bd 394f d9bb 647a afbd
00000040: 60d9 9cbd bb99 823d 49e8 a1bd cdda 5bbd
00000050: 2563 083d 59b7 313c 6789 8a3d 09a8 6b3d
00000060: 012a 17bd ba66 a73d 6e05 9abc d0fc 70bd
00000070: 0735 893d 883f 0b3c ae22 e43c 2495 b43d
00000080: 2a89 2abd 78c0 1fbc 67cf 10bd 7bbe e33c
00000090: 6ce7 813d 4485 08bd bfb3 b53d 7363 a73d
000000a0: 2494 e4bb 042a 7b3c f883 fb3b 74c9 423d
000000b0: 9cac 8f3d 6630 64bd b0e3 5e3d 9c92 7f3d
000000c0: bf96 963d a86e 90bd ef9c 9e3c 5ac0 233c
000000d0: 0605 a5bd 862e b6bc 5020 cb3d a315 a1bb
000000e0: 370c b1bd 39ce 493d bdad 8ebd ff98 59bc
000000f0: a34f 3cbd fb02 ac3b f628 a5ba 9896 403d
00000100: 1a89 a5ba 3792 ba3d 8e6c 00bc e4b9 95bd
00000110: e356 b03c 4189 4ebd e74c 543d 46ed ae3d
00000120: b4f3 f53c 9d3c a03d 9bae 883c 25cb 44bd
00000130: 5c1e 9f3d 7439 2a3b b3cc d93b f810 a4bd
00000140: b7f1 363d e4ba 2a3d 1ca4 153d 4968 4f3d
00000150: a98a 8bbd 56c1 8d3d 4af0 b7bd 5138 2e3b
00000160: d39d 22bd f14a 61bd 43ab 3f3d 91e0 a13d
00000170: 0313 e8bc 7809 3a3d b02d 66bd dd92 5abd
00000180: 42f7 c73c 3fd8 58bc 5fef 643b 7abf 903c
00000190: 7f00 bbbc bdf3 c4b9 b81d 3f3d 9fc4 2f3d
000001a0: fbd4 9ebc 6d8d 893b 6214 0fbd 5abd 313c
000001b0: 24f9 9dbd c702 b03d 57c9 163d e72f 583d
000001c0: 224d 343d 5678 803c 3a71 283a 5e9f 8dbc
000001d0: 025b 49bc 69b0 333c 6767 463d 3a4f 9abd
000001e0: 7cae dd3c 20c8 88bd 36e8 80bc 42f3 a7bd
000001f0: 4552 773d b04f a93c e7ad b0bd d66b 9abd
00000200: 0037 5e3c 683b b6bd 04ec 3bbc 05fb 063d
00000210: ef39 ae3c 25eb 953d 4ce1 98bb 2e5c fabc
00000220: 5370 8ebd 77bb b23d db6b a93d 44b9 673d
00000230: 1685 973d cf60 3bbd 042e 973d a3b9 763d
00000240: 6fc1 f33c 6206 7f3d 0efa 8bbd e433 55bd
00000250: 6848 c6bc 60ba a83d 058b 1e3d 77ae 483d
00000260: 8906 3d3d eb44 223d 6002 6d39 69eb a43d
00000270: a31f 853d a156 aebd 4878 a13c 7dfb 5fbd
00000280: 8b7c 5d3d e42e e33b 2361 843d 655a 813b
00000290: b3dc 403d e4ed 143c 28f6 7cbd 6eca 6abd
000002a0: 5ac1 973d 9ce0 d93c ca28 a23d aa43 8cbc
000002b0: a6ea 953d b79c 3e3d bbca 47bc 4761 80bd
000002c0: a7a7 69ba 974c 5ebd a3e6 81bd 616b 533d
000002d0: 16d4 983c 6117 abbc 4f74 0fbd 1d54 b23d
000002e0: 4bbc 6e3d d48d 7a3d 0039 a6bd b460 1d3c
000002f0: e359 24bb 1088 40bb e1e2 8c3d e519 023d
00000300: e747 4f3d c79c a33d 06a4 3cbc 6121 02bd
00000310: d53e a7bd c4bd 983d bf37 c2bb 503f 313d
00000320: d544 283d ba65 8b3d 8926 58bd 8cae e4bb
00000330: a00f 8d3d 7aa0 a23c d711 9c3d 4ee1 e63b
00000340: e884 47bd c300 77bd ce92 08bd d9ab a63d
00000350: 943d 10bc d54e 8abd 0845 b6bc e196 53bd
00000360: eecd 6e3c 3d34 a5bd d88b 51bb 2535 773b
00000370: a6aa d2bc 8b17 563d 171a 89bc ac46 a2bd
00000380: 9814 d23b 631d c23c ac8d 6abc 91cb 8c3d
00000390: beb6 353c 0e76 91bc 8689 91bc d99b 77bc
000003a0: 8614 1f3d 34a5 153d e3a2 223c 3c57 55bd
000003b0: ff33 813d f34f 1abd 650a 223d 2fe4 67bd
000003c0: 3850 a73d c707 5cbd 29a1 133d 3567 63bd
000003d0: da7a 5a3d b7de b6bd 3264 a5bd 5eac c63b
000003e0: bdd3 0fbd a67f 603c eea8 393d 1230 6ebd
000003f0: 5323 84bc 7874 8c3d 845a 9bbd 4ef2 4abd
0.06868819 0.08012634 -0.019619409 -0.07990623 -0.061916523 2.10765e-05 -0.079448424 0.018297823
0.076181725 0.058456525 -0.012778148 0.08743099 -0.043124925 -0.078957334 -0.0066317585 -0.08568266
-0.076586485 0.06376978 -0.07905633 -0.05367546 0.033297677 0.010846936 0.06764489 0.057533298
-0.036905292 0.081738904 -0.018801417 -0.05883485 0.06699567 0.008499034 0.027848568 0.08817509
-0.041634716 -0.009750478 -0.035354044 0.02780079 0.06342968 -0.033330217 0.088721745 0.08173265
-0.0069756676 0.0153298415 0.007675644 0.047555402 0.070153445 -0.05571022 0.05441636 0.062395677
0.07352971 -0.07052356 0.019361941 0.009994591 -0.08057599 -0.022238981 0.099182725 -0.0049159094
-0.08644908 0.049268935 -0.06966732 -0.013281106 -0.045974385 0.0052493787 -0.0012600708 0.047018617
-0.001262936 0.091099195 -0.007838381 -0.073108464 0.021525806 -0.050423864 0.051831152 0.0854135
0.030023433 0.07824061 0.01668482 -0.048045296 0.077694625 0.0025974186 0.0066467165 -0.08011049
0.04466411 0.04168214 0.03653346 0.050636563 -0.06813557 0.069216415 -0.089813784 0.002658386
-0.039701294 -0.05500311 0.046794187 0.07904161 -0.028329378 0.045419186 -0.056195915 -0.053362716
0.024409894 -0.013235151 0.0034932715 0.017669428 -0.022827385 -0.00037565632 0.0466592 0.04291212
-0.019388666 0.0041977675 -0.034931548 0.010848368 -0.077135354 0.0859428 0.036813106 0.05278006
0.044018872 0.01568238 0.00064255635 -0.017287906 -0.012289764 0.010967352 0.048438456 -0.075346425
0.02706074 -0.06678796 -0.015735727 -0.082006946 0.060381193 0.02066788 -0.08626919 -0.07540099
0.013562918 -0.088980496 -0.011469845 0.032954235 0.02126786 0.07320241 -0.0046655294 -0.030561533
-0.06955018 0.08727162 0.08272525 0.056573167 0.07398431 -0.04574662 0.07381824 0.06023563
0.029755322 0.062261946 -0.068348035 -0.05205144 -0.024204448 0.08238673 0.038706798 0.048994508
0.04614881 0.039616507 0.00022602966 0.080527134 0.06500175 -0.08512617 0.019710675 -0.054683197
0.05407385 0.00693308 0.0646384 0.0039475434 0.047085475 0.009089921 -0.06175819 -0.05732196
0.07409926 0.02659636 0.07917936 -0.017122108 0.07320146 0.046536174 -0.012194331 -0.06268554
-0.0008913227 -0.05427226 -0.063428186 0.051616076 0.018655818 -0.020885171 -0.03502303 0.087074496
0.05828504 0.061170414 -0.08116341 0.009605575 -0.002507799 -0.0029377975 0.06879211 0.031762976
0.05060568 0.07988887 -0.011513716 -0.031770114 -0.08166281 0.0745807 -0.0059270556 0.04327327
0.04108127 0.06806512 -0.052771125 -0.0069788154 0.06887746 0.019851912 0.0762059 0.0070459014
-0.048710734 -0.06030346 -0.03334313 0.08138246 -0.008803744 -0.06753317 -0.022249714 -0.05165756
0.014575465 -0.08066604 -0.0031974223 0.0037720886 -0.025716137 0.052268546 -0.016736073 -0.07923636
0.0064111464 0.023695653 -0.014316004 0.06874765 0.011090932 -0.017756488 -0.017765772 -0.015112841
0.038837932 0.036534503 0.0099265305 -0.052085146 0.063087456 -0.0376739 0.039560694 -0.056614097
0.081695974 -0.053718355 0.036042366 -0.055518348 0.053339817 -0.08929198 -0.08075751 0.0060630282
-0.03511404 0.013702309 0.04532712 -0.058151312 -0.016130125 0.06858152 -0.07585624 -0.049547486

actor.6.bias f4 [9]
00000000: 6263 e5bc 5516 2c3b 109e 8fbd db7d 19bd
00000010: cf23 6bbc 8fe3 9d3d 8438 f53c 7c3d a8bd
00000020: ae4a 8d3b
-0.028001491 0.0026258428 -0.0701257 -0.03747354 -0.014351799 0.07709419 0.029934175 -0.08214852
0.004311881
