mappo_algorithm/checkpoints2/mappo_critic_num_agent_exp_3_run_0_lumberjacks.pth (torch, 28430 bytes, 5 tensors)

fc1.weight f4 [64, 32]
0	0xbd8ff790	-0.07029641
1	0x3e12daff	0.14341353
2	0xbda4ce3b	-0.08047148
3	0xbefefe3a	-0.49803334
4	0xbe9dd337	-0.30825207
5	0xbe6e0cc6	-0.2324706
6	0x3e3ae82d	0.1825263
7	0x3da7ae2a	0.08187516
8	0xbe8ce733	-0.2752014
9	0xbe41befc	-0.18920511
10	0xbe62cca8	-0.22148383
11	0x3e36e920	0.17862368
12	0x3e9de07b	0.30835328
13	0xbe7225bd	-0.23647209
14	0xbe84f3d8	-0.25967288
15	0x3e4c4284	0.19947249
16	0xbc40e14d	-0.011772466
17	0x3cf3a508	0.029741779
18	0xbe01b600	-0.12667084
19	0xbdda8c71	-0.10671318
20	0xbd2219c9	-0.039575372
21	0xbd880a47	-0.06642585
22	0xbcb6ac72	-0.022299025
23	0xbe0efad2	-0.13962868
24	0xbdfb0a16	-0.12257783
25	0x3caea7fd	0.021320337
26	0x3cd4fdac	0.025999866
27	0xbe0c0fec	-0.13677949
28	0xbdfd8480	-0.12378788
29	0xb9a0c822	-0.0003066669
30	0x3d37df56	0.044890724
31	0xbd46a086	-0.04849293
32	0xbe8df4d6	-0.27725857
33	0x3db58779	0.0886373
34	0x3aa173dc	0.0012317854
35	0x3cac3d98	0.021025464
36	0x3d2edf78	0.042693585
37	0x3e19c5f5	0.15016921
38	0xbe912091	-0.2834516
39	0xbd202eb5	-0.039107043
40	0xbd597f6d	-0.05310004
41	0xbd519c8a	-0.051174678
42	0x3cdda406	0.027055752
43	0x3cb36feb	0.021903953
44	0xbccf0336	-0.025270086
45	0xbb3e5bd2	-0.0029046428
46	0xbd093100	-0.033493996
47	0xbc1f3a49	-0.009718486
48	0xbc6d8a41	-0.014498294
49	0x3e13a3ff	0.14418028
50	0x3e465eea	0.19372144
51	0xbfdc3d68	-1.720624
52	0xbcc0fc37	-0.023557765
53	0x39ce1b24	0.00039311603
54	0x3dd2fb92	0.103018895
55	0x3e2431b4	0.16034585
56	0xbd9a7700	-0.07542229
57	0x3dcf1354	0.101111084
58	0xbd856dcd	-0.065150835
59	0xbd5b4d40	-0.05354047
60	0xbd45c0df	-0.04827964
61	0x3a188d99	0.00058194395
62	0x3af59481	0.0018736274
63	0xbb42ccdc	-0.0029724156
64	0xbdb4d3b3	-0.08829441
65	0x3d972e07	0.07381826
66	0xbd5752bd	-0.05256914
67	0x3ede32c1	0.43398097
68	0x3e92128d	0.28529778
69	0x3eb7c612	0.35893303
70	0x3e601e6d	0.21886607
71	0x3e82795a	0.2548321
72	0x3e3db48a	0.18525901
73	0xbe002dc5	-0.1251746
74	0xbd33a76b	-0.043860834
75	0x3c6e2f33	0.01453762
76	0xbedd3748	-0.4320624
77	0xbee76ca5	-0.45200077
78	0xbeb4ff74	-0.35351145
79	0xbe38f410	-0.18061852
80	0xbe0b255b	-0.13588469
81	0xbe3aba49	-0.18235125
82	0xbdd68ab5	-0.10475675
83	0xbde0122b	-0.10940965
84	0xbdd6bedd	-0.10485623
85	0xbe228d3e	-0.15874192
86	0xbd617df9	-0.055051778
87	0x3bac4a43	0.005257876
88	0xbdaf5964	-0.08561972
89	0xbdda5f8c	-0.10662755
90	0xbdad8482	-0.084725395
91	0xbd880b56	-0.06642787
92	0xbdbffaf5	-0.09374038
93	0xbe260101	-0.1621132
94	0xbdaa254b	-0.08307894
95	0xbd7d0cc6	-0.06177976
96	0x3d9c804e	0.0764166
97	0x3d4509ec	0.048105165
98	0x3dab41b6	0.08362143
99	0x3d8182de	0.06323789
100	0xbc9e4137	-0.019318206
101	0x3bbbe73e	0.0057343533
102	0xbc16982d	-0.009191555
103	0x3e15ca11	0.14627863
104	0x3d3e6549	0.04648331
105	0xbd19ad02	-0.03751851
106	0xbcb2d2e3	-0.021829074
107	0x3e4c80a7	0.19970952
108	0x3e04886d	0.12942667
109	0x3ca8accf	0.020590214
110	0xbddda66e	-0.108227596
111	0x3e3fa820	0.18716478
112	0xbda52d61	-0.08065296
113	0xbc3dad18	-0.011576913
114	0x3cfb0e0b	0.030646345
115	0x3d4f0885	0.050545234
116	0xbd135b92	-0.035976
117	0xbd92c20e	-0.07165919
118	0xbce42b42	-0.027852658
119	0xbccfba17	-0.02535729
120	0xbc671e66	-0.014106369
121	0x3d86f787	0.06590181
122	0x40169ac0	2.3531952
123	0xbdd4ab8e	-0.10384284
124	0xbdaf7e1c	-0.08568975
125	0xbde08081	-0.1096201
126	0xbdb939fa	-0.09044261
127	0xbe32a640	-0.17446232
128	0xbbabfa4e	-0.0052483445
129	0x3d338dba	0.043836333
130	0xbab9ceb6	-0.0014175985
131	0x3e9d8829	0.30767944
132	0x3e9e62c9	0.30934742
133	0x3e9467f3	0.28985557
134	0x3e5b26b3	0.21401481
135	0x3e80a68b	0.25127062
136	0x3ebbe248	0.36696076
137	0x3e8f1694	0.27946913
138	0x3e57d8f7	0.2107886
139	0x3d5289b3	0.05140085
140	0x3db5d22c	0.08877978
141	0x3e3e25a6	0.18569049
142	0x3e212fb4	0.15740854
143	0x3d5a537f	0.053302284
144	0xbc5f5e31	-0.013633297
145	0xbd0ed000	-0.034866333
146	0xbbe0ae1a	-0.006856692
147	0xbcfaac7a	-0.030599821
148	0xbd26b168	-0.04069653
149	0x3d12a076	0.03579756
150	0x3d50dea0	0.05099356
151	0xbca5d51a	-0.020243216
152	0x3ed872ce	0.4227509
153	0xbe159f2e	-0.14611503
154	0x3e9efee1	0.31053832
155	0xbcb6c287	-0.022309555
156	0x3ee5c350	0.44875574
157	0xbe325bde	-0.17417857
158	0xbce4dc08	-0.02793695
159	0x3ebd7eb2	0.37010723
160	0x3d4aa6f6	0.049475633
161	0xbd101b50	-0.035182297
162	0xbd6a6eb3	-0.057234477
163	0xbd6a48fa	-0.057198502
164	0xbe3c8bd6	-0.18412718
165	0xbdade30b	-0.08490571
166	0x3d3baf4d	0.045821477
167	0x3d703780	0.05864668
168	0x3d30ca02	0.0431614
169	0x3dcc6cdd	0.099817015
170	0x3c89d76a	0.01682635
171	0x3e09b63c	0.13448423
172	0x3e08a6a0	0.13344812
173	0xbd4e0035	-0.050293166
174	0xbd8682ab	-0.06567892
175	0x3dbcd4d1	0.09220279
176	0x3d79c76d	0.060981203
177	0xbe1b7de8	-0.15184748
178	0xbf095976	-0.5365213
179	0xbe3f08e2	-0.18655732
180	0x3bdea422	0.0067944685
181	0xbd88bb1c	-0.06676313
182	0xbe06f502	-0.131794
183	0xbdeef62e	-0.11668049
184	0x3da2eff6	0.07955925
185	0x3df2822c	0.118412346
186	0xbe521790	-0.20516801
187	0xbee8e8bd	-0.45490065
188	0xbd704f45	-0.058669347
189	0xbf0f83ff	-0.56060785
190	0xbee3b9b3	-0.44477615
191	0x3e8d75a4	0.27628815
192	0x3d73c88b	0.059517425
193	0xbe3b75f9	-0.18306722
194	0xbe033a64	-0.12815243
195	0xbcde2f17	-0.027122064
196	0xbd6837f5	-0.05669399
197	0xba394308	-0.00070671784
198	0x3d710fd2	0.058852978
199	0x3d199de5	0.037504096
200	0xba6cdaf9	-0.0009035315
201	0xbc77fdf9	-0.015136235
202	0x3daeab12	0.08528723
203	0xbd9145fd	-0.07093427
204	0xbd9f8129	-0.07788307
205	0xbded8227	-0.1159709
206	0x3cb713e3	0.02234835
207	0xbdcb83be	-0.09937237
208	0x3d4186ea	0.047247805
209	0x3f4be974	0.79653096
210	0x3e06f8dc	0.1318087
211	0x3dcad8b9	0.09904618
212	0xbaa8fb33	-0.0012892246
213	0x3d6a9941	0.05727506
214	0xbd39a94c	-0.04532747
215	0x3d8a1846	0.06742911
216	0x3e092d5c	0.1339621
217	0xbbd3a0a3	-0.0064583584
218	0xbe03d1de	-0.12873027
219	0x3e7e1913	0.24814253
220	0x3d8e0ce3	0.06936052
221	0xbe2723b4	-0.16322213
222	0x3efd4f59	0.494746
223	0xbe3c0b67	-0.18363725
224	0xbe84b75d	-0.25921145
225	0x3e01f795	0.12692101
226	0xbbbe1660	-0.005801007
227	0xbdfec1f2	-0.12439336
228	0x3e77a846	0.24185285
229	0x3dd47f1a	0.10375805
230	0xbc142440	-0.009041846
231	0x3b98dfcf	0.004665352
232	0x3da7d0f1	0.08194149
233	0x3d5eb8ee	0.05437558
234	0x3e32c08b	0.17456262
235	0x3ca9251a	0.020647574
236	0x3dfb36bb	0.122662984
237	0x3e357b90	0.17722917
238	0x3e6d81cc	0.23194045
239	0x3c9fee63	0.019522851
240	0x3d9cb239	0.07651181
241	0x3e8f648d	0.28006402
242	0xbd7346a3	-0.059393536
243	0x3e7c6329	0.24647202
244	0xbe0e92d9	-0.13923205
245	0xbd0616af	-0.032736477
246	0xbdeb7a08	-0.11497885
247	0xbd16b668	-0.03679505
248	0xbc69e2bc	-0.014275249
249	0x3e91b047	0.284548
250	0xbe8b42dc	-0.27199447
251	0xbe18e644	-0.1493159
252	0xbdcb7850	-0.09935057
253	0x3d21ceb8	0.039503783
254	0x3d233618	0.03984651
255	0xbd0e22bf	-0.034701105

fc1.bias f4 [64]
0	0x3c9ea68b	0.019366523
1	0xbd799681	-0.060934547
2	0xbd2f5ab9	-0.04281113
3	0x3c8891b0	0.016671032
4	0x3d1b888b	0.037972014
5	0xbd989345	-0.074499644
6	0xbd837011	-0.06417859
7	0x3db47eb0	0.08813226
8	0x3e3c404f	0.18383907
9	0x3c8ab515	0.01693205
10	0xbd9330a0	-0.07187009
11	0xbe084094	-0.13305885
12	0x3e0bfbf2	0.13670328
13	0x3b5582ad	0.003257911
14	0x3b22ffb8	0.0024871659
15	0x3cd0f644	0.025508054
16	0x3c264a57	0.01014956
17	0x3d9214a4	0.07132843
18	0xbc6696f5	-0.014074077
19	0x3cde509d	0.027138049
20	0x3dbda177	0.092593126
21	0x3ce4a211	0.02790931
22	0xbda4ad8d	-0.08040915
23	0xbd7da287	-0.061922576
24	0xbd2687e7	-0.04065695
25	0x3c0edda8	0.008719839
26	0x3e28d2ed	0.16486712
27	0x3d759c1a	0.059963323
28	0x3de08973	0.10963716
29	0xbd36f28f	-0.044664916
30	0xbe31cac2	-0.17362502
31	0xbd86b5cc	-0.06577644
32	0xbd5ac2ae	-0.053408317
33	0x3e277813	0.16354398
34	0xbde4b002	-0.11166383
35	0x3db58bc8	0.08864552
36	0xbeabf352	-0.33584076
37	0x3dcc6709	0.0998059
38	0xbe9bafad	-0.30407467
39	0x3d57ce34	0.052686885
40	0xbe53b183	-0.20673184
41	0xbe1fccf6	-0.1560553
42	0x3eaa4155	0.3325297
43	0x3d6309ea	0.055429377
44	0x3d01d9c3	0.031701814
45	0xbe0fe702	-0.14052966
46	0x3d2062c3	0.039156687
47	0x3ce06a67	0.027394487
48	0xbe4cb863	-0.19992213
49	0x3e713376	0.23554787
50	0x3d8fc338	0.07019657
51	0xbc3f438d	-0.01167382
52	0x3c24a1e1	0.010048361
53	0x3e086ba9	0.13322319
54	0x3d13ec55	0.036114056
55	0x3e19ef12	0.15032604
56	0x3dd309fe	0.1030464
57	0xbdbd2382	-0.09235288
58	0x3d88088d	0.06642256
59	0xbc27fd07	-0.0102531975
60	0xbe1096cc	-0.14120024
61	0xbd2de973	-0.042458963
62	0x3d4361e1	0.047700766
63	0xbd0608c6	-0.03272321

fc2.weight f4 [64, 64]
0	0x3cb5aa82	0.022176031
1	0x3e9a2983	0.30109796
2	0x3d1536da	0.036429264
3	0xbe2ac6fc	-0.16677469
4	0xbd36f34c	-0.04466562
5	0x3d312291	0.043245856
6	0xbde3ac6f	-0.111168735
7	0xbe6d9db2	-0.23204687
8	0xbe4ee445	-0.20204265
9	0xbd25b8b2	-0.040459342
10	0x3da06e41	0.07833529
11	0xbd587484	-0.052845493
12	0xbe69586c	-0.22787637
13	0x3dc0a5e2	0.0940664
14	0x3d1cb560	0.03825891
15	0x3ea5013b	0.322275
16	0x3e07a5e7	0.1324688
17	0xbe09e543	-0.13466363
18	0xbe255a63	-0.16147761
19	0xbccaeedb	-0.024772098
20	0xbdf24d02	-0.11831094
21	0xbccb3d07	-0.024809374
22	0xbc1eb6c4	-0.009687129
23	0x3e309bfc	0.17247003
24	0x3e314de8	0.17314875
25	0x3e4f3d6e	0.20238277
26	0xbcd7fbf3	-0.026365256
27	0xbe0c9e96	-0.1373237
28	0xbe43814c	-0.19092292
29	0x3e468687	0.19387256
30	0xbc4a81cc	-0.012360048
31	0x3e2cbc4d	0.16868706
32	0xbd601961	-0.054711703
33	0xbe51c39e	-0.20484778
34	0xbd3ef5fd	-0.04662131
35	0x3d42ddc1	0.047574762
36	0xbd1c61cb	-0.0381792
37	0x3d98ae5c	0.074551314
38	0xbdf83809	-0.12120063
39	0x3d99a9d4	0.07503095
40	0xbda7c248	-0.08191353
41	0x3e2e2943	0.17007928
42	0xbc8ddd3f	-0.017317412
43	0xbe5a1956	-0.21298727
44	0xbe311ad7	-0.17295395
45	0xbd075d59	-0.033048008
46	0xbeb57ad5	-0.35445276
47	0x3e594a59	0.21219768
48	0xbe06b555	-0.1315511
49	0x3e3f96b6	0.18709835
50	0xbe540732	-0.2070587
51	0x3ec73bb6	0.38912743
52	0xbee0a5c1	-0.4387646
53	0x3d5aa2d5	0.053377945
54	0xbde22387	-0.110419326
55	0xbe076448	-0.13221848
56	0x3dfa8a64	0.12233427
57	0x3e802fe8	0.2503655
58	0xbd902ef6	-0.07040207
59	0x3db0707c	0.08615205
60	0x3e1ff320	0.15620089
61	0xbe0c0f7d	-0.13677783
62	0x3c582d37	0.013194374
63	0xbe5d56b4	-0.21615106
64	0xbc81ef5f	-0.015861211
65	0xbec413dc	-0.38296402
66	0x3e9257c5	0.28582588
67	0x3df87282	0.12131216
68	0xbd3091ea	-0.043107904
69	0xbe6f6e7c	-0.2338199
70	0x3e18f7d8	0.14938295
71	0x3deea86e	0.11653219
72	0x3e6b63cd	0.2298729
73	0x3ec1f70c	0.37883794
74	0xbd850836	-0.06495707
75	0x3e118ad3	0.14213113
76	0x3daf8356	0.08569972
77	0xbd5df6ee	-0.05419057
78	0xbe7b01ec	-0.24512452
79	0xbe224fa0	-0.15850687
80	0x3e0c851c	0.13722652
81	0xbe90416f	-0.28174922
82	0x3e6dd5a5	0.2322603
83	0xbe7f0f00	-0.24908066
84	0x3db121fb	0.086490594
85	0xbe8e25a8	-0.27763104
86	0x3daabd4b	0.08336886
87	0x3b4feefd	0.0031728141
88	0xbd94e102	-0.07269479
89	0xbe54321b	-0.20722239
90	0x3e084a68	0.13309634
91	0x3e25d0e1	0.16192962
92	0x3e97373e	0.29534334
93	0xbe36538e	-0.17805311
94	0x3e657ec7	0.22411643
95	0xbdff676b	-0.12470897
96	0x3e45ba59	0.19309367
97	0xbcc099a1	-0.023510756
98	0xbc782bff	-0.015147208
99	0x3e0cd6bf	0.13753794
100	0x3e3e8afc	0.18607706
101	0xbd2b75e5	-0.04186048
102	0x3dfdfd36	0.12401812
103	0xbe6a2daa	-0.22868982
104	0x3e40e5fa	0.18837729
105	0xbe0849e0	-0.13309431
106	0xbe6382b2	-0.22217825
107	0x3ea6ff08	0.32616448
108	0x3d6c535d	0.05769669
109	0xbe60d083	-0.21954541
110	0x3ec16ad6	0.37776822
111	0xbb43e428	-0.002989063
112	0xbe1a36ab	-0.15059917
113	0xbdb2cd4d	-0.08730564
114	0xbe53366c	-0.20626229
115	0xbe0012f3	-0.12507229
116	0x3e20fbb5	0.15721019
117	0xbc4031d3	-0.011730629
118	0xbe26573d	-0.16244216
119	0xbe88c3aa	-0.2671178
120	0x3e0f659f	0.14003609
121	0xbdfcc6d1	-0.12342609
122	0x3ea18934	0.3154999
123	0xbd97d9a5	-0.07414559
124	0xbc5b3ab9	-0.0133807
125	0xbe32c562	-0.17458108
126	0x3e14111c	0.14459652
127	0x3de83fb1	0.11340273
128	0x3daff7f6	0.08592217
129	0xbddfc95a	-0.10927077
130	0x3e0ba6b5	0.13637812
131	0x3e32965a	0.17440167
132	0xbd137012	-0.03599555
133	0xbd982bc3	-0.07430222
134	0x3d4b22a7	0.049593594
135	0x3cf739d1	0.030178936
136	0x3e1f442f	0.15553354
137	0x3e0c4037	0.13696371
138	0xbe860a8e	-0.26179928
139	0x3e30669f	0.17226647
140	0x3bcc3095	0.0062313774
141	0x3eab22d8	0.3342502
142	0x3dbf01c2	0.09326507
143	0x3e2cb193	0.16864614
144	0xbde235ab	-0.110453926
145	0xbed62a52	-0.41829163
146	0x3ec6b33b	0.38808617
147	0xbeb0d6eb	-0.3453897
148	0x3dbe93ec	0.093055576
149	0xbe8346de	-0.25640005
150	0x3d912cf6	0.07088654
151	0x3df9bbee	0.12194048
152	0x3d7c128c	0.061541125
153	0x3ca45bef	0.020063369
154	0xbe8aa128	-0.27076077
155	0xbe279902	-0.16366962
156	0x3ea14863	0.3150054
157	0x3e12aefb	0.14324562
158	0xbdbcb477	-0.092141084
159	0x3e3c427b	0.18384735
160	0xbdc312be	-0.09525059
161	0x3d895f36	0.06707613
162	0x3e8296e0	0.25505733
163	0x3dec8ac4	0.11549905
164	0x3e7579bc	0.23972219
165	0xbe41c865	-0.189241
166	0x3d366c50	0.04453689
167	0xbde0f97b	-0.109850846
168	0x3e62cb34	0.22147828
169	0xbe39cd50	-0.18144727
170	0xbe0d6921	-0.13809635
171	0x3e7fa469	0.24965061
172	0x3df6a1b6	0.12042563
173	0x3e91d8a9	0.2848561
174	0xbe59053f	-0.21193407
175	0x3d25bd90	0.040463984
176	0xbc3a0a76	-0.011355033
177	0xbed67ae3	-0.4189063
178	0x3d9e5e6b	0.077328525
179	0xbf015e64	-0.50534654
180	0x3ddd540c	0.10807046
181	0x3e805c40	0.2507038
182	0x3ce70e90	0.028205186
183	0x3e4988ef	0.19681142
184	0x3e875b1d	0.264367
185	0xbe2c440a	-0.1682283
186	0xbe6c1278	-0.2305392
187	0x3e24e359	0.16102351
188	0xbd301c67	-0.042995837
189	0x3e87c465	0.26517025
190	0x3dd9f655	0.10642687
191	0x3d62f234	0.055406764
192	0xbe1653dd	-0.14680429
193	0xbea0fee0	-0.31444454
194	0x3e019bd1	0.12657095
195	0xbde7385e	-0.11290048
196	0xbe3349af	-0.17508577
197	0x3c7dd471	0.0154925445
198	0xbf2d627a	-0.6772839
199	0xbddbfe52	-0.10741867
200	0xbdd2a0b7	-0.1028456
201	0xbed11ecf	-0.40843818
202	0x3dda1bbc	0.10649821
203	0xbf0e0aaf	-0.5548505
204	0xbe70ba9b	-0.23508684
205	0x3e72a44c	0.23695487
206	0xbcdf9d80	-0.027296782
207	0x3dcdd1fa	0.100498155
208	0xbdadb781	-0.08482266
209	0x3f30d200	0.69070435
210	0xbef75804	-0.48309338
211	0x3ee01065	0.43762508
212	0x3d5db682	0.05412913
213	0x3d3975f7	0.045278516
214	0xbede165b	-0.4337643
215	0x3e78e78a	0.24307075
216	0xbd8fe4c6	-0.07026057
217	0xbedf8ee7	-0.43663713
218	0x3dca92e9	0.09891302
219	0xbdbbc0d2	-0.09167637
220	0xbe39b0e7	-0.18133889
221	0x3f1f03eb	0.62115353
222	0x3ef666d6	0.48125333
223	0x3d98aafd	0.074544884
224	0x3dcd4701	0.100233085
225	0x3e4a0c8f	0.19731353
226	0xbd828817	-0.06373613
227	0x3f99facf	1.2029666
228	0x3e49ea65	0.1971832
229	0x3d29f459	0.041492794
230	0xbe5a5aa8	-0.21323645
231	0x3ea15fa3	0.31518278
232	0x3e09cd40	0.13457203
233	0x3e9a8957	0.30182907
234	0x3c0abbc5	0.008467619
235	0xbe6ac6f0	-0.22927451
236	0xbd6b4f19	-0.05744848
237	0xbd15db18	-0.036585897
238	0x3da4268f	0.08015167
239	0x3df14a59	0.11781759
240	0xbdc36b46	-0.09541945
241	0x3e6ef37c	0.2333507
242	0xbf27a089	-0.6547933
243	0x3dcc7dc2	0.09984924
244	0xbd61bca0	-0.055111527
245	0xbf68c34f	-0.9092302
246	0x3dc5ca40	0.09657717
247	0xbe54d535	-0.20784457
248	0xbdeece42	-0.11660434
249	0x3ea351a4	0.31898224
250	0xbda4878e	-0.080336675
251	0xbe92f190	-0.28699923
252	0x3e8d734b	0.27627024
253	0xbd40ee95	-0.04710253
254	0xbddc44ac	-0.107552856
255	0xbe8d30b8	-0.27576232

fc2.bias f4 [64]
0	0xbc871fe4	-0.016494699
1	0xbe334be6	-0.17509422
2	0xbddf9b53	-0.109182976
3	0xbea14245	-0.31495872
4	0x3d050876	0.032478772
5	0xbde92983	-0.11384871
6	0xbe94ebae	-0.2908606
7	0x3dbd3b85	0.09239868
8	0x3d21bab3	0.03948469
9	0x3cf8723f	0.030327914
10	0x3dcf221e	0.10113929
11	0x3e4052cc	0.18781585
12	0xbe060fc9	-0.13091959
13	0xbe216199	-0.15759887
14	0xbe08d8f8	-0.13364017
15	0xbdb51056	-0.088410065
16	0xbe866efe	-0.26256555
17	0x3c797458	0.015225492
18	0x3e0a7a62	0.13523248
19	0xbd708e34	-0.058729365
20	0xbdfe61ae	-0.12420975
21	0xbbd569b1	-0.0065128435
22	0x3dff0f96	0.12454145
23	0xbdbaa0a5	-0.09112672
24	0x3cd5aff0	0.02608487
25	0xbe0e6d63	-0.13908915
26	0xbdbf6e5e	-0.09347223
27	0xbe4262b4	-0.18982965
28	0xbe0b436d	-0.1359994
29	0x3e47723c	0.1947717
30	0xbb061a0b	-0.00204623
31	0xbe0f4db3	-0.13994484
32	0xbe4850ae	-0.19562027
33	0x3cce17d4	0.025157847
34	0xbd2031d6	-0.039110027
35	0x3e447191	0.19183947
36	0xbc4e3710	-0.01258637
37	0xbe2ace05	-0.16680153
38	0xbd92858c	-0.07154378
39	0x3dce4aea	0.100728825
40	0x3d2b6c5b	0.041851383
41	0xbe255258	-0.16144693
42	0xbe46e839	-0.19424523
43	0xbe1290aa	-0.14312997
44	0x3e8b11bc	0.27161968
45	0x3e1979f5	0.14987929
46	0xbde2d152	-0.11075081
47	0x3e0c25f2	0.1368635
48	0x3e0b645f	0.13612507
49	0x3e61e5a9	0.22060265
50	0x3e26253a	0.16225138
51	0xbe650f95	-0.22369225
52	0xbe49e875	-0.19717582
53	0x3c052232	0.008125829
54	0x3e02873f	0.12746905
55	0x3df7daef	0.12102305
56	0x3e54d5c2	0.20784667
57	0xbe2bace2	-0.16765168
58	0xbd350d89	-0.04420236
59	0xbd15f68d	-0.036612082
60	0xbe455e23	-0.19274192
61	0x3e51cb0a	0.2048761
62	0xbcba3f64	-0.022735305
63	0x3def080c	0.11671457

fc3.weight f4 [1, 64]
0	0xbeba745e	-0.36416906
1	0x3f495d8b	0.7865836
2	0x3eaac7d1	0.33355573
3	0x3f06bf50	0.5263567
4	0x3e635693	0.22200994
5	0x3edf63c8	0.43630815
6	0x3e833a03	0.25630197
7	0xbf9410f6	-1.1567676
8	0x3f0a5407	0.54034466
9	0xbf4ed4df	-0.80793566
10	0xbe833b57	-0.2563121
11	0xbf0e2f00	-0.55540466
12	0x3e8088a4	0.2510425
13	0x3e9b1a5e	0.30293554
14	0x3ebada27	0.36494562
15	0x3f0419ff	0.51602167
16	0x3f2e6951	0.6812945
17	0x3f35395b	0.7079064
18	0xbf19d32b	-0.6008784
19	0x3ea7ea8f	0.32796142
20	0x3ef8bb46	0.48580378
21	0xbe7bd23f	-0.24591921
22	0xbf5ad9d9	-0.8548866
23	0x3ec22fc9	0.37927082
24	0xbe952247	-0.29127714
25	0x3e823e4b	0.2543815
26	0x3e477898	0.19479597
27	0x3ea48c60	0.32138348
28	0x3f0e6c50	0.5563402
29	0xbe2ec3d1	-0.17066886
30	0xbe9f898f	-0.31159636
31	0x3f2119a6	0.6292976
32	0x3eadffe8	0.33984303
33	0xbf18fd86	-0.59761846
34	0x3e98278c	0.29717672
35	0xbe6f121e	-0.23346755
36	0x3f5241d6	0.8213171
37	0x3ef14722	0.47124583
38	0x3e7fc8cf	0.24978946
39	0xbe69a626	-0.22817287
40	0xbee9a809	-0.45636013
41	0x3e4e2402	0.20130923
42	0x3ee3d1d6	0.4449603
43	0x3edcf3d3	0.43154773
44	0xbe8b0d0f	-0.271584
45	0xbec6e766	-0.38848418
46	0x3eb1d0fc	0.34729755
47	0xbec3f3c5	-0.3827192
48	0xbef3dda7	-0.47630045
49	0xbeb26b10	-0.34847307
50	0xbef13751	-0.47112516
51	0x3e9a14bb	0.3009394
52	0x3f0461d7	0.5171179
53	0x3ef6e9d8	0.48225284
54	0xbee1f8f5	-0.44135252
55	0xbf0807b6	-0.53136766
56	0xbebe3865	-0.371524
57	0x3f21378a	0.6297537
58	0x3f4a9c85	0.7914508
59	0xbeb2f448	-0.34951997
60	0x3f31417a	0.69240534
61	0xbe4ebb4a	-0.20188633
62	0x3f1c9e38	0.6117892
63	0xbefadbf3	-0.48995933
