catmouse_experiments/checkpoints/ppo_actor_None_catmouse.pth (torch, 99240 bytes, 6 tensors)

actor.0.weight f4 [128, 40]
00000000: e094 2e3e cd5b 0a3e 576b 133e 993c dfbd
00000010: 295c d6bc b660 bd3d 0b24 7e3e 6638 cdbc
00000020: 317b 37bd 8612 c7bd ccb6 1bbe 7725 413e
00000030: 4653 d03d 137b 6c3c 8df0 06be 7167 8b3e
00000040: a749 663e d7b2 923d 3127 373e d21c 38be
00000050: e7cf 89bd 1e32 1d3e f1c6 4a3c 9cce 6cbe
00000060: 1517 443d f9c5 fe3d 5865 5ebe d296 63bd
00000070: 5a00 9e3e 4dc3 00be fdd3 443c 65c6 5cbe
00000080: 5214 243d d5b3 fcbd 6fb6 5b3d 3740 4abe
00000090: ed7a 233c cab0 ebbd 07e0 1b3e 19cd e73d
000000a0: a899 2abe 0d42 3bbe 24e8 a43d d350 2a3e
000000b0: 355a ea3d 2afb eb3d 43e2 b0bb 01fb 8fbd
000000c0: be02 673e 8c6c 163e ef2e cabd 08ba e03d
000000d0: 1258 5b3d 1e40 903c 63ba 653e 43d2 1f3d
000000e0: b0c2 80bd 0af8 2cbe 43a6 7b3e 65a6 55ba
000000f0: ae44 b43b 45da b7bd 57a8 b73d 250b 32be
00000100: 9a2f 18be 1eba 22be 9105 4f3e f810 0dbe
00000110: c9a2 35be 1ed6 a43d e3cf fb3d 2c14 20be
00000120: 49f6 f63d 579d 533d 6a91 42bd 9bed 99bd
00000130: 575f ec3d bab4 9e3d e974 efbd 293e 02be
00000140: 9a99 a8bc 9f35 2b3d 0d59 04be 0be8 b53d
00000150: 4b6a 533b 575b 52be 9351 c2bc 34b5 2d3e
00000160: de85 21be a930 e9bc a3e3 88bd bf73 b33b
00000170: 0c69 26be 4a4e 143e 7792 943d 652b f3bd
00000180: 71e3 813d fa7a c73c 6ae9 44bc cfe3 933c
00000190: 6d93 273e e3d3 4a3a 2e47 c2bd 0e47 0d3e
000001a0: eb3c d7bd d553 203e 4a4e c23e 28b2 273e
000001b0: db5a 85be 6088 ec3c 868f 28be 3650 143d
000001c0: b27c 3dbd 8948 c33d 15d6 233e f014 553e
000001d0: 1718 17bd 811d 16be 87ca 0ebd 96aa f53d
000001e0: b6ab 463e 7a42 7bbd e40c 0f3e f318 c6bd
000001f0: 8ad7 dd3d 8202 16bd 06d5 993d d575 94bd
00000200: f4ab 2bbe 66d6 37be e8aa 143e f360 2a3e
00000210: f6ca 043e 0850 043c 287a 47be 7448 383e
00000220: a9ca 85bd ccc1 693e 8371 a6bd 662b fabd
00000230: eeac a13c fb4e f13d 84ad 033c 0314 9db9
00000240: 24fd 9cbc ed82 323e ba0e 89be 7748 533d
00000250: 7555 9b3e 72e1 05be 93c7 ab3d 8b42 e63d
00000260: 3419 913d 9000 e33b db42 2ebd 7795 97be
00000270: d6e4 d73d 95db e53d c49a b63c ff37 95bd
00000280: b508 d03d 00f6 a43d 6425 99bd e06b 03bd
00000290: a113 1a3c 17b1 90be c635 dbbd 5771 df3d
000002a0: ca79 8abe 6273 52be 7c2d 203e ada9 b5bd
000002b0: 2072 a3bc 78ad d93d b469 d73c 67ba 893c
000002c0: 4abb 163e 0c43 4d3e 85e9 83be ac3c 233d
000002d0: 1605 863d 57a8 b13d ea57 133e 29ab 353d
000002e0: 2831 773e 3c93 783d 5bd2 0b3e 519a b63d
000002f0: cd2a 20be 5b24 b9bb 92bc be3d 33dc 9c3e
00000300: 49c7 383d 695e 9b3d 69e8 913e 471e babd
00000310: 5569 2fbd fae3 77bd cf91 a93c d057 873b
00000320: 4585 42bd 7da6 1abe 3638 d2bc 370b 8cbc
00000330: c14c 12be a7df 82bd f472 0ebe 1a8a 8ebc
00000340: 7101 29bd bdcd afbc 5e4b 5d3d 55f7 493d
00000350: bf46 48bd 3750 febd fa83 82bd 01f9 393d
00000360: 4b49 50be 0020 673e a0a4 21be 1e93 1f3e
00000370: 4f14 8d3d 3082 5ebd 4e71 9d3d 2c0d a03d
00000380: 6490 87bd 5119 85bd 5107 cabd e787 273e
00000390: 58db 32be ce6d 523e ffb7 523c a3c3 d83d
000003a0: 8245 1cbe 212c 8cbc a49e b63d 0ea3 743d
000003b0: a135 043e 6ae8 8dbd e1b8 5f3c f64e 173e
000003c0: e3fe 4e3d e0bd 503d 5a8c b13d d012 ef3d
000003d0: 3340 ee3d edc2 953d 72c6 b0bc e6aa 5e3a
000003e0: 2bbf 583d b72c 29bd 9145 4ebe 8114 913d
000003f0: e2bb 973d 124b e5bc 0e26 b83d 7072 b9bd
0.17048979 0.13511582 0.14396416 -0.1090023 -0.026166992 0.09246962 0.24818437 -0.025051307
-0.04479522 -0.0972033 -0.1520645 0.18861948 0.10172133 0.01443364 -0.131777 0.27227357
0.22489034 0.07163017 0.17886044 -0.17979744 -0.06729107 0.1535115 0.012376533 -0.2312569
0.047873575 0.12440104 -0.21718347 -0.055563755 0.30859643 -0.12574501 0.012013433 -0.21560057
0.04005844 -0.12338988 0.05364078 -0.19751059 0.009978038 -0.11508329 0.15222178 0.11318416
-0.16660178 -0.18286915 0.0805209 0.16632394 0.11442987 0.11522515 -0.0053980662 -0.07030297
0.2255964 0.14689845 -0.09872233 0.10972983 0.053550787 0.017608698 0.22434382 0.03901888
-0.06287134 -0.16891494 0.24575143 -0.00081501 0.0055013513 -0.089771785 0.08967655 -0.17387064
-0.14861909 -0.1589131 0.20216967 -0.13776004 -0.17737879 0.08048652 0.122955106 -0.15632695
0.12058694 0.051663723 -0.04750196 -0.07516023 0.11541622 0.077493146 -0.11692221 -0.12719025
-0.020581055 0.041799184 -0.12924595 0.08882149 0.00322594 -0.20542656 -0.023720538 0.16963655
-0.15773723 -0.028465586 -0.06684043 0.0054764445 -0.1625101 0.1448299 0.072544985 -0.11873511
0.06342209 0.024350632 -0.012018541 0.018052964 0.16364832 0.0007737262 -0.09486233 0.13796636
-0.10509666 0.1565698 0.37950355 0.16376555 -0.2604588 0.028873622 -0.16461 0.036209308
-0.046261497 0.09535319 0.15999635 0.20808768 -0.03688821 -0.14659692 -0.034861114 0.11995427
0.1940144 -0.061342694 0.13969761 -0.096727274 0.108321264 -0.036623485 0.07511334 -0.07249037
-0.16764814 -0.1795288 0.1451832 0.16638546 0.12968048 0.008075722 -0.19480193 0.17996389
-0.06532795 0.22827834 -0.081271194 -0.12215309 0.01973578 0.117826425 0.008036975 -0.00029960283
-0.019163676 0.17432757 -0.26769048 0.05158278 0.30338636 -0.13074282 0.08387675 0.11243161
0.07084885 0.0069275573 -0.042544227 -0.2960622 0.10541694 0.112235226 0.022290595 -0.07286071
0.10157911 0.08054733 -0.07477835 -0.0320853 0.009404094 -0.2826011 -0.10703616 0.1091029
-0.27046043 -0.20551828 0.15642351 -0.08870254 -0.01995188 0.1062879 0.02629552 0.016812516
0.14719883 0.20045108 -0.257641 0.039852783 0.06543939 0.086746864 0.14389005 0.044352684
0.24139845 0.06068729 0.13654463 0.08916152 -0.15641327 -0.005650086 0.09313311 0.3063675
0.045111928 0.07586367 0.28497627 -0.09087806 -0.04282506 -0.06052015 0.02069941 0.004130341
-0.047490377 -0.15102573 -0.02566157 -0.017095191 -0.14287092 -0.063903145 -0.13911039 -0.017399836
-0.04126114 -0.021460408 0.054026954 0.04930814 -0.048895594 -0.124176435 -0.06372829 0.045403484
-0.20340459 0.22570801 -0.15785456 0.15583465 0.06888639 -0.054323375 0.07687627 0.07815012
-0.06619337 -0.06498969 -0.09864677 0.16360436 -0.17466486 0.205497 0.012861251 0.1058419
-0.1526089 -0.017110886 0.08916977 0.059725814 0.12911083 -0.06929095 0.013654918 0.14776215
0.050536048 0.05096233 0.08669348 0.1167351 0.11633339 0.0731257 -0.021579001 0.0008494094
0.052916687 -0.04130241 -0.20143725 0.07083989 0.07408883 -0.027989898 0.08991633 -0.0905503

actor.0.bias f4 [128]
00000000: 7467 833d 0ae9 903d ff6d 743d 7425 b3bd
00000010: f4f2 edbd 981e 7d3d 9e0e f73d b550 39bc
00000020: 51d4 f53c 0d2b b23d 245b 08bd edaf 2c3d
00000030: 281b e83d 4913 84bd 2f9b 8ebd f334 b33d
00000040: 39c2 023d b9e2 1d3d dc5a c1bc 1c8b bdbd
00000050: 025a 04bb ca9e eb3d 8270 d33d 2f6b c83c
00000060: d9b5 f23c 313c 0cbe 9183 993c 85a9 b1bc
00000070: afab c5bd 3688 1bbe 756e 843d 001c 39bd
00000080: eb29 e5bc 288a e13d d8bc c0bd fb8f d9bd
00000090: d042 133d 282e 9ebb 9dd5 f2bc b4dd 2d3d
000000a0: c655 22bd 06df 90bd 27ff 0d3e a5b6 96bd
000000b0: d4a4 d63d 382b 513c 303e aebd 2bde fc3d
000000c0: 6626 5d3d ced8 153e b3f9 753d 7e0f 08bd
000000d0: 345d 52bd 251a 9b3d 978f ce3c 6c95 93bc
000000e0: d374 b53d dd1a e23d 688a e438 91bc 22bd
000000f0: c047 83bd 766f 4c3a 45e8 11bd 5c10 74bc
00000100: eb9f a43c a6a4 28be 5e4f 05be 5bea 5c3d
00000110: a1d1 983d d531 cdbd cad1 a6bd 26e1 013e
00000120: 7ad7 73bd 49fc 903d 135c 04bd 5c6a 1fbd
00000130: 08d9 9b3d 2698 e53d b583 8b3d 2c3f e63d
00000140: 1de2 54bb 7002 b93b 984c c03b d5e2 fcbd
00000150: b541 c33d be0e 513d ffda b3bd 6593 303e
00000160: 45c1 0cbd 2c0b 703d add1 b93c 0d1d ddbd
00000170: 8347 013e 308c 833b 06eb 613d 67f4 f53d
00000180: 88fe b33b 4bd5 da3d 8a91 813a 5357 0ebd
00000190: 0708 ba3d 6f5e aabd c326 8f3d cec5 ccbd
000001a0: 1e65 6abd 7cf0 12bc 5efd 0dbb 652c acbd
000001b0: 6d07 17be e37b 1fbe 11cb c3bd 0956 803d
000001c0: 5f72 9a3b 4494 df3c a2ef ec3d 5b42 d2bc
000001d0: 156e 0f3e 19a6 81bd 8667 b8bd 6b1b b7bd
000001e0: 71cb 0a3e d070 7e3d 074b d23b 9d2f 233e
000001f0: 3c42 a9bc 9751 22bd ba6f d93d 3ce3 6bbd
0.064162165 0.07075699 0.059675213 -0.08747378 -0.11618605 0.061796755 0.12063335 -0.011310746
0.030008467 0.086996175 -0.033290043 0.042159963 0.11333305 -0.06448991 -0.06963193 0.08750334
0.031923506 0.038546298 -0.023602895 -0.09255049 -0.002019525 0.11504896 0.103241935 0.024465172
0.029627727 -0.13694836 0.018739494 -0.021687279 -0.09651887 -0.15188679 0.064663805 -0.04519272
-0.02797409 0.11012679 -0.09411019 -0.10623165 0.03595239 -0.0048272796 -0.029642874 0.04244776
-0.03963258 -0.07073788 0.13866864 -0.073590554 0.10480657 0.012766652 -0.08507955 0.12347063
0.053991698 0.14633486 0.060052585 -0.0332179 -0.051358417 0.07573346 0.025214953 -0.018015586
0.08860173 0.1104028 0.000108976674 -0.039730612 -0.064101696 0.00077985914 -0.0356219 -0.0148964785
0.020095786 -0.16469058 -0.13018557 0.053934436 0.074618585 -0.1001927 -0.08145483 0.12683544
-0.059531666 0.070793696 -0.03231437 -0.03891979 0.07609755 0.11210661 0.068122305 0.11242518
-0.0032483407 0.0056460425 0.0058685057 -0.12347952 0.09534017 0.05103945 -0.087820046 0.17243727
-0.034364004 0.058604404 0.022682989 -0.107965566 0.12624936 0.0040145144 0.055155776 0.12009507
0.005492989 0.10685214 0.0009885293 -0.034751248 0.09083562 -0.08318793 0.06989815 -0.09998666
-0.05722534 -0.008968469 -0.0021665911 -0.08406905 -0.14748926 -0.15574603 -0.09560216 0.0626641
0.004713341 0.027292378 0.11569144 -0.025666406 0.14006837 -0.06330509 -0.090041205 -0.089407764
0.13554169 0.062119305 0.0064176354 0.15936132 -0.020661466 -0.03962859 0.10617013 -0.057589754

actor.2.weight f4 [128, 128]
00000000: 978a 16bd a2ce cf3b bf09 08bc cc94 013e
00000010: e68d 253e 069e 003e 2a72 bebd 9af8 df3d
00000020: a235 c4bc b205 6fba 2be4 ef3d fe17 923d
00000030: 6b86 01be adf6 c93d 3794 e43d 5f22 4e3d
00000040: 8a66 9c3d b444 35be 18aa 193d 20aa ab3d
00000050: cb18 263d 0c17 05be 73ad 01be f038 0abe
00000060: ae75 60bd 5fd9 283d 35fc 97bd eeb2 153c
00000070: 9543 f23c 5df4 623d 003b 63bc 294a dcbc
00000080: cdac ce3d 202a 56bd 5684 5b3e 3d6d f739
00000090: 0aaa 983b 64aa 8cbd 4084 113e 03f8 60be
000000a0: e425 f53d 83ab 843d 856b 17be 9ee4 583d
000000b0: 8598 2c3a a3d3 a03d 6227 9a3b 3070 abbd
000000c0: 9393 70bd 90ba bebd b699 1fbc 2847 033e
000000d0: 0312 4fbd 3ab8 29be d44d fabc 78f7 0e3e
000000e0: acd8 4e3d f905 be3c cfa5 cebd d28d 013e
000000f0: 7e16 883b b13a fabd e1a9 37be d64e 27be
00000100: dcc5 ab3d ec11 8bbc b80e 7fbd caca 06be
00000110: bba2 213d 3051 153d b258 e03d bf28 0a3d
00000120: 7dc5 b4bb c509 a7bd 4af1 6f3b cb16 7bbd
00000130: 5ac0 5abd ab90 e2bd 9c47 4c3d bc08 a5bd
00000140: c294 ba3d 1207 73bb abbb b1bc 5429 733e
00000150: 14cc 58bd 0b96 113c 309b 5c3d f5b2 a1bc
00000160: d9ca 093d 09c3 8c3d 0502 e13d c912 113b
00000170: 6339 04bb c98c 76bd 9e96 5d3d d292 7ebd
00000180: 5fc3 2fbe 1bdf 0b3e fd0b 0e3d c9b1 073b
00000190: 4d39 eebc 4bff 033e 5be2 06bc 4ff3 3d3d
000001a0: 62ab fdb8 8858 163e b113 a4bd 1f6a a73c
000001b0: 0770 bd3c e797 b93c e38d 613d 55a4 b33b
000001c0: a2c7 19bd aaef 4fbe 3f37 8fbd 8808 afbd
000001d0: 5f17 4cbd ad1f 4a3e ce4d 273e 2e53 d4bd
000001e0: 0624 97bc 6448 18bd 27be d53c f460 8dbd
000001f0: 4951 a7bd f20a 5a3d d349 bdbd 3a1c 0bbe
00000200: d91c 363d c8e1 a93d db16 b2bd 9551 593c
00000210: b5ae 1abe dd5e f8bd 619f 14bd e437 fdbd
00000220: 333e 7fbe 6760 003e 895e 6a3d 9db6 353b
00000230: 6497 5cbe c554 50bd 7bd7 2bbe dfda 853d
00000240: 87dd 163e 7fc4 f23d ee5c 293b f959 04be
00000250: 4416 3fbe 13ba a7bd 69dd 3c3d bd36 2bbc
00000260: 6a8a 1f3e 8367 c83d 0a50 853d 52ac 1abe
00000270: 966f 193e 2759 cc3d f4e9 193d 7f91 f6bd
00000280: f330 3d3d d459 b63d f707 edbd 650c 1abe
00000290: ba8f 053d 4925 113a 08d3 da3b b45f fcb9
000002a0: 90f4 5c3e aa19 623c b7d0 a53d ec36 d5bd
000002b0: 234c e73d 2a13 b93d 1735 2e3e 4c97 84bd
000002c0: 208e 9f3d bed1 86bc e5b1 28bd 536b 19bb
000002d0: 01f9 ebbd c3cf 8f3d 974a 20be fcb4 9b3d
000002e0: f41e 3cbc a380 fd3d 9081 78bd 42e7 22bd
000002f0: d21e 2f3d 5fad 35be 7581 a2bd c151 3b3e
00000300: 0769 d5bd 70f4 5cbe 8d38 c7bd 9039 003d
00000310: f0d7 2e3e ffc8 aa3d 0376 623c b771 ff3d
00000320: 274c 23be ec12 33be f790 133d 75f8 c53a
00000330: be06 c5bd 72c9 d8bd 50cf dbbc 59c8 2bbe
00000340: 1eb1 433e 1152 b43b a42d ba3d 5d84 893d
00000350: f56c 03be 203c 6dbc 306a 3b3d 1b66 193e
00000360: 7ea1 8cbd e246 bcbd afbe 2b3e f29b d3bb
00000370: 8715 1e3e fa08 9dbd 7bf2 543e dc4e 123e
00000380: 3ba8 87bd 303a 8f3c ebd5 213e 6bef b8bd
00000390: 6293 073e 896a 5f3d 6bdb a73d 5b0d 973c
000003a0: 3174 96bd 8394 503e 4716 92bd 888e a9bd
000003b0: 5e4b 193d a6cf e3bd 126c 363e 6829 623d
000003c0: d67c 33bd ba37 1abe 3c6b 513d 3dd8 123e
000003d0: 4568 c93d e2b5 62b9 745a 033e 029b 22be
000003e0: 6c2a 7cbd f921 303d 3f1e 8ebd 68ec 13bd
000003f0: 003b a5bd ccb9 5ebe 5c48 0bbe 306b cdbd
-0.036753263 0.006341771 -0.008303105 0.12654418 0.16167411 0.12560281 -0.09299119 0.10936089
-0.023951355 -0.0009117975 0.117134415 0.071334824 -0.12648933 0.09861503 0.11161082 0.050325748
0.07636745 -0.1770199 0.03751573 0.08382058 0.04055099 -0.12997073 -0.12663822 -0.13498282
-0.054799728 0.041222926 -0.074211515 0.009136898 0.029573241 0.055408824 -0.013869047 -0.026890831
0.10091553 -0.052286267 0.21437201 0.000471929 0.004658942 -0.06868437 0.14210606 -0.21969609
0.11970118 0.06478026 -0.14787109 0.0529524 0.00065840065 0.078528665 0.004704402 -0.083710074
-0.058734488 -0.09312928 -0.009741237 0.12820113 -0.050554287 -0.16574183 -0.03055469 0.1396159
0.050499603 0.023196207 -0.10090219 0.12651756 0.004153072 -0.12218226 -0.17935897 -0.16338667
0.08387348 -0.01697632 -0.062269896 -0.13163295 0.039461832 0.03645438 0.10954417 0.033730265
-0.0055167065 -0.0815616 0.0036612325 -0.061301034 -0.053406097 -0.110627495 0.04987298 -0.080583066
0.091104046 -0.0037083072 -0.021695932 0.23746234 -0.052929 0.008885871 0.053858936 -0.019738654
0.033640716 0.068731375 0.10986713 0.002213644 -0.0020175807 -0.060192857 0.054098718 -0.062151738
-0.17164372 0.13659327 0.0346794 0.0020705333 -0.029080058 0.12890355 -0.008232678 0.046374615
-0.00012095903 0.1468221 -0.08011568 0.020436345 0.023124708 0.02265544 0.055066954 0.0054822364
-0.0375439 -0.20306268 -0.06992959 -0.08546549 -0.049826976 0.19738646 0.16338274 -0.10367428
-0.018449795 -0.037178412 0.026091648 -0.06903258 -0.08169801 0.053233095 -0.092425965 -0.13584986
0.044461105 0.082950175 -0.086957656 0.01326408 -0.15105708 -0.12127469 -0.036284808 -0.12364176
-0.24926071 0.12536775 0.057219062 0.0027727254 -0.21542126 -0.050862093 -0.16781418 0.06535887
0.14732943 0.11853885 0.0025842744 -0.12924947 -0.18660837 -0.08189788 0.04610959 -0.010450062
0.15580145 0.09785368 0.06509407 -0.15104797 0.14983973 0.09977942 0.03757663 -0.1203947
0.04618926 0.08903852 -0.11573785 -0.1504379 0.03260777 0.0005536867 0.006677989 -0.0004813649
0.21577668 0.013800064 0.0809645 -0.10410866 0.11293819 0.090368584 0.1701244 -0.0647417
0.0779078 -0.016457435 -0.04118528 -0.0023409917 -0.11522103 0.07022049 -0.15653454 0.076028794
-0.011481989 0.12378051 -0.060670435 -0.039771326 0.042754002 -0.17741917 -0.07934848 0.18292905
-0.10420423 -0.2157762 -0.09727583 0.031304896 0.17074561 0.08339118 0.0138220815 0.12472861
-0.15947019 -0.17487687 0.03602692 0.0015103953 -0.096204266 -0.10585298 -0.026832253 -0.16775645
0.19110534 0.005502947 0.090907365 0.067146994 -0.12834533 -0.014479667 0.045755565 0.14980356
-0.0686674 -0.09193207 0.16771959 -0.006457799 0.154379 -0.07667728 0.20795624 0.14287895
-0.06623884 0.0174838 0.1580426 -0.0903004 0.13239816 0.05454496 0.081961475 0.018438986
-0.073463805 0.20369153 -0.07133155 -0.08279139 0.03742539 -0.1112359 0.17814663 0.05521527
-0.043820225 -0.1506032 0.051127657 0.14340301 0.09834341 -0.00021620796 0.12827474 -0.15879443
-0.061563894 0.04300115 -0.06939363 -0.036114126 -0.08067894 -0.21750563 -0.13601822 -0.1003021

actor.2.bias f4 [128]
00000000: d199 d9bd aac8 9dbc 699f 15bd 33b4 2c3d
00000010: 8e0d 753c f2df afbd 5668 3cbd 63ca 34be
00000020: d5b7 e53c 0651 87bd 22ce 893c cff1 5f3c
00000030: cd28 16be d7b0 b5bd 107e 03bd ce8c 943c
00000040: f988 a9bc cfa3 1ebd becb c13c 96b0 063d
00000050: 174a 933d 78c0 fc3c 891b 45bd fe5c 0c3d
00000060: 116f 9f3d 9822 e0bc 4442 afbc b839 a03d
00000070: b046 4bbc e3df 4fbd 63c1 71bd 1a29 943a
00000080: 9936 83bc e142 dcbc 8800 c6bd 62e9 5bbd
00000090: 99b0 61bc 2507 8dbd 5e0a 1e3d e31c 5fbd
000000a0: 0b54 77bc 571c 033e 5820 fdbd d0e3 063d
000000b0: 2690 9a3d 4e67 a23d 9309 1ebe b3c5 d5bc
000000c0: 774c c1bd ceb1 2bbd e2c3 2a3c 460e 423d
000000d0: 7b18 93bb a21a 453d 2b4f 96bc 59ae febc
000000e0: 1148 5c3d 6a17 8a3d 7042 e03d d180 b13d
000000f0: 1e49 83bd 97af edbd 35ec 403c 8139 ddbc
00000100: 51fd 3c3d d2a2 063d 97c8 09be d564 d03c
00000110: 6ac4 bc3c 8cde 33bd aec9 4dbe 00c3 6dbd
00000120: 9f30 edbc c171 3bbd ffbe d53c 5a2f a23d
00000130: e94e 0e3e b5b9 c9bd 370f 6fbe 718a a73c
00000140: 76b4 333d fc81 a33d 4825 25be 243e 03bd
00000150: d1c2 7d3d 65c9 ff3d 7bdf 6ebd bfe1 abbd
00000160: 6c1b 88ba d44d 4ebc 964b 9e3c 2f52 89bd
00000170: 2d66 4fbd 4338 693d 3980 bcbc 5ad7 3cbb
00000180: f4ea 9e3b f74d 0b3d a743 003c a07d ecbc
00000190: 5028 0dbc 9dfb fcbc 3e6e 803d 2f79 bf3d
000001a0: 5afc 3fbd 9e8c a03d aad4 bb3d 7fa5 853d
000001b0: 9f66 01bd 6fe1 443d 9e79 99bd 0d2d d9bb
000001c0: 8851 f33d 706d 5abd 88ea c23c d794 70ba
000001d0: 1786 8d3d c614 0cbe 1c88 e0bd cd57 e6bc
000001e0: ceb9 babd eb95 323d 72b7 29bd b4ba a7bd
000001f0: c66d 07bc acd7 d5bc 9421 2dbc 0459 36bd
-0.10625041 -0.019260723 -0.03652898 0.04216404 0.014956845 -0.08587636 -0.04599794 -0.1765533
0.02804176 -0.06607251 0.016821925 0.0136684915 -0.14664002 -0.0887162 -0.032102644 0.018133547
-0.020695196 -0.03873044 0.023656722 0.03288325 0.07191866 0.030853495 -0.048121963 0.03426837
0.07784856 -0.027360246 -0.021393903 0.07823509 -0.01240699 -0.050750624 -0.05902232 0.0011303753
-0.016017245 -0.02688736 -0.0966807 -0.053689368 -0.013775014 -0.06886128 0.038584106 -0.054470908
-0.015095721 0.1280378 -0.12359685 0.032932103 0.075470254 0.0792986 -0.1543334 -0.026095247
-0.09438413 -0.041917615 0.010422679 0.047376893 -0.0044890023 0.048121102 -0.018348297 -0.031088995
0.053779665 0.06742747 0.10950172 0.08667148 -0.0641043 -0.11605757 0.011775066 -0.027004959
0.04614002 0.03287012 -0.13455425 0.025438705 0.023042876 -0.04391341 -0.20096466 -0.058047295
-0.028953848 -0.04576278 0.02609205 0.07919188 0.1389729 -0.09849874 -0.23345648 0.020451756
0.043873273 0.07983777 -0.16127503 -0.032041684 0.06195337 0.12489585 -0.058318596 -0.08392667
-0.0010384149 -0.012591798 0.019323152 -0.067051284 -0.05063455 0.05693842 -0.02301036 -0.0028814883
0.004849786 0.0340099 0.00782863 -0.028868496 -0.008615568 -0.030881697 0.06271027 0.09349286
-0.04687152 0.078393206 0.09171422 0.065257065 -0.031592008 0.048066553 -0.074939 -0.006627685
0.11880785 -0.053327024 0.023793474 -0.00091774523 0.06910341 -0.136798 -0.10963461 -0.028118039
-0.09117471 0.043600004 -0.041434713 -0.08189908 -0.008265918 -0.026103817 -0.010567088 -0.044518486

actor.4.weight f4 [18, 128]
00000000: 267b e73b 12f2 553d 09fc 6c3d 7d79 1f3d
00000010: fa72 22bb 9186 543d 429c 103d 48d2 ef3d
00000020: 9fef 8fbd 7577 ca3c e6fd fd3d 2f28 f5bd
00000030: 2688 e43d 40c0 5f3e 9566 3f3d 3401 1dbe
00000040: 6541 90bc 6107 e1bd b492 b23d 8d58 c1bd
00000050: 0f2e 603d 7609 f13d 4cc3 cd3c 0954 b6bd
00000060: 0fc3 20be 2353 05be 7e6a 62be 77a7 f4bc
00000070: e8bf 74bd f616 cebd bd9f 4f3e b084 05be
00000080: 4bbc 273e 6692 1cbe 246b e53d b556 06be
00000090: 3bbd 3e3b 10fa cf3c 7094 ca3d de64 f83d
000000a0: 6dc9 143e 5357 5cbe 8878 1e3e 9403 a73d
000000b0: 80e0 ac3d 5c7e df3c 5c22 58bd 7739 d93c
000000c0: c2dd 283e 982d f93b b947 05be c570 893e
000000d0: 9e1c fbbd b6a4 cfbd 7025 793c 6897 ee3d
000000e0: 909e e2bd aefc 2b3d 5120 bd3d 4c99 0fbe
000000f0: 3e81 05be 54d0 1b3e 0763 913c 6d01 233e
00000100: 1f4f d7bd 46e3 193d b972 7a3b 8b8d edbd
00000110: 4a6d aebd b198 1fbe 8d02 313e 53b9 0e3b
00000120: c81b 45be 06c2 dd3d 7b38 3ebe 24a0 783d
00000130: 35ca d4bd bae4 20bd 502f fa3d b44e 3abe
00000140: 6e57 983d 0e38 12be a0bd 6bbd ee4a 303e
00000150: 6818 d53d 071c edbd a06c de3d cb8b a9bd
00000160: 4bb1 0abe 8275 853d dd22 073d 6f37 913d
00000170: 3961 1c3d 061e 00be 2cdc f0bc 6876 2fbc
00000180: 8a12 90ba d981 83bd 6a86 4dbd cdec 83bd
00000190: 28dc 073e 71ac e7bd 50cb 72bd 9b23 f93d
000001a0: ec14 febd 35fa 763d 40e0 80bd 5183 14bd
000001b0: 9500 253e 284c 49be 1704 c0bd be13 cc3d
000001c0: 74e9 aebd 181d 16bd 2063 623d 3c2d fa3d
000001d0: f599 8c3d a16b 163c af79 af3d 723d 4d3e
000001e0: 41c9 a83d dabf 87bd 05b6 14bd 47e8 113e
000001f0: c2d6 233c b26e 94bc 01be 2dbd a3ef 963c
00000200: 26e1 b43d c971 b3bd 5d71 a13d 48a8 60bd
00000210: 5e97 de3d 7be9 483d 0fb6 f93c 87ac 883d
00000220: 9886 623d 01de aebd e6b2 383c 1af5 f03c
00000230: ab49 123e ff9b 823d 62ff bb3c ab1b 1d3d
00000240: 6765 74bc 051d 183e 79e5 553c 19a9 633d
00000250: a3af 8c3d c9f6 d33d c8a2 96bd 2132 bf3d
00000260: 4f41 29be 2cb4 e73d 42f7 9abd 2f60 e6bd
00000270: ac13 0f3e 97b8 c3bd 2de5 383c 0416 c63d
00000280: ef3a 60bc 4f2f 89bc 87f1 183d 7940 1ebd
00000290: b889 1e3d 7e41 543d d3df 4cbc 3611 003e
000002a0: 2a0a 8c3d 7dc3 9cbd d6b0 f63d de62 14bc
000002b0: f8f5 fdbd 6302 a1b9 179a 283e 1de3 5ebd
000002c0: 1ddb f93c 2412 1dbd d905 adbd f097 e93d
000002d0: 168a c73b db76 3ebe c41d 9f3d c3d8 31bd
000002e0: e6a0 59bd 16a5 a3bc 490c 03be 7555 c1bd
000002f0: 836b a33d 2cf4 b8bc c350 21bd 3682 12bd
00000300: 9c98 8bbd ae7b 843c a9fa f83d 4f9f dd3c
00000310: 99d1 bd3d a1cc 0a3d f177 213e 3eff 113d
00000320: 6cdd 023e 77ac 6f3d ec84 c3bb d976 d03b
00000330: 7618 c9bd d9f9 89bb c61e 013e 2b0f 623c
00000340: dfa7 e43c 0138 ab3c 95dc a33d 0ff6 553d
00000350: 07b3 f9bc b39e dbbc 51b7 d03d f10c bdbb
00000360: 5eb6 953d 37b6 003d 3d2f 9fbd 78f2 56bd
00000370: 8810 193d 73cb 433d 3d18 263e 1f76 75bc
00000380: 7108 cc3b 184b ecbd d877 f63d 7dfe 19bd
00000390: 3d40 633d da43 7e3d 9379 cfbd 94b7 8abd
000003a0: bd59 0a3e 4146 67bd 7d68 87bc 6017 0fbe
000003b0: a638 803c ec57 e2bd 1936 183d b99c 853d
000003c0: 5764 90bd 44b4 fb3d d2fd cc3b 695e dabd
000003d0: cdc1 68bc 0f32 443d f5bd a83c cb0e d2bc
000003e0: 1362 65bd 9df8 fdbb 2df9 90bd fe7b a83d
000003f0: aad3 5bbd 0d17 0fbd e20a 12be 3ecf 333c
0.007064241 0.05223281 0.057857547 0.03893422 -0.002478777 0.051886145 0.03530527 0.1171003
-0.07028126 0.024715165 0.12401943 -0.11970555 0.11158781 0.21850681 0.04672869 -0.1533249
-0.017609308 -0.109877355 0.08719388 -0.09440718 0.054731425 0.11769383 0.025117539 -0.08902747
-0.15699409 -0.13019995 -0.22110936 -0.02986501 -0.05975333 -0.10062973 0.20275779 -0.13038898
0.16380422 -0.15290222 0.11202076 -0.13119014 0.002910449 0.025387794 0.098915935 0.12128614
0.14529963 -0.21517687 0.15475667 0.08154979 0.084412575 0.027281933 -0.052767143 0.02651666
0.16490844 0.007604312 -0.13015641 0.2684385 -0.12261318 -0.10138838 0.01520668 0.11649972
-0.110654 0.04198902 0.092346795 -0.14023322 -0.13037583 0.1521619 0.017747415 0.15918513
-0.10513138 0.03757026 0.0038215353 -0.11599263 -0.08516939 -0.15585591 0.1728613 0.0021777942
-0.19248879 0.10828023 -0.18576233 0.060699597 -0.103901304 -0.03928063 0.122160554 -0.18194085
0.07438551 -0.14279196 -0.057553887 0.17216083 0.10405046 -0.115776114 0.10860562 -0.082786165
-0.13544194 0.065165535 0.032992233 0.07090651 0.038178656 -0.12511453 -0.029401861 -0.010709383
-0.0010991853 -0.06421251 -0.050177015 -0.064416505 0.13267577 -0.113121875 -0.059275925 0.12164994
-0.12406334 0.06029721 -0.06292772 -0.036258046 0.16113503 -0.19657958 -0.0937578 0.09964703
-0.085406214 -0.03664884 0.055270314 0.12215659 0.068653025 0.009180934 0.08568131 0.20042971
0.08241511 -0.0662839 -0.0363064 0.14248763 0.009999933 -0.01811919 -0.04241753 0.018424815
0.08832006 -0.08761937 0.078829505 -0.054847986 0.10868715 0.04905079 0.03048232 0.06673532
0.05530414 -0.08538438 0.011273121 0.029413749 0.14285915 0.0637741 0.022948924 0.038356464
-0.014916754 0.1485482 0.013055199 0.055581186 0.068694375 0.10349805 -0.07355267 0.09335733
-0.1652882 0.11313662 -0.07566692 -0.11248814 0.13972348 -0.09556692 0.0112851085 0.09672168
-0.013685926 -0.016746191 0.037339713 -0.038635705 0.038705558 0.05182027 -0.012504536 0.12506565
0.06837876 -0.07654474 0.120454475 -0.009056775 -0.124004304 -0.0003071009 0.1646503 -0.05441581
0.03049999 -0.03834738 -0.08448381 0.11405933 0.006089459 -0.18600027 0.07769349 -0.04341961
-0.05313196 -0.01997618 -0.12797655 -0.09440128 0.079794906 -0.022577368 -0.03938366 -0.03576871
-0.06816217 0.016172256 0.12157185 0.027053503 0.09268493 0.033886556 0.1576841 0.03564381
0.12779778 0.058514085 -0.0059667733 0.006361824 -0.09819119 -0.0042106924 0.12609395 0.013797562
0.027912078 0.020900728 0.08001057 0.052236613 -0.030480875 -0.026809072 0.10191215 -0.005769365
0.073101744 0.031423774 -0.07772682 -0.05247733 0.03736928 0.047801446 0.16220184 -0.014981776
0.006226592 -0.115377605 0.12034577 -0.037596215 0.055481184 0.062076427 -0.1013061 -0.06773296
0.13510795 -0.056463484 -0.016529316 -0.1397376 0.015652012 -0.11051926 0.037160967 0.06524033
-0.07050388 0.12290242 0.0062558437 -0.106625386 -0.014206362 0.047899302 0.020598391 -0.02564182
-0.056001734 -0.0077505843 -0.070787765 0.08226775 -0.053668655 -0.034934092 -0.14261964 0.010974703

actor.4.bias f4 [18]
00000000: d2c0 413d 2e09 f3bd 24d4 72bb 9cb2 5bbc
00000010: 3695 77bd 9b0e 1fbe 99e6 c93d eeb6 1c3e
00000020: 31f7 213e 0e55 1abd d8ad a7bc 9725 75bd
00000030: e54d f3bb 41e3 1fbc 2714 00be 816a ba3d
00000040: e147 e73d 5e4c cf3d
0.04730303 -0.11866985 -0.0037052715 -0.013409283 -0.060445033 -0.15532915 0.09858436 0.15304157
0.15816952 -0.03767877 -0.020468637 -0.0598503 -0.0074250572 -0.009758771 -0.12507688 0.09102345
0.11293007 0.10121988
