catmouse_experiments/checkpoints/ppo_actor_None_catmouse.pth (torch, 99240 bytes, 6 tensors)

actor.0.weight f4 [128, 40]
-0.1118923 0.041618496 0.13465807 0.123022035 0.06603254 0.06891046 -0.052292313 -0.015445209
0.092277534 -0.1277525 -0.11405322 -0.10810412 0.01612057 0.009494255 0.024751047 -0.094124675
-0.05896535 0.04368155 -0.042402644 0.070386656 -0.21511455 -0.093291506 0.11099129 0.09846243
0.102965 0.109520726 0.19323911 -0.17660041 -0.1299949 0.024911426 0.10118346 -0.14106497
0.15805162 0.04284265 0.05596988 0.081394956 0.12741505 -0.060289968 -0.030669779 0.10556667
-0.013897921 -0.100012 0.0060315086 -0.07607105 0.010404 -0.11167449 0.13347554 -0.059079677
0.03487934 -0.0075932643 -0.04787298 -0.12054478 0.0115007255 0.115329735 0.067134075 0.03564899
-0.12877384 -0.05339727 0.05988261 0.15595624 0.17230655 0.00035704873 0.0927592 -0.07860424
-0.16490367 -0.025485896 -0.009692574 -0.14070648 -0.057485305 0.033155236 -0.10037715 -0.072591245
0.10089948 -0.00014100432 0.017606115 0.06443792 -0.12957136 0.0062354705 0.1189218 -0.100716405
-0.08898707 -0.022106145 0.105157346 -0.1545022 -0.031726886 0.0028092815 0.018457482 -0.03340119
0.074477434 0.11128613 -0.15975615 0.0020935866 -0.17325747 -0.010229864 0.028911062 0.14017956
-0.07193177 -0.05301607 -0.13254325 -0.025108544 0.12121736 0.025856588 -0.031849857 -0.044836808
-0.0453047 0.120311335 0.0552566 -0.12764174 -0.10069711 -0.010645093 -0.17261177 -0.14650057
0.071055956 -0.20392033 0.095243804 -0.012916034 0.011581399 -0.10002736 0.011538404 0.0583459
0.07837818 -0.013074393 0.032966092 0.040739544 0.12821361 -0.031055015 0.058347717 0.050556533
-0.048800666 -0.08409032 -0.025299503 0.023943994 -0.091394 0.08791979 -0.09153844 -0.0638623
-0.14703043 0.008137883 -0.1424779 0.049855817 0.03677642 0.1304932 0.07973544 -0.06696179
0.15286057 -0.03143348 0.12196092 0.07338496 -0.06661456 -0.01831181 0.056187406 -0.110801734
0.06344037 -0.21619353 -0.18406986 0.15124066 0.090342134 -0.13323869 -0.01886932 -0.07558014
-0.07113122 -0.11577939 -0.086823024 -0.044348434 0.1542531 0.024737336 -0.08429758 0.1614603
-0.15111345 0.11241641 0.12874962 -0.04191969 0.05531326 -0.06831007 0.1731623 -0.025295323
0.13783875 -0.10674298 -0.0017953694 -0.018752428 -0.057264306 0.031467095 0.06322816 0.047341608
0.063905545 0.08899853 -0.084516324 -0.128124 -0.10314684 -0.063715406 0.12781897 0.1002798
-0.07158565 0.17515434 0.18935472 0.0068367706 0.037197422 0.03693401 0.13120355 0.00839398
-0.037285835 -0.115632914 -0.06291399 0.19821039 0.056572974 0.077425554 -0.0582426 0.027951622
-0.06397226 0.12937105 -0.012185489 0.10434172 -0.09329452 0.023133764 0.09759711 0.10534876
0.118619785 -0.10982721 -0.054500714 0.023829157 0.19203463 -0.028886713 -0.10346913 0.100790165
-0.14019088 0.04825736 -0.022564782 -0.06745979 -0.07592767 -0.036943495 0.09417033 -0.061520997
-0.15763777 -0.04861471 -0.075246714 0.108116426 0.09650877 -0.11762873 -0.037174463 -0.12186142
-0.09852709 -0.03619453 -0.20722762 0.031924948 0.09832898 -0.07578295 0.0079908455 -0.011479946
-0.10124164 0.13033752 0.17043374 0.13063309 -0.020415066 0.18938793 0.19936837 -0.09281035
00000000: ca27 e5bd 2878 2a3d cee3 093e faf2 fb3d
00000010: 113c 873d ed20 8d3d 7730 56bd e70d 7dbc
00000020: 01fc bc3d 8dd1 02be bc94 e9bd b165 ddbd
00000030: 490f 843c cb8d 1b3c b5c2 ca3c 70c4 c0bd
00000040: a785 71bd 6deb 323d 65ae 2dbd e126 903d
00000050: fd46 5cbe 9e0f bfbd 674f e33d aca6 c93d
00000060: 50df d23d 674c e03d 79e0 453e bdd6 34be
00000070: 621d 05be 0c13 cc3c 4639 cf3d 5673 10be
00000080: 49d8 213e c67b 2f3d ac40 653d 66b2 a63d
00000090: 1779 023e 9df2 76bd 303f fbbc 5733 d83d
000000a0: 1bb4 63bc 17d3 ccbd f6a3 c53b 23cb 9bbd
000000b0: 8a75 2a3c 98b5 e4bd d0ad 083e 88fd 71bd
000000c0: a4dd 0e3d ebd0 f8bb 7516 44bd 2ee0 f6bd
000000d0: 8a6d 3c3c ff31 ec3d 977d 893d ad04 123d
000000e0: 4add 03be 19b7 5abd 7847 753d feb2 1f3e
000000f0: 2171 303e 4532 bb39 89f8 bd3d 43fb a0bd
00000100: 82dc 28be ccc7 d0bc 9acd 1ebc 5c15 10be
00000110: b675 6bbd c9cd 073d 8992 cdbd b8aa 94bd
00000120: 63a4 ce3d 8fda 13b9 b33a 903c 07f8 833d
00000130: 5bae 04be eb52 cc3b 468d f33d 6744 cebd
00000140: da3e b6bd f217 b5bc bc5c d73d d335 1ebe
00000150: 0df4 01bd ec1b 383b 2534 973c b0cf 08bd
00000160: a087 983d fce9 e33d 1e97 23be 8e34 093b
00000170: 686a 31be 299b 27bc e4d6 ec3c 3b8b 0f3e
00000180: f750 93bd 6127 59bd 6bb9 07be 6fb0 cdbc
00000190: cf40 f83d 32d1 d33c ff74 02bd cda6 37bd
000001a0: 6c91 39bd ca65 f63d bf54 623d 84b4 02be
000001b0: 493a cebd c268 2ebc 24c1 30be 3f04 16be
000001c0: c985 913d 7ed0 50be 2f0f c33d c69d 53bc
000001d0: e8bf 3d3c 25db ccbd 930b 3d3c 1cfc 6e3d
000001e0: bd84 a03d fb35 56bc 7407 073d 82de 263d
000001f0: 6e4a 033e 1667 febc 04fe 6e3d 5e14 4f3d
00000200: 35e3 47bd 8c37 acbd e740 cfbc 3226 c43c
00000210: c72c bbbd 4a0f b43d 8178 bbbd 3dca 82bd
00000220: 258f 16be c154 053c bae5 11be 9d35 4c3d
00000230: dfa2 163d 02a0 053e 564c a33d 4323 89bd
00000240: 7b87 1c3e 65c0 00bd a6c6 f93d db4a 963d
00000250: 376d 88bd a602 96bc c424 663d 05ec e2bd
00000260: 06ed 813d d661 5dbe cf7c 3cbe d5de 1a3e
00000270: 4c05 b93d b96f 08be d593 9abc c3c9 9abd
00000280: 3fad 91bd bf1d edbd 45d0 b1bd b4a6 35bd
00000290: 86f4 1d3e f4a5 ca3c 36a4 acbd d955 253e
000002a0: 7cbd 1abe 933a e63d f1d6 033e fbb3 2bbd
000002b0: 2890 623d 26e6 8bbd 7551 313e 2338 cfbc
000002c0: 9a25 0d3e 109c dabd 9a52 ebba b19e 99bc
000002d0: fa8d 6abd a4e3 003d c47d 813d 46e9 413d
000002e0: e9e0 823d dc44 b63d e516 adbd f032 03be
000002f0: a73e d3bd 397d 82bd fae2 023e 7f5f cd3d
00000300: 7f9b 92bd a95b 333e 34e6 413e fd06 e03b
00000310: 535c 183d 1e48 173d 395a 063e e786 093c
00000320: 08b9 18bd f3d0 ecbd 0dd9 80bd aaf7 4a3e
00000330: 10b9 673d 4a91 9e3d cb8f 6ebd cdfa e43c
00000340: e303 83bd d879 043e a5a5 47bc 1db1 d53d
00000350: 3311 bfbd 0583 bd3c fee0 c73d 17c1 d73d
00000360: eeee f23d 17ed e0bd 243c 5fbd 5d35 c33c
00000370: baa4 443e d4a3 ecbc a0e7 d3bd 136b ce3d
00000380: 338e 0fbe 82a9 453d c7d9 b8bc 5c28 8abd
00000390: f77f 9bbd 1052 17bd 60dc c03d 71fd 7bbd
000003a0: cc6b 21be 3820 47bd f31a 9abd 256c dd3d
000003b0: 64a6 c53d 55e7 f0bd 4044 18bd 7b92 f9bd
000003c0: 92c8 c9bd b740 14bd 7a33 54be bcc3 023d
000003d0: b460 c93d 1734 9bbd 09ec 023c 6216 3cbc
000003e0: c757 cfbd 3377 053e 2f86 2e3e aec4 053e
000003f0: 7f3d a7bc e9ee 413e 3927 4c3e 5a13 bebd

actor.0.bias f4 [128]
0.11141394 -0.0068505695 0.06792447 -0.10061308 0.15567616 0.09231993 0.091097966 -0.026796777
-0.009480191 0.1496537 0.10165119 -0.16192383 -0.10618711 -0.1467227 0.054864794 0.085029624
0.016581256 0.13983451 0.0099254865 0.15411273 0.012936171 -0.059386466 0.006848661 0.17392449
0.0014853923 -0.071568206 0.025062209 -0.0569324 -0.040093176 -0.1599807 -0.08476648 0.012971099
-0.18599403 0.10330522 -0.049520575 0.09472319 0.0396311 -0.03500779 -0.057742607 -0.02679232
0.1739088 -0.035879202 0.06455174 0.16080502 -0.017107107 -0.03757627 -0.18378216 -0.11353732
-0.08890018 -0.19541213 -0.06894138 -0.012343011 0.057884585 0.17525119 0.04177801 0.048768576
0.08628712 -0.027963644 0.13990018 -0.09019735 0.056677107 -0.15396957 0.0637662 0.13285844
-0.01109747 -0.14132611 -0.057970636 0.065598994 0.027435496 -0.13167964 -0.16092977 -0.034291666
0.045007534 0.17844617 0.18644242 -0.13344443 -0.01252606 -0.15487245 0.11088922 0.1324779
0.030758856 -0.023768894 -0.058349453 -0.16333565 -0.16169123 0.064641595 0.063404575 -0.0970432
-0.003552453 -0.14745042 0.07579874 0.053761307 0.18774201 0.09474523 0.100322716 -0.020383745
0.1646659 -0.09622274 0.012587077 -0.110873446 0.11045419 -0.007841083 -0.062101737 0.047370344
0.08963934 -0.09856423 -0.038470823 0.007986489 -0.15208697 0.045153014 -0.0568959 -0.116171345
0.1157035 0.043375533 0.017554875 -0.028854318 -0.0020273107 0.05848378 0.056239847 0.03658292
-0.002674826 0.16877294 0.11971251 -0.13354924 -0.15626138 -0.13853216 0.009457123 0.09916626
00000000: fe2c e43d be7a e0bb fc1b 8b3d 3b0e cebd
00000010: 9269 1f3e 3b12 bd3d 9291 ba3d ea84 dbbc
00000020: ce52 1bbc d23e 193e 802e d03d 5ccf 25be
00000030: a178 d9bd 7a3e 16be e8b9 603d 0324 ae3d
00000040: 6ad5 873c c730 0f3e 829e 223c bacf 1d3e
00000050: 3cf2 533c 393f 73bd bc6a e03b 4319 323e
00000060: 7fb1 c23a 5a92 92bd 434f cd3c f331 69bd
00000070: be38 24bd fbd1 23be 0c9a adbd bb84 543c
00000080: 3875 3ebe b091 d33d 16d6 4abd 3bfe c13d
00000090: 3854 223d 5464 0fbd 8383 6cbd 917b dbbc
000000a0: 2615 323e 12f6 12bd b433 843d 12aa 243e
000000b0: 3424 8cbc 93e9 19bd 6431 3cbe 4186 e8bd
000000c0: 4c11 b6bd 1e1a 48be 2331 8dbd 573a 4abc
000000d0: 6318 6d3d 0c75 333e 6b1f 2b3d 8fc1 473d
000000e0: 4db7 b03d 0314 e5bc fe41 0f3e 63b9 b8bd
000000f0: 4126 683d 33aa 1dbe da97 823d 0b0c 083e
00000100: 2ad2 35bc cbb7 10be 9e72 6dbd c458 863d
00000110: 68c0 e03c 07d7 06be c6ca 24be 6b75 0cbd
00000120: d259 383d 98ba 363e c3ea 3e3e a8a5 08be
00000130: 1b3a 4dbc e296 1ebe e319 e33d 49a8 073e
00000140: fff9 fb3c fcb6 c2bc d6ff 6ebd 7641 27be
00000150: 6392 25be d062 843d 42da 813d 96be c6bd
00000160: 45d0 68bb 3efd 16be 5f3c 9b3d d134 5c3d
00000170: 713f 403e ca09 c23d ff75 cd3d d0fb a6bc
00000180: 2d9e 283e 6e10 c5bd 073a 4e3c 9e11 e3bd
00000190: ce35 e23d e377 00bc 645e 7ebd 6807 423d
000001a0: d594 b73d 0bdc c9bd 9593 1dbd c3d9 023c
000001b0: b0bc 1bbe 5ef2 383d ad0b 69bd 3eeb edbd
000001c0: f5f5 ec3d 8baa 313d 3ecf 8f3c e45f ecbc
000001d0: a1dc 04bb b08c 6f3d c15b 663d f9d7 153d
000001e0: 224c 2fbb d0d2 2c3e d52b f53d 22c1 08be
000001f0: fc02 20be 60db 0dbe 0cf2 1a3c ae17 cb3d

actor.2.weight f4 [128, 128]
-0.010715709 -0.00020082062 -0.07402868 -0.047432683 -0.107478954 -0.020392206 -0.050056662 0.00054464745
-0.0068748086 -0.11411699 0.041796844 0.011811512 -0.01254971 -0.0069970996 0.016985316 -0.10548424
-0.03437125 -0.011002605 -0.07547824 -0.12981638 0.08972226 -0.027747042 -0.040034916 -0.051287327
0.03632742 0.12814091 -0.025068799 0.05129541 -0.026152313 0.081460714 0.12345882 0.018899186
0.06871992 0.027252395 -0.06138808 -0.005930816 0.014853258 -0.034100275 0.102472566 -0.019240592
0.008910071 0.06957751 0.04123359 -0.021401806 -0.05306924 0.08317341 0.019274877 0.07599878
0.1042946 0.083729014 0.020469176 0.088643216 -0.08040577 0.037025977 -0.03913152 -0.044016067
0.033555206 0.017086755 0.022610158 0.12040646 0.026207462 0.0833916 0.038797703 0.030278541
-0.00967979 0.119500324 0.086043686 -0.0006060709 0.06373579 0.036849353 0.045318466 -0.051150035
-0.05779913 -0.04190335 -0.015309461 -0.0462072 -0.062976755 0.06412796 -0.06560388 -0.052925378
-0.04055214 -0.050675284 -0.0036338654 0.12854324 -0.009286578 0.0525354 -0.010488182 0.06394465
0.021371411 0.03366549 -0.060103785 -0.07186243 -0.07804873 -0.033516817 0.018918343 -0.023442632
-0.015100916 0.10454076 0.07196923 0.043112636 -0.04028884 -0.013758368 0.031976838 -0.045905348
-0.03146822 0.041944984 -0.051544152 0.092598744 0.101521775 -0.03792759 -0.020373372 0.008387467
-0.08753186 0.0127477925 0.089226134 -0.14260851 -0.01582229 -0.11578147 0.14791228 -0.02519162
-0.10827618 -0.078291096 -0.07652012 0.11074285 0.06255869 0.036202528 -0.016658822 0.09640597
-0.014699852 0.04863454 -0.031550962 -0.05570549 0.109980375 0.010848196 0.10887983 0.06375216
-0.016662873 0.019606134 -0.02278771 0.05901659 -0.09695405 0.011660555 -0.04123882 -0.080014385
-0.019390788 -0.006557696 0.08000171 0.059966713 -0.034272768 0.024771946 0.007850172 -0.007290538
0.008935175 -0.1329165 -0.08420058 0.061832696 -0.06457985 0.01961999 -0.0464927 -0.031470597
-0.06630203 -0.011060714 0.09946105 0.08321585 0.031998232 0.02492366 0.05349727 -0.018831072
-0.033927344 -0.08025696 -0.076995395 0.0015512786 0.040218405 0.06225674 0.0277124 0.009069544
0.017937733 -0.058233287 -0.05943789 -0.019356508 -0.061094273 0.007901976 -0.046134494 0.003134625
0.06791395 -0.11086229 -0.009313858 0.08576619 -0.0015882116 -0.07811723 0.046107277 0.015960895
0.05810637 -0.008659649 -0.028975973 -0.08960934 0.09707578 -0.070762105 -0.047457185 -0.08672164
0.12375678 0.0468762 0.08779231 0.025584046 0.042404644 0.022140717 -0.054661542 0.06241606
0.035776634 0.098603636 -0.096511416 -0.090897486 -0.07050687 0.034262467 0.07273405 -0.052487772
-0.10745891 -0.12647545 -0.009755585 -0.055209544 -0.089925855 -0.03563403 -0.08247721 0.037846483
0.017200964 0.059672482 0.047650333 -0.058535405 0.100474246 -0.045049436 0.028602667 -0.0939003
0.091323495 -0.033067334 0.01613572 -0.05889214 0.03200534 -0.055671293 0.021969154 -0.078477085
0.024967855 0.023064867 -0.027571889 0.032448597 -0.0012288092 0.07130987 -0.080741115 0.03388115
-0.016983107 0.038635865 0.036590543 0.0408035 0.03264842 -0.016814819 -0.04799674 0.09444687
00000000: f190 2fbc 6093 52b9 599c 97bd c648 42bd
00000010: ed1d dcbd 8e0d a7bc 3708 4dbd acc6 0e3a
00000020: 1346 e1bb 2bb6 e9bd 2b33 2b3d 1285 413c
00000030: 4d9d 4dbc ed47 e5bb ca24 8b3c 1f08 d8bd
00000040: dec8 0cbd 4544 34bc 5694 9abd 96ee 04be
00000050: 4ec0 b73d c44d e3bc a7fb 23bd a912 52bd
00000060: 10cc 143d 5f37 033e 155d cdbc 231b 523d
00000070: 603d d6bc e0d4 a63d fad7 fc3d 77d2 9a3c
00000080: 08bd 8c3d 6a40 df3c 1172 7bbd 4a57 c2bb
00000090: 145b 733c bbac 0bbd 23dd d13d 729e 9dbc
000000a0: 8cfb 113c a77e 8e3d 8ee4 283d d752 afbc
000000b0: 225f 59bd d256 aa3d 59e6 9d3c 40a5 9b3d
000000c0: 6898 d53d 1e7a ab3d f9ae a73c 938a b53d
000000d0: c8ab a4bd 8da8 173d 5f48 20bd 314a 34bd
000000e0: 2f71 093d 86f9 8b3c f038 b93c a997 f63d
000000f0: 08b1 d63c 37c9 aa3d 57ea 1e3d b40a f83c
00000100: fb97 1ebc 96bc f43d ac37 b03d bbe0 1eba
00000110: e987 823d 59ef 163d db9f 393d b382 51bd
00000120: c8be 6cbd d9a2 2bbd 89d4 7abc c343 3dbd
00000130: f5f9 80bd 8555 833d 545b 86bd 48c8 58bd
00000140: 001a 26bd e390 4fbd 2526 6ebb d7a0 033e
00000150: bb26 18bc 5c2f 573d a0d6 2bbc 6af5 823d
00000160: 1913 af3c d3e4 093d 632f 76bd 9c2c 93bd
00000170: 03d8 9fbd ee48 09bd a4fa 9a3c c30a c0bc
00000180: d569 77bc 7719 d63d 9b64 933d e096 303d
00000190: e905 25bd c76a 61bc 25fa 023d 3f07 3cbd
000001a0: d2e4 00bd 81ce 2b3d f61f 53bd 69a4 bd3d
000001b0: a6ea cf3d f659 1bbd 0fe6 a6bc 966b 093c
000001c0: e743 b3bd 1edc 503c 31bc b63d f707 12be
000001d0: bf9d 81bc d61e edbd 5176 173e a85e cebc
000001e0: e7bf ddbd 1557 a0bd 95b6 9cbd 26cd e23d
000001f0: c51e 803d 1a49 143d 1578 88bc 7e70 c53d
00000200: a6d7 70bc 0335 473d 953b 01bd 712b 64bd
00000210: 643d e13d a2bc 313c 63fc de3d 7e90 823d
00000220: 9480 88bc 0b9d a03c 4bad babc 61bb 713d
00000230: d88f c6bd ea0b 3f3c 09ea 28bd 95de a3bd
00000240: 6ed9 9ebc f1e1 d6bb f0d7 a33d a89f 753d
00000250: 9a61 0cbd 89ee ca3c 029e 003c 77e5 eebb
00000260: d764 123c 431b 08be 5b71 acbd 4844 7d3d
00000270: 7142 84bd 1aba a03c 216f 3ebd 50e7 00bd
00000280: 5cc9 87bd ff37 35bc 3cb2 cb3d 126d aa3d
00000290: 9410 033d b42c cc3c f41f 5b3d 9f43 9abc
000002a0: 66f7 0abd c35d a4bd c3af 9dbd 4654 cb3a
000002b0: 0ebc 243d ec00 7f3d 1d05 e33c 6d98 143c
000002c0: 27f2 923c 0786 6ebd 2575 73bd 8a91 9ebc
000002d0: fd3d 7abd 4a77 013c 86f7 3cbd 486e 4d3b
000002e0: 7816 8b3d c50b e3bd 2799 18bc 2fa6 af3d
000002f0: 8a2b d0ba edfb 9fbd fcda 3c3d 6cc0 823c
00000300: f200 6e3d 33e1 0dbc 055f edbc 1a85 b7bd
00000310: abcf c63d b9eb 90bd 7762 42bd 1d9b b1bd
00000320: 3274 fd3d 4201 403d 74cc b33d a295 d13c
00000330: 7eb0 2d3d 7360 b53c c8e4 5fbd fca7 7f3d
00000340: 858a 123d b4f0 c93d c7a7 c5bd 7628 babd
00000350: e865 90bd cd56 0c3d 97f5 943d 6bfd 56bd
00000360: 6b13 dcbd c882 01be e4d5 1fbc 6723 62bd
00000370: 0c2b b8bd fdf4 11bd d0e9 a8bd ea04 1b3d
00000380: 09e9 8c3c 226b 743d ff2c 433d d2c2 6fbd
00000390: 71c5 cd3d c285 38bd 2450 ea3c cd4e c0bd
000003a0: d007 bb3d 9d71 07bd 0f2f 843c e238 71bd
000003b0: 0818 033d 9507 64bd a8f8 b33c 98b8 a0bd
000003c0: 6389 cc3c 88f2 bc3c 71de e1bc d2e8 043d
000003d0: ff0f a1ba e90a 923d 995b a5bd f6c6 0a3d
000003e0: 2820 8bbc a440 1e3d f7df 153d 9221 273d
000003f0: 5aba 053d 3bbf 89bc 3b98 44bd 5c6d c13d

actor.2.bias f4 [128]
-0.07774014 0.07732971 0.06198856 -0.03847269 0.045053232 -0.044235885 -0.043565754 -0.07339513
0.03725874 -0.044635825 -0.0802924 0.06642004 0.01723203 0.07255479 -0.07185885 0.023331033
0.027227527 0.02389673 -0.047042318 -0.046954654 0.053998604 0.007148228 0.048660405 -0.033074636
0.004892265 0.058751483 -0.07008337 0.054431472 -0.07120609 0.06356905 0.08359017 -0.017998017
-0.0649267 0.07456617 0.040350825 -0.052880596 0.079054505 0.10710095 0.050320376 -0.032635618
-0.030710703 -0.022127058 0.046694208 0.071121335 0.018230587 -0.045583595 -0.020980636 0.06643312
0.07680878 0.08199892 0.022616055 -0.017749839 0.01834028 0.058426917 0.052702658 0.025663631
0.0995378 0.011640301 0.08753799 -0.007342194 0.033190664 -0.025264107 -0.033116627 -0.024913102
0.0023486612 0.040923916 0.006034189 0.008245712 0.09772418 -0.051222045 -0.07675456 -0.06072619
0.020879531 0.09641765 0.0010368015 0.025182622 0.08239814 0.111195646 0.10683921 0.07759196
-0.079506725 0.071074314 -0.013507868 0.04760014 -0.025839534 -0.041637283 0.0312555 0.011542828
-0.06158541 0.005798046 -0.092790164 -0.030435272 -0.09884393 0.09872828 0.031969596 -0.09532641
0.018397087 -0.066358924 0.05614665 0.04860898 -0.056974303 -0.014246433 0.040117633 0.08502065
0.031970236 -0.026192736 0.0062548216 -0.0052294177 0.086892955 0.050353758 0.023703834 -0.01908867
0.086097546 -0.0131779695 0.026356384 -0.028876914 0.047073513 -0.029225605 0.033390734 -0.086758465
0.1104354 0.047767755 0.041767444 0.014595592 -0.008480042 -0.049652636 0.030738628 0.057223734
00000000: 3936 9fbd 0a5f 9e3d b7e7 7d3d 8a95 1dbd
00000010: bd89 383d b030 35bd 0172 32bd 3050 96bd
00000020: 9f9c 183d 0ed4 36bd 5870 a4bd 3b07 883d
00000030: 302a 8d3c 9b97 943d bc2a 93bd b920 bf3c
00000040: 430c df3c 13c3 c33c 72af 40bd 8653 40bd
00000050: a42d 5d3d af3b ea3b 2250 473d 4579 07bd
00000060: 4b4f a03b 65a5 703d df87 8fbd 89f3 5e3d
00000070: 80d4 91bd 7d30 823d 5331 ab3d 9470 93bc
00000080: 4af8 84bd 26b6 983d e846 253d 5399 58bd
00000090: 54e7 a13d be57 db3d bd1c 4e3d edac 05bd
000000a0: 0395 fbbc ce43 b5bc 6d42 3f3d 10a8 913d
000000b0: 5058 953c ddb5 3abd 95df abbc 160e 883d
000000c0: ec4d 9d3d 0def a73d 4e45 b93c 1c68 91bc
000000d0: 5b3e 963c 1051 6f3d bede 573d 893c d23c
000000e0: 79da cb3d f6b6 3e3c 1e47 b33d ca96 f0bb
000000f0: eff2 073d acf6 cebc 4da5 07bd 9016 ccbc
00000100: ffeb 193b d69f 273d 72ba c53b 0619 073c
00000110: 9d23 c83d 35ce 51bd 7f31 9dbd 07bc 78bd
00000120: 8d0b ab3c 9e76 c53d 49e5 873a c94b ce3c
00000130: 5bc0 a83d 8bba e33d 84ce da3d 89e8 9e3d
00000140: 6cd4 a2bd 698f 913d 1b50 5dbc 5df8 423d
00000150: 6ead d3bc db8b 2abd c405 003d 211e 3d3c
00000160: fc40 7cbd 89fd bd3b c508 bebd 6453 f9bc
00000170: b06e cabd 0d32 ca3d 8df2 023d 7e3a c3bd
00000180: 7db5 963c 30e7 87bd 08fa 653d 361a 473d
00000190: e35d 69bd df69 69bc 6352 243d 4e1f ae3d
000001a0: 39f3 023d 2692 d6bc 3ff5 cc3b 895b abbb
000001b0: eff4 b13d be3f 4e3d 8b2e c23c d85f 9cbc
000001c0: e953 b03d 69e8 57bc 58e9 d73c 478f ecbc
000001d0: 28d0 403d 896a efbc b9c4 083d 6cae b1bd
000001e0: f42b e23d 1fa8 433d 5714 2b3d 5a22 6f3c
000001f0: e0ef 0abc 9060 4bbd 93cf fb3c 6f63 6a3d

actor.4.weight f4 [18, 128]
-0.003942186 -0.02632575 -0.08916324 0.08305249 0.0037365272 0.12286551 -0.021299267 0.054085683
-0.007938107 0.07121688 0.05283121 0.015966222 0.07653227 -0.026169498 0.0809251 -0.024115823
-0.116409495 -0.107503034 0.063860625 -0.009796015 0.048535846 0.121608295 -0.032759786 0.0565533
0.062398314 -0.034256343 -0.056123473 -0.04072032 0.100800745 0.026983561 0.07433628 0.0392995
0.05373556 0.05105751 -0.02065775 0.011760157 0.07160337 0.0903574 0.02674844 0.0029732154
0.10606382 -0.015309966 0.009466118 0.07656548 -0.023923099 -0.035391975 0.06556005 0.13203044
-0.08501457 -0.048117395 -0.029228797 -0.015507642 -0.02267081 0.05642234 -0.113470934 0.097397454
0.055252556 0.01629804 0.08544833 0.015440252 0.02146303 -0.036571097 0.038337015 -0.06649783
0.031601485 0.061632875 -0.015780032 0.040880382 -0.056491017 -0.03802329 -0.055813488 0.14099135
0.0022406026 0.08548405 0.049264677 -0.008878437 -0.06287054 -0.09420569 -0.009894129 0.02228557
0.066362 0.08257301 -0.10234115 0.07107524 -0.092116594 -0.032760024 0.011891744 0.07548268
-0.12241093 0.021223849 0.03691949 -0.076415494 0.07623349 -0.024553899 -0.024823325 0.091782235
-0.10439373 0.047152452 -0.09008438 0.09040312 -0.0174935 0.036314387 -0.10257808 0.1071086
-0.01810676 -0.007182614 0.036290575 0.117172144 0.0052809035 -0.05529259 -0.032366548 0.0693435
-0.011297582 0.07985192 0.0027966993 0.08990432 0.027748082 -0.07559948 -0.088149324 -0.039383985
0.059763532 -0.057479337 0.015235565 -0.04355726 0.04600322 0.07014967 -0.046516307 -0.10881911
0.0116899535 0.046442986 0.03027991 0.048354596 0.057314463 -0.046424467 -0.042256273 -0.008818345
0.059801966 0.06431503 0.0011782194 -0.09576065 -0.020641828 0.015829487 0.05155957 0.033727348
0.045740582 0.063892975 -0.00018581453 0.08248113 0.03521893 -0.011867126 -0.032540012 0.06308164
-0.04195966 -0.035713356 -0.004377564 -0.05405059 -0.07057218 -0.0027171944 -0.07214208 -0.014455744
0.054308433 0.0019875797 0.0730297 0.003899167 -0.06549234 -0.11457999 -0.09799608 -0.007319227
0.064075716 -0.052966427 -0.031139832 -0.09436526 0.02334589 -0.046301965 0.06307859 -0.04529106
-0.018799659 -0.08367651 0.096321695 0.031566437 0.1178195 -0.029298732 0.012044357 0.029981844
-0.05969658 -0.006825204 -0.0320273 0.037259165 -0.08258392 -0.07878165 -0.06188042 -0.09683499
-0.064608455 0.021352237 0.03073645 0.024625877 0.028689276 -0.004787714 0.095865 -0.0054643224
0.11362692 -0.09265352 0.10468485 -0.09422988 -0.016981129 -0.010079688 -0.05897879 0.019999372
-0.08604298 0.043234274 0.020765273 0.028912289 -0.050250456 -0.07635309 0.056894485 -0.0057481998
0.025131159 -0.02161163 0.103745736 0.0036077837 0.09718085 -0.03159023 -0.023468405 0.06322025
-0.022955019 -0.035566024 0.050387666 0.037952 0.029357018 -0.03856287 -0.040352874 -0.06538002
0.0049469154 0.027836578 0.067223094 -0.03957687 -0.0672697 0.025496446 -0.013098928 0.076697975
0.016621463 0.030110206 -0.08476275 0.07629492 0.08891718 0.053943105 0.013900325 0.08185764
-0.100458734 -0.050683007 -0.025583787 -0.07773122 -0.006547859 0.0067222114 -0.018259209 -0.095658086
00000000: 742d 81bb 19a9 d7bc 379b b6bd 6d17 aa3d
00000010: 86e0 743b eaa0 fb3d cd7b aebc f388 5d3d
00000020: d50e 02bc 28da 913d 8a65 583d 98cb 823c
00000030: f3bc 9c3d 6a61 d6bc 0fbc a53d 8c8e c5bc
00000040: 1a68 eebd 8d2a dcbd 5cc9 823d 777f 20bc
00000050: 86cd 463d c50d f93d 202f 06bd 6fa4 673d
00000060: 6095 7f3d 6150 0cbd bae1 65bd 5aca 26bd
00000070: 9f70 ce3d a10c dd3c 9f3d 983d 83f8 203d
00000080: d219 5c3d ae21 513d 713a a9bc acad 403c
00000090: caa4 923d 4d0d b93d 8b1f db3c 47da 423b
000000a0: fd37 d93d a7d6 7abc c717 1b3c 5dce 9c3d
000000b0: 60fa c3bc 2df7 10bd 5944 863d fd32 073e
000000c0: 1e1c aebd bf16 45bd 3b71 efbc c413 7ebc
000000d0: 22b8 b9bc 1d1b 673d 7363 e8bd 5178 c73d
000000e0: 8150 623d 7883 853c 89ff ae3d 1cf9 7c3c
000000f0: 3cd3 af3c 93cb 15bd 4607 1d3d 0430 88bd
00000100: 8f70 013d c172 7c3d 2045 81bc 3072 273d
00000110: 2063 67bd 4fbe 1bbd af9c 64bd 0960 103e
00000120: 13d7 123b 4312 af3d c2c9 493d dd76 11bc
00000130: 45c2 80bd eaee c0bd fc1a 22bc 3a90 b63c
00000140: cde8 873d 0a1c a93d 3d98 d1bd e58f 913d
00000150: a0a7 bcbd 602f 06bd 97d5 423c aa96 9a3d
00000160: 95b2 fabd a3dd ad3c e438 173d ba7f 9cbd
00000170: 4e20 9c3d 4225 c9bc 495a cbbc 53f8 bb3d
00000180: 61cc d5bd ee22 413d 297e b8bd 4525 b93d
00000190: 874e 8fbc 65be 143d 7514 d2bd c15b db3d
000001a0: a154 94bc 225c ebbb 6da5 143d f3f7 ef3d
000001b0: 6e0b ad3b 7c7a 62bd c992 04bd f703 8e3d
000001c0: 7e19 39bc 6789 a33d d448 373b c21f b83d
000001d0: f24f e33c e6d3 9abd a287 b4bd 1a51 21bd
000001e0: 9bca 743d 746f 6bbd 979e 793c 1969 32bd
000001f0: df6d 3c3d a1aa 8f3d e287 3ebd 8edc debd
00000200: 3887 3f3c 003b 3e3d 930d f83c 780f 463d
00000210: 92c2 6a3d 9527 3ebd ea14 2dbd d27a 10bc
00000220: e8f2 743d 99b7 833d 7c6e 9a3a 291e c4bd
00000230: 0d19 a9bc d7ac 813c 2130 533d b025 0a3d
00000240: 7a5a 3b3d 52da 823d 35d7 42b9 deeb a83d
00000250: ba41 103d 566e 42bc ad48 05bd f230 813d
00000260: e4dd 2bbd 2b48 12bd ab71 8fbb 2764 5dbd
00000270: 2688 90bd f512 32bb 3abf 93bd c9d7 6cbc
00000280: 8572 5e3d 0e42 023b 9890 953d 2b89 7f3b
00000290: d920 86bd eaa8 eabd 2bb2 c8bd 20d6 efbb
000002a0: 213a 833d 53f3 58bd f618 ffbc 9342 c1bd
000002b0: e13f bf3c 21a7 3dbd 592f 813d 1e83 39bd
000002c0: be01 9abc 975e abbd 4f44 c53d cf4b 013d
000002d0: 5a4b f13d e503 f0bc b255 453c 7c9c f53c
000002e0: 6784 74bd f6a5 dfbb 0f2f 03bd 119d 183d
000002f0: c221 a9bd 4658 a1bd 5376 7dbd 6c51 c6bd
00000300: 7051 84bd e3ea ae3c 02cb fb3c 35bc c93c
00000310: c605 eb3c 42e2 9cbb de54 c43d 0f0e b3bb
00000320: 3bb5 e83d 21c1 bdbd 0365 d63d 98fb c0bd
00000330: 021c 8bbc 4725 25bc be93 71bd b9d5 a33c
00000340: 4d37 b0bd 6c16 313d ef1b aa3c 77d9 ec3c
00000350: 6cd3 4dbd 025f 9cbd 310a 693d 655b bcbb
00000360: dcdf cd3c e00a b1bc a578 d43d 9170 6c3b
00000370: c106 c73d c264 01bd d040 c0bc 9e79 813d
00000380: 2a0c bcbc aead 11bd 4c63 4e3d 8e73 1b3d
00000390: 217e f03c 1af4 1dbd 0e49 25bd f6e5 85bd
000003a0: bc19 a23b 8909 e43c 43ac 893d 5b1b 22bd
000003b0: b2c4 89bd ecdd d03c e39c 56bc d413 9d3d
000003c0: bc29 883c aea9 f63c 1898 adbd 8340 9c3d
000003d0: 361a b63d 72f3 5c3d 30be 633c faa4 a73d
000003e0: 4fbd cdbd fc98 4fbd 1795 d1bc 8c31 9fbd
000003f0: 6c8f d6bb ff45 dc3b 5694 95bc 63e8 c3bd

actor.4.bias f4 [18]
0.022125661 0.039018773 -0.07674745 0.019552749 0.003467856 0.036174387 0.06688 -0.11037551
-0.02981522 -0.07536692 -0.06272511 -0.009512584 0.045751914 0.042982142 -0.0050715455 0.05614846
0.047483202 0.0735564
00000000: e040 b53c 26d2 1f3d c42d 9dbd 162d a03c
00000010: f844 633b 982b 143d 62f8 883d 8e0c e2bd
00000020: 0c3f f4bc f959 9abd 0676 80bd abda 1bbc
00000030: 5c66 3b3d 0b0e 303d 352f a6bb edfb 653d
00000040: bf7d 423d bda4 963d
