catmouse_experiments/checkpoints/ppo_actor_env_comp_exp_0_run_0_catmouse.pth (torch, 99400 bytes, 6 tensors)

actor.0.weight f4 [128, 40]
00000000: 67dc a5bd 5bc5 a1bc 576b 193e 8973 8fbc
00000010: ba30 233e 0723 963d 6dc0 16bd b5f5 903d
00000020: c8ab 163d a955 573e 2c01 5d3e dd53 973d
00000030: 6954 8e3d 9ae4 1d3e 65cf ac3c d7ba 4b3e
00000040: 4c6f acba f8b4 06be 83c6 2b3c f877 abbd
00000050: 584d 0d3e 7b99 29bd 600f e13c 276d 5ebe
00000060: 7d99 8dbe 8b50 c6bd 8a3f 1b3e a8ea c7bd
00000070: 0aea adbd 0c98 853e d304 653d f451 e83d
00000080: a630 f63d 40cb 4cbe 144d d33c 8bda b1bd
00000090: 30d1 623d e8ec 933b 2ab4 7abd 0d07 dd3d
000000a0: d305 a1bd 46a5 833d 27a7 0e3d bea5 d43d
000000b0: 8023 71ba ae1d 8f3d b725 9cbd 565d 17be
000000c0: 7bf2 fc3d b092 473d bfa7 2bbe 68fe bebc
000000d0: c7ae a2bd 4e12 8cbd 50ab 52bd b157 2f3e
000000e0: 4d0c b8bd c62d 3ebc 880b 793e 32eb 743d
000000f0: 71df 0fbe e3e2 8ebd 192a 203e 5ffd bbbd
00000100: 09fa 0f3d 8b58 5cbe 9771 70be 155f cc3d
00000110: 0d80 81bd e557 2abc bd78 283e 32d8 17bd
00000120: c3ec 29be 51c9 7fbe 144c 68be ca86 6bbe
00000130: c61f 5d3c 114a fbbd bc58 833c ff6a 86bc
00000140: a05f 233e 5f66 a8bd 72c8 8e3d b0e4 98bd
00000150: eac3 11bc 96f8 a6bb 0827 72bd 88e6 d7bd
00000160: 3d59 1bbe c5f2 903d 65f7 46bd 6f6a 3ebe
00000170: 9412 043d 0080 353d 1065 c73d 56d6 01be
00000180: dd63 103c b3ce 02bd 6ee9 713c 8c17 8f3e
00000190: b056 0a3c ce6e 4a3a 435c 7ebd 1a9d 933c
000001a0: 0ab8 b23e de01 8f3e b69c 9c3d 2c0a 62bd
000001b0: 8fad 003e 4ab4 63bd aaad 2bbd 87e9 363e
000001c0: 534f 3a3d 7766 8b3e c0a3 713e d0aa 1bbe
000001d0: 0989 cb3d fd57 e43d 2742 123e 2049 823d
000001e0: 8713 fcbd de1f 2b3d bcc5 393d 5474 96bd
000001f0: 76c4 6dbd 607b 20bd 6a45 253b 660e 623e
00000200: 79e4 7fbe f07a d1bd 622f dd3b 1abc 5abd
00000210: 85fb 143e f901 cd3d 1ad6 ff3c 0c2e d43d
00000220: 6f31 aa3d 5012 23be 21c4 0abd 420f a93d
00000230: d1d0 b13d 0795 06be 8884 bc3d 0f55 f63d
00000240: 3837 013d 743f 453e 01cc 3e3e 5d45 4b3d
00000250: 1745 d63d 37be 743e 03f8 d0bd 1c83 ffbc
00000260: d48d 3a3d fb7d 3b3e a320 543e 4d70 7d3e
00000270: 4b91 e93c 5cbb dd3d 6311 9b3d 72a1 b63d
00000280: 0381 27be c1f9 023e 398f 31be a0e0 0bbe
00000290: 2e14 323e 9de1 f73d 9d81 d53c cb7e cd3d
000002a0: 16c9 c8bd 4d5e 75bd 67dc d83d 8865 c63c
000002b0: de45 2a3d 85f4 673d 61f9 913d 2606 b9bc
000002c0: 9e19 003a 3f65 cd3d 6cd1 a8bd 289a 743e
000002d0: 27d7 213e 1c4a 60be a391 1dbe 4697 bc3d
000002e0: 7bc1 1d3e 9892 913e 29c9 b23e 3ea9 b5bd
000002f0: b450 083d 7629 0e3e 631e 11be a79e 333e
00000300: a6ec 40bc 9854 993c 681d 8d3e 367b ba3d
00000310: 91a7 453d f12f 043e b04b e03c 9a37 dcbd
00000320: 5fb1 f43d 2583 acbd 3be7 9bbd 10a7 43bd
00000330: 430c d23d 7023 58bc a52a 8bbc a37d bebd
00000340: d5be eebc 4a83 4e3e 8b76 50be ca6e f5bc
00000350: e83a e8bc c593 a03d f17d a33d bee1 62bd
00000360: 3b56 b3bd 05e9 79bd 4c17 263e 77fe bb3c
00000370: 4011 adbd 6489 5e3d e757 3d3d df9d 0fbd
00000380: d730 893e f8a3 e9bd ca99 21be 37f8 053d
00000390: f4ea 2dbe 3f82 e7bd fb0f be3c 0e28 2b3e
000003a0: f992 01be cf0a 2c3e 1b52 523d a7dd 77be
000003b0: fb4a f7bd 872f 83bd ff25 97bd d511 0fbe
000003c0: c54c 73bd 5e6c a23d 2087 c23d 3626 b1bd
000003d0: 85df e6bd 2542 d9bd 5f12 8c3d 60bf ec3c
000003e0: 65a8 89bc 8e2a 433c 0dbf 133d c55b 3dbe
000003f0: bb8c 52bd 074a 913d 8b0e 1cbd 53f6 1abe
-0.08098679 -0.019747427 0.14982353 -0.017511146 0.15936556 0.073309 -0.036804605 0.07078115
0.036784917 0.2102877 0.21582478 0.073890425 0.06949694 0.15419236 0.021094987 0.19895492
-0.0013155728 -0.13154972 0.010484341 -0.083724916 0.13799036 -0.041406136 0.027473152 -0.21721326
-0.27656165 -0.09683331 0.15160957 -0.09761554 -0.08491905 0.26092565 0.055912804 0.11343756
0.12020998 -0.19999409 0.02579359 -0.08684262 0.055375278 0.0045143254 -0.061206974 0.107923605
-0.07862439 0.06428008 0.034827378 0.10383175 -0.00091987103 0.06988083 -0.07624381 -0.14781699
0.12350937 0.048723876 -0.16763209 -0.02331467 -0.079434924 -0.06839429 -0.051432908 0.17123295
-0.08986721 -0.011607593 0.24320805 0.059794612 -0.1405008 -0.06976869 0.15641059 -0.09179186
0.03515056 -0.21518151 -0.23480831 0.09979073 -0.06323252 -0.010396932 0.16452308 -0.037071414
-0.16594224 -0.2497914 -0.22685272 -0.23000637 0.013496345 -0.122699864 0.016033523 -0.016408442
0.15954447 -0.08222651 0.06971826 -0.07465494 -0.008896807 -0.0050955517 -0.059119254 -0.10542017
-0.1517076 0.070775546 -0.048575778 -0.18595289 0.03224428 0.044311523 0.09736073 -0.12679419
0.008812872 -0.031935405 0.014765127 0.27947652 0.0084435195 0.00077221997 -0.062099706 0.018019248
0.34906036 0.27931112 0.07647078 -0.055185482 0.12566207 -0.05559186 -0.041913666 0.17862521
0.045485806 0.27226612 0.23597622 -0.15201879 0.09938247 0.11149595 0.14283048 0.06361604
-0.12308412 0.041778438 0.04535459 -0.073464066 -0.058048688 -0.03918016 0.0025218376 0.22075805
-0.24989499 -0.102285266 0.0067500332 -0.053402044 0.14549072 0.10010142 0.031230021 0.10360345
0.0831021 -0.15924954 -0.03387845 0.08254863 0.08682407 -0.13142787 0.09204966 0.120279424
0.0315468 0.19262487 0.18632509 0.049626697 0.104623966 0.23900686 -0.102035545 -0.031190448
0.045545414 0.18309776 0.20715575 0.2474987 0.028511664 0.108267516 0.07571676 0.08917512
-0.16357808 0.12790586 -0.17339791 -0.13659906 0.1739051 0.12103579 0.026062781 0.100339495
-0.09803979 -0.059904385 0.105889134 0.024218336 0.041570537 0.056629676 0.071276434 -0.02258594
0.000488663 0.10029077 -0.08243069 0.23886931 0.1580473 -0.2190327 -0.15387587 0.092085406
0.15405838 0.28432155 0.34919098 -0.08870171 0.03328009 0.13883004 -0.14171748 0.1754099
-0.011775171 0.018717095 0.27561498 0.09105532 0.048255507 0.12908913 0.02737984 -0.10752793
0.11947893 -0.08423451 -0.07612463 -0.047766745 0.10256245 -0.013192043 -0.016988108 -0.09301307
-0.02914373 0.2016727 -0.2035772 -0.029960055 -0.028348401 0.07840685 0.07983006 -0.055391066
-0.087566815 -0.06101324 0.16219825 0.022948487 -0.08450556 0.054330245 0.04622641 -0.035062667
0.26795074 -0.11408228 -0.15781322 0.03270742 -0.16984159 -0.11304139 0.02320098 0.16714498
-0.12653722 0.16800998 0.051347833 -0.24205647 -0.12074848 -0.064055495 -0.07380294 -0.13971646
-0.059399385 0.07930826 0.09498429 -0.08649866 -0.11273102 -0.10608319 0.068394415 0.028899848
-0.01680393 0.011912001 0.036070872 -0.18492039 -0.051403742 0.07094198 -0.038099807 -0.15133028

actor.0.bias f4 [128]
00000000: bfad 053d 3f6f c83c 97b1 d5bd fa12 0fbd
00000010: ab05 dbbd eaae b53d bebc 03be 3974 cb3d
00000020: ee2f febc c341 d03c 327b 463c 262d 8c3d
00000030: e8f5 d33d 3857 06bc ef1f c2bc 2c8f f13d
00000040: b2b9 903b feef adbd d56b 033e 9fc2 093d
00000050: 037d 98bd 9010 aabd 0acc 5c3c 799d f83b
00000060: 1fac 043d d4f4 94bd c12d 2ebd 5c8e 743c
00000070: b45c 9fbd cf23 14be 9e74 07bc 2ae5 11be
00000080: d992 20bd 1724 573d f03a dbbc c66e 313d
00000090: 87c9 dc3d 6dda 04bd 8001 0abc 501f 80bd
000000a0: e4c6 fcbb 83ed c3ba 860f 7bbd f846 c2bd
000000b0: 6cd0 13bd f582 193c 87f6 a33d c04c a4bc
000000c0: 37db 6d3d 2f0d fc3c 758b 873d 875b 69bd
000000d0: 6695 edbd 5f30 a1bd 7beb cd3d 31fb 05bd
000000e0: d552 df3d b162 823d 44f2 da3d 8b9b 203e
000000f0: 0124 24be 2ba3 853d 05cc a13c 5d43 0cbe
00000100: 22ed 36bd 64a9 813d 2ffc d23d 8e18 3bbd
00000110: 054f 9ebd 550f dc3b f146 0abe 8196 5ebd
00000120: 4687 fbbd c93a d23d db34 cbbd e65c bdbd
00000130: 7d29 53bd 283b 46bc 0bc0 593d 993d f5bc
00000140: d2f1 35bd d83b debb b044 6bbd d1db b4bd
00000150: 8802 9bbd 0ab8 ff3d b5dc 25bd 308a 163e
00000160: e5a5 d3bc 2384 843d 5484 f93d f41a 7d3d
00000170: 4d9b 1a3e 3c5e 3bbd d4ee df3d 94a1 323d
00000180: ba14 143c 18c6 8dbd c5f4 c4bd a388 50bd
00000190: 39cf 20be 53da 1e3e 8ae1 e13d 9422 0bbd
000001a0: 8253 153d c7fc e9bd f279 143e a54f 9e3d
000001b0: d275 e93d 2d7d cd3c cb6f 0cbe 1f93 dabd
000001c0: 0b95 143e 3fd2 42bd f70e a63d c7be 393d
000001d0: b5e9 0b3d 818e aabc 4424 27bd 3e25 353e
000001e0: 8ef9 363e 6f4f 44bd d2e4 b3bd cc0c fc3d
000001f0: 2790 1c3c b956 003e 9d1c b4bd 30c1 a33d
0.0326364 0.024467109 -0.10434263 -0.034930207 -0.106944405 0.08871253 -0.12864968 0.09934277
-0.031028714 0.025421983 0.012114333 0.06844549 0.10349637 -0.0081995055 -0.023696868 0.11794886
0.004416668 -0.084930405 0.12834103 0.03363287 -0.07445719 -0.0830394 0.013476381 0.0075871316
0.03239071 -0.0727326 -0.042524103 0.014926519 -0.077813536 -0.14466785 -0.00826755 -0.14247575
-0.039202545 0.052524652 -0.026761502 0.043318532 0.10780626 -0.03243487 -0.008423209 -0.062559724
-0.0077141393 -0.0014948103 -0.0612941 -0.094861925 -0.03608744 0.0093696015 0.08006006 -0.020056129
0.058070388 0.030768005 0.06618396 -0.056972053 -0.11600761 -0.07870554 0.1005468 -0.032710258
0.10904471 0.0636648 0.1069074 0.15684335 -0.1602936 0.065252624 0.019750604 -0.13697572
-0.04465974 0.06331137 0.103020065 -0.045677714 -0.077299155 0.006715695 -0.13503624 -0.05434275
-0.12281661 0.10265119 -0.09922191 -0.092462346 -0.05155324 -0.012099065 0.053161662 -0.029936599
-0.04442007 -0.0067820363 -0.057438552 -0.08830989 -0.07568842 0.124862745 -0.040493686 0.14701152
-0.02583594 0.064705156 0.12183443 0.061793283 0.15098305 -0.045744166 0.10934225 0.043611124
0.009038145 -0.06922549 -0.096169986 -0.050911557 -0.15704049 0.15512972 0.11029346 -0.033968523
0.036456592 -0.114251666 0.14499643 0.07730035 0.113994256 0.025084103 -0.1371452 -0.10672592
0.1450998 -0.047563788 0.08108323 0.045347955 0.034158427 -0.020819904 -0.04080607 0.17689988
0.17868635 -0.047927316 -0.087838784 0.12307128 0.009555853 0.12533082 -0.0879452 0.07995832

actor.2.weight f4 [128, 128]
00000000: ecb4 d53d 62f2 98bd 0e0c 85bc 3a76 9dbc
00000010: 05b6 4cbb 9580 b93d 7e5a 693c 768c a53d
00000020: bba5 efbc f82c 903d 8259 d3ba 086f 1f3e
00000030: 0446 84bb f601 113d a6e1 9dbd 5f57 123e
00000040: f6d3 093d 5512 f13c b9b1 f73d c493 573c
00000050: aec4 2bbc f1cf 91bd 4953 d53d 5f5c 7cbd
00000060: 9de1 8c3d bfaa 89bd a344 5f3d 98ae b13b
00000070: e5b2 7abd 4ae6 ecbd 5ed6 e6bd 51dc debc
00000080: 6335 a6bd fc71 693d 5b83 ce3d 6d65 c3bc
00000090: 685a c73d c14b 91bd 7719 2e3c f03b e53c
000000a0: b3ad ebbd 253c 2e3d e3be 853d 4eb0 00be
000000b0: f64a 29bc 106b bebc 016c 1b3e 3170 d7bd
000000c0: 552a 2fbd 5bbb 093e 459f be3d 6766 533d
000000d0: dc51 0ebe 03f3 14be f055 0a3d ec50 bd3d
000000e0: 6f59 a83c 4b75 b73d 9ec1 e63c 0121 e53c
000000f0: 7ffc 37bd dd3c 0e3e 1bce 62bd 9f1e 22bd
00000100: bcf6 2d3d 5d9e 0e3e 5a19 cd3d 0f83 7ebd
00000110: 20e9 47be a4b0 38bd f100 f6bd 2e69 c2bd
00000120: 6ba6 4ebd 47c2 08bd 21f2 10be 9405 e7bd
00000130: 1839 73bd 3d3d 46bd 8d9f 023e ec7e 2f3e
00000140: 36f8 f63d e609 3e3d 7c9e f5bc 23b0 3cbd
00000150: c147 993c 515a 93bc 9135 f9bc 9253 5c3d
00000160: 0d70 f6bd 47a8 2b3d 75b8 503d 57fe be3c
00000170: a28b 67bc 5b0b 6dbd 394d 043e b959 363d
00000180: 4641 14be e5da 9bbd 46aa adbc e48a 6abd
00000190: 8412 16be 3730 1bbc 12c1 793d becf 7ebd
000001a0: 768e 873d 2c41 393c 6937 d03d d873 323d
000001b0: 2da9 4d3c ed17 c73c ea18 60bd a352 0ebd
000001c0: a7ef f4bc 0354 bcbd 54e9 773d 49dd 173e
000001d0: e658 983d 1426 1dbd fe53 9abc d6f1 3c3d
000001e0: c756 dbbb 946c b4bd 46a1 f7bc bc4e 113d
000001f0: d14e 893c 673f b93c d45d 83bd d6f1 ee3d
00000200: 88c4 033d eaf6 69be c81a d73d 50d4 3f3d
00000210: d464 873d 71e2 b0bd 3058 893d 79b6 33bd
00000220: 4b4f 0cbd cd23 823e 4445 e8bc 0546 bc3d
00000230: a5c6 86bd b535 323e 5dff 893d ad7d d43c
00000240: 4f4b 28bd 9b20 91be 0e2e 0abe ec4b 76be
00000250: f1cc debd fb98 903d 6fe3 24be a59c 943d
00000260: c8cc 24be db2c a9bd e432 253e 77b1 bbbd
00000270: c35a 64bd 0cf7 28be 0f7c 783c 60eb 27ba
00000280: cfd3 aabc 214d 6dbd 144e fa3d 27a7 39bd
00000290: cc69 273d c6c9 1b3d 0b8c 593d 0bc3 323e
000002a0: 7e36 7dba 0e7d 9c3d 9130 e63d d111 24bd
000002b0: 1377 2ebd aaa3 173c 1cd2 f3bd 1e01 6a3c
000002c0: 2a4c 2abe 5e22 1cbd a442 18bd 08d8 863c
000002d0: 2459 283c 8c6b 3dbc 47d8 223e 42ad 253e
000002e0: affc c83d 34fa 0b3e 5ada a63a a440 e5bd
000002f0: f7b5 fb3d 62b3 10bd 524f 653e aca0 6e3c
00000300: 2dea 89be fc6d d1bd 1a8d ecbd 75f8 d4bd
00000310: 1c7b 3dbd d676 d93d 0ad5 093e 41e6 14be
00000320: 4f38 f1bd 6695 edbd 34ac e93d bcaf 1dbe
00000330: 7412 ba3c e4d7 4a3d d2e6 b4bb f895 d1bb
00000340: 61b0 b43c f3f9 7ebc c856 e0bc df01 d2bd
00000350: 2d8c 363e 4b3d 81be 60f1 9dbc a2f4 46be
00000360: 2248 2bbe c8fb 6fbb 1b12 3abd 5aad d3bc
00000370: edee 0dbe 94be 41bd 88e1 c1bd da1c 453c
00000380: aac5 fabc 666b 6a3c f81c d63d 4b77 c1bd
00000390: d63a 0e3d 9f69 33be 5dfb 75be 7070 3abd
000003a0: efa9 693d a061 d23d 5c45 00bd f72b cc3d
000003b0: 9ab9 193e dcf3 ad3d 0a33 a0bd 7b42 803d
000003c0: 551e 74bd eadf 05bd 986a d6bd 21cf 67be
000003d0: 2693 363e 3278 be3d 1f61 80bd 6b6d 11be
000003e0: 127c 14be 5e06 39be 0370 44bd 8d54 1bbe
000003f0: 1015 41be 4a76 2bbe c78b 213e a6d2 9d3d
0.10434899 -0.07468106 -0.0162411 -0.019221414 -0.0031236422 0.09057728 0.014242766 0.080834314
-0.029253831 0.07039827 -0.0016124698 0.15569699 -0.004036667 0.03540226 -0.07709055 0.14291142
0.033649407 0.029427687 0.12094445 0.013157789 -0.010483904 -0.0711974 0.10416276 -0.06161153
0.0687897 -0.0672202 0.054508816 0.0054224245 -0.061205763 -0.11567362 -0.11271356 -0.027204664
-0.081156515 0.05699347 0.10083648 -0.023852075 0.097340405 -0.07094527 0.0106261885 0.027982682
-0.1150774 0.042537827 0.065305494 -0.12567255 -0.0103328135 -0.02324441 0.15177919 -0.10519446
-0.04276498 0.13450377 0.09307722 0.05161133 -0.13898414 -0.14545827 0.033773363 0.0924395
0.020550458 0.08957919 0.028168496 0.027969839 -0.044918533 0.13890405 -0.05537234 -0.039579984
0.042471632 0.13927598 0.10014601 -0.062136706 -0.19522524 -0.045090333 -0.12011898 -0.09492718
-0.050451677 -0.033388402 -0.14154865 -0.11280361 -0.05938062 -0.048398245 0.12756176 0.1713826
0.12059061 0.04639616 -0.029982798 -0.046066415 0.018710973 -0.017987402 -0.03042105 0.053790636
-0.12033091 0.04190853 0.050957162 0.023314638 -0.014132412 -0.057872158 0.12920083 0.04451916
-0.14478025 -0.0761011 -0.021199357 -0.057261363 -0.146555 -0.0094719445 0.06097514 -0.062209837
0.06618969 0.011307042 0.10166819 0.04356751 0.012552542 0.0243034 -0.05471126 -0.034746777
-0.029899431 -0.091957115 0.060525253 0.14830507 0.07438831 -0.038366392 -0.018838879 0.04612907
-0.0066936943 -0.08809772 -0.030228268 0.035475478 0.016761215 0.02261324 -0.06414381 0.1166722
0.03216985 -0.22848096 0.10503155 0.046833336 0.06611028 -0.0863694 0.067062736 -0.04387519
-0.034255307 0.2541794 -0.02835334 0.09193043 -0.06580857 0.174033 0.0673816 0.025938833
-0.041087445 -0.28345188 -0.13494131 -0.240524 -0.10878933 0.07060429 -0.16102384 0.0725644
-0.16093743 -0.082605086 0.16132694 -0.09164708 -0.05575062 -0.16500491 0.015166297 -0.0006405618
-0.020852951 -0.057934884 0.122219235 -0.045325425 0.04087238 0.038034223 0.05311207 0.17457215
-0.0009659304 0.0764104 0.11239732 -0.040056054 -0.042594027 0.009255329 -0.119053096 0.014282493
-0.16630617 -0.038118713 -0.03717293 0.016460434 0.010275159 -0.011561286 0.15902816 0.16179374
0.098138206 0.13669664 0.0012729869 -0.1119397 0.122905664 -0.035327323 0.2239354 0.014564674
-0.26936474 -0.10226056 -0.115503505 -0.10398952 -0.046259984 0.10618369 0.13460174 -0.1454096
-0.11778318 -0.11600761 0.11409798 -0.15399069 0.022713877 0.049522296 -0.00552068 -0.0063960515
0.02205676 -0.015562522 -0.02738513 -0.10254263 0.1782691 -0.25242075 -0.019280136 -0.19429258
-0.16726735 -0.003661858 -0.045427423 -0.025839496 -0.13860674 -0.04730089 -0.09466845 0.0120308045
-0.030611832 0.014307832 0.10454744 -0.094465815 0.03472408 -0.1752076 -0.24021669 -0.045517385
0.057046827 0.10272527 -0.031316146 0.09969323 0.15012208 0.08493778 -0.07822235 0.0626268
-0.05959924 -0.032684244 -0.1046955 -0.22637607 0.1782957 0.09300269 -0.062685244 -0.14201896
-0.14500454 -0.18068835 -0.047958385 -0.15168972 -0.18855691 -0.16744342 0.15775977 0.077061936

actor.2.bias f4 [128]
00000000: 5291 db3c 6e4b c6bd f216 c83b f687 c5bd
00000010: 5101 073c 6509 e53d c48a 553d 4cfc 89bd
00000020: f48a ba3d 1a09 62bd 482e 803d eb86 8ebd
00000030: 86a0 84bd 779f 5d3d a103 15be 97bf 0fbd
00000040: 8524 aebd c2ab 89bd c360 ad3c 034e dcbc
00000050: 4fb3 c53c 7396 10be 24a2 0fbe f26e b13c
00000060: 8012 13bd adfd 2c3d cfec a63d a31e 4a3d
00000070: fee5 c73d 5f1b c33d 6daf 8f3d 985c 23bd
00000080: 7256 4cbb 2a7c 733d 3ce5 2cbd abb6 8c3c
00000090: 6c71 40bd 07e6 e4bb f4a3 d6bd 9c2e 36bd
000000a0: 8e15 1b3c 4831 61bd f36c 1dbc f449 63bb
000000b0: a67a 27bd a1e7 433d 5962 843d 904a 813d
000000c0: cdd1 f83c 9c28 683b 2d15 773d ce08 0b3c
000000d0: 49d5 823d 64dc 72bd 5770 233b 7b1b 183d
000000e0: 6653 b33d 3cff 81bd a652 11be b3f8 95bd
000000f0: ced7 c3bd 6523 c43d 4011 ab3d 85f1 533d
00000100: acd7 d63c b238 9dbc 5196 a83d bc9a 27be
00000110: 952b 9bbd 33a2 2b3c 742e dc3c e13d bd3c
00000120: 4b3f 0c3c 020a 033e e6c8 a73d e63c ab3c
00000130: 1c96 243d bf95 9bbd e994 54bc b3ae 00bd
00000140: 82ae 79bd 65c3 20be c9b1 61bd d28a b8bc
00000150: 6eca 5f3d 453e d03d f8e8 d53d 690b 86bd
00000160: d502 0f3c dff1 80bd 08ff 873d f251 60bc
00000170: f508 9dbc 8f06 9ebd 6b22 573d 5951 743d
00000180: 1923 a0bd 5dbf 943b 9335 9cbc 132e 513d
00000190: 4e8a e33d dc01 7fbc 3c5d 37bd dc3c 65bd
000001a0: 8783 71bd 9203 3d3d 1a46 8e3d 122a 4bbd
000001b0: cf28 813d d5bc c3bd e374 58bd 3916 4bbe
000001c0: d696 d33d 9293 453c bb92 893d 6269 aabd
000001d0: 5df3 9dbd 70c5 aebc e31a b1bc c6c3 143e
000001e0: 808e 17bd 1004 db3d d104 963c d6a1 5e3d
000001f0: 9171 373d 40a4 85bd c9bc a8bd b9f7 fbbc
0.026802693 -0.09682356 0.006106251 -0.09645073 0.00824006 0.111834325 0.05213429 -0.06737575
0.091085345 -0.05518446 0.062588274 -0.06959327 -0.0647593 0.054107156 -0.14552166 -0.035094824
-0.08503059 -0.06722213 0.021164304 -0.026892668 0.024133353 -0.14119892 -0.14026695 0.021659348
-0.035906315 0.04223411 0.081506364 0.049345624 0.097606644 0.09526705 0.07015882 -0.039883226
-0.0031179455 0.059444584 -0.042210802 0.017176947 -0.046983168 -0.006985429 -0.1048049 -0.044478044
0.009465588 -0.05497864 -0.009608495 -0.003468153 -0.04088845 0.04782832 0.06464071 0.0631305
0.030373478 0.0035424596 0.06032293 0.008485986 0.06388337 -0.059292212 0.0024938786 0.037135582
0.08756141 -0.0634751 -0.14191684 -0.07322826 -0.09562646 0.095770635 0.083528996 0.051744003
0.026225887 -0.019192073 0.082317956 -0.1636762 -0.07576672 0.010475683 0.02687762 0.023100795
0.008560012 0.12796786 0.08192615 0.020903062 0.040182218 -0.07596921 -0.012974956 -0.031416606
-0.06095744 -0.15699537 -0.05510119 -0.022527132 0.05463641 0.10168127 0.10444826 -0.06545145
0.008728703 -0.06296133 0.0664044 -0.013691412 -0.01916931 -0.07716095 0.052523058 0.05964789
-0.07819194 0.004539414 -0.019068515 0.05106933 0.11110364 -0.015564408 -0.04476665 -0.055966243
-0.058963325 0.046145983 0.069469646 -0.04960067 0.06306612 -0.09557501 -0.052845847 -0.19832696
0.10331504 0.012059109 0.0671744 -0.083208814 -0.077124335 -0.02133438 -0.021619266 0.14527807
-0.037001133 0.10694134 0.018312844 0.054353558 0.04478604 -0.06525469 -0.08239133 -0.030757772

actor.4.weight f4 [18, 128]
00000000: c311 32be a82b 0c3e 5919 37bd 1f91 073d
00000010: 4e3c 0fbc 64c6 10be d0a0 e6bd 757c f7bd
00000020: eaba 48bd 5543 f13d f9fb 023c ba81 d13d
00000030: b034 8a3c 8c73 9ebd b1bf cc3d 386b 193e
00000040: 8cbf 403d e0ae d73d 6d8b b2bc a022 5e3a
00000050: f170 4c3e 915c 173e 19c7 333e 4900 033e
00000060: 7847 0e3d 5f7f 6dbe 7261 403c 6544 09be
00000070: b71e dcbd 892e cebd 9460 feba 162b a6bc
00000080: 2a0d 253e bcb3 7ebd b0de 113d e62e 563d
00000090: 419b 35be d8ab a13d c164 2a3e ca49 183d
000000a0: 3a9e 75bb 98d3 d73a 138f 30bb 7011 273e
000000b0: f7cb 04be c2c3 17be bdb1 81bd 1fd4 bdbd
000000c0: e64f 08be d536 c8bc f8e7 dcbc 728b aebc
000000d0: 29a4 23be 9e08 5c3e 9c6f aebd 8679 503d
000000e0: c885 83bd 2162 00bd fc5a 3e3e 22f3 8d3d
000000f0: bd0c fcbc 6230 81bc 1aad 5dbc 0a37 b93d
00000100: 85ed 6bb9 723f d83d cdb9 08bd f85b c13d
00000110: 5586 463e adc3 e03c df49 7f3d 163d f9bd
00000120: a349 193d 834e 46be fe31 22be 221d 2cbd
00000130: 5e88 99bd 61ff a23d affa a23d 6ca7 2e3d
00000140: 7d0d cd3d a5d2 923d e37e b93d 027a a93d
00000150: 1e22 49be 6b2f 2ebe 57fc 94bd 25b2 1a3d
00000160: 56c1 35be f9c9 d13d fd21 483d c322 1c3d
00000170: d5bb 273e 7513 2a3e 2078 11be 03c5 dbbd
00000180: 6f44 873d b30e 20bc eda8 69bc b289 d6bd
00000190: 3034 debd 4a5b 4e3e 2f2e 963d 8dae 96bc
000001a0: b92c 61bc 7d72 ebbd 5e09 f4bd e3c5 8e3d
000001b0: 1a9d 9a3d 8a2a b23d dfe7 953d a68f 593e
000001c0: 13e3 a6bd f97c 3a3e bf04 683c 30ae 1c3e
000001d0: 0347 1f3d 9f11 633d f697 253e 7680 27be
000001e0: 070c 373e f007 5bbd becc 2bbe bf4b 49be
000001f0: 36e9 1c3d ebe1 ae3d 444c 053e eaff acbd
00000200: b5aa 36bd 43c4 703b b809 56bb 5a69 ab3d
00000210: ccbb fd3c a51b c0bd 82a4 c7bd 516f e43c
00000220: 4026 bdbd fca5 acbd b524 b2bd 882c ed3b
00000230: f4f3 4dbc 9343 343d de1f 5d3d b9d4 1b3d
00000240: 4a20 01bd b28d 593d f975 48bc e4c2 ae3c
00000250: 67ff f93d 373c c23d 0c3b 093e 635b 5abd
00000260: 2f59 e43d 9e64 4fbd 6bd7 9f3d f8fa 40be
00000270: 6cda 75bd fb40 fe3c 7ef9 85bd 5572 2dbd
00000280: 51b2 973d 0ef9 c23a a0cd 86bc 70d8 de3d
00000290: a26f 34bd f5a5 bdbc 1b95 0abd 96f2 1c3e
000002a0: 1e9b 28be af20 e73d 99f8 06be 4e88 cebc
000002b0: 13b5 3e3d a153 15be a1ac 98bc 811a 20bd
000002c0: 8ef2 a7bd 4749 903d 0d66 b9bd 3966 663d
000002d0: dc8e 8bbd c39f 98bc bda3 febd b79b e73c
000002e0: a9e2 28bd 4d86 e6bc b6c2 e13d bde8 113e
000002f0: e7ef d93d 7f71 15bc 9ba9 dfbc b226 663b
00000300: 6a55 6f3d eb08 033d b45b ca3d 5b3d 4e3d
00000310: 5fdb 553d e11c 463d c2f0 8bbb 59db afbd
00000320: d536 f73c 7292 d6bd 2874 0dbe f34a a63c
00000330: 1fe6 e4bd 4641 7d3a 1b89 2a3d 8b2f 493d
00000340: f7bf 083d 98a1 443d 69b2 0f3e 98fb e63d
00000350: cee1 82bd 4327 d3bd 2cb5 833b d2cb a03c
00000360: 04eb 02be d28a 043e e4e3 db3c fdac 063e
00000370: e525 9b3d 4d9c 393c e994 6bbc 441c 7dbd
00000380: c7ec 18bd c563 8d3d 1d88 003d 8e7d 7dbd
00000390: 17f4 51bd 4d40 ae3d 29aa aebc 808b febd
000003a0: 2ec8 2b3d f04c c5bc 1045 efbc bd1b c4bc
000003b0: dfc6 c73c dffa 823d 67c0 993d 7c60 e43d
000003c0: 3e68 79bd 7ac0 b53d f22b 37bd 1847 6d3d
000003d0: 0af5 3d3d 0668 6c3d 25ce ae3d c276 ebbd
000003e0: 4a18 02bb 37cf 17be 5444 c1bd 8002 44bd
000003f0: e19c e83d a620 433d a166 c93d f5aa 8dbd
-0.17389588 0.13688529 -0.044701908 0.033097383 -0.008742405 -0.1413818 -0.11261141 -0.12084285
-0.04900638 0.11780421 0.007994645 0.102298215 0.016870826 -0.077368826 0.099975 0.14982307
0.047057673 0.10531402 -0.021794999 0.00084737875 0.19964959 0.14781405 0.17556418 0.12793078
0.034736127 -0.2319312 0.011741983 -0.13404997 -0.10748046 -0.100674696 -0.0019407445 -0.020284217
0.16118303 -0.062183127 0.035612762 0.05229082 -0.17735006 0.07894105 0.16639997 0.037179746
-0.0037478344 0.0016466258 -0.0026940748 0.16315246 -0.12968431 -0.1482077 -0.06332729 -0.092689745
-0.13311729 -0.024440208 -0.02696608 -0.021306727 -0.15980591 0.21487662 -0.085173815 0.050897144
-0.06422001 -0.031343583 0.18589395 0.069311395 -0.030767793 -0.015770141 -0.01353004 0.09043701
-0.0002249983 0.10558976 -0.03338032 0.0944137 0.19387181 0.027437055 0.06232631 -0.12169854
0.03742374 -0.19365887 -0.15839383 -0.04201997 -0.07496713 0.07958866 0.0795797 0.042640135
0.10012338 0.071690835 0.09057405 0.08275224 -0.19641921 -0.17010276 -0.072746925 0.037767548
-0.17749533 0.10243601 0.04886054 0.03811909 0.16380246 0.16608985 -0.1420598 -0.107309364
0.066048495 -0.00976913 -0.014261466 -0.10475482 -0.10849798 0.20152012 0.073330276 -0.01839378
-0.013743573 -0.11496446 -0.11915849 0.06971338 0.07549496 0.0869952 0.073196165 0.21246204
-0.0814878 0.18211736 0.014161288 0.15300822 0.03888608 0.055436727 0.1617125 -0.16357598
0.17875682 -0.053474367 -0.16777322 -0.19657801 0.038308345 0.08539184 0.13017374 -0.08447249
-0.044596393 0.0036738075 -0.0032659601 0.083697036 0.030973338 -0.09380273 -0.09748174 0.027885111
-0.09235811 -0.084300965 -0.086984076 0.0072379746 -0.01257037 0.044009756 0.05398547 0.038044665
-0.031524934 0.053113647 -0.012235158 0.021333165 0.12206917 0.09484141 0.13401431 -0.05330981
0.11149823 -0.050633065 0.078047596 -0.18845737 -0.060022756 0.031036844 -0.065417275 -0.042345364
0.07407058 0.001487525 -0.016455472 0.10881126 -0.044051774 -0.023150424 -0.033833604 0.15326914
-0.16465423 0.11285531 -0.1318077 -0.02521148 0.046559405 -0.14582683 -0.018637003 -0.039087776
-0.082005605 0.070452265 -0.09052668 0.05624983 -0.06814358 -0.018630868 -0.12433574 0.028272493
-0.041231785 -0.028140211 0.11023466 0.14248939 0.10641461 -0.009121298 -0.027302554 0.003511828
0.058431067 0.031990927 0.09880772 0.050351482 0.05221116 0.048367385 -0.004270644 -0.08586759
0.030177513 -0.10477151 -0.13813841 0.02029941 -0.111767046 0.00096609106 0.04163466 0.049117606
0.033386197 0.04800567 0.14032902 0.112784564 -0.06390725 -0.10310223 0.0040194 0.01962844
-0.12784964 0.12943581 0.026842065 0.13151927 0.07575587 0.011328769 -0.014378765 -0.061794534
-0.037335183 0.06903795 0.031379808 -0.061887316 -0.051258173 0.08508358 -0.021321373 -0.12428951
0.041938953 -0.024084538 -0.029207736 -0.023939008 0.024386821 0.06395506 0.07507401 0.111512154
-0.06089043 0.088746026 -0.044719644 0.05792913 0.046376266 0.057716392 0.08535413 -0.11497261
-0.0019850903 -0.1482514 -0.09436861 -0.047853947 0.11358047 0.047638558 0.09834028 -0.06917373

actor.4.bias f4 [18]
00000000: a627 43be bcf2 fcbd f71a 8dbc c6e3 093e
00000010: abdf a7bd 5037 cb3c 4732 b1bc f642 46be
00000020: c252 1f3c 41b4 91bd cef0 0b3d 7c92 0fbe
00000030: c6cb 00bb 7d22 d0bd d178 aebd a997 a1bd
00000040: 622c 903d 4c0e 413e
-0.19058093 -0.123509854 -0.017224772 0.13465795 -0.08196958 0.024806648 -0.02163042 -0.19361481
0.009724321 -0.07114459 0.034165196 -0.14020723 -0.0019652708 -0.10162828 -0.08519138 -0.07890255
0.07039715 0.1885311
