catmouse_experiments/checkpoints/ppo_actor_env_comp_exp_1_run_0_catmouse.pth (torch, 99400 bytes, 6 tensors)

actor.0.weight f4 [128, 40]
00000000: 130a fc3d 18e9 483d 076c 573e b93c 833e
00000010: db24 23bd b64e 323d 32b4 a53d 314e 7e3e
00000020: 0326 5a3e 6ba8 5a3e e307 803e b3e9 953e
00000030: 6c14 59bd ca1e fb3d 370e 033e c91d 1f3e
00000040: c4e7 c6bc 7e62 713e 2272 9abe cc76 96be
00000050: 21a5 4abd 19b4 ac3d 6656 123e 4ec2 9bbe
00000060: b77b ce3e d0ec 863e a1b0 1bbe 8646 68be
00000070: 8deb 263e 50d7 903d f35e 42be fb3e 96bd
00000080: 58aa 783e 3eb7 0e3e 7ca8 2d3e b184 8d3e
00000090: 4e56 063d 6397 7abd c8b3 bd3d 7069 95bd
000000a0: 6fd3 47bd 0a23 163e 3a6f 3ebd 57e8 ca3d
000000b0: 1a52 bd3a d225 86bd 419f b53d 6f44 8c3c
000000c0: 1f3c 86bd 350c cbbd c78e acbc 0bfd 843d
000000d0: 7460 563e 8cdc babb 753b 50bd 2fe2 a2bd
000000e0: 7236 dbbd 16f1 fdba 034b 2c3e bb3d 783e
000000f0: 5e90 e23d 0f16 86be 7221 b9bd f050 933d
00000100: 7e17 85be 1524 3fbe 0d5c abbd d0a6 933e
00000110: 9c61 58be 8261 5cbd 6c5c 8cbd b53c 823d
00000120: a8ef 08be adb2 8fbc 0540 7ebe 149d 77be
00000130: d661 07be 1dec 8c3d b06d 9f3d 024c 133e
00000140: f2fd 84bd 6e27 4c3e 3629 f73d 8233 2cbd
00000150: 784c c1bd bf6c 0dbd c7a2 62be 3a0b ea3d
00000160: 48ec e73d 6ae4 a9bc fe36 99bd 7f81 05be
00000170: e5cf 2f3e fdc2 fc3d bbd1 00bd 20b7 c4bd
00000180: b801 383e 021c 96be aff9 ad3d f941 cb3e
00000190: e863 fd3d 6589 a03c 342e bdbc 2404 653d
000001a0: 9e98 2ebe cae5 eabd d0cf 48be 7303 b73e
000001b0: 4777 5c3d 3a71 b13d 3a8e 143c 66a2 eb3d
000001c0: d1bb febd c38b 69be 76d3 c2be 447a a6be
000001d0: 5388 a13d 551c 8cbd 1245 f4bd e2b7 1abe
000001e0: b77e c83d ef13 77be abda fcbd f948 183d
000001f0: 9812 cd3d 7d1d 25be 8dc7 923d 757f 963d
00000200: 91d4 9bbc 87ce 31be 6b17 453e a937 a4bd
00000210: f168 82bd 9304 073e 3ec4 2dbd c1bd dbbc
00000220: b6d3 33bd 6daa d0bc 7933 2dbe bc15 93be
00000230: 8d16 39bd cf13 a1bc 5e2d 023d e7d0 873d
00000240: 8b55 f63d 6389 383e a733 6fbe 7e10 ddbe
00000250: 6d2d b4bd 5433 00bc 801e b3bd 6de3 bb3d
00000260: 61aa 6ebd 7dd4 323e ab82 0f3e 4882 1c3d
00000270: 7ccb 4dbd f512 b8bc 3afc 093e 986b babd
00000280: ecef 783e ade0 dd3c 30bf 323e d25a 21bd
00000290: 4aa8 20bd e3ed e7bd fb11 c7bd 43df 343c
000002a0: e343 09bd d129 d0bd b77c 7fbe 2e21 32be
000002b0: 454c 0fbe e533 9cbb f7b0 ecbc 1709 d93d
000002c0: dc50 243e cebc 803e 8c60 54bd 33ad 2c3e
000002d0: cb36 5abe e52f 433e 0510 ef3d 144e 91bd
000002e0: 5199 713c 1e7b 9a3d d6c3 bf3d cf77 b8bd
000002f0: ca7a b7bb 81dc 8abe e13c 303d d283 15bd
00000300: 0f33 d13d 76b6 853c c1d4 7f3d 9bb1 8a3e
00000310: 7c67 71bd 99e2 1e3e 935a 8d3b fa93 0d3e
00000320: 0c22 273e 917a b7bd aab6 2d3e 68d2 e83d
00000330: 1847 7cbd 9b10 263e 2406 b93e 1e32 9a3e
00000340: 06c0 a23e 0292 353e 481a 913e c658 d83e
00000350: 34e8 1b3d 6fad 023e fe4f c33d 3115 0e3d
00000360: be1b 64be 80e7 393e 6562 c9be d898 69be
00000370: 52f2 03be 88e0 e6bc b7cf 9bbc 34fa 2d3d
00000380: 5c73 f43d cb8c 453e 25aa 51be f432 7cbe
00000390: 12dd 103e 41e1 e03c 77f8 b53d 5c04 a13e
000003a0: bbe3 103e 6af5 4b3e 5289 63bd 155f 20be
000003b0: 515c 643d c452 2dbd ae8f a03c b32c 19bd
000003c0: b1cb 0b3e 4667 cb3c 49e7 903c 7c37 fc3c
000003d0: 8af3 963d 0ab4 653e e53d a03e 00bf 9b3d
000003e0: 14b7 763e 3878 c83e 3685 763e fb25 b53d
000003f0: 70b9 373e 847d 1cbe f123 be3d 7b97 303e
0.12306609 0.04905042 0.21037303 0.25632265 -0.03983007 0.043532096 0.0809101 0.24834515
0.21303563 0.21353309 0.25006017 0.2927986 -0.05299799 0.12261732 0.12798391 0.15538706
-0.024280436 0.23572728 -0.301652 -0.2938751 -0.049473885 0.084327884 0.14290771 -0.3042168
0.40328762 0.2635255 -0.15204097 -0.22683153 0.16300793 0.070723176 -0.18981533 -0.07336231
0.24283731 0.13937089 0.16958803 0.27640298 0.03279715 -0.06117953 0.09262806 -0.07295501
-0.048785623 0.14661804 -0.046492793 0.099075966 0.0014444024 -0.065501824 0.08868266 0.017122475
-0.06554436 -0.09914438 -0.021064175 0.064935766 0.20935231 -0.005702561 -0.050837953 -0.07953297
-0.10703744 -0.0019374217 0.1682549 0.24242298 0.11062692 -0.26188704 -0.09039582 0.07193172
-0.25994486 -0.18666108 -0.08367167 0.28838205 -0.21130985 -0.05380393 -0.068535656 0.06359235
-0.13372672 -0.017541254 -0.24829109 -0.24181014 -0.13220915 0.068809725 0.07784593 0.14384463
-0.06493749 0.19936916 0.12068407 -0.04204131 -0.094384134 -0.034527536 -0.22132407 0.114279225
0.11324364 -0.0207388 -0.07481192 -0.1303768 0.17169149 0.123418786 -0.031450015 -0.09605241
0.17969406 -0.29318243 0.08494889 0.3969877 0.12372571 0.019596765 -0.02309332 0.055912152
-0.17050406 -0.1146961 -0.19610524 0.3574482 0.05382469 0.086641744 0.009067113 0.115055844
-0.12438167 -0.22807221 -0.38051957 -0.32515156 0.0788733 -0.068413414 -0.119272366 -0.15109208
0.09789794 -0.24128698 -0.12346395 0.037178967 0.10013312 -0.1612453 0.071669675 0.07348529
-0.019022258 -0.1736394 0.19247214 -0.08018429 -0.06367672 0.13185339 -0.04242348 -0.02682388
-0.043903075 -0.02547189 -0.16914167 -0.2872752 -0.04518752 -0.019662766 0.031781547 0.06631642
0.12028035 0.18021159 -0.23359548 -0.43176645 -0.08797727 -0.007824738 -0.08746052 0.091742374
-0.058267955 0.1746387 0.1401469 0.038210183 -0.050242886 -0.022469977 0.13475123 -0.09102553
0.24310273 0.027084673 0.17455745 -0.039393254 -0.039222993 -0.1132467 -0.097202264 0.011039558
-0.033512007 -0.10164226 -0.24949919 -0.1739547 -0.13993938 -0.0047669285 -0.028892977 0.10597437
0.1604647 0.25144047 -0.051849887 0.16862945 -0.21309964 0.19061239 0.11672977 -0.0709497
0.014746026 0.07543014 0.093635246 -0.09007227 -0.0055993544 -0.27121356 0.04302681 -0.036502667
0.10214817 0.016322356 0.062458757 0.27088627 -0.05893658 0.15516128 0.004313776 0.1382598
0.16321582 -0.089589246 0.16964212 0.11368257 -0.061591238 0.16217272 0.36137497 0.3011636
0.31787127 0.17731479 0.28340364 0.4225523 0.038063243 0.12761472 0.09536742 0.03468818
-0.22276208 0.18154716 -0.39332882 -0.22812212 -0.12885407 -0.028183237 -0.019019945 0.04247494
0.119360656 0.1929199 -0.20475061 -0.24628812 0.14146832 0.02745116 0.088852815 0.31448638
0.14149372 0.19917837 -0.05555088 -0.15661271 0.055752102 -0.04231526 0.019599762 -0.037396144
0.13651921 0.024829518 0.01768841 0.030788176 0.0737067 0.2243196 0.31297222 0.0760479
0.24093276 0.3915422 0.24074253 0.08845135 0.17941833 -0.15282255 0.09284199 0.17245285

actor.0.bias f4 [128]
00000000: ab15 70bd 0481 86bd 3452 1dbe c5eb 16bc
00000010: dda9 8dbd 76c1 0fbc 44df 753d 7df1 753d
00000020: 56a6 1bbd 7e21 3cbd df8e 7e3d 1154 93bc
00000030: 2978 1b3d eda8 2cbe 2eba 823c e1de 34bd
00000040: 88ef ab3d 03a5 b3bd 7dd1 c33b 8df4 c63d
00000050: f416 183d 8a14 083d e1bd 28bb a68f c43c
00000060: 5d69 f5bc 415a efbd 3fcd 4abb 613f 37be
00000070: fcca b63c 33ad 07be fb68 903d 2016 c13d
00000080: eaa3 d53d 4a21 aebd 7bb8 f4bd e0a7 a3bc
00000090: e5b8 9ebd 0e45 153d 0122 38bd 342e eb3d
000000a0: 9a62 ee3d 5f0d 143d 62b9 943d 0cab d63d
000000b0: 372b dc3d 2bd4 963d 04d5 47bd f1f4 f63c
000000c0: 5d70 27bd ed5c 813c 46a2 813d 0315 c8bd
000000d0: 2703 61bc eee0 813d 6796 173e f4a8 f2bc
000000e0: 8f45 ac3d 4b3a 40bd e770 51bc 1a32 21bc
000000f0: a5b9 0d3e 3251 d6bd 7b1e 8bba b11a 403d
00000100: a6d8 0bbe e1b1 0c3d 1c3e e2bd 3ad9 c33c
00000110: cd10 0eba 0572 173d 153a be3d 6a2d 993d
00000120: 3b47 0b3e db08 cfbc f655 053e e3f5 573d
00000130: c9c5 94bd 82e8 52bd cfa4 02bc 5273 a8bd
00000140: 3503 1b3c c1bb 963d e94c 863d d8b3 a03c
00000150: fd25 7abd 322d 4d3d dbae 01bd 2595 f3bc
00000160: cf22 193e 7952 c0bd 44f6 973d dfbd 23bd
00000170: e69f 593b 8e75 5cbd 1de6 243c 5169 5c3d
00000180: ed8d 45bb 557d 4e3d 37ba c13c 9d2f 90bc
00000190: 89a8 41bd 684c b7bd 14f6 4cbd 5234 a83c
000001a0: 4331 96bd 17ae 723d 2541 2a3d 67c4 603b
000001b0: a985 5d3d 10eb 47be 43e5 e03d a8ef ab3d
000001c0: 9bbf 863d 968c d03d ee65 98bd 9672 e83c
000001d0: 5f3b 67bc d383 7a3d 6f74 783d 3f35 05be
000001e0: 836f 0dbd 84be f9bd 34e2 9f3d 4fb3 8ebc
000001f0: 5501 c93c baf1 8f3a cfa3 c3bd 4055 81bd
-0.058614414 -0.065675765 -0.15363389 -0.009211485 -0.069171645 -0.008774152 0.060027376 0.060044754
-0.038000427 -0.04593038 0.06214797 -0.017984422 0.03795639 -0.16861315 0.015957918 -0.044157866
0.08395296 -0.08771708 0.0059759007 0.09714613 0.037131265 0.033222713 -0.0025747942 0.023994278
-0.029957468 -0.116871364 -0.003094509 -0.17895271 0.022313587 -0.13249664 0.070512734 0.09428048
0.10431655 -0.08502443 -0.11949249 -0.01997751 -0.077501096 0.03644281 -0.044954304 0.11483422
0.116399005 0.036145564 0.072619215 0.10481843 0.1075043 0.073646866 -0.048787132 0.030146094
-0.040878642 0.01579138 0.06329779 -0.09769633 -0.013733662 0.0634173 0.14803468 -0.029621579
0.08411705 -0.046930593 -0.012783266 -0.009838605 0.13840349 -0.104647055 -0.0010613942 0.046900455
-0.13656864 0.034349326 -0.11047003 0.023907293 -0.00054193736 0.036973972 0.09288422 0.07479365
0.13601391 -0.025272777 0.13021073 0.05272473 -0.07264287 -0.051491268 -0.007973864 -0.082251206
0.009461214 0.0736003 0.06557638 0.019617006 -0.061071385 0.05009193 -0.031660896 -0.029734204
0.14954685 -0.093907304 0.07420018 -0.039975997 0.003320688 -0.053823046 0.010064629 0.053811375
-0.0030144409 0.050412495 0.023648364 -0.017600829 -0.04727987 -0.0895012 -0.050039366 0.02053276
-0.07333615 0.059248056 0.041566033 0.0034296752 0.054082546 -0.19523263 0.10981228 0.0839532
0.065795146 0.10183065 -0.074413165 0.028374951 -0.014113276 0.061160874 0.060657915 -0.13008593
-0.034530174 -0.12194541 0.07806817 -0.017419485 0.024536768 0.0010982074 -0.095527284 -0.06315088

actor.2.weight f4 [128, 128]
00000000: bae7 25bb 0b0c d7bd 9a2b a8bd 7e3b 1d3b
00000010: e1ae a4bd d6cd dcbd b56b 3ebd 0e32 8b3b
00000020: 2346 013c 2f24 c0bd c3fe ad3d 9602 57bc
00000030: 672d c63c a87e 0ebe 669b 473e 6f56 a83d
00000040: 819a b83c 6890 f83d 478f 03be 2390 f9bd
00000050: 6e40 5dbd 84ee 2d3e 476d 0abd 0a6c a9bd
00000060: 19be 1bbd 7c58 50bd 5731 c03d 7553 f33c
00000070: d5d8 36bd f026 bbbd e21d 433d 1b56 29bd
00000080: 419f 033d 7c01 59bd 6c4d 30bd d815 f0bb
00000090: c822 9abd a0ce 83bc 10da 60bd cd5b 233e
000000a0: 651b 7c3e c9e1 4b3e 8449 4f3e 2f1f e63d
000000b0: 7557 14bc b039 59bd fca4 3d3e 2228 463e
000000c0: e108 373d 16e7 4ebd acbb 8d3d 3f22 14bd
000000d0: ff0e d43d 7a9c 25bd 5c32 0f3d de2b 953d
000000e0: 6837 003d b46e 81bc 9c69 693d c391 2e3e
000000f0: 4cf6 573e 8bfa 11bc 4428 dabb 6d1d 193e
00000100: 87f2 3cbe 0df2 2e3d c5f8 b6bd 3580 eebd
00000110: 3293 7c3d f60a 383e 67b2 e7bd 42ae 4c3d
00000120: aa10 563e 1be8 a23c 78da 463e 7414 0a3e
00000130: 37fa 65bc bdc0 d33b 9570 9bbd 0686 3f3d
00000140: 4cf6 0e3e 3b40 903d b23e 79be 8934 f53d
00000150: 3152 ef3d 49fb f9bc 5f87 8d3d 1929 8cbd
00000160: cc00 573e 6b38 39be 23a5 573c f5d6 19be
00000170: ed14 8bbd b4a8 10bd 54d9 87bd a6aa 1dbd
00000180: 45ae 37bd f424 053e 9887 753b 5c63 453d
00000190: 91f8 2abe f3eb 5bbd b971 453d 2737 fc3d
000001a0: 2923 d3bc 1be3 923d 8725 3e3e 01cf ac3d
000001b0: 2492 eabd f1e8 88be fea6 293e cc24 05bd
000001c0: b558 1a3d bb0c ca3d c7b3 9fbd 10fa d2bb
000001d0: 1db3 b43d 59c3 133e 6134 243b bf64 68be
000001e0: e069 edbd 3b69 2abe 8073 dd3c 1d64 2dbd
000001f0: 9d3e 293e e7c4 053e 976c d9bd aeca 8abd
00000200: 2374 cabc 54d8 613c 1431 4d3e 0019 30bd
00000210: fa98 9fbc 0a37 153e 4bd0 d4bc 9e80 69be
00000220: 3401 74bd 2a62 043d 6c8f 193e 16f0 02be
00000230: aa2f 59bd 6e12 b73e 55c1 e7bd 5add 953d
00000240: f95c dc3a 4dca 8c3d 6154 103e 6ca9 8b3d
00000250: c82b 69bd 38d9 34bd a524 bc3d 3ccc c73c
00000260: c676 9cbd 6816 233e 4096 9dbc 84c3 b1bc
00000270: daf7 b03d a113 73bc b0df 123d dccc 193d
00000280: 4054 debd 1d92 e63d f9fd b73e 6d69 2d3e
00000290: c875 b73c d660 ee3c 9658 233d 35d7 abbe
000002a0: 06bf 2bbe 7356 27bd eefe 46be ccc4 92bc
000002b0: 557a 313d ef95 0cbe 4465 7ebe 6f0c 85be
000002c0: 5484 2dbe 1c3c 7dbb 7b53 2cbe feaf a23e
000002d0: 3649 3eba d4bf 343d 79b2 0fbc aa07 803d
000002e0: b9d0 003d 90fd 40bd b6a3 4c3e 910a 39be
000002f0: 6674 6dbe 38de 2a3e 8e15 ccbd 7482 c4bd
00000300: 6138 8b3d 6327 34bd 9350 b83d 2f57 0fbe
00000310: a3bd d73c 7b69 0dbe 4179 bebd c154 d63c
00000320: 745a c0bc 5ffa 423d 7919 71be d345 a5bc
00000330: 4764 34bd 7e94 0a3d e00e 133e cb94 053e
00000340: f805 78be 9845 483d d3f5 583e d803 14bd
00000350: 50d3 233d 12ab 2bbe 691e 343d ddc8 cdbd
00000360: 047d 58be abf6 5b3e 3988 c5bd 5bc1 863e
00000370: 2da0 6fbc 1e0b dc3d fc7a ef3d 7d96 05bd
00000380: 0705 723e 4497 97bc f6f0 43be 33ae 693d
00000390: 8e93 b03a 3e83 ab3c 67c1 b4bd 1a6e c3bd
000003a0: f769 7fbd ff5a c8bd 50d1 26bd d803 ccbd
000003b0: 2388 413d 5d2d d63d a133 cfbd 8d9b 563e
000003c0: c616 93bc 4cc5 5ebd b179 c93c 854e b1bd
000003d0: 2ef6 97bd 5d86 dcbd a104 cd3c a102 613e
000003e0: da4f 503d 400d ab3e 9e08 663d ef6e a0bd
000003f0: 016e c1bd b6aa bcbd 07af 243e ca90 853d
-0.0025315122 -0.10500344 -0.08211441 0.002399176 -0.08041168 -0.107814476 -0.046489436 0.0042479103
0.007890257 -0.093819015 0.084958576 -0.013123175 0.024191571 -0.13915503 0.19492874 0.08219611
0.02253461 0.12136918 -0.12847625 -0.12185695 -0.054016523 0.16985518 -0.03379562 -0.0827256
-0.038023088 -0.050865635 0.09384411 0.029702881 -0.04464038 -0.09138286 0.04763592 -0.041341882
0.0321343 -0.05297993 -0.043042585 -0.0073268227 -0.07526165 -0.016089737 -0.05489546 0.15952988
0.24619825 0.19910349 0.20242888 0.112364165 -0.0090540545 -0.05303353 0.18519968 0.19351247
0.044686202 -0.05051335 0.06920561 -0.036165472 0.10354423 -0.04043243 0.034960136 0.072837576
0.03130284 -0.015799858 0.056985483 0.17047791 0.21090049 -0.008909832 -0.006657632 0.14952631
-0.18451892 0.042711306 -0.08934168 -0.11645547 0.061663814 0.17972931 -0.113133244 0.049970873
0.20904794 0.019886067 0.19419277 0.13484365 -0.014036707 0.006462185 -0.07589833 0.046758674
0.13961142 0.07043501 -0.24340323 0.11972911 0.11685599 -0.03051533 0.069105856 -0.06843776
0.20996398 -0.18087928 0.01316193 -0.15023406 -0.06791101 -0.035317138 -0.06633249 -0.03849282
-0.04484393 0.13002378 0.0037464853 0.04819046 -0.16696383 -0.053691816 0.048204158 0.12315207
-0.025773602 0.07172223 0.18569003 0.0843792 -0.11453655 -0.2674022 0.16567609 -0.032505795
0.037682254 0.098657094 -0.07797962 -0.006438501 0.08823226 0.14429988 0.0025055634 -0.22694682
-0.1159246 -0.16641705 0.027032614 -0.042331804 0.16527791 0.13063394 -0.10616415 -0.06776939
-0.024713581 0.013784487 0.20038253 -0.04299259 -0.019482125 0.14571777 -0.025978228 -0.2280297
-0.05957146 0.03232018 0.14996117 -0.12786898 -0.05302397 0.35756248 -0.11316172 0.0731761
0.0016812376 0.06874523 0.14094688 0.06819424 -0.05692652 -0.04415247 0.09186677 0.024389379
-0.07639842 0.15926516 -0.019236684 -0.021699674 0.08641024 -0.014836223 0.035857856 0.037548885
-0.10855913 0.11258338 0.35935953 0.16934748 0.02239503 0.02909891 0.039879404 -0.33562627
-0.16772088 -0.04085393 -0.19433185 -0.017916106 0.043329556 -0.1372907 -0.24843317 -0.2598605
-0.1694501 -0.0038640564 -0.1682872 0.31774896 -0.0007258834 0.044128254 -0.008770579 0.06251462
0.031449053 -0.047116816 0.19984326 -0.18070437 -0.23188934 0.16686332 -0.09965049 -0.095951945
0.06797863 -0.043982875 0.08999743 -0.13998102 0.026335543 -0.13809769 -0.09300471 0.02616346
-0.023480631 0.047602054 -0.23544873 -0.020174896 -0.044040944 0.03383302 0.14361143 0.13045041
-0.24221027 0.048894495 0.21187524 -0.03613648 0.039996445 -0.16764477 0.043974314 -0.10048077
-0.2114144 0.21480815 -0.09645123 0.26319394 -0.014625591 0.10744308 0.11693379 -0.03261422
0.2363473 -0.018504746 -0.19134888 0.057050895 0.0013471709 0.020936605 -0.08825951 -0.095424846
-0.062356915 -0.09782981 -0.04072696 -0.09961671 0.04724897 0.10457871 -0.10117269 0.20957775
-0.017955195 -0.054387376 0.02459416 -0.086575545 -0.07420002 -0.10767815 0.025026621 0.21973659
0.050857402 0.33408546 0.05616056 -0.07833659 -0.0944481 -0.09212248 0.16082393 0.06521757

actor.2.bias f4 [128]
00000000: a0d0 583e 21b1 333d 49eb 9ebd f1a4 d2bd
00000010: 409c 043d 95c8 74bd fbae ffbd 878f 6fbd
00000020: b8cd 2abe bf82 f73c 5def ddbd b62a b1bc
00000030: ba85 6ebd 60d6 873d 7e9c e53c 18fb f7bd
00000040: 82fd 8d3d 7214 823d 58ec f2bc 0b2f f33d
00000050: 19de 833b 79f6 96bd fa8d ae3d 1411 333d
00000060: 3ce1 49bc c207 ebbd 2f44 b43d 2a89 49bc
00000070: f662 cbbd da00 ab3c afe4 0ebc c336 99bd
00000080: 6790 c33c 729f 3e3d b469 713b 346b 68bd
00000090: f78f 733d 57f2 303e 9713 f5bd 6a22 0a3b
000000a0: 8171 a6bc ad0f 863d 829d 29bb 15c6 e03c
000000b0: 6f5c dfbd 540a 9abc 333d 5dbe 05d3 a53b
000000c0: b6cb a03d aafd 623d 2ed1 183c d12a 30bb
000000d0: 3940 a1bd bcfd 2ebe 9f7b 6b3b 4cf1 6b3d
000000e0: 72b7 18bd 686e 853c 7650 62bd 3575 893d
000000f0: 766e d3bd 0c88 593d 5b79 073d 1362 8dbb
00000100: 0a8d 51bd 7929 56bb cf3a 263d ac49 62bd
00000110: 7b46 47bd af04 f7bd d3fd abbc 0dc1 9dbc
00000120: 1fa8 d93d b87a ff3c 5b1f 89bc 31f3 163d
00000130: 966d afbd b578 6b3d 7726 fb3d 2f6e bf3d
00000140: 5dfe f13b 30e2 20be febd fe3c 9579 6abc
00000150: 7be5 2abd 0c64 56bd 44fc d0bd e511 db3d
00000160: 2a7d 3cbc 4565 a93d 93fa 263d 8e67 a23d
00000170: 6cf6 ba3b acfe 20bc 1181 27bd 5f7c 00bd
00000180: 25c0 a0bd bc9c 12be 7430 97bd 9ada e7bd
00000190: 9c47 babd e0f6 3a3c 1cd3 c03d 8dc0 183e
000001a0: dff0 22bc a2ac 4bbc fab4 5d3d 2f27 bd3d
000001b0: 1c5f d9bc 8397 303d f755 733d 4a3b 173e
000001c0: 186b 013c 3454 cebd c2de 13be 801a 533e
000001d0: f89d 14bc bdc1 b03b 3074 febb 8320 df3d
000001e0: 97d2 b1bd 42cc bbbc eea4 7cbc e827 9fbd
000001f0: 9fe1 2dbd 9593 74bd 87ba 3e3d a8d8 5a3d
0.21173334 0.043870095 -0.07759721 -0.10285366 0.032375574 -0.059761602 -0.12484547 -0.058486488
-0.16680038 0.030213712 -0.108366705 -0.021626811 -0.058233 0.06632686 0.028028723 -0.12108439
0.069331184 0.06351556 -0.029653713 0.11874207 0.004024279 -0.0737123 0.08523174 0.04371746
-0.0123217665 -0.11476089 0.088020675 -0.012300769 -0.09930985 0.02087443 -0.008721515 -0.07481148
0.023872567 0.046538778 0.0036836686 -0.056742862 0.059463467 0.17279945 -0.11966627 0.0021077641
-0.020317795 0.06545959 -0.0025881235 0.027438203 -0.10906302 -0.018803753 -0.21605377 0.005060556
0.07851355 0.055417694 0.009327216 -0.002688099 -0.078735776 -0.1708898 0.0035931838 0.057603166
-0.037284322 0.016287997 -0.055252515 0.067118086 -0.10323803 0.05310826 0.033074718 -0.00431467
-0.051159896 -0.0032678528 0.040583428 -0.05524604 -0.0486512 -0.1206144 -0.020995056 -0.019257093
0.1062777 0.031186447 -0.016738584 0.03685302 -0.08565824 0.057488162 0.12263196 0.09347188
0.007385059 -0.15711284 0.031096455 -0.014311214 -0.041722756 -0.052341506 -0.10204366 0.106967725
-0.011504451 0.08271269 0.04076631 0.07929908 0.0057056453 -0.0098263435 -0.04089457 -0.03136861
-0.07849149 -0.14317602 -0.073822886 -0.11320992 -0.0909569 0.011411399 0.09415266 0.14917202
-0.009945123 -0.012431296 0.05412767 0.09235989 -0.02653461 0.043113243 0.059408154 0.1476871
0.007899068 -0.10074654 -0.14440444 0.20615578 -0.009070866 0.005394189 -0.0077653155 0.10894873
-0.08682745 -0.022924546 -0.015420182 -0.077712834 -0.042451497 -0.059711058 0.046564605 0.053429276

actor.4.weight f4 [18, 128]
00000000: 32c0 58be 386d 57bd 6bfe f73d 4a70 463d
00000010: 8654 bf3d ac0b 1c3e 3c8e 2c3d 2ed6 c3bd
00000020: 21fd 9f3d 2266 39bc 01c4 293e 1eac 03bd
00000030: 33f0 82bd ae45 a7bd cbb6 f5bd 2e54 1f3e
00000040: 9748 083d c7f3 5dbd d654 0f3e 80c0 f4bd
00000050: 07c0 c53d 0cf1 20bc 31f6 9bbc a35f 93bd
00000060: d3ec 903d 90e0 3c3e f574 abbd 8195 9c3d
00000070: 53b0 1abd e7a6 103d 4436 d7bc 61ac c0bd
00000080: 0a7d 9ebd 535e a9bd 185c d43d 0486 43bc
00000090: 69e0 aa3c 71b8 58be b08e d73d 39fe b4bd
000000a0: 85d8 d03b a145 ea3c 9b7a ccbd be81 28bd
000000b0: a500 69bd 06bb ed3c 118a 183e 20b8 24bb
000000c0: cb38 0dbe 9d0c 03be eae9 02bd aa37 dfbd
000000d0: 695b 1b3e 8477 343e ab62 31be 8554 11be
000000e0: 8305 8c3d f27b e63d 3a03 c03c f94b a93b
000000f0: 9516 043e a14e 173c 1771 483c cdd9 253e
00000100: ee9d d73c e694 b13d 8fd8 f3bd 813a a0bd
00000110: 163b 833d 0708 2e3e 7ecb 043e fdc6 23bd
00000120: ae54 8fbd 9081 01ba 5d23 34be 1ca5 b83d
00000130: e746 703d 76b1 36bc 9248 eabc 1f5b e6bd
00000140: f586 23be e018 f13d 1aa0 673d 6bdd 073e
00000150: aa74 bdbd a8cf cb3b 6653 4ebc 39db 90bd
00000160: 7687 1f3c 25ac 6f3c 0639 533d 8387 55bd
00000170: d8de aa3d cf03 af3c bd71 a03b 4dfb 303e
00000180: 11dc c53d ec39 023d d9fe 1a3d df53 b03d
00000190: 32b0 5d3d a5f8 afbd 0a60 023c 4176 93bd
000001a0: 9a07 8a3d e8d0 5e3d 786c bbbd 8622 20be
000001b0: 29c4 0ebe bcc6 dfbd 8d92 36be d4ec 36be
000001c0: 5ab3 d63d f589 b13d b796 033e 3f7a ddbd
000001d0: 64e5 c53d 7faa 63bc 94a3 65bd ef56 24be
000001e0: 28f8 44bd 6358 1bbd 1d1e c4bc 3ee2 113e
000001f0: a188 223d d7d6 253e e444 c2bc 7b7b acbd
00000200: 7727 80bd a82f 3ebd fa03 4dbc 9cf7 9c3d
00000210: 9160 1f3c 3a30 20bc 9d0f 5bbd ab8c ab3b
00000220: cf5e ac3c d7ba 9d3d b5b3 893c 8a78 44bd
00000230: 62d4 003e 5ba9 6bbb ce1b da3b d70d 48bd
00000240: 5d3a ea3d 1444 febd a047 273d 9f62 413c
00000250: 3ccc 82bd cea1 953d 8731 d0ba 771a 393c
00000260: f615 e8bd e1c8 973b 0f88 00be 71ab 3c3d
00000270: 216b 353e 0c91 94bc ef1e acbd 89c3 063b
00000280: 694a 88bd e4ef a8bd 6c82 98bc 748d 14bd
00000290: 1e76 f0bd 1ec1 943c 4599 dc3c 0ecc 413d
000002a0: 5e0f aebd e790 883d aebb 2e3e 566a 56bd
000002b0: b8e4 063e d778 efbd a7dd c3bc 76ab cbbc
000002c0: aa9f 04be 2360 e13c 2b45 6abd 8330 a4bd
000002d0: b5d7 183d 4a02 22bd 8f13 653d 2a2b dbbd
000002e0: 46cb 923d 2026 babc 2dd2 a6bd 0790 e43d
000002f0: 7ebe 203d c6f7 a2bc bbe7 433d 1765 edbc
00000300: a3f9 4dbc 41fb d2bc e863 67bd 3b78 60bd
00000310: 125c 11bd a67b 483c b256 5e3d e61f c43d
00000320: 7f97 26be c0d1 743d 8837 d2bd c710 d5bd
00000330: 61a8 ac3d 56bd 50be 235c 09be ba8e 193c
00000340: 6335 6cbd b981 593d 0c76 8a3d 3830 0c3d
00000350: e44b 84bd 7bda bfbd c5d2 9c3d 6804 63bc
00000360: a1a1 0cbd b2e1 d13c 6153 61bc d7b3 1b3c
00000370: 45df 14bd b8b1 513d 3d2f b23d c2de 713d
00000380: b41e 5fbc cfd0 aabc b4e7 adbc 63b4 263e
00000390: b175 4ebd 3d38 95bc d550 19be 359d f5bb
000003a0: 78d8 ab3d 62e0 a5bc e47a 20be 8f40 94bd
000003b0: 0abb d83d 3087 72bd c11f c6bd f80c 1bbd
000003c0: bf6f 9abd f645 ba3d 9963 0a3e 7f6b 09be
000003d0: 4a75 a33d 047f 6ebd d6ed a4bc aa23 f5bd
000003e0: 8f78 663c 84f3 edbd 06f1 843d c469 733d
000003f0: 97ac 303d 0d5b 9b3d b2e6 0b3d dd6b 14bd
-0.21167067 -0.052594393 0.12109073 0.04844693 0.093422934 0.15238827 0.042127833 -0.09562336
0.078119524 -0.011315854 0.16578676 -0.032146566 -0.063934706 -0.08167587 -0.119977556 0.15559456
0.033272352 -0.054187562 0.13997206 -0.11950779 0.09655767 -0.009823095 -0.019038292 -0.07195976
0.07076421 0.18445039 -0.08371917 0.07645703 -0.037765812 0.03531542 -0.026270993 -0.09407879
-0.07738693 -0.08269944 0.10369128 -0.011933807 0.02085896 -0.21164109 0.10525262 -0.088375516
0.0063734674 0.028597655 -0.09984323 -0.041139357 -0.05688538 0.029019844 0.14896418 -0.002513416
-0.13791196 -0.1279778 -0.03196136 -0.10899289 0.15171589 0.17623717 -0.17322795 -0.14192398
0.06836989 0.112541094 0.023439039 0.0051665273 0.1289924 0.009235055 0.012233994 0.16196366
0.026320424 0.08670978 -0.1190654 -0.07823659 0.06407754 0.1699525 0.12968251 -0.039984692
-0.06998573 -0.0004940266 -0.17591615 0.09015867 0.058661368 -0.011150708 -0.028599057 -0.11247849
-0.15969451 0.11772323 0.05654917 0.13268058 -0.092507675 0.006219823 -0.012593126 -0.070730634
0.009736886 0.014628445 0.051568054 -0.052131187 0.08343285 0.02136412 0.004896371 0.17283364
0.09661115 0.03179352 0.037840698 0.08609747 0.05412311 -0.08592347 0.007957468 -0.072002895
0.06739731 0.054398447 -0.09151548 -0.1563817 -0.13942017 -0.109265774 -0.17829342 -0.1786378
0.10483427 0.08668891 0.12850462 -0.10814332 0.096628934 -0.01389563 -0.056064203 -0.16048788
-0.048088223 -0.03792609 -0.02394014 0.14246461 0.03968108 0.16195236 -0.02371449 -0.084219895
-0.06257527 -0.046432167 -0.012513155 0.07664415 0.009727613 -0.009777123 -0.053481687 0.005235275
0.021041302 0.077016525 0.016809324 -0.047966518 0.12581018 -0.0035959098 0.0066561466 -0.048841324
0.11436913 -0.124153286 0.04083979 0.011803298 -0.06386611 0.073062524 -0.0015883901 0.011297814
-0.11332314 0.004632101 -0.12551902 0.046061937 0.17716648 -0.01813557 -0.084043376 0.0020563325
-0.066548176 -0.082488805 -0.018616877 -0.036267713 -0.11741279 0.018158492 0.026928553 0.047313742
-0.08499025 0.06668263 0.17063782 -0.052347504 0.13173187 -0.1169297 -0.023909403 -0.024862032
-0.12951532 0.027511662 -0.05719487 -0.080170654 0.03731509 -0.039552964 0.055926856 -0.10701592
0.071676776 -0.022723258 -0.081455566 0.111602835 0.039244168 -0.019893538 0.047828417 -0.028978867
-0.012571725 -0.025754573 -0.056491762 -0.05480216 -0.035488196 0.012236511 0.054281898 0.09576397
-0.16268729 0.059770346 -0.10264498 -0.10403591 0.08430553 -0.20384726 -0.13414054 0.009372408
-0.0576681 0.05310223 0.06760797 0.034225672 -0.064597875 -0.09367844 0.076573886 -0.013856031
-0.03433383 0.025620315 -0.013752789 0.009503326 -0.03634574 0.051194876 0.08700416 0.05905033
-0.01361816 -0.02085152 -0.021228649 0.1627975 -0.050405208 -0.018215293 -0.14972241 -0.007495547
0.083908975 -0.020248596 -0.15671879 -0.07238876 0.1058255 -0.059210956 -0.09674025 -0.037854165
-0.07540845 0.09095375 0.13514556 -0.13419913 0.079813555 -0.0582266 -0.02013294 -0.11969693
0.014066829 -0.116187125 0.06491284 0.059427038 0.043133345 0.07585726 0.034155555 -0.03623568

actor.4.bias f4 [18]
00000000: e8a7 61be b594 aebd bafc 80be 4d08 823d
00000010: 0e75 afbd 21f0 0fbd a17c 4e3e 31b7 54bd
00000020: 1651 d03d 2615 3fbe d3bd aa3d 7f27 08be
00000030: 68ba 513e e400 183d 27b0 c53d 5484 f9ba
00000040: 4409 9cbd 222c 983d
-0.22036707 -0.08524457 -0.25192815 0.063492395 -0.08567248 -0.035141114 0.2016473 -0.051932517
0.10171716 -0.18660411 0.08336987 -0.13296317 0.20481265 0.037110224 0.09652739 -0.0019036629
-0.07618955 0.07430293
