mappo_algorithm/checkpoints/mappo_critic_num_agent_exp_4run_0_lumberjacks.pth (torch, 40708 bytes, 5 tensors)

fc1.weight f4 [64, 80]
0.018564899 0.005767996 0.18786727 0.20575553 -0.12037603 0.07325134 -0.06270009 -0.021918235
0.1927079 0.2006829 -0.066698015 -0.03750637 -0.2794598 0.028354168 0.117073454 0.026544197
-0.13845836 -0.013055284 0.0030886666 0.025847541 0.28649005 0.011671518 -0.069400534 0.13242014
0.068462506 0.064310156 -0.0082353875 -0.11916707 -0.024334311 -0.048865885 0.03258197 -0.017135622
0.1330576 -0.078291245 0.0028590062 -0.088244826 -0.13126099 -0.06642265 -0.016010595 -0.042474322
-0.07705036 -0.10648905 -0.034724243 -0.023274604 0.18157087 -0.1339866 0.15343338 0.16092667
0.007992961 -0.04966989 -0.08461966 0.033937186 0.20950204 0.08629414 0.041745506 0.08210109
-0.109501936 -0.04624569 -0.008347202 0.008970032 0.048288174 0.045126524 0.25305948 0.08947352
-0.15920702 0.13759276 0.2502415 -0.027267389 -0.046800826 -0.039958645 0.008959828 -0.03675619
0.13874473 -0.12052364 0.19084446 -0.12106953 0.11104952 -0.120027475 -0.088155776 0.1206434
-0.03444148 0.28064904 -0.13171954 -0.19127393 -0.07246515 -0.053989492 -0.11449519 -0.07703961
0.12949671 -0.012124872 0.028269148 -0.10403955 -0.06815978 0.39080557 0.0034236442 -0.14941078
0.2675949 -0.17729682 0.050990712 0.032189 0.05863839 -0.043976028 0.12819758 0.011961204
0.04829944 0.04592246 -0.25354737 0.17940944 -0.042009804 0.101572335 -0.0941148 0.14476672
0.052886482 -0.030829528 -0.016559869 0.02558123 0.061236188 -0.048206598 -0.0069950423 -0.043515854
-0.03042903 -0.19241439 -0.04170878 -0.2235625 0.055445474 -0.13775703 -0.01911637 0.08390902
-0.03568177 -0.1419539 0.021078704 0.007907444 -0.19320078 -0.14891306 0.0020305312 0.12719841
0.10098273 -0.05882804 -0.027841415 -0.24171221 0.03781439 -0.13170183 -0.12850134 -0.059443265
-0.086504884 -0.09842965 -0.001646532 0.020880401 0.023007298 0.016941002 -0.20501347 -0.078858614
0.019745126 0.07881127 -0.07742293 -0.02696615 0.10935524 -0.0910221 -0.099662594 -0.026684666
0.025598453 -0.0005736434 0.06855472 -0.12020409 -0.048233807 0.07021627 0.043791775 -0.09178697
-0.07765099 -0.15904939 -0.16383621 -0.06404584 0.024692345 -0.02443394 0.21231829 0.12639907
-0.007390635 0.07134461 0.0049837977 0.04964195 -0.06499434 0.018763056 0.112973236 0.21292928
-0.037664767 -0.10162252 -0.08186468 -0.039374158 -0.0008776748 -0.2524288 -0.16108823 -0.017704306
-0.012625957 -0.045244273 0.1348816 -0.2525796 0.07476002 -0.03128777 0.016105697 0.075002596
-0.17565928 0.20014027 0.18708067 0.12587091 -0.11833907 0.0003708926 0.082194954 -0.07470552
-0.03727963 -0.017977422 0.12328488 0.04940328 0.0023018816 0.0008007299 0.07771572 -0.03529502
0.01945476 -0.09584443 0.047987964 -0.019567968 0.1661386 -0.020537058 0.1939248 -0.12854005
-0.03142582 0.0541963 0.101877786 0.016374383 -0.17244168 0.026588557 -0.15574294 -0.25273317
-0.17950444 -0.004510597 -0.114415236 0.07152848 0.1999515 -0.01045219 0.0070527587 -0.23314817
-0.0019016417 0.1491144 -0.058714826 -0.010676917 0.004712164 0.121125534 -0.109664366 -0.11450762
-0.30393302 -0.09423745 -0.0021151209 -0.062043387 -0.119596794 0.012441428 -0.21723759 -0.089948066
00000000: 6a15 983c 7501 bd3b 4760 403e 94b1 523e
00000010: b587 f6bd cc04 963d e868 80bd df8d b3bc
00000020: 3855 453e d17f 4d3e f898 88bd 48a0 19bd
00000030: 5b15 8fbe 0047 e83c 35c4 ef3d 3773 d93c
00000040: 07c8 0dbe d4e5 55bc 3a6b 4a3b 39be d33c
00000050: d3ae 923e e539 3f3c de21 8ebd 2599 073e
00000060: 1236 8c3d 0bb5 833d b8ed 06bc dd0d f4bd
00000070: c058 c7bc 9827 48bd ac74 053d 0160 8cbc
00000080: 4040 083e 2957 a0bd 2a5e 3b3b b4b9 b4bd
00000090: 4869 06be 9908 88bd a728 83bc 8ef9 2dbd
000000a0: 94cc 9dbd ee16 dabd 023b 0ebd 62aa bebc
000000b0: b7ed 393e c933 09be a41d 1d3e f6c9 243e
000000c0: e9f4 023c a872 4bbd 134d adbd b801 0b3d
000000d0: b487 563e fbba b03d 56fd 2a3d 9e24 a83d
000000e0: 8d42 e0bd 1f6c 3dbd b4c2 08bc 0bf7 123c
000000f0: d2c9 453d 97d6 383d 0391 813e e53d b73d
00000100: 2a07 23be 1ee5 0c3e a71f 803e dc5f dfbc
00000110: 39b2 3fbd adab 23bd 3ecc 123c a98d 16bd
00000120: 1913 0e3e 19d5 f6bd bb6c 433e 4df3 f7bd
00000130: ee6d e33d f7d0 f5bd 048b b4bd e313 f73d
00000140: 8212 0dbd 3bb1 8f3e 7de1 06be 50dd 43be
00000150: 9c68 94bd 1624 5dbd 747c eabd f1c6 9dbd
00000160: c99a 043e 66a7 46bc b394 e73c b012 d5bd
00000170: 5b97 8bbd ab17 c83e 385f 603b 24ff 18be
00000180: 3302 893e 4c8d 35be a3db 503d 9dd8 033d
00000190: cf2e 703d 3520 34bd 3a46 033e edf8 433c
000001a0: a2d5 453d 3019 3c3d f6d0 81be 1cb7 373e
000001b0: 7912 2cbd 2805 d03d 43bf c0bd ba3d 143e
000001c0: 7f9f 583d 358e fcbc 90a8 87bc ba8f d13c
000001d0: ccd2 7a3d 4874 45bd ab36 e5bb ae3d 32bd
000001e0: 4d46 f9bc 4708 45be d3d6 2abd 91ed 64be
000001f0: cb1a 633d 2e10 0dbe ef99 9cbc 7ed8 ab3d
00000200: 0c27 12bd 5d5c 11be 3fad ac3c 398e 013c
00000210: 6dd6 45be aa7c 18be a912 053b 4d40 023e
00000220: 09d0 ce3d acf5 70bd ae13 e4bc 6883 77be
00000230: 43e3 1a3d d8dc 06be db95 03be c87a 73bd
00000240: 7929 b1bd 7c95 c9bd 72d0 d7ba 600d ab3c
00000250: cd79 bc3c dbc7 8a3c 0def 51be a080 a1bd
00000260: 88c0 a13c ce67 a13d ea8f 9ebd 1ee8 dcbc
00000270: a4f5 df3d cb69 babd e71b ccbd cd99 dabc
00000280: d9b3 d13c 8f60 16ba 6b66 8c3d 902d f6bd
00000290: d090 45bd 8ccd 8f3d 015f 333d cffa bbbd
000002a0: 7b07 9fbd d8dd 22be aec4 27be 772a 83bd
000002b0: 9a47 ca3c b029 c8bc f769 593e c26e 013e
000002c0: 242d f2bb 1f1d 923d 204f a33b 5b55 4b3d
000002d0: c11b 85bd fbb4 993c 835e e73d 220a 5a3e
000002e0: 5f46 1abd 781f d0bd aba8 a7bd cc46 21bd
000002f0: c213 66ba 593e 81be 50f4 24be 9f08 91bc
00000300: 1add 4ebc 0f52 39bd 671e 0a3e 1d52 81be
00000310: c81b 993d 9b27 00bd 18f0 833c f69a 993d
00000320: 07e0 33be 92f1 4c3e 1392 3f3e 4ee4 003e
00000330: c15b f2bd 5d74 c239 d455 a83d 35ff 98bd
00000340: 86b2 18bd 6345 93bc c87c fc3d 185b 4a3d
00000350: 2adb 163b 13e8 513a 6b29 9f3d 8391 10bd
00000360: 975f 9f3c 164a c4bd 078f 443d 014d a0bc
00000370: 3d20 2a3e 553d a8bc 3994 463e 01a0 03be
00000380: 5cb8 00bd f1fc 5d3d 4da5 d03d 9223 863c
00000390: 8d94 30be 3fd0 d93c 147b 1fbe 3e66 81be
000003a0: 03d0 37be a1cd 93bb 8952 eabd 867d 923d
000003b0: 16c0 4c3e aa3f 2bbc d41a e73b 65be 6ebe
000003c0: 8240 f9ba 72b1 183e f57e 70bd 3cee 2ebc
000003d0: 7f68 9a3b aa10 f83d b697 e0bd f982 eabd
000003e0: 1c9d 9bbe 90ff c0bd d79d 0abb 3521 7ebd
000003f0: 2aef f4bd 22d7 4b3c 8873 5ebe b136 b8bd

fc1.bias f4 [64]
0.0019257835 -0.0028965988 0.00093104446 -0.0023525164 0.00297414 -0.0009267222 -0.002265791 -0.00026816846
-0.002147205 -0.008319265 0.0021271862 -0.010728624 0.0034869886 -0.00037185516 -0.005104821 0.0032578027
0.013805542 -0.0009447676 0.0047044945 -0.0017268176 -0.0024700896 0.0074050687 0.008482252 -0.0034125382
-0.003852074 -0.0059755323 -0.0009723174 0.0021863226 0.00097231223 -0.0029182287 0.0050293743 0.0038005158
-0.0022331667 -0.0015221586 0.0016516009 -0.0019639747 -0.00091991783 -0.00041021398 -0.0038348504 0.008586676
-0.003122424 0.0037796563 -0.0053759115 -0.0029867068 -0.00085977785 0.0005258877 0.0004808419 0.0019753347
0.00085068366 -0.013889466 0.00420756 -0.0005439844 0.0012901998 0.0047396612 -0.00895015 -0.0015387844
-0.0016063396 -0.0052228207 -0.00054229284 -0.0056042667 0.003094741 0.0011756781 -0.0006822816 -0.0033765228
00000000: 926a fc3a ddd4 3dbb 5611 743a ad2c 1abb
00000010: cae9 423b 46ef 72ba aa7d 14bb f698 8cb9
00000020: 1fb8 0cbb 874d 08bc 4368 0b3b 1cc7 2fbc
00000030: f685 643b 8ef5 c2b9 5846 a7bb dc80 553b
00000040: a430 623c 48aa 77ba 2928 9a3b 6256 e2ba
00000050: 3ae1 21bb 38a6 f23b 25f9 0a3c e4a4 5fbb
00000060: 1473 7cbb 66ce c3bb 1ee3 7eba 6848 0f3b
00000070: c5e2 7e3a c13f 3fbb 73cd a43b 1312 793b
00000080: 525a 12bb 2b83 c7ba 887a d83a 07b6 00bb
00000090: a426 71ba fd11 d7b9 1d52 7bbb 21af 0c3c
000000a0: 95a1 4cbb 1cb4 773b 6a28 b0bb a0bc 43bb
000000b0: b762 61ba badb 093a 8219 fc39 9e74 013b
000000c0: 6a00 5f3a a590 63bc 92df 893b 2d9a 0eba
000000d0: ec1b a93a 294f 9b3b a6a3 12bc 09b1 c9ba
000000e0: d08b d2ba 3224 abbb a828 0eba ffa3 b7bb
000000f0: 23d1 4a3b 3619 9a3a 25db 32ba a748 5dbb

fc2.weight f4 [64, 64]
0.092980236 0.14455841 -0.035045017 0.07228672 0.23447612 -0.08592611 -0.12599167 -0.28665826
0.020977749 -0.03380005 -0.0987338 0.0425402 -0.15483144 0.081620656 -0.09784395 0.0066102645
0.118827805 0.027394418 0.10570347 -0.0074023404 -0.15761213 0.14209451 -0.0066084107 0.09103736
0.076346226 -0.042652667 -0.07120857 -0.08811372 -0.20592922 -0.078053795 -0.026206503 0.15431283
-0.14929444 0.2791381 -0.2071831 -0.15008283 -0.008457163 -0.110129565 -0.123582065 0.09437701
0.10541143 -0.023531867 0.00071719545 -0.04338037 0.02582052 -0.2354338 0.11685061 0.07430894
0.18910222 -0.2999437 -0.16184594 -0.1232839 0.029011212 0.24865963 -0.05669092 0.058500666
0.13272591 -0.055512764 -0.075741336 -0.13252641 0.17611654 -0.020671884 -0.020367114 0.003509512
-0.18456277 0.04946251 0.049096026 -0.014403292 0.065601595 0.011391315 -0.23413119 -0.33797482
0.12688605 -0.06960141 0.08495017 0.16955002 0.05993343 -0.015972944 -0.058361765 -0.091357455
0.102869615 0.11060924 0.0851112 0.015164945 -0.009962508 -0.2510837 0.08755487 0.1042607
-0.0027548329 0.16289376 0.30990192 0.17022519 0.1338679 0.19654016 0.015618828 0.047569033
0.0036813102 0.13835213 0.22412188 0.11055161 -0.083305374 0.11724386 -0.11271305 -0.0328575
-0.01202091 -0.050003678 0.08721014 0.034617677 0.16071144 -0.075646214 0.14328793 0.06409444
-0.074280575 0.0671878 -0.020414252 -0.0579173 -0.10921218 -0.1896833 -0.18894903 0.1816708
0.048574664 0.119803555 -0.059974756 -0.17688686 0.14981186 0.16084749 -0.008752786 -0.23606707
-0.18801488 0.15139958 -0.10668356 0.0023408108 0.112283416 0.12931168 0.12010094 0.104551084
0.084682316 -0.04583443 -0.15832642 0.04906157 -0.08313295 0.001696897 0.103298254 -0.012100293
0.17459856 0.11093287 0.06374733 -0.17720467 0.033416532 -0.13083774 -0.0012670205 0.046583693
-0.0104656415 0.2757487 -0.10175592 -0.10459676 0.2197648 -0.013477586 -0.084087215 0.044339918
-0.20239128 -0.037330303 0.030866314 -0.08825024 -0.060831144 -0.076847926 0.024827616 -0.026674015
0.07890973 -0.13173781 -0.21940784 -0.25713298 0.12455351 -0.17606454 -0.051826105 0.027539948
-0.16801304 -0.07080762 0.33279413 0.22075005 0.083031714 0.1821823 -0.031668752 0.006238712
-0.16932772 -0.12067526 0.08421885 0.042408 0.1680093 0.029676782 0.004505262 -0.11833122
0.023120916 0.04254449 0.084152184 -0.11628555 -0.26837188 -0.13080901 0.018940039 -0.17955326
-0.1046555 0.07952286 -0.23751414 -0.06790703 0.028707005 -0.043899283 0.14244168 0.22367467
0.15845829 0.011587131 -0.14890493 0.22115912 -0.0050458773 -0.22695193 0.042680833 -0.1743013
0.010383426 -0.10729139 0.17103146 -0.08977298 -0.16944003 0.015556621 0.17143443 0.09276298
0.04931122 0.06074794 -0.033678256 0.060434233 0.004530658 -0.10278278 -0.14688778 0.06389091
-0.07549046 0.114520885 -0.15628515 -0.08781952 0.16699557 -0.20470196 -0.11805977 -0.07317483
0.09130654 0.07503972 0.103002734 0.046411518 -0.18952101 0.012223951 -0.22262503 -0.17711256
-0.112451024 -0.20459792 0.1406229 -0.13208838 0.0375279 0.111789145 -0.094125845 0.0057235816
00000000: 6c6c be3d 1f07 143e 5d8b 0fbd 0f0b 943d
00000010: 821a 703e 07fa afbd f603 01be dfc4 92be
00000020: 87d9 ab3c ec71 0abd f234 cabd a23e 2e3d
00000030: 228c 1ebe bb28 a73d 6962 c8bd eb9a d83b
00000040: fe5b f33d 426a e03c 107b d83d 558f f2bb
00000050: 1365 21be 3981 113e 5e8b d8bb cc71 ba3d
00000060: 695b 9c3d 90b4 2ebd ccd5 91bd f774 b4bd
00000070: 1cdf 52be abda 9fbd 05af d6bc 2f04 1e3e
00000080: a4e0 18be 30eb 8e3e ce27 54be 50af 19be
00000090: ea8f 0abc 9c8b e1bd 9818 fdbd bc48 c13d
000000a0: f3e1 d73d e7c5 c0bc 2c02 3c3a 9daf 31bd
000000b0: 8e85 d33c 8f15 71be 5f4f ef3d 492f 983d
000000c0: 03a4 413e 3892 99be f1ba 25be 457c fcbd
000000d0: eca8 ed3c a1a0 7e3e bd34 68bd 659e 6f3d
000000e0: 4de9 073e 5a61 63bd 461e 9bbd 01b5 07be
000000f0: e557 343e 1558 a9bc efd8 a6bc d7ff 653b
00000100: 06fe 3cbe 3399 4a3d ea18 493d c9fb 6bbc
00000110: 215a 863d a3a2 3a3c 16c0 6fbe 090b adbe
00000120: 6bee 013e 2f8b 8ebd 5bfa ad3d 859e 2d3e
00000130: c27c 753d b1d9 82bc bf0c 6fbd 9e19 bbbd
00000140: 4ead d23d 1987 e23d c84e ae3d 6476 783c
00000150: ca39 23bc 0b8e 80be f84f b33d a286 d53d
00000160: 6d8a 34bb 9fcd 263e 77ab 9e3e 834f 2e3e
00000170: ab14 093e d341 493e 1de6 7f3c bfd7 423d
00000180: 2342 713b 2eac 0d3e 3580 653e e268 e23d
00000190: 029c aabd 8d1d f03d 19d6 e6bd 9695 06bd
000001a0: 5af3 44bc a8d0 4cbd 3b9b b23d 44cb 0d3d
000001b0: 8a91 243e 67ec 9abd 12ba 123e f243 833d
000001c0: 6a20 98bd c299 893d ca3b a7bc b13a 6dbd
000001d0: a3aa dfbd 573c 42be db7b 41be e907 3a3e
000001e0: 3af6 463d 915b f53d 17a8 75bd d421 35be
000001f0: 4868 193e 34b5 243e d867 0fbc 91bb 71be
00000200: f986 40be 7e08 1b3e e97c dabd 4a68 193b
00000210: d9f4 e53d 486a 043e 7bf7 f53d e11e d63d
00000220: ec6d ad3d e2bc 3bbd 5220 22be c9f4 483d
00000230: 9c41 aabd 6a6a de3a 098e d33d 4f40 46bc
00000240: f7c9 323e c630 e33d f68d 823d 2475 35be
00000250: c6df 083d 54fa 05be 2712 a6ba 8bce 3e3d
00000260: 1578 2bbc ef2e 8d3e 6865 d0bd d336 d6bd
00000270: 060a 613e 18d1 5cbc eb35 acbd c69d 353d
00000280: a93f 4fbe a9e7 18bd 5adb fc3c 8bbc b4bd
00000290: 142a 79bd 7262 9dbd 4963 cb3c 7783 dabc
000002a0: 6d9b a13d 47e6 06be 73ac 60be efa6 83be
000002b0: e915 ff3d 434a 34be 9c47 54bd 759b e13c
000002c0: 9c0b 2cbe 9603 91bd fe63 aa3e 4d0c 623e
000002d0: 880c aa3d ff8d 3a3e 18b7 01bd 1c6e cc3b
000002e0: 3f64 2dbe 9724 f7bd ef7a ac3d 03b4 2d3d
000002f0: a10a 2c3e b91c f33c e0a0 933b a357 f2bd
00000300: 1368 bd3c 2243 2e3d fb57 ac3d 1e27 eebd
00000310: 0a68 89be ccf2 05be 2428 9b3c cfdc 37be
00000320: 9f55 d6bd e2dc a23d e836 73be d712 8bbd
00000330: f42a eb3c bccf 33bd 3bdc 113e f90a 653e
00000340: e442 223e f3d7 3d3c 897a 18be 8977 623e
00000350: e357 a5bb 1666 68be 19d2 2e3d 0a7c 32be
00000360: 3f1f 2a3c 97bb dbbd df22 2f3e e5da b7bd
00000370: b081 2dbe 33e1 7e3c 828c 2f3e 84fa bd3d
00000380: 90fa 493d d5d2 783d 36f2 09bd e389 773d
00000390: ea75 943b c77f d2bd c069 16be 3dd9 823d
000003a0: be9a 9abd ed89 ea3d 3709 20be b8da b3bd
000003b0: e300 2b3e 649d 51be 52c9 f1bd afdc 95bd
000003c0: ecfe ba3d 6dae 993d 19f3 d23d 011a 3e3d
000003d0: cc11 42be f746 483c d1f7 63be ff5c 35be
000003e0: b94c e6bd 1e82 51be 73ff 0f3e 2d42 07be
000003f0: dbb6 193d b5f1 e43d 0dc5 c0bd e28c bb3b

fc2.bias f4 [64]
0.0012745904 -0.00085160544 0.0010421581 0.00042264804 -0.00011244133 0.0004264984 0.0003707627 -0.0018804098
4.6876878e-05 -0.00046158445 -0.00067544176 0.0004368452 0.00030264104 -0.00022261523 0.00052171753 0.00046928186
0.0002805149 0.00021647467 0.0012213808 -0.0012613477 0.00043724815 0.00053925056 0.00067580503 0.00033637218
-0.0037157394 0.007877898 -0.000345635 6.3736443e-06 0.00024375692 0.00032634308 -0.0001757016 -5.4497148e-05
0.00052872667 -0.00039106904 0.00027536388 8.398032e-05 0.00012550635 -0.0007725979 -0.00045411472 0.00043194834
-0.019310415 -0.00092953135 -7.0493195e-05 0.000881605 0.00043118245 -0.000103654915 0.000107712265 -0.0027312976
0.0008161582 0.0033819976 -0.00048167724 -0.0013979308 0.0004538587 -0.0007645766 -0.0008094285 0.00025228882
-0.00029715465 -0.0002783297 0.00025630608 0.00032342577 0.00076435454 0.000620595 -0.00044244935 -0.0005181472
00000000: 2810 a73a 463e 5fba 0699 883a dc96 dd39
00000010: 7bce ebb8 a59b df39 ed62 c239 1578 f6ba
00000020: aa9d 4438 d100 f2b9 2110 31ba 5f08 e539
00000030: cbab 9e39 d26d 69b9 dfc3 083a f209 f639
00000040: 1312 9339 7afd 6239 bd16 a03a ce53 a5ba
00000050: 743e e539 7e5c 0d3a 8228 313a 1c5b b039
00000060: c383 73bb 4d12 013c 5836 b5b9 30dd d536
00000070: 0099 7f39 0719 ab39 8a3c 38b9 de93 64b8
00000080: 3f9a 0a3a 6608 cdb9 b75e 9039 971e b038
00000090: 5b9a 0339 2b88 4aba 3f16 eeb9 2077 e239
000000a0: e030 9ebc cbab 73ba bfd5 93b8 831b 673a
000000b0: 5410 e239 4f61 d9b8 95e3 e138 92ff 32bb
000000c0: 73f3 553a 81a4 5d3b a089 fcb9 c63a b7ba
000000d0: e2f3 ed39 de6d 48ba d42f 54ba a245 8439
000000e0: 6ccb 9bb9 c8ec 91b9 d260 8639 7991 a939
000000f0: f75e 483a 6daf 223a 8cf8 e7b9 45d4 07ba

fc3.weight f4 [1, 64]
-0.070530534 -0.0839343 -0.01572352 -0.1286147 0.2289395 0.21025251 0.12932327 -0.039706416
0.2397898 0.186943 0.10158994 -0.07768839 -0.06899471 -0.1600122 -0.055794433 -0.1231621
0.19067432 -0.04405601 -0.034044307 -0.0351193 -0.060773656 0.21747464 -0.07201326 -0.11021935
0.0075158104 -0.012898255 -0.052109443 0.15925008 0.1210878 -0.18863945 0.06578 -0.20941067
0.12532875 -0.17105001 0.2280134 -0.24649885 0.077422686 0.08182471 0.1788723 -0.150816
0.006472088 -0.10933471 0.19204986 0.09407443 0.0766627 -0.06368355 -0.07679905 0.004434079
0.012715908 0.011532188 -0.3166999 0.032267805 0.11605982 0.058605686 0.085241064 0.11397643
-0.18382981 0.10030466 -0.064248756 -0.0949338 0.14535734 0.00616408 -0.14559111 -0.16668129
00000000: 5072 90bd bfe5 abbd 9dce 80bc 92b3 03be
00000010: 1e6f 6a3e 6f4c 573e 526d 043e 32a3 22bd
00000020: 758b 753e fc6d 3f3e 630e d03d 171b 9fbd
00000030: 194d 8dbd 3dda 23be b488 64bd 693c fcbd
00000040: 2140 433e 1374 34bd 0b72 0bbd 41d9 0fbd
00000050: cced 78bd acb1 5e3e b07b 93bd afba e1bd
00000060: 3047 f63b 3453 53bc b670 55bd 7412 233e
00000070: e1fc f73d b32a 41be aab7 863d c06f 56be
00000080: 2e56 003e bc27 2fbe 587c 693e 326a 7cbe
00000090: c98f 9e3d b793 a73d 4d2a 373e 826f 1abe
000000a0: cf13 d43b e0ea dfbd b8a8 443e 18aa c03d
000000b0: 5501 9d3d 856c 82bd d248 9dbd c04b 913b
000000c0: 6256 503c 81f1 3c3c 7d26 a2be 3f2b 043d
000000d0: c5b0 ed3d 840c 703d de92 ae3d 796c e93d
000000e0: e23d 3cbe 886c cd3d da94 83bd a76c c2bd
000000f0: 8ed8 143e 0dfc c93b d615 15be 80ae 2abe
