mappo_algorithm/checkpoints/mappo_actor_env_comp_exp_1_run_0_lumberjacks.pth (torch, 28282 bytes, 12 tensors)

fc1.weight f4 [64, 21]
000000 1c 3d 0b 3e e8 c9 a4 bb 21 aa 61 bd 50 0b 30 3e
       0.1359753 -0.005028952 -0.05509389 0.17191815
000010 6c 15 db bd 8d 1b 60 be 7e 48 de 3c 35 83 be bc
       -0.10697445 -0.2188551 0.027134176 -0.023255924
000020 58 ba fd 3d 39 f9 c8 be 1a c8 96 bc 62 e9 b5 3e
       0.12389058 -0.39252642 -0.018405963 0.3552962
000030 ce a9 2a be 3e 88 76 ba c3 9a 34 3e 03 43 a1 bc
       -0.16666338 -0.0009404457 0.17637162 -0.019685274
000040 bb 4c 9f bd ce b4 09 be 1e 50 6d 3d d2 9c 74 3d
       -0.07778307 -0.13447878 0.057937734 0.059719868
000050 df ff ad bd 28 22 20 bd bd 5c 84 bd 39 75 1d 3e
       -0.08496069 -0.039095074 -0.06463001 0.15376748
000060 0f f2 c6 bd a5 92 bb bd 59 43 a4 bd eb d4 ed bd
       -0.09714138 -0.091588296 -0.08020658 -0.116128765
000070 71 d7 29 3e 05 b1 b3 bd 3f 55 76 be 99 3c 90 3e
       0.1658609 -0.08773998 -0.24055956 0.28171232
000080 f4 e7 6e bd 53 71 a7 3e 31 fc 0d bd d2 a7 e4 3d
       -0.058326676 0.32703647 -0.034664337 0.11164822
000090 4a b8 23 3c 9e 16 d9 3e 60 f8 cd 3c 26 6d 1f bd
       0.009992668 0.42400068 0.025142848 -0.03892245
0000a0 4a c0 2a bd b6 f6 28 3e 0c 83 71 be 6c 31 4f 3d
       -0.041687287 0.16500363 -0.23585147 0.05058424
0000b0 2c b3 82 bd ab 36 0e be f1 78 4e 3d d1 02 94 bd
       -0.063818306 -0.13888042 0.050408307 -0.072271
0000c0 3d 56 2e be 5f 3e 90 bc a6 ed 2e 3d 31 c4 26 3e
       -0.17025085 -0.017607866 0.042707108 0.16285779
0000d0 55 fc 4a be 3e 86 8f 3e 51 ee 19 3e 7a ec 78 be
       -0.1982282 0.28032106 0.15032317 -0.24308959
0000e0 64 24 ba bd 0c 18 35 be e0 0b 43 3c c0 de 2d 3c
       -0.09088972 -0.17684954 0.011904687 0.01061219
0000f0 8d a4 13 3e 2a 71 be bd 41 8d a9 bd f8 c1 02 3e
       0.1441824 -0.09298928 -0.08278895 0.12769306
000100 0d ba 36 3c b7 4d 7c 3d f7 3a c6 bc 11 7f 47 3e
       0.011152756 0.061597552 -0.024198039 0.19482066
000110 fb 3a 1a 3e e3 0b 55 be 38 60 b7 bd 77 dd b8 3e
       0.15061562 -0.20805316 -0.08953899 0.36106464
000120 be e7 c3 bc a5 8b aa be 36 55 4b bd 3b 67 fa be
       -0.023914214 -0.33309665 -0.04964181 -0.48906884
000130 48 20 f8 be b8 85 e4 be 8d f8 36 3e 5b db cc bd
       -0.4846213 -0.4463327 0.17868252 -0.10002776
000140 ab a2 a5 3e 16 9d 25 be b2 0a f4 bd c3 b4 37 3d
       0.32350668 -0.16173205 -0.119161025 0.044850122
000150 15 6c f0 bd 96 53 26 3d 1f 51 3c bc 31 75 31 3c
       -0.11739365 0.040607058 -0.01149395 0.010831163
000160 f5 a0 09 be d6 17 69 be 6a a6 42 bd 3f f6 b3 bc
       -0.13440306 -0.22762999 -0.047521986 -0.021968005
000170 dd fd 08 bc 42 0b 9c 3e 58 ee 8c be ad d8 ff 3d
       -0.008361307 0.3047734 -0.27525592 0.124924995
000180 98 9c 50 be b9 77 8d bd bf e2 dd 3e 6c 37 ba bd
       -0.20372236 -0.06907601 0.43337056 -0.09092602
000190 b9 e9 d7 be e2 d5 05 3b 21 f9 6d 3e 3f 37 87 bd
       -0.42170504 0.0020421674 0.23239566 -0.06602334
0001a0 a5 5e b9 bc 8c 43 2b bc ee d0 41 3c 39 5e 53 bd
       -0.022628138 -0.010453116 0.011829598 -0.05160353
0001b0 fd f8 ba bd 6e 56 16 3d b8 7d ff bd 54 28 50 bd
       -0.09129522 0.03670352 -0.12475151 -0.05081971
0001c0 c7 b8 da bd db 8a 4d bd 5a 41 92 bd 9b d2 75 bc
       -0.10679775 -0.05018125 -0.07141371 -0.015003826
0001d0 2d e6 f3 3e 3d 11 b1 bc c4 fb a3 bd eb 77 bf 3d
       0.47636548 -0.021614665 -0.08007005 0.093490444
0001e0 7a 5c 14 be bb 0b db 3d 71 5d 1d be f8 07 4f 3d
       -0.14488402 0.10695597 -0.15367676 0.05054471
0001f0 da 8d 2f be 18 54 e1 3c 5a a4 62 bd 76 e9 3f 3c
       -0.17143956 0.02750592 -0.05533252 0.011713376
000200 5a 41 43 bb db c1 91 bc 16 49 03 3e 10 b2 11 3e
       -0.0029793591 -0.017792633 0.12820849 0.14228082
000210 80 a4 4b 3e 26 9e e4 bd a0 6e 1b 3e 6c 46 bd 3d
       0.1988697 -0.11162977 0.15178919 0.092419475
000220 cd 40 81 be 48 2f 2e bd 94 fb 01 3e b7 ce 48 3e
       -0.25244752 -0.04252556 0.12693626 0.19610105
000230 05 69 4b 3e f7 e3 b3 be 92 38 3c be d4 f6 08 bd
       0.1986428 -0.3513486 -0.18380955 -0.03343852
000240 fd c7 c7 3d 61 40 25 3e 9a 1a 2f 3e e6 31 e5 bd
       0.097549416 0.1613784 0.17099991 -0.11191158
000250 93 73 a9 3d cd 83 e9 bd 13 a7 49 3e 0b fc 30 3e
       0.08273997 -0.11402092 0.1969264 0.17283647
000260 75 f6 d9 bd ff 2a 79 3d e4 ec 4d be 31 59 57 be
       -0.10642711 0.06083202 -0.20109898 -0.21030118
000270 a8 cf f1 bd f0 2a e2 bc 5f 36 a2 3e e7 b1 d7 be
       -0.118071854 -0.027608365 0.31682107 -0.42127916
000280 03 aa 11 bd a5 d8 18 3d 87 af 2a be 08 fa 89 be
       -0.035562526 0.037315983 -0.16668521 -0.2694857
000290 34 a7 97 3e 1d 04 5b be d4 d2 96 3c 5d 25 a0 bd
       0.29619753 -0.21388288 0.018411078 -0.078196265
0002a0 ff 6a fc 3d 21 78 f4 bd 15 eb c5 bd ab 00 05 3e
       0.123250954 -0.11936975 -0.09663979 0.12988536
0002b0 43 5c ce bc 96 da ce 3d 9e 61 59 bd 1f 01 57 3e
       -0.025190478 0.10100286 -0.05307161 0.20996521
0002c0 10 88 51 3d e0 7c 9e 3d dd e4 09 3f ee e2 a3 3e
       0.05115515 0.07738662 0.5386484 0.3200907
0002d0 6c 39 93 3e 57 c5 f0 3d ad d8 4e 3e 83 0b 72 3d
       0.28754747 0.117563896 0.20199843 0.05909301
0002e0 f9 c9 f2 be 68 4b 9c 3d 2b 01 51 3e 81 d2 df bd
       -0.47419718 0.0763157 0.20410602 -0.10928822
0002f0 8c f3 e4 bc ff 3c bb 3d fd d3 7f be 5b d1 32 3e
       -0.027948163 0.091424935 -0.24983211 0.17462675
000300 92 0e dd 3d 7a 0a 12 3e b3 87 d2 3c d5 3e 11 bd
       0.10793795 0.14261809 0.025699472 -0.035460312
000310 aa fb 24 be 06 f9 7b 3c 79 26 65 3e 43 82 19 3e
       -0.16111627 0.015379196 0.22377957 0.14991097
000320 ed 11 b6 be e2 51 66 3e cb 16 4e be 8d de b3 bd
       -0.3556055 0.22492173 -0.20125882 -0.087826826
000330 50 7a 23 bc bf e1 87 3c 7a d8 60 be 69 25 27 bd
       -0.009977892 0.016587136 -0.2195758 -0.04080716
000340 3f 11 a3 bd 26 aa fa bd 68 04 c4 3d 0d f2 34 bc
       -0.07962274 -0.122394845 0.09571153 -0.0110440375
000350 82 0d c2 be 29 d8 92 bd 68 41 b3 bd 53 80 63 3d
       -0.3790093 -0.071701355 -0.087527096 0.0555423
000360 a1 b3 1c 3d 72 27 88 3d 68 fd 28 be f6 c7 05 3d
       0.038257245 0.066481486 -0.16502917 0.0326614
000370 05 03 85 3e 23 2e 7b 3e 08 1a 46 3c f7 89 44 3e
       0.25978866 0.24529319 0.012091167 0.19193254
000380 60 d4 1a 3e f8 85 59 be 63 f3 9d bd 60 b3 1b be
       0.15120077 -0.21242511 -0.07712438 -0.15205145
000390 cc 12 11 be 7a 17 04 3d ef 8e e6 bc 45 39 c9 3d
       -0.14167327 0.03224895 -0.028144328 0.098253764
0003a0 63 5c 79 3e 8e 69 bb bd 2c ef b8 3c c4 a3 84 3e
       0.24351649 -0.09150992 0.022574984 0.25906193
0003b0 a3 47 d2 bd 7a ba cf 3e c2 c7 54 3d 6b e8 a4 3d
       -0.1026757 0.40571958 0.051948316 0.08052143
0003c0 21 8c a0 be 1b d0 bf be 79 40 3a 3d 4b da 31 be
       -0.3135691 -0.3746346 0.045471642 -0.17368428
0003d0 e2 70 86 be 7f 73 5d 3c b8 be 25 3e 4d ba 37 be
       -0.26257998 0.013516306 0.16186035 -0.17942162
0003e0 a0 17 83 3e 97 9c d1 3d 12 44 b3 be d5 33 be bd
       0.25603962 0.10234945 -0.3501287 -0.0928723
0003f0 23 88 a6 bd 9b 38 48 3e 95 45 7e 3e bc 75 32 3e
       -0.08131435 0.19552843 0.24831231 0.17427725

fc1.bias f4 [64]
000000 6d a9 3e 3c 58 43 62 3d 19 86 a5 bc eb 07 d9 3c
       0.011637074 0.055240005 -0.020205544 0.026493033
000010 cc 0a e9 bc 7c d0 97 3c 6d 69 24 bd 11 30 37 bc
       -0.028447531 0.01853203 -0.040139604 -0.0111808935
000020 d8 ac ae 3b 28 c5 50 bc 56 f3 28 bc 7a b5 b2 39
       0.005330663 -0.012742318 -0.010311922 0.00034086016
000030 7b c5 cb 3c 78 f8 6d bd 26 18 e2 3c d9 9a 1b 3b
       0.02487444 -0.058098286 0.027599405 0.002374342
000040 58 5c 83 3c 56 4f 72 3d 9a 42 2c 3d c2 52 0e 3c
       0.016035244 0.059157692 0.042055704 0.008686723
000050 4f 64 da 3c 0c ed 6c 3d 89 e9 3d bd 3b 34 e4 bc
       0.026659159 0.057843253 -0.046365295 -0.027856937
000060 ba 71 10 bd 65 96 45 bd 5d 82 a0 3c 0d 7b 92 bc
       -0.035264708 -0.04823913 0.019593412 -0.01788094
000070 82 cd 1d 3d 7e 10 e3 3d b9 6c 6c bc bb a4 bb 3d
       0.038526066 0.1108713 -0.014430218 0.09162279
000080 cb 12 1c 3c f1 74 9f 3c 20 38 4f bc 70 d0 ae 3c
       0.009525965 0.019464942 -0.012647659 0.021339625
000090 4d b9 6b bd 3a 41 70 3d 36 73 30 bd 43 3b 2b 3c
       -0.057549763 0.058655955 -0.043078624 0.010451141
0000a0 e7 da 70 bd 8b ad 09 3c 75 04 f3 bc 60 23 83 bd
       -0.05880251 0.008403192 -0.029665211 -0.064032316
0000b0 60 bf 7d bc e3 68 9c bc b4 5b 7c bd 25 75 b6 ba
       -0.015487522 -0.019092983 -0.061610892 -0.001392041
0000c0 60 a6 57 bc c0 c5 8c 3d 51 c0 f7 bc d2 4b 01 3d
       -0.0131622255 0.06873655 -0.03024307 0.03156645
0000d0 07 dd 52 bd 23 98 61 3d a0 7a 05 3d c8 c6 03 3d
       -0.05148032 0.05507673 0.032587647 0.032171994
0000e0 2a e4 34 bd 6c 09 9f bc 1a 6c d2 3d 3a cb 67 3d
       -0.044162907 -0.019413672 0.10274525 0.056590296
0000f0 f6 aa 8f bb ee 58 71 bc 21 b7 a0 bd 93 13 22 3d
       -0.004384394 -0.014730675 -0.07847429 0.03956945

fc2.weight f4 [64, 64]
000000 26 18 fc 3d c1 3e 68 3e 65 5c d4 3d 43 0a 2a 3e
       0.123092934 0.22680189 0.10369185 0.16605477
000010 77 66 0c be d4 ec 8d 3d ea 12 8d bd 4d fc 11 bd
       -0.13710962 0.06929937 -0.06888373 -0.035641003
000020 5f ca 90 3d 6f 74 82 3e d0 93 8a be e3 9e 44 3e
       0.07069849 0.25479457 -0.27065897 0.19201235
000030 17 09 cb 3d b7 c3 d8 bd 60 e1 24 3e 42 93 5c 3e
       0.09913843 -0.10584205 0.16101599 0.2154055
000040 4f df 9a bd ea f1 4e be 01 7c 36 be a3 fa a5 3d
       -0.07562124 -0.2020947 -0.17820741 0.08104446
000050 ad 6d 19 3d 3a 5c 1f be 6d c0 73 bd f3 54 6d be
       0.03745811 -0.15562525 -0.059509683 -0.23176937
000060 e8 f2 1f 3e 7a d4 fe 3c 0d 03 21 be 2a 38 fd bd
       0.15620005 0.031107176 -0.1572382 -0.12364228
000070 83 8c e7 bd c1 d2 35 bd 7e b2 15 bd 6c 62 5e 3d
       -0.11306097 -0.044390444 -0.036547177 0.05429308
000080 25 18 89 3d b0 15 98 be b5 bb f3 3d 52 de 1b bd
       0.06694058 -0.29704046 0.11901037 -0.038053818
000090 71 6d 1b be d0 4b fa bd 94 a4 94 3e ec db 04 be
       -0.15178467 -0.12221491 0.29031813 -0.12974519
0000a0 98 bf 8b 3c e8 fe 26 bd 04 05 71 3c 2c 0f 7c 3d
       0.017059132 -0.04077044 0.0147106685 0.061537907
0000b0 8a e8 54 be c1 8a ae 3d 78 47 d3 bd 28 6e ba be
       -0.20791832 0.08522559 -0.10316366 -0.36412168
0000c0 d3 68 78 3d fc d9 2a be 8a fd 3f bd eb 4e ce 3d
       0.060646843 -0.16684717 -0.046872653 0.10073646
0000d0 b3 11 d8 3d 20 b4 03 be be 36 b1 3e 0e ce ca 3d
       0.10550251 -0.12861681 0.34612077 0.09902583
0000e0 78 a5 26 bd 10 eb 76 be 3c ba da bd 99 28 5f bd
       -0.040685147 -0.24113107 -0.10680053 -0.054482076
0000f0 f2 51 cd 3d 60 7c 05 be 3a 7e 28 be 68 27 27 3e
       0.100253955 -0.13035727 -0.16454402 0.16323626
000100 a5 bb 4a 3e ea 61 09 bd 1f bb 83 bd b1 ff 21 be
       0.19798143 -0.033540644 -0.06432175 -0.15820195
000110 9f 42 cc 3d d0 fc d6 bd 44 ca 32 be 37 6a 29 3e
       0.099736445 -0.10497439 -0.1745997 0.16544424
000120 b4 f1 ac 3d 8d 91 62 bc 32 de 20 3e 70 b5 cf bd
       0.08444539 -0.013828647 0.15709761 -0.10142028
000130 d9 99 55 3e 79 aa f7 3d 3e c6 41 be 1b 11 99 be
       0.2085947 0.12093062 -0.1892328 -0.29895863
000140 00 58 4b 3e 34 a1 10 3e 5c cb 12 bd 61 4d 88 bd
       0.19857788 0.14123994 -0.03583847 -0.06655384
000150 cf 4c 66 bd a1 9c e1 bd 49 d9 87 3e 74 3b 13 3d
       -0.056225594 -0.11016203 0.26532963 0.03594537
000160 87 9e 23 3e 53 27 a6 be bc 56 4a be 02 f8 7a be
       0.15978442 -0.32451877 -0.19759649 -0.2450867
000170 5e 51 47 be 57 36 dc 3d 29 2b 8e 3d ef 17 83 be
       -0.19464633 0.10752552 0.06941826 -0.25604197
000180 e0 23 86 bd 76 f3 67 3e 6c 27 56 bd bc da 3c 3e
       -0.06549811 0.22651467 -0.05228369 0.18442816
000190 bb 4f 8f be 90 63 10 3e c9 b1 be bd ac 3f 1a be
       -0.27990517 0.1410048 -0.093112536 -0.15063351
0001a0 8a 11 da 3d f4 9d e5 3d c4 41 ed bc ad ef 3a 3e
       0.106478766 0.11211768 -0.028962024 0.18255492
0001b0 37 59 43 3e 00 af fc be 16 78 67 3e 97 b8 2e bd
       0.19077002 -0.49352264 0.22604403 -0.042656507
0001c0 6b 2e ce 3c 3b f2 48 3d 27 7a d9 3d ec d7 20 b9
       0.025168618 0.049059134 0.10619002 -0.00015339226
0001d0 7d 88 c3 3e 38 2b ee 3b 7a 47 bd be cb 58 4d bc
       0.3819007 0.0072683357 -0.36968595 -0.012533377
0001e0 90 7e 53 be ee a3 e0 3d cd cd 22 be 1b 7e f8 bc
       -0.20653749 0.10968767 -0.1589882 -0.03033357
0001f0 45 26 4d be 2a f7 62 be d9 1d 26 bd 5a bd f6 bd
       -0.2003413 -0.22164598 -0.04055581 -0.12047835
000200 e4 48 c7 3e d2 da 66 3b aa 3f 18 3d da 4f 46 bd
       0.389228 0.0035225642 0.03717009 -0.048415996
000210 f4 bb f3 3c 14 b6 32 bc de dc 76 3e e9 61 17 3d
       0.029752709 -0.010907669 0.24107692 0.03695861
000220 74 8e 57 3e 7c b5 5f be 10 9c be bd dc da 66 bb
       0.21050435 -0.21846575 -0.0930711 -0.0035225665
000230 77 52 74 3d 1f 65 96 be 61 eb 34 bc 17 72 79 be
       0.059648957 -0.29374024 -0.011042447 -0.24359928
000240 f1 bb 5f be 35 ac e4 3d 76 72 48 3d d3 8b a1 3c
       -0.21849038 0.111656584 0.048937283 0.019719994
000250 39 2c e2 3c 5b e1 08 bc cc b7 a2 be b3 c4 5b be
       0.027608978 -0.00835451 -0.3178085 -0.21461754
000260 f0 ac d8 3a 36 2e d9 3d 72 4e d1 3d 96 9b 60 be
       0.0016531032 0.10604517 0.102200404 -0.21934351
000270 81 fc dd 3e bd cf 81 bd 7f f2 0d 3d ed 8a 8e bd
       0.43356708 -0.06338451 0.03465509 -0.06960092
000280 24 eb 50 be 53 f7 15 3e 06 68 b2 3e c0 54 f1 3b
       -0.20402199 0.14645128 0.3484499 0.0073648393
000290 89 e8 7f bb e8 9b cf bd af 5d 74 bd 6d 15 30 bb
       -0.0039048514 -0.10137159 -0.059659656 -0.002686824
0002a0 dc b9 32 bd c1 6e ef bd b1 a7 3b bd ba df 3a be
       -0.04363428 -0.116910465 -0.04581422 -0.18249407
0002b0 ba ec b7 3d 46 f4 09 3e 42 4b 1a be e7 fc 4e be
       0.08980699 0.13472089 -0.15067771 -0.20213662
0002c0 7d 05 3b 3e eb 18 d1 3d 92 4e dc bc 74 1c c4 3d
       0.18263812 0.10209831 -0.026892934 0.095757395
0002d0 04 a8 a1 be ac c9 cd 3d c2 11 1a 3e 78 b5 39 be
       -0.31573498 0.100482315 0.15045837 -0.18135631
0002e0 26 b3 74 3d 70 8b 0f 3d 0b 55 d0 3d 41 bf 94 bd
       0.05974116 0.035045087 0.10172471 -0.07263041
0002f0 db 1c ca 3e 30 24 ce 3d 21 63 f8 3c 2d 12 2d be
       0.3947514 0.10065496 0.030320706 -0.16901465
000300 fc 14 62 be f1 cc 9c bd 9b 7d ae bd 2d 82 3c be
       -0.22078317 -0.07656277 -0.08520051 -0.18409033
000310 50 65 41 bd 55 b5 2a 3e ca 51 d0 3b 2c 04 24 3e
       -0.04721576 0.16670735 0.0063574063 0.16017216
000320 bd 5f 28 be 1a eb 78 3e 89 1c 35 3e cc 3a 86 3c
       -0.16442771 0.24308434 0.17686667 0.016385458
000330 89 a4 17 3c fd 01 50 bd 59 a5 24 be 47 4e c5 3b
       0.009255537 -0.050783146 -0.160787 0.0060212943
000340 6a 0e 32 3e 28 5c 7d 3e c5 d9 54 3e ef ce 08 be
       0.17388311 0.24742186 0.20786197 -0.13360189
000350 6d f5 4a 3e 21 df 25 3e 8d 34 a8 bd 61 cb 2d 3e
       0.19820185 0.16198398 -0.08213148 0.16972114
000360 19 8a fa 3d 36 0c 2c be e5 cc df bd 19 48 8e bc
       0.12233371 -0.16801533 -0.109277524 -0.017368363
000370 a2 04 9e 3d 00 68 cc 3d 34 77 d5 bd 41 11 08 3e
       0.077157274 0.09980774 -0.10423127 0.13287832
000380 63 2f c7 bd 53 af 48 3d 41 22 5a 3e 73 cc a8 bd
       -0.09725835 0.048995327 0.2130213 -0.082421206
000390 2c 15 f7 3d e4 aa 76 be e1 9e 29 bd 59 8a 8c bc
       0.12064585 -0.24088627 -0.041411284 -0.017155813
0003a0 a5 4e 86 be 00 d2 8f 3e 62 16 70 be 3f 0f 32 be
       -0.26231876 0.28089905 -0.23446038 -0.17388628
0003b0 6c ab 07 3e 1f 84 60 3d 17 68 c6 bd 22 e3 84 bd
       0.13248986 0.0548135 -0.09687822 -0.06488635
0003c0 f3 93 b5 be 01 ef c4 bd 91 9c 18 3e 62 01 b0 bd
       -0.3546444 -0.09615899 0.14903475 -0.08594014
0003d0 4a be 07 bd a1 c0 59 be b1 6e 14 bd 05 54 90 3d
       -0.03314046 -0.21264888 -0.036238376 0.070472755
0003e0 61 66 50 3e 94 3c 3a 3d d1 16 6c bd 3a 67 c0 bd
       0.20351554 0.045467928 -0.057638947 -0.09394689
0003f0 1d 95 58 3d c5 43 f6 3c 04 c4 e0 bc fe db 76 3e
       0.05287658 0.030061612 -0.027437218 0.24107358

fc2.bias f4 [64]
000000 c2 31 95 bc 06 1d 0b 3c 15 99 45 3d 7f ca 8d 3d
       -0.018212203 0.008490806 0.048241694 0.06923389
000010 45 d1 aa 3c ff a6 fa 3c e3 3f 2a 3d 37 43 84 bd
       0.02085174 0.030597208 0.041564833 -0.06458133
000020 27 be 09 3d cf 98 60 3c 5b 78 6a 3d a4 16 5e bc
       0.03362861 0.013708307 0.057243686 -0.013555203
000030 0c 8f 69 3b fb be e2 3b 9a b7 82 3d a3 75 24 3b
       0.003563824 0.0069197393 0.063826755 0.002509453
000040 d5 fe 9c bc d8 31 cc bc b3 04 8c bc 1a a4 90 3c
       -0.019164482 -0.024926111 -0.017092085 0.017656375
000050 3e ce 27 bc bf 37 16 bc ea fa 87 bc db b9 99 ba
       -0.010242043 -0.009168564 -0.016599137 -0.0011728363
000060 76 5f 12 bd d6 e2 c3 ba 33 51 6d 3d da ed 31 3a
       -0.03573557 -0.0014944922 0.057938766 0.0006787457
000070 8a c9 b9 bc 08 6d bf bc 75 89 31 bd f2 57 e5 b9
       -0.02267911 -0.02336742 -0.04334398 -0.00043743808
000080 1e 91 6b bc 6f 3c 70 bd 72 f3 b3 bc f1 bc cf bb
       -0.01437786 -0.058651384 -0.02196667 -0.0063396622
000090 96 63 08 3c c3 c7 1d bd 33 9c 75 bd be 47 59 bd
       0.008324524 -0.038520586 -0.059963416 -0.053046934
0000a0 a4 23 88 3c 2e aa 41 3d 03 16 5b bd 50 55 9b 3c
       0.016618557 0.047281437 -0.05348779 0.018961579
0000b0 0e 7d 62 bc 65 49 4a 3d 02 c2 98 bb 85 45 f0 3c
       -0.013823761 0.0493864 -0.0046617994 0.029330024
0000c0 a4 22 2f 3d 95 1a 09 3d cf 7a 02 bc 13 8e 88 3c
       0.042757645 0.033472616 -0.00796385 0.016669309
0000d0 16 29 09 bd 47 31 23 bd 96 8d 4b 3d 05 bd 71 bc
       -0.03348645 -0.039841916 0.049695574 -0.014754538
0000e0 ed 58 66 3a 02 4a 69 bc 2e 00 c6 3a f3 4e 1a bd
       0.00087870547 -0.014238836 0.0015106255 -0.037672948
0000f0 1c 10 91 3c 83 da b9 3c 96 65 7e 3c ef b6 da bc
       0.017707877 0.022687202 0.01552715 -0.026698558

fc3.weight f4 [9, 64]
000000 1b 1a e3 bc 84 fb d3 3b 8b 50 20 3e fe 98 92 3d
       -0.027722409 0.006469192 0.15655725 0.07158087
000010 87 3d 6a bc 43 9c 45 3d ce 97 8b 3d 51 9d 7a bd
       -0.014296896 0.048244726 0.06816064 -0.061185185
000020 80 0c 99 37 26 29 84 3d 68 e9 6e bd 7c 32 24 bd
       1.8244842e-05 0.06453161 -0.058328062 -0.04008721
000030 f8 9e ee 3b 24 44 f1 3c 40 5b 0b 3d c2 b2 05 3e
       0.007282134 0.029451437 0.03402257 0.13056472
000040 12 c1 52 3d 29 97 ec bc 6c 48 e1 bc 52 cc 01 3d
       0.051453657 -0.028880673 -0.027500354 0.031688996
000050 7c 43 2e 3d 39 d1 0c bd be 20 69 bc 33 d4 9f bd
       0.042544827 -0.034379218 -0.014228998 -0.07804146
000060 e7 9f 9e bd 4f 09 5d bb 53 11 94 bb 4c f8 9d bc
       -0.07745343 -0.0033727472 -0.004518667 -0.019283436
000070 31 66 b5 3d f1 f1 27 bd c8 49 4f bd 5d a8 05 be
       0.08857382 -0.041002218 -0.050607473 -0.13052507
000080 ee de a4 bd 8d ac 68 3d b8 c9 74 bb 47 53 ca bc
       -0.08050333 0.056805182 -0.003735168 -0.024697913
000090 66 41 2e 3e 48 a4 da bc 5f 3e ea bd 69 1a 8a bd
       0.17017135 -0.026689664 -0.114376776 -0.067433186
0000a0 7b 73 4e bb 3a c4 98 3d f6 c3 90 3d 30 26 51 bd
       -0.0031501937 0.07459302 0.070686266 -0.05106181
0000b0 94 6c f0 3d d5 19 49 3d f4 61 60 3c cd 99 9e 3d
       0.1173946 0.0490969 0.013695229 0.07744179
0000c0 84 19 12 3d 06 d5 29 3d 92 7a fd bc 05 50 d5 3c
       0.035668865 0.04146292 -0.030942235 0.026039133
0000d0 96 10 8b bd f6 2e 15 bd 69 52 2c 3d bd 73 ca 3c
       -0.06790273 -0.03642174 0.04207078 0.024713391
0000e0 ff a8 d4 3c 7e 0c d4 3c 87 f2 b1 3c 15 4f 6d 3d
       0.02595949 0.025884863 0.021722091 0.057936747
0000f0 8e 20 3e bd 0a 85 1f 3d 5d c2 d2 3c 0a ca 74 bd
       -0.046417765 0.038945235 0.025727445 -0.059762992
000100 3c ae bc 3c 25 af 37 be 3b f0 1b 3e 67 65 5f bc
       0.0230323 -0.17937906 0.1522836 -0.013635016
000110 59 a7 28 3e b5 e0 d0 bd 18 b6 fe bd 48 11 20 3d
       0.16470088 -0.101991095 -0.124370754 0.03907898
000120 90 61 ff 3d bb 98 b1 bd 0e c2 12 3e 25 28 fa 3d
       0.124697804 -0.08671709 0.14331838 0.12214688
000130 38 a4 f4 bd 08 28 17 3e 0f 71 a2 3d ca 97 d9 3d
       -0.11945385 0.14761364 0.079317205 0.106246546
000140 4c 1c e9 bd a1 54 bd 3d 24 01 5b be 49 d7 0b 3e
       -0.1138235 0.09244657 -0.21387154 0.13656344
000150 a7 ae 37 3e 21 eb 3c be d8 cd f2 3d 4c a8 18 be
       0.17937718 -0.1844907 0.11855668 -0.1490795
000160 37 49 ab 3d 13 2d 34 3d bc 9a 1f bc 49 ae 08 be
       0.08363574 0.0439883 -0.009741481 -0.13347735
000170 02 16 3e 3e 22 86 8c bb b5 ce 53 bd e1 4a cb bc
       0.18563083 -0.004288451 -0.051710803 -0.024815978
000180 b5 ac 46 be 75 16 1a be 21 a2 10 3e ad 65 26 be
       -0.1940182 -0.15047629 0.14124347 -0.16249724
000190 87 28 21 3e 2c a0 3e be f0 a1 12 3e 2f 9b 13 be
       0.15738116 -0.18615788 0.14319587 -0.14414667
0001a0 4a 69 27 be 24 97 0b be 29 4a 21 3e 8e 4c 18 be
       -0.16348758 -0.13631874 0.15750946 -0.14872953
0001b0 c6 5e 0f 3e ed 59 00 be ad 2f e7 3d 6f b1 34 3e
       0.14000997 -0.12534304 0.1128839 0.1764581
0001c0 58 6d ec bd 60 65 1b 3d bb 22 f3 3d 5d 32 0f 3e
       -0.11544293 0.037938476 0.11871859 0.13984056
0001d0 29 85 d9 bd e6 60 21 3e 1e 6b 0e 3e 44 b8 19 3e
       -0.106211014 0.1575962 0.1390805 0.15011698
0001e0 21 70 0d 3e 3e bb 11 3e dc 5a c2 bd a7 4b 38 bd
       0.13812305 0.14231583 -0.09489986 -0.044994023
0001f0 ad d0 0a be 24 17 09 be d7 04 2a 3b 00 52 63 bc
       -0.13556166 -0.13387734 0.0025942826 -0.013874531
000200 23 38 03 3e 1e bb 3d be 45 62 4e bd 82 14 62 3d
       0.12814383 -0.18528411 -0.050386686 0.05519534
000210 51 91 85 be f0 07 e0 bd 0a f3 3b be 56 e0 5b bd
       -0.2608743 -0.10939014 -0.18354431 -0.05368074
000220 71 de e1 3d 2b f9 bf 3d 8b 18 8e be ca db 04 3e
       0.110287555 0.09373697 -0.277531 0.12974468
000230 59 4c 05 be 5d 9a 29 be 70 f5 94 bc 38 91 14 3d
       -0.13017406 -0.16562791 -0.01818344 0.036271304
000240 84 7b 1b 3e bb e4 f9 bd 03 5d 1c 3e 3d bf dc 3d
       0.15183836 -0.1220183 0.15269856 0.10778663
000250 28 3e 1a bc db c7 1d 3d 34 96 7e 3d 63 7d 01 be
       -0.009414233 0.038520675 0.062154964 -0.12645487
000260 72 10 fd 3d 02 f4 05 3e d3 89 1c 3d 85 fd 9e 3c
       0.12356652 0.13081363 0.038217377 0.019407997
000270 13 be 19 3e da b4 c3 3d 33 87 0b 3e 63 6c 21 3e
       0.15013914 0.09555979 0.13625793 0.15764003
000280 7a 6b 18 bc b7 e4 59 bd 1b 06 19 be 45 5a dc 3d
       -0.009302968 -0.053196635 -0.14943735 0.10759405
000290 cd 98 04 3e e6 19 1c 3e 76 10 d9 3c 9d c0 5a bc
       0.12948914 0.15244254 0.026497107 -0.013351587
0002a0 06 f4 87 3d 74 78 0e be 1d 80 0c be 52 90 e8 3c
       0.06638341 -0.13913137 -0.13720746 0.02838913
0002b0 57 0a f6 3d 66 7e f9 3d 41 2f e5 3d b6 91 97 3d
       0.12013691 0.12182312 0.111906536 0.07400839
0002c0 86 4c 12 3e db 54 0d be ec bb 0d 3e e3 37 df 3d
       0.14287004 -0.13801901 0.13841218 0.108993314
0002d0 7c 7a da bd 28 12 46 be 2d ca 07 be 78 dd d7 3d
       -0.10667893 -0.19342864 -0.13260718 0.10540289
0002e0 a7 94 90 bd 7e 67 cb bd 1e f5 20 be cc fe 51 bd
       -0.07059603 -0.09931849 -0.15718505 -0.051268384
0002f0 c1 6a 9a bd 97 15 17 3e e9 39 33 be bb c9 78 3d
       -0.07539893 0.1475433 -0.1750256 0.06073926
000300 4a 1a 3e 3e d0 e6 7e be c6 e5 06 3e e8 22 db bd
       0.18564716 -0.24892735 0.13173589 -0.10700017
000310 6f 27 d7 bd 74 e7 05 be 09 21 60 be 7f dc bf 3d
       -0.10505568 -0.13076574 -0.21887602 0.09368228
000320 f3 b3 12 3e 62 96 60 be 52 a3 02 3e ef 7f 04 3e
       0.14326458 -0.21932366 0.12757614 0.12939428
000330 03 15 7f be 69 c5 34 be 16 a2 14 3e 78 d1 17 be
       -0.24910359 -0.17653431 0.14514956 -0.14826
000340 71 91 35 be 5d d7 05 be 7f a8 28 be 7d 87 6f 3e
       -0.17731263 -0.13070436 -0.16470526 0.23391528
000350 d4 d1 35 3e 3f b4 16 be ee 13 91 3d 8c 82 52 3e
       0.17755824 -0.14717196 0.070838794 0.20557612
000360 2d c4 2a 3e bf a6 97 3d 91 09 56 3e f5 00 15 3e
       0.16676398 0.07404851 0.20902087 0.14551146
000370 98 9d ab bd 2a e8 30 3e c0 60 ec bd d1 86 82 3e
       -0.08379668 0.17276064 -0.11541891 0.25493482
000380 5f 0d 82 3e 54 fd e6 bd a2 22 3c 3e ce e5 4a be
       0.25400826 -0.11278787 0.18372586 -0.19814226
000390 40 c9 6c 3d d7 86 00 3e 2a 9f 1d 3e 4a b4 16 be
       0.057809114 0.12551437 0.15392748 -0.14717212
0003a0 48 85 4c be 6f 86 45 be 0d 65 23 be c2 2f d7 3d
       -0.19972718 -0.19289564 -0.15956517 0.10507156
0003b0 c8 0f e6 bd 3b 7f 3b be 1e 96 3b 3e 76 f8 3f be
       -0.11233479 -0.18310253 0.18318984 -0.18747124
0003c0 6a 69 3e 3e 9c e3 ea 3d 92 cf 0c 3e ff 9c af bd
       0.185949 0.11469194 0.13751057 -0.085748665
0003d0 ea 80 aa 3d e7 b3 2d be de 9a 27 be 84 2f 50 3e
       0.0832537 -0.16963159 -0.16367671 0.20330626
0003e0 25 67 16 3e df 7b 56 3d 93 b5 89 be f8 7b e5 bd
       0.14687784 0.052364226 -0.26896343 -0.11205286
0003f0 a3 d9 28 be 3f a6 41 3e 8b e9 2c 3e 15 a0 1a 3e
       -0.16489272 0.18911074 0.16885965 0.15100129

fc3.bias f4 [9]
000000 6f ae d6 3d 5a 13 1e bb d1 a3 8f bd 19 f4 69 3d
       0.10482489 -0.002412042 -0.070136674 0.057117555
000010 28 a7 78 bd cc 85 86 bd e1 79 c4 3c 20 41 b6 3c
       -0.060706288 -0.065684885 0.023983898 0.02224785
000020 28 e0 cb 3c
       0.02488716

actor.0.weight f4 [64, 21]
000000 1c 3d 0b 3e e8 c9 a4 bb 21 aa 61 bd 50 0b 30 3e
       0.1359753 -0.005028952 -0.05509389 0.17191815
000010 6c 15 db bd 8d 1b 60 be 7e 48 de 3c 35 83 be bc
       -0.10697445 -0.2188551 0.027134176 -0.023255924
000020 58 ba fd 3d 39 f9 c8 be 1a c8 96 bc 62 e9 b5 3e
       0.12389058 -0.39252642 -0.018405963 0.3552962
000030 ce a9 2a be 3e 88 76 ba c3 9a 34 3e 03 43 a1 bc
       -0.16666338 -0.0009404457 0.17637162 -0.019685274
000040 bb 4c 9f bd ce b4 09 be 1e 50 6d 3d d2 9c 74 3d
       -0.07778307 -0.13447878 0.057937734 0.059719868
000050 df ff ad bd 28 22 20 bd bd 5c 84 bd 39 75 1d 3e
       -0.08496069 -0.039095074 -0.06463001 0.15376748
000060 0f f2 c6 bd a5 92 bb bd 59 43 a4 bd eb d4 ed bd
       -0.09714138 -0.091588296 -0.08020658 -0.116128765
000070 71 d7 29 3e 05 b1 b3 bd 3f 55 76 be 99 3c 90 3e
       0.1658609 -0.08773998 -0.24055956 0.28171232
000080 f4 e7 6e bd 53 71 a7 3e 31 fc 0d bd d2 a7 e4 3d
       -0.058326676 0.32703647 -0.034664337 0.11164822
000090 4a b8 23 3c 9e 16 d9 3e 60 f8 cd 3c 26 6d 1f bd
       0.009992668 0.42400068 0.025142848 -0.03892245
0000a0 4a c0 2a bd b6 f6 28 3e 0c 83 71 be 6c 31 4f 3d
       -0.041687287 0.16500363 -0.23585147 0.05058424
0000b0 2c b3 82 bd ab 36 0e be f1 78 4e 3d d1 02 94 bd
       -0.063818306 -0.13888042 0.050408307 -0.072271
0000c0 3d 56 2e be 5f 3e 90 bc a6 ed 2e 3d 31 c4 26 3e
       -0.17025085 -0.017607866 0.042707108 0.16285779
0000d0 55 fc 4a be 3e 86 8f 3e 51 ee 19 3e 7a ec 78 be
       -0.1982282 0.28032106 0.15032317 -0.24308959
0000e0 64 24 ba bd 0c 18 35 be e0 0b 43 3c c0 de 2d 3c
       -0.09088972 -0.17684954 0.011904687 0.01061219
0000f0 8d a4 13 3e 2a 71 be bd 41 8d a9 bd f8 c1 02 3e
       0.1441824 -0.09298928 -0.08278895 0.12769306
000100 0d ba 36 3c b7 4d 7c 3d f7 3a c6 bc 11 7f 47 3e
       0.011152756 0.061597552 -0.024198039 0.19482066
000110 fb 3a 1a 3e e3 0b 55 be 38 60 b7 bd 77 dd b8 3e
       0.15061562 -0.20805316 -0.08953899 0.36106464
000120 be e7 c3 bc a5 8b aa be 36 55 4b bd 3b 67 fa be
       -0.023914214 -0.33309665 -0.04964181 -0.48906884
000130 48 20 f8 be b8 85 e4 be 8d f8 36 3e 5b db cc bd
       -0.4846213 -0.4463327 0.17868252 -0.10002776
000140 ab a2 a5 3e 16 9d 25 be b2 0a f4 bd c3 b4 37 3d
       0.32350668 -0.16173205 -0.119161025 0.044850122
000150 15 6c f0 bd 96 53 26 3d 1f 51 3c bc 31 75 31 3c
       -0.11739365 0.040607058 -0.01149395 0.010831163
000160 f5 a0 09 be d6 17 69 be 6a a6 42 bd 3f f6 b3 bc
       -0.13440306 -0.22762999 -0.047521986 -0.021968005
000170 dd fd 08 bc 42 0b 9c 3e 58 ee 8c be ad d8 ff 3d
       -0.008361307 0.3047734 -0.27525592 0.124924995
000180 98 9c 50 be b9 77 8d bd bf e2 dd 3e 6c 37 ba bd
       -0.20372236 -0.06907601 0.43337056 -0.09092602
000190 b9 e9 d7 be e2 d5 05 3b 21 f9 6d 3e 3f 37 87 bd
       -0.42170504 0.0020421674 0.23239566 -0.06602334
0001a0 a5 5e b9 bc 8c 43 2b bc ee d0 41 3c 39 5e 53 bd
       -0.022628138 -0.010453116 0.011829598 -0.05160353
0001b0 fd f8 ba bd 6e 56 16 3d b8 7d ff bd 54 28 50 bd
       -0.09129522 0.03670352 -0.12475151 -0.05081971
0001c0 c7 b8 da bd db 8a 4d bd 5a 41 92 bd 9b d2 75 bc
       -0.10679775 -0.05018125 -0.07141371 -0.015003826
0001d0 2d e6 f3 3e 3d 11 b1 bc c4 fb a3 bd eb 77 bf 3d
       0.47636548 -0.021614665 -0.08007005 0.093490444
0001e0 7a 5c 14 be bb 0b db 3d 71 5d 1d be f8 07 4f 3d
       -0.14488402 0.10695597 -0.15367676 0.05054471
0001f0 da 8d 2f be 18 54 e1 3c 5a a4 62 bd 76 e9 3f 3c
       -0.17143956 0.02750592 -0.05533252 0.011713376
000200 5a 41 43 bb db c1 91 bc 16 49 03 3e 10 b2 11 3e
       -0.0029793591 -0.017792633 0.12820849 0.14228082
000210 80 a4 4b 3e 26 9e e4 bd a0 6e 1b 3e 6c 46 bd 3d
       0.1988697 -0.11162977 0.15178919 0.092419475
000220 cd 40 81 be 48 2f 2e bd 94 fb 01 3e b7 ce 48 3e
       -0.25244752 -0.04252556 0.12693626 0.19610105
000230 05 69 4b 3e f7 e3 b3 be 92 38 3c be d4 f6 08 bd
       0.1986428 -0.3513486 -0.18380955 -0.03343852
000240 fd c7 c7 3d 61 40 25 3e 9a 1a 2f 3e e6 31 e5 bd
       0.097549416 0.1613784 0.17099991 -0.11191158
000250 93 73 a9 3d cd 83 e9 bd 13 a7 49 3e 0b fc 30 3e
       0.08273997 -0.11402092 0.1969264 0.17283647
000260 75 f6 d9 bd ff 2a 79 3d e4 ec 4d be 31 59 57 be
       -0.10642711 0.06083202 -0.20109898 -0.21030118
000270 a8 cf f1 bd f0 2a e2 bc 5f 36 a2 3e e7 b1 d7 be
       -0.118071854 -0.027608365 0.31682107 -0.42127916
000280 03 aa 11 bd a5 d8 18 3d 87 af 2a be 08 fa 89 be
       -0.035562526 0.037315983 -0.16668521 -0.2694857
000290 34 a7 97 3e 1d 04 5b be d4 d2 96 3c 5d 25 a0 bd
       0.29619753 -0.21388288 0.018411078 -0.078196265
0002a0 ff 6a fc 3d 21 78 f4 bd 15 eb c5 bd ab 00 05 3e
       0.123250954 -0.11936975 -0.09663979 0.12988536
0002b0 43 5c ce bc 96 da ce 3d 9e 61 59 bd 1f 01 57 3e
       -0.025190478 0.10100286 -0.05307161 0.20996521
0002c0 10 88 51 3d e0 7c 9e 3d dd e4 09 3f ee e2 a3 3e
       0.05115515 0.07738662 0.5386484 0.3200907
0002d0 6c 39 93 3e 57 c5 f0 3d ad d8 4e 3e 83 0b 72 3d
       0.28754747 0.117563896 0.20199843 0.05909301
0002e0 f9 c9 f2 be 68 4b 9c 3d 2b 01 51 3e 81 d2 df bd
       -0.47419718 0.0763157 0.20410602 -0.10928822
0002f0 8c f3 e4 bc ff 3c bb 3d fd d3 7f be 5b d1 32 3e
       -0.027948163 0.091424935 -0.24983211 0.17462675
000300 92 0e dd 3d 7a 0a 12 3e b3 87 d2 3c d5 3e 11 bd
       0.10793795 0.14261809 0.025699472 -0.035460312
000310 aa fb 24 be 06 f9 7b 3c 79 26 65 3e 43 82 19 3e
       -0.16111627 0.015379196 0.22377957 0.14991097
000320 ed 11 b6 be e2 51 66 3e cb 16 4e be 8d de b3 bd
       -0.3556055 0.22492173 -0.20125882 -0.087826826
000330 50 7a 23 bc bf e1 87 3c 7a d8 60 be 69 25 27 bd
       -0.009977892 0.016587136 -0.2195758 -0.04080716
000340 3f 11 a3 bd 26 aa fa bd 68 04 c4 3d 0d f2 34 bc
       -0.07962274 -0.122394845 0.09571153 -0.0110440375
000350 82 0d c2 be 29 d8 92 bd 68 41 b3 bd 53 80 63 3d
       -0.3790093 -0.071701355 -0.087527096 0.0555423
000360 a1 b3 1c 3d 72 27 88 3d 68 fd 28 be f6 c7 05 3d
       0.038257245 0.066481486 -0.16502917 0.0326614
000370 05 03 85 3e 23 2e 7b 3e 08 1a 46 3c f7 89 44 3e
       0.25978866 0.24529319 0.012091167 0.19193254
000380 60 d4 1a 3e f8 85 59 be 63 f3 9d bd 60 b3 1b be
       0.15120077 -0.21242511 -0.07712438 -0.15205145
000390 cc 12 11 be 7a 17 04 3d ef 8e e6 bc 45 39 c9 3d
       -0.14167327 0.03224895 -0.028144328 0.098253764
0003a0 63 5c 79 3e 8e 69 bb bd 2c ef b8 3c c4 a3 84 3e
       0.24351649 -0.09150992 0.022574984 0.25906193
0003b0 a3 47 d2 bd 7a ba cf 3e c2 c7 54 3d 6b e8 a4 3d
       -0.1026757 0.40571958 0.051948316 0.08052143
0003c0 21 8c a0 be 1b d0 bf be 79 40 3a 3d 4b da 31 be
       -0.3135691 -0.3746346 0.045471642 -0.17368428
0003d0 e2 70 86 be 7f 73 5d 3c b8 be 25 3e 4d ba 37 be
       -0.26257998 0.013516306 0.16186035 -0.17942162
0003e0 a0 17 83 3e 97 9c d1 3d 12 44 b3 be d5 33 be bd
       0.25603962 0.10234945 -0.3501287 -0.0928723
0003f0 23 88 a6 bd 9b 38 48 3e 95 45 7e 3e bc 75 32 3e
       -0.08131435 0.19552843 0.24831231 0.17427725

actor.0.bias f4 [64]
000000 6d a9 3e 3c 58 43 62 3d 19 86 a5 bc eb 07 d9 3c
       0.011637074 0.055240005 -0.020205544 0.026493033
000010 cc 0a e9 bc 7c d0 97 3c 6d 69 24 bd 11 30 37 bc
       -0.028447531 0.01853203 -0.040139604 -0.0111808935
000020 d8 ac ae 3b 28 c5 50 bc 56 f3 28 bc 7a b5 b2 39
       0.005330663 -0.012742318 -0.010311922 0.00034086016
000030 7b c5 cb 3c 78 f8 6d bd 26 18 e2 3c d9 9a 1b 3b
       0.02487444 -0.058098286 0.027599405 0.002374342
000040 58 5c 83 3c 56 4f 72 3d 9a 42 2c 3d c2 52 0e 3c
       0.016035244 0.059157692 0.042055704 0.008686723
000050 4f 64 da 3c 0c ed 6c 3d 89 e9 3d bd 3b 34 e4 bc
       0.026659159 0.057843253 -0.046365295 -0.027856937
000060 ba 71 10 bd 65 96 45 bd 5d 82 a0 3c 0d 7b 92 bc
       -0.035264708 -0.04823913 0.019593412 -0.01788094
000070 82 cd 1d 3d 7e 10 e3 3d b9 6c 6c bc bb a4 bb 3d
       0.038526066 0.1108713 -0.014430218 0.09162279
000080 cb 12 1c 3c f1 74 9f 3c 20 38 4f bc 70 d0 ae 3c
       0.009525965 0.019464942 -0.012647659 0.021339625
000090 4d b9 6b bd 3a 41 70 3d 36 73 30 bd 43 3b 2b 3c
       -0.057549763 0.058655955 -0.043078624 0.010451141
0000a0 e7 da 70 bd 8b ad 09 3c 75 04 f3 bc 60 23 83 bd
       -0.05880251 0.008403192 -0.029665211 -0.064032316
0000b0 60 bf 7d bc e3 68 9c bc b4 5b 7c bd 25 75 b6 ba
       -0.015487522 -0.019092983 -0.061610892 -0.001392041
0000c0 60 a6 57 bc c0 c5 8c 3d 51 c0 f7 bc d2 4b 01 3d
       -0.0131622255 0.06873655 -0.03024307 0.03156645
0000d0 07 dd 52 bd 23 98 61 3d a0 7a 05 3d c8 c6 03 3d
       -0.05148032 0.05507673 0.032587647 0.032171994
0000e0 2a e4 34 bd 6c 09 9f bc 1a 6c d2 3d 3a cb 67 3d
       -0.044162907 -0.019413672 0.10274525 0.056590296
0000f0 f6 aa 8f bb ee 58 71 bc 21 b7 a0 bd 93 13 22 3d
       -0.004384394 -0.014730675 -0.07847429 0.03956945

actor.2.weight f4 [64, 64]
000000 26 18 fc 3d c1 3e 68 3e 65 5c d4 3d 43 0a 2a 3e
       0.123092934 0.22680189 0.10369185 0.16605477
000010 77 66 0c be d4 ec 8d 3d ea 12 8d bd 4d fc 11 bd
       -0.13710962 0.06929937 -0.06888373 -0.035641003
000020 5f ca 90 3d 6f 74 82 3e d0 93 8a be e3 9e 44 3e
       0.07069849 0.25479457 -0.27065897 0.19201235
000030 17 09 cb 3d b7 c3 d8 bd 60 e1 24 3e 42 93 5c 3e
       0.09913843 -0.10584205 0.16101599 0.2154055
000040 4f df 9a bd ea f1 4e be 01 7c 36 be a3 fa a5 3d
       -0.07562124 -0.2020947 -0.17820741 0.08104446
000050 ad 6d 19 3d 3a 5c 1f be 6d c0 73 bd f3 54 6d be
       0.03745811 -0.15562525 -0.059509683 -0.23176937
000060 e8 f2 1f 3e 7a d4 fe 3c 0d 03 21 be 2a 38 fd bd
       0.15620005 0.031107176 -0.1572382 -0.12364228
000070 83 8c e7 bd c1 d2 35 bd 7e b2 15 bd 6c 62 5e 3d
       -0.11306097 -0.044390444 -0.036547177 0.05429308
000080 25 18 89 3d b0 15 98 be b5 bb f3 3d 52 de 1b bd
       0.06694058 -0.29704046 0.11901037 -0.038053818
000090 71 6d 1b be d0 4b fa bd 94 a4 94 3e ec db 04 be
       -0.15178467 -0.12221491 0.29031813 -0.12974519
0000a0 98 bf 8b 3c e8 fe 26 bd 04 05 71 3c 2c 0f 7c 3d
       0.017059132 -0.04077044 0.0147106685 0.061537907
0000b0 8a e8 54 be c1 8a ae 3d 78 47 d3 bd 28 6e ba be
       -0.20791832 0.08522559 -0.10316366 -0.36412168
0000c0 d3 68 78 3d fc d9 2a be 8a fd 3f bd eb 4e ce 3d
       0.060646843 -0.16684717 -0.046872653 0.10073646
0000d0 b3 11 d8 3d 20 b4 03 be be 36 b1 3e 0e ce ca 3d
       0.10550251 -0.12861681 0.34612077 0.09902583
0000e0 78 a5 26 bd 10 eb 76 be 3c ba da bd 99 28 5f bd
       -0.040685147 -0.24113107 -0.10680053 -0.054482076
0000f0 f2 51 cd 3d 60 7c 05 be 3a 7e 28 be 68 27 27 3e
       0.100253955 -0.13035727 -0.16454402 0.16323626
000100 a5 bb 4a 3e ea 61 09 bd 1f bb 83 bd b1 ff 21 be
       0.19798143 -0.033540644 -0.06432175 -0.15820195
000110 9f 42 cc 3d d0 fc d6 bd 44 ca 32 be 37 6a 29 3e
       0.099736445 -0.10497439 -0.1745997 0.16544424
000120 b4 f1 ac 3d 8d 91 62 bc 32 de 20 3e 70 b5 cf bd
       0.08444539 -0.013828647 0.15709761 -0.10142028
000130 d9 99 55 3e 79 aa f7 3d 3e c6 41 be 1b 11 99 be
       0.2085947 0.12093062 -0.1892328 -0.29895863
000140 00 58 4b 3e 34 a1 10 3e 5c cb 12 bd 61 4d 88 bd
       0.19857788 0.14123994 -0.03583847 -0.06655384
000150 cf 4c 66 bd a1 9c e1 bd 49 d9 87 3e 74 3b 13 3d
       -0.056225594 -0.11016203 0.26532963 0.03594537
000160 87 9e 23 3e 53 27 a6 be bc 56 4a be 02 f8 7a be
       0.15978442 -0.32451877 -0.19759649 -0.2450867
000170 5e 51 47 be 57 36 dc 3d 29 2b 8e 3d ef 17 83 be
       -0.19464633 0.10752552 0.06941826 -0.25604197
000180 e0 23 86 bd 76 f3 67 3e 6c 27 56 bd bc da 3c 3e
       -0.06549811 0.22651467 -0.05228369 0.18442816
000190 bb 4f 8f be 90 63 10 3e c9 b1 be bd ac 3f 1a be
       -0.27990517 0.1410048 -0.093112536 -0.15063351
0001a0 8a 11 da 3d f4 9d e5 3d c4 41 ed bc ad ef 3a 3e
       0.106478766 0.11211768 -0.028962024 0.18255492
0001b0 37 59 43 3e 00 af fc be 16 78 67 3e 97 b8 2e bd
       0.19077002 -0.49352264 0.22604403 -0.042656507
0001c0 6b 2e ce 3c 3b f2 48 3d 27 7a d9 3d ec d7 20 b9
       0.025168618 0.049059134 0.10619002 -0.00015339226
0001d0 7d 88 c3 3e 38 2b ee 3b 7a 47 bd be cb 58 4d bc
       0.3819007 0.0072683357 -0.36968595 -0.012533377
0001e0 90 7e 53 be ee a3 e0 3d cd cd 22 be 1b 7e f8 bc
       -0.20653749 0.10968767 -0.1589882 -0.03033357
0001f0 45 26 4d be 2a f7 62 be d9 1d 26 bd 5a bd f6 bd
       -0.2003413 -0.22164598 -0.04055581 -0.12047835
000200 e4 48 c7 3e d2 da 66 3b aa 3f 18 3d da 4f 46 bd
       0.389228 0.0035225642 0.03717009 -0.048415996
000210 f4 bb f3 3c 14 b6 32 bc de dc 76 3e e9 61 17 3d
       0.029752709 -0.010907669 0.24107692 0.03695861
000220 74 8e 57 3e 7c b5 5f be 10 9c be bd dc da 66 bb
       0.21050435 -0.21846575 -0.0930711 -0.0035225665
000230 77 52 74 3d 1f 65 96 be 61 eb 34 bc 17 72 79 be
       0.059648957 -0.29374024 -0.011042447 -0.24359928
000240 f1 bb 5f be 35 ac e4 3d 76 72 48 3d d3 8b a1 3c
       -0.21849038 0.111656584 0.048937283 0.019719994
000250 39 2c e2 3c 5b e1 08 bc cc b7 a2 be b3 c4 5b be
       0.027608978 -0.00835451 -0.3178085 -0.21461754
000260 f0 ac d8 3a 36 2e d9 3d 72 4e d1 3d 96 9b 60 be
       0.0016531032 0.10604517 0.102200404 -0.21934351
000270 81 fc dd 3e bd cf 81 bd 7f f2 0d 3d ed 8a 8e bd
       0.43356708 -0.06338451 0.03465509 -0.06960092
000280 24 eb 50 be 53 f7 15 3e 06 68 b2 3e c0 54 f1 3b
       -0.20402199 0.14645128 0.3484499 0.0073648393
000290 89 e8 7f bb e8 9b cf bd af 5d 74 bd 6d 15 30 bb
       -0.0039048514 -0.10137159 -0.059659656 -0.002686824
0002a0 dc b9 32 bd c1 6e ef bd b1 a7 3b bd ba df 3a be
       -0.04363428 -0.116910465 -0.04581422 -0.18249407
0002b0 ba ec b7 3d 46 f4 09 3e 42 4b 1a be e7 fc 4e be
       0.08980699 0.13472089 -0.15067771 -0.20213662
0002c0 7d 05 3b 3e eb 18 d1 3d 92 4e dc bc 74 1c c4 3d
       0.18263812 0.10209831 -0.026892934 0.095757395
0002d0 04 a8 a1 be ac c9 cd 3d c2 11 1a 3e 78 b5 39 be
       -0.31573498 0.100482315 0.15045837 -0.18135631
0002e0 26 b3 74 3d 70 8b 0f 3d 0b 55 d0 3d 41 bf 94 bd
       0.05974116 0.035045087 0.10172471 -0.07263041
0002f0 db 1c ca 3e 30 24 ce 3d 21 63 f8 3c 2d 12 2d be
       0.3947514 0.10065496 0.030320706 -0.16901465
000300 fc 14 62 be f1 cc 9c bd 9b 7d ae bd 2d 82 3c be
       -0.22078317 -0.07656277 -0.08520051 -0.18409033
000310 50 65 41 bd 55 b5 2a 3e ca 51 d0 3b 2c 04 24 3e
       -0.04721576 0.16670735 0.0063574063 0.16017216
000320 bd 5f 28 be 1a eb 78 3e 89 1c 35 3e cc 3a 86 3c
       -0.16442771 0.24308434 0.17686667 0.016385458
000330 89 a4 17 3c fd 01 50 bd 59 a5 24 be 47 4e c5 3b
       0.009255537 -0.050783146 -0.160787 0.0060212943
000340 6a 0e 32 3e 28 5c 7d 3e c5 d9 54 3e ef ce 08 be
       0.17388311 0.24742186 0.20786197 -0.13360189
000350 6d f5 4a 3e 21 df 25 3e 8d 34 a8 bd 61 cb 2d 3e
       0.19820185 0.16198398 -0.08213148 0.16972114
000360 19 8a fa 3d 36 0c 2c be e5 cc df bd 19 48 8e bc
       0.12233371 -0.16801533 -0.109277524 -0.017368363
000370 a2 04 9e 3d 00 68 cc 3d 34 77 d5 bd 41 11 08 3e
       0.077157274 0.09980774 -0.10423127 0.13287832
000380 63 2f c7 bd 53 af 48 3d 41 22 5a 3e 73 cc a8 bd
       -0.09725835 0.048995327 0.2130213 -0.082421206
000390 2c 15 f7 3d e4 aa 76 be e1 9e 29 bd 59 8a 8c bc
       0.12064585 -0.24088627 -0.041411284 -0.017155813
0003a0 a5 4e 86 be 00 d2 8f 3e 62 16 70 be 3f 0f 32 be
       -0.26231876 0.28089905 -0.23446038 -0.17388628
0003b0 6c ab 07 3e 1f 84 60 3d 17 68 c6 bd 22 e3 84 bd
       0.13248986 0.0548135 -0.09687822 -0.06488635
0003c0 f3 93 b5 be 01 ef c4 bd 91 9c 18 3e 62 01 b0 bd
       -0.3546444 -0.09615899 0.14903475 -0.08594014
0003d0 4a be 07 bd a1 c0 59 be b1 6e 14 bd 05 54 90 3d
       -0.03314046 -0.21264888 -0.036238376 0.070472755
0003e0 61 66 50 3e 94 3c 3a 3d d1 16 6c bd 3a 67 c0 bd
       0.20351554 0.045467928 -0.057638947 -0.09394689
0003f0 1d 95 58 3d c5 43 f6 3c 04 c4 e0 bc fe db 76 3e
       0.05287658 0.030061612 -0.027437218 0.24107358

actor.2.bias f4 [64]
000000 c2 31 95 bc 06 1d 0b 3c 15 99 45 3d 7f ca 8d 3d
       -0.018212203 0.008490806 0.048241694 0.06923389
000010 45 d1 aa 3c ff a6 fa 3c e3 3f 2a 3d 37 43 84 bd
       0.02085174 0.030597208 0.041564833 -0.06458133
000020 27 be 09 3d cf 98 60 3c 5b 78 6a 3d a4 16 5e bc
       0.03362861 0.013708307 0.057243686 -0.013555203
000030 0c 8f 69 3b fb be e2 3b 9a b7 82 3d a3 75 24 3b
       0.003563824 0.0069197393 0.063826755 0.002509453
000040 d5 fe 9c bc d8 31 cc bc b3 04 8c bc 1a a4 90 3c
       -0.019164482 -0.024926111 -0.017092085 0.017656375
000050 3e ce 27 bc bf 37 16 bc ea fa 87 bc db b9 99 ba
       -0.010242043 -0.009168564 -0.016599137 -0.0011728363
000060 76 5f 12 bd d6 e2 c3 ba 33 51 6d 3d da ed 31 3a
       -0.03573557 -0.0014944922 0.057938766 0.0006787457
000070 8a c9 b9 bc 08 6d bf bc 75 89 31 bd f2 57 e5 b9
       -0.02267911 -0.02336742 -0.04334398 -0.00043743808
000080 1e 91 6b bc 6f 3c 70 bd 72 f3 b3 bc f1 bc cf bb
       -0.01437786 -0.058651384 -0.02196667 -0.0063396622
000090 96 63 08 3c c3 c7 1d bd 33 9c 75 bd be 47 59 bd
       0.008324524 -0.038520586 -0.059963416 -0.053046934
0000a0 a4 23 88 3c 2e aa 41 3d 03 16 5b bd 50 55 9b 3c
       0.016618557 0.047281437 -0.05348779 0.018961579
0000b0 0e 7d 62 bc 65 49 4a 3d 02 c2 98 bb 85 45 f0 3c
       -0.013823761 0.0493864 -0.0046617994 0.029330024
0000c0 a4 22 2f 3d 95 1a 09 3d cf 7a 02 bc 13 8e 88 3c
       0.042757645 0.033472616 -0.00796385 0.016669309
0000d0 16 29 09 bd 47 31 23 bd 96 8d 4b 3d 05 bd 71 bc
       -0.03348645 -0.039841916 0.049695574 -0.014754538
0000e0 ed 58 66 3a 02 4a 69 bc 2e 00 c6 3a f3 4e 1a bd
       0.00087870547 -0.014238836 0.0015106255 -0.037672948
0000f0 1c 10 91 3c 83 da b9 3c 96 65 7e 3c ef b6 da bc
       0.017707877 0.022687202 0.01552715 -0.026698558

actor.4.weight f4 [9, 64]
000000 1b 1a e3 bc 84 fb d3 3b 8b 50 20 3e fe 98 92 3d
       -0.027722409 0.006469192 0.15655725 0.07158087
000010 87 3d 6a bc 43 9c 45 3d ce 97 8b 3d 51 9d 7a bd
       -0.014296896 0.048244726 0.06816064 -0.061185185
000020 80 0c 99 37 26 29 84 3d 68 e9 6e bd 7c 32 24 bd
       1.8244842e-05 0.06453161 -0.058328062 -0.04008721
000030 f8 9e ee 3b 24 44 f1 3c 40 5b 0b 3d c2 b2 05 3e
       0.007282134 0.029451437 0.03402257 0.13056472
000040 12 c1 52 3d 29 97 ec bc 6c 48 e1 bc 52 cc 01 3d
       0.051453657 -0.028880673 -0.027500354 0.031688996
000050 7c 43 2e 3d 39 d1 0c bd be 20 69 bc 33 d4 9f bd
       0.042544827 -0.034379218 -0.014228998 -0.07804146
000060 e7 9f 9e bd 4f 09 5d bb 53 11 94 bb 4c f8 9d bc
       -0.07745343 -0.0033727472 -0.004518667 -0.019283436
000070 31 66 b5 3d f1 f1 27 bd c8 49 4f bd 5d a8 05 be
       0.08857382 -0.041002218 -0.050607473 -0.13052507
000080 ee de a4 bd 8d ac 68 3d b8 c9 74 bb 47 53 ca bc
       -0.08050333 0.056805182 -0.003735168 -0.024697913
000090 66 41 2e 3e 48 a4 da bc 5f 3e ea bd 69 1a 8a bd
       0.17017135 -0.026689664 -0.114376776 -0.067433186
0000a0 7b 73 4e bb 3a c4 98 3d f6 c3 90 3d 30 26 51 bd
       -0.0031501937 0.07459302 0.070686266 -0.05106181
0000b0 94 6c f0 3d d5 19 49 3d f4 61 60 3c cd 99 9e 3d
       0.1173946 0.0490969 0.013695229 0.07744179
0000c0 84 19 12 3d 06 d5 29 3d 92 7a fd bc 05 50 d5 3c
       0.035668865 0.04146292 -0.030942235 0.026039133
0000d0 96 10 8b bd f6 2e 15 bd 69 52 2c 3d bd 73 ca 3c
       -0.06790273 -0.03642174 0.04207078 0.024713391
0000e0 ff a8 d4 3c 7e 0c d4 3c 87 f2 b1 3c 15 4f 6d 3d
       0.02595949 0.025884863 0.021722091 0.057936747
0000f0 8e 20 3e bd 0a 85 1f 3d 5d c2 d2 3c 0a ca 74 bd
       -0.046417765 0.038945235 0.025727445 -0.059762992
000100 3c ae bc 3c 25 af 37 be 3b f0 1b 3e 67 65 5f bc
       0.0230323 -0.17937906 0.1522836 -0.013635016
000110 59 a7 28 3e b5 e0 d0 bd 18 b6 fe bd 48 11 20 3d
       0.16470088 -0.101991095 -0.124370754 0.03907898
000120 90 61 ff 3d bb 98 b1 bd 0e c2 12 3e 25 28 fa 3d
       0.124697804 -0.08671709 0.14331838 0.12214688
000130 38 a4 f4 bd 08 28 17 3e 0f 71 a2 3d ca 97 d9 3d
       -0.11945385 0.14761364 0.079317205 0.106246546
000140 4c 1c e9 bd a1 54 bd 3d 24 01 5b be 49 d7 0b 3e
       -0.1138235 0.09244657 -0.21387154 0.13656344
000150 a7 ae 37 3e 21 eb 3c be d8 cd f2 3d 4c a8 18 be
       0.17937718 -0.1844907 0.11855668 -0.1490795
000160 37 49 ab 3d 13 2d 34 3d bc 9a 1f bc 49 ae 08 be
       0.08363574 0.0439883 -0.009741481 -0.13347735
000170 02 16 3e 3e 22 86 8c bb b5 ce 53 bd e1 4a cb bc
       0.18563083 -0.004288451 -0.051710803 -0.024815978
000180 b5 ac 46 be 75 16 1a be 21 a2 10 3e ad 65 26 be
       -0.1940182 -0.15047629 0.14124347 -0.16249724
000190 87 28 21 3e 2c a0 3e be f0 a1 12 3e 2f 9b 13 be
       0.15738116 -0.18615788 0.14319587 -0.14414667
0001a0 4a 69 27 be 24 97 0b be 29 4a 21 3e 8e 4c 18 be
       -0.16348758 -0.13631874 0.15750946 -0.14872953
0001b0 c6 5e 0f 3e ed 59 00 be ad 2f e7 3d 6f b1 34 3e
       0.14000997 -0.12534304 0.1128839 0.1764581
0001c0 58 6d ec bd 60 65 1b 3d bb 22 f3 3d 5d 32 0f 3e
       -0.11544293 0.037938476 0.11871859 0.13984056
0001d0 29 85 d9 bd e6 60 21 3e 1e 6b 0e 3e 44 b8 19 3e
       -0.106211014 0.1575962 0.1390805 0.15011698
0001e0 21 70 0d 3e 3e bb 11 3e dc 5a c2 bd a7 4b 38 bd
       0.13812305 0.14231583 -0.09489986 -0.044994023
0001f0 ad d0 0a be 24 17 09 be d7 04 2a 3b 00 52 63 bc
       -0.13556166 -0.13387734 0.0025942826 -0.013874531
000200 23 38 03 3e 1e bb 3d be 45 62 4e bd 82 14 62 3d
       0.12814383 -0.18528411 -0.050386686 0.05519534
000210 51 91 85 be f0 07 e0 bd 0a f3 3b be 56 e0 5b bd
       -0.2608743 -0.10939014 -0.18354431 -0.05368074
000220 71 de e1 3d 2b f9 bf 3d 8b 18 8e be ca db 04 3e
       0.110287555 0.09373697 -0.277531 0.12974468
000230 59 4c 05 be 5d 9a 29 be 70 f5 94 bc 38 91 14 3d
       -0.13017406 -0.16562791 -0.01818344 0.036271304
000240 84 7b 1b 3e bb e4 f9 bd 03 5d 1c 3e 3d bf dc 3d
       0.15183836 -0.1220183 0.15269856 0.10778663
000250 28 3e 1a bc db c7 1d 3d 34 96 7e 3d 63 7d 01 be
       -0.009414233 0.038520675 0.062154964 -0.12645487
000260 72 10 fd 3d 02 f4 05 3e d3 89 1c 3d 85 fd 9e 3c
       0.12356652 0.13081363 0.038217377 0.019407997
000270 13 be 19 3e da b4 c3 3d 33 87 0b 3e 63 6c 21 3e
       0.15013914 0.09555979 0.13625793 0.15764003
000280 7a 6b 18 bc b7 e4 59 bd 1b 06 19 be 45 5a dc 3d
       -0.009302968 -0.053196635 -0.14943735 0.10759405
000290 cd 98 04 3e e6 19 1c 3e 76 10 d9 3c 9d c0 5a bc
       0.12948914 0.15244254 0.026497107 -0.013351587
0002a0 06 f4 87 3d 74 78 0e be 1d 80 0c be 52 90 e8 3c
       0.06638341 -0.13913137 -0.13720746 0.02838913
0002b0 57 0a f6 3d 66 7e f9 3d 41 2f e5 3d b6 91 97 3d
       0.12013691 0.12182312 0.111906536 0.07400839
0002c0 86 4c 12 3e db 54 0d be ec bb 0d 3e e3 37 df 3d
       0.14287004 -0.13801901 0.13841218 0.108993314
0002d0 7c 7a da bd 28 12 46 be 2d ca 07 be 78 dd d7 3d
       -0.10667893 -0.19342864 -0.13260718 0.10540289
0002e0 a7 94 90 bd 7e 67 cb bd 1e f5 20 be cc fe 51 bd
       -0.07059603 -0.09931849 -0.15718505 -0.051268384
0002f0 c1 6a 9a bd 97 15 17 3e e9 39 33 be bb c9 78 3d
       -0.07539893 0.1475433 -0.1750256 0.06073926
000300 4a 1a 3e 3e d0 e6 7e be c6 e5 06 3e e8 22 db bd
       0.18564716 -0.24892735 0.13173589 -0.10700017
000310 6f 27 d7 bd 74 e7 05 be 09 21 60 be 7f dc bf 3d
       -0.10505568 -0.13076574 -0.21887602 0.09368228
000320 f3 b3 12 3e 62 96 60 be 52 a3 02 3e ef 7f 04 3e
       0.14326458 -0.21932366 0.12757614 0.12939428
000330 03 15 7f be 69 c5 34 be 16 a2 14 3e 78 d1 17 be
       -0.24910359 -0.17653431 0.14514956 -0.14826
000340 71 91 35 be 5d d7 05 be 7f a8 28 be 7d 87 6f 3e
       -0.17731263 -0.13070436 -0.16470526 0.23391528
000350 d4 d1 35 3e 3f b4 16 be ee 13 91 3d 8c 82 52 3e
       0.17755824 -0.14717196 0.070838794 0.20557612
000360 2d c4 2a 3e bf a6 97 3d 91 09 56 3e f5 00 15 3e
       0.16676398 0.07404851 0.20902087 0.14551146
000370 98 9d ab bd 2a e8 30 3e c0 60 ec bd d1 86 82 3e
       -0.08379668 0.17276064 -0.11541891 0.25493482
000380 5f 0d 82 3e 54 fd e6 bd a2 22 3c 3e ce e5 4a be
       0.25400826 -0.11278787 0.18372586 -0.19814226
000390 40 c9 6c 3d d7 86 00 3e 2a 9f 1d 3e 4a b4 16 be
       0.057809114 0.12551437 0.15392748 -0.14717212
0003a0 48 85 4c be 6f 86 45 be 0d 65 23 be c2 2f d7 3d
       -0.19972718 -0.19289564 -0.15956517 0.10507156
0003b0 c8 0f e6 bd 3b 7f 3b be 1e 96 3b 3e 76 f8 3f be
       -0.11233479 -0.18310253 0.18318984 -0.18747124
0003c0 6a 69 3e 3e 9c e3 ea 3d 92 cf 0c 3e ff 9c af bd
       0.185949 0.11469194 0.13751057 -0.085748665
0003d0 ea 80 aa 3d e7 b3 2d be de 9a 27 be 84 2f 50 3e
       0.0832537 -0.16963159 -0.16367671 0.20330626
0003e0 25 67 16 3e df 7b 56 3d 93 b5 89 be f8 7b e5 bd
       0.14687784 0.052364226 -0.26896343 -0.11205286
0003f0 a3 d9 28 be 3f a6 41 3e 8b e9 2c 3e 15 a0 1a 3e
       -0.16489272 0.18911074 0.16885965 0.15100129

actor.4.bias f4 [9]
000000 6f ae d6 3d 5a 13 1e bb d1 a3 8f bd 19 f4 69 3d
       0.10482489 -0.002412042 -0.070136674 0.057117555
000010 28 a7 78 bd cc 85 86 bd e1 79 c4 3c 20 41 b6 3c
       -0.060706288 -0.065684885 0.023983898 0.02224785
000020 28 e0 cb 3c
       0.02488716
