mappo_algorithm/checkpoints/mappo_actor_num_agent_exp_4run_0_lumberjacks.pth (torch, 28282 bytes, 12 tensors)

fc1.weight f4 [64, 21]
0	0xbeb4ee5a	-0.35338098
1	0x3d8b31a0	0.067965746
2	0x3e004f37	0.12530218
3	0xbd07c307	-0.033144977
4	0x3e338a42	0.1753321
5	0xbe11d561	-0.14241554
6	0xbdda872d	-0.10670314
7	0xbc6303bd	-0.013855872
8	0xbe3b5df5	-0.1829756
9	0xbe6e40fb	-0.23266976
10	0xbe7917f6	-0.24325547
11	0xbd1de849	-0.038551603
12	0x3e9affd3	0.30273303
13	0x3dd62607	0.10456472
14	0xbe62fbef	-0.22166418
15	0x3dc5371c	0.09629652
16	0x3eda4aa0	0.4263506
17	0xbdfd4497	-0.12366598
18	0xbcb86920	-0.022511065
19	0xbd08fd87	-0.033444908
20	0x3d4585d4	0.04822333
21	0x3cf631ed	0.030053103
22	0xbe6fbfbb	-0.23412983
23	0x3bd8d881	0.006617606
24	0xbc99c906	-0.018772613
25	0xbb2566da	-0.0025238306
26	0xbdbcd5fa	-0.092205
27	0x3e0b2b02	0.13590625
28	0x3d0b2456	0.0339702
29	0xbd97dd03	-0.074152015
30	0x39a4eec0	0.000314584
31	0xbd40e543	-0.04709364
32	0x3e8048eb	0.25055632
33	0xbe71387c	-0.23556703
34	0xbc36564f	-0.011128976
35	0x3da6c121	0.08142305
36	0xbd3d0525	-0.046147484
37	0x3e4db69e	0.20089194
38	0x3e965d6b	0.29368147
39	0x3d907bc6	0.07054858
40	0xbda2bcfd	-0.07946203
41	0x3d1adb80	0.037806988
42	0x3daf47e9	0.08558638
43	0x3e5908de	0.21194789
44	0x3dbff29e	0.093724474
45	0x3e0de0f9	0.13855352
46	0x3dcebae4	0.1009424
47	0x3bd8c784	0.006615581
48	0xbd99a9e7	-0.075031094
49	0x3ded2e01	0.1158104
50	0xbe16a7a7	-0.14712392
51	0xbe4cb797	-0.19991909
52	0x3de95c46	0.11394553
53	0xbc428637	-0.01187282
54	0xbdd5203c	-0.10406539
55	0xbd324cb9	-0.0435302
56	0xbe75d38e	-0.24006483
57	0x3daeeb8a	0.08541019
58	0x3e07cf46	0.13262662
59	0xbc8f9406	-0.017526638
60	0xbe368287	-0.1782323
61	0xbe3cc19c	-0.18433231
62	0xbd5da4d3	-0.054112267
63	0xbd89ed37	-0.06734698
64	0xbd111b87	-0.035426643
65	0xbddc8f99	-0.107695766
66	0xbdbd3841	-0.09239245
67	0xbdb10009	-0.08642585
68	0x3dfb043e	0.122566685
69	0xbdd0d6ca	-0.10197218
70	0xbd17ca92	-0.03705842
71	0x3d88eb71	0.06685532
72	0x3d9c74c9	0.076394625
73	0x3cf529fb	0.029927244
74	0xbe072970	-0.13199401
75	0x3e2599d6	0.16171965
76	0x3d7a8b93	0.061168265
77	0xbc5b44b0	-0.013383076
78	0xbd8fa500	-0.07013893
79	0x3d7d01a9	0.06176916
80	0xbe6c1b53	-0.23057298
81	0xbdc97f19	-0.09838695
82	0xbe8e559e	-0.27799696
83	0x3c1c8a1a	0.00955441
84	0xbe1bfc0c	-0.15232867
85	0xbe65c935	-0.22440036
86	0xbd08e792	-0.033423968
87	0xbddd3207	-0.108005576
88	0xbcffc4e0	-0.031221807
89	0x3dbc4229	0.091923065
90	0xbc2c5cda	-0.010520184
91	0x3c4615c3	0.012090149
92	0x3d7957a6	0.060874604
93	0x3e82cbb5	0.2554604
94	0xbc971eca	-0.018447299
95	0x3ca58a3c	0.020207517
96	0x3e72eeb5	0.23723872
97	0xbe416fcc	-0.18890303
98	0x3e13cf89	0.14434637
99	0x3d085705	0.033286113
100	0xbcb886a0	-0.022525132
101	0xbcc00634	-0.023440458
102	0xbe490649	-0.19631304
103	0xbd984c4d	-0.07436428
104	0x3d7aaa00	0.06119728
105	0xbe45b774	-0.19308263
106	0x3c5ed736	0.013601115
107	0x3d850b68	0.06496316
108	0x3db2cbb0	0.087302566
109	0x3e3770e2	0.17914155
110	0x3e1efb48	0.15525544
111	0xbd68013c	-0.056641802
112	0xbdff440b	-0.1246415
113	0xbc3cda8e	-0.011526717
114	0x3d167483	0.036732208
115	0xbd30f7ce	-0.043205075
116	0x3e6e60bd	0.2327909
117	0xbe216a11	-0.15763117
118	0x3d721d30	0.059109867
119	0x3e0cabdc	0.13737434
120	0x3e030cd8	0.12797868
121	0xbe63cbfe	-0.22245786
122	0x3c3d2570	0.01154457
123	0x3dcce194	0.10003963
124	0x3dd3afe4	0.10336283
125	0x3c4d4fac	0.012531202
126	0xbdf67879	-0.12034697
127	0xbd8e975a	-0.06962462
128	0xbc7a9168	-0.015293457
129	0xbd2a1c73	-0.041531038
130	0x3e34570d	0.17611332
131	0xbe2045a4	-0.15651566
132	0xbc085155	-0.008320172
133	0xbc87274e	-0.016498234
134	0xbcdd34b6	-0.027002674
135	0xbd6fdbf7	-0.058559384
136	0x3e7b912b	0.24567096
137	0x3e45c03f	0.19311617
138	0xbc792819	-0.015207314
139	0xbe6403c8	-0.22267067
140	0x3e860b36	0.26180428
141	0xbde2b73a	-0.11070104
142	0xbe0b8cdb	-0.13627951
143	0x3e3595fa	0.17732993
144	0x3d76b514	0.060231283
145	0x3d965b77	0.07341664
146	0x3cd82044	0.026382573
147	0x3dd3b06c	0.10336384
148	0x3c63f53b	0.013913448
149	0x3d286c2d	0.04111879
150	0x3e18c354	0.14918262
151	0x3d8b72f6	0.068090364
152	0xbd0ac33d	-0.0338776
153	0xbda5676d	-0.080763675
154	0x3ca1a48f	0.019731788
155	0x3e29a01f	0.16564988
156	0x3b1f068f	0.0024265384
157	0xbedd2cff	-0.43198392
158	0xbdb6eb8d	-0.089316465
159	0x3e2149b7	0.15750776
160	0x3e393b7b	0.18089096
161	0xbd0b5690	-0.0340181
162	0x3e44960f	0.19197868
163	0xbd251ce0	-0.04031074
164	0xbd6ef6e2	-0.058340915
165	0xbd72445c	-0.059147224
166	0x3ddee7fd	0.10884092
167	0x3c8c0961	0.017094316
168	0xbdda4b07	-0.106588416
169	0xbe4a2461	-0.1974044
170	0xbceeabeb	-0.029134711
171	0x3e0ce52b	0.13759296
172	0x3db69f19	0.08917064
173	0xbe4eef6f	-0.20208524
174	0xbe0ec45e	-0.13942096
175	0xbe0bfc77	-0.13670526
176	0x3d3bc900	0.045845985
177	0x3dfb1453	0.12259736
178	0x3a63a3be	0.0008683762
179	0xbe2829cc	-0.16422194
180	0x3dcdbfc0	0.10046339
181	0xbe3250a9	-0.17413582
182	0xbc9286b9	-0.017886506
183	0xbdc07d53	-0.09398904
184	0xbcf77f43	-0.03021205
185	0xbe0ba85c	-0.13638443
186	0xbdfe26c2	-0.12409736
187	0xbdeb6f7b	-0.114958726
188	0xbdc4fa2b	-0.09618028
189	0xbd9585b9	-0.07300896
190	0x3dedacd2	0.116052285
191	0x3e4774c3	0.19478135
192	0x3ceb8aba	0.028752673
193	0x3ceaa42e	0.02864274
194	0xbcfd5037	-0.030922038
195	0xbe5df7b2	-0.2167652
196	0x3c33b593	0.010968584
197	0x3db7e6a8	0.08979541
198	0xbe0d12c4	-0.1377669
199	0xbd9e82a9	-0.07739765
200	0xbd8498bf	-0.064744465
201	0xbe174480	-0.14772224
202	0xbe38650b	-0.18007295
203	0x3d9a600e	0.07537852
204	0xbe1cce62	-0.15313104
205	0x3e30b094	0.17254859
206	0x3e220670	0.15822768
207	0x3e11a184	0.1422177
208	0x3db3983d	0.087692715
209	0xbde2e420	-0.11078668
210	0x3e2ccba0	0.16874552
211	0x3d5e8ca8	0.05433336
212	0x3dc0c677	0.09412854
213	0x3df354d0	0.11881411
214	0xbc2c5a4a	-0.010519573
215	0x3d813068	0.06308061
216	0xbe2522db	-0.16126578
217	0x3cba76ad	0.022761667
218	0xbd90048e	-0.07032119
219	0x3dbe2014	0.09283462
220	0xbeb230a8	-0.34802747
221	0x3d61db0e	0.055140547
222	0x3d45af5c	0.04826294
223	0x3dc4471e	0.09583877
224	0x3c7130d9	0.014721119
225	0xbd85fce3	-0.06542375
226	0x3dedd87f	0.11613559
227	0x3e507ac9	0.20359339
228	0xbdadddef	-0.08489596
229	0xbdad6856	-0.08467166
230	0xbd2d4983	-0.042306434
231	0x3d082d8f	0.033246573
232	0xbda57fbd	-0.08081005
233	0x3e27c287	0.163828
234	0xbd80c6cb	-0.06287917
235	0x3ba1e399	0.004940462
236	0xbd6947a4	-0.056953087
237	0xbb3496fd	-0.0027555816
238	0x3c7e6481	0.015526892
239	0x3e28ee9a	0.1649727
240	0x3e075983	0.1321774
241	0x3e6984c6	0.22804555
242	0x3c9899e5	0.01862807
243	0xbe4cc703	-0.19997792
244	0xbc518d7e	-0.012790082
245	0xbc8c26af	-0.01710829
246	0x3e0ee9be	0.13956353
247	0x3c6d8e8d	0.014499319
248	0xbd846486	-0.06464486
249	0xbe4336ba	-0.19063845
250	0x3cf8cec3	0.03037203
251	0xbd5caf72	-0.053878255
252	0x3e3b53a9	0.18293633
253	0xbd13cd99	-0.036084745
254	0x3ddee936	0.10884325
255	0xbd79e7a8	-0.06101194

fc1.bias f4 [64]
0	0xbc3f7284	-0.0116850175
1	0xbc465177	-0.012104384
2	0xbcb771b1	-0.02239308
3	0x3d0cba27	0.034357216
4	0x3a5a1864	0.00083196745
5	0xbc2e6967	-0.010645247
6	0xbcfc10fb	-0.030769816
7	0x3c2f4e5f	0.0106998375
8	0x3ce7d8b4	0.028301574
9	0xbc4b2660	-0.012399286
10	0xb8410ed6	-4.6028603e-05
11	0xbaeb3b24	-0.0017946702
12	0xbbf795df	-0.007555708
13	0x3b27cedc	0.0025605476
14	0xbc1a4146	-0.009414976
15	0xbc0e817f	-0.008697866
16	0x3c5bc1af	0.013412877
17	0xbb4966e7	-0.00307315
18	0x3c85f4ec	0.01635214
19	0x3c8994ea	0.01679464
20	0x3bf2ccd0	0.0074096695
21	0x3c9921e6	0.018692922
22	0xbd25f646	-0.040518068
23	0xbc0673c3	-0.008206311
24	0x3cd1c038	0.025604352
25	0x3bbcc9e9	0.0057613743
26	0xbc460659	-0.012086474
27	0x38d417fa	0.00010113414
28	0x3ba372a2	0.0049880305
29	0x3cd7e032	0.026352022
30	0x3be4c450	0.00698141
31	0xbb842dd8	-0.0040337853
32	0xbc9287a3	-0.017886942
33	0xbb53ebf0	-0.0032336675
34	0xbc178b2e	-0.009249492
35	0x3c125eaa	0.0089337025
36	0xbba57497	-0.005049299
37	0x3c06449a	0.008195067
38	0x3c51c8e4	0.012804244
39	0x3c80c2b6	0.015717845
40	0x3a07fb7b	0.0005187315
41	0x3c3db630	0.011579081
42	0xbbbe2832	-0.0058031315
43	0xbc80a744	-0.015704758
44	0xbce486e7	-0.027896358
45	0xbc9ca11f	-0.019119797
46	0x3ae940de	0.0017795821
47	0x3cbf7c40	0.023374677
48	0x3bb3e5fa	0.005490062
49	0x3bad727b	0.005293188
50	0x3ba9fe6d	0.0051878006
51	0xbb829e86	-0.0039861826
52	0x3c13e486	0.009026652
53	0xb9129a5f	-0.00013981153
54	0xbcc0ad18	-0.023520038
55	0xbc0b6149	-0.008507081
56	0x3a4f09dd	0.0007897893
57	0xbca7ecfa	-0.020498741
58	0x3c897464	0.016779132
59	0x3c8364b1	0.016039224
60	0xbc108769	-0.008821347
61	0xbce17aca	-0.02752437
62	0xbb272201	-0.0025502446
63	0xbb8eaaaa	-0.004353841

fc2.weight f4 [64, 64]
0	0xbd09e633	-0.0336668
1	0x3dc88dae	0.09792648
2	0xbe2bfb70	-0.16795135
3	0x3b22ea26	0.0024858802
4	0xbd7a1c24	-0.061061993
5	0x3db21a59	0.08696432
6	0x3db61b61	0.08891941
7	0xbe36088d	-0.177767
8	0xbe2b1145	-0.16705807
9	0x3e2c012f	0.16797327
10	0xbe56632e	-0.20936272
11	0xbbfdc073	-0.007743889
12	0xbd7f152c	-0.06227605
13	0x3dcf3e8e	0.10119353
14	0xbe47d011	-0.19512965
15	0xbd5457e3	-0.051841628
16	0xbe49c81b	-0.1970524
17	0x3e06e185	0.13171966
18	0x3e4deb49	0.20109285
19	0xbdf2aabe	-0.11848973
20	0x3cebb6e3	0.02877373
21	0xbdf91db7	-0.12163871
22	0x3d85c678	0.065319955
23	0xbd815d7d	-0.063166596
24	0xbceaa69a	-0.028643895
25	0x3e3d817d	0.18506427
26	0xbe887660	-0.26652813
27	0xbdd01a2d	-0.10161243
28	0x3de0b545	0.109720744
29	0xbe5dfea4	-0.21679169
30	0xbe60e2d7	-0.21961533
31	0xbdef88b1	-0.11695994
32	0xbe4998f8	-0.19687259
33	0x3e1f3e54	0.1555112
34	0x3caf2e5a	0.021384407
35	0xbe26bbf5	-0.16282637
36	0x3e140a6d	0.14457102
37	0xbd806e89	-0.06271083
38	0xbd4155d3	-0.04720099
39	0x3d04138c	0.032245204
40	0x3d47dc9f	0.048794385
41	0x3e88b39d	0.26699534
42	0xbd1505e7	-0.036382582
43	0xbd42016e	-0.047364645
44	0x3d603d25	0.054745812
45	0x3d77e82f	0.060524162
46	0xbd4dce19	-0.05024538
47	0xbdc21396	-0.09476392
48	0x3cefb58c	0.029261373
49	0x3d306a1a	0.043069936
50	0x3d4b4301	0.049624447
51	0xbde3ec86	-0.11129098
52	0x3d92e98d	0.071734525
53	0x3d618d50	0.055066407
54	0x3e809228	0.25111508
55	0x3da34744	0.07972577
56	0xbd31166c	-0.043234274
57	0xbd87145a	-0.06595679
58	0xbde0bb7d	-0.109732606
59	0xbdc351cf	-0.09537088
60	0xbd3aa85f	-0.045570727
61	0x3e036f3b	0.128354
62	0xbe994092	-0.29932076
63	0xbc7daeae	-0.015483541
64	0xbc141390	-0.009037867
65	0x3d021ed6	0.03176769
66	0x3d776d08	0.060406715
67	0xbd68f1d5	-0.056871254
68	0xbe375bef	-0.17906164
69	0xbe49174b	-0.19637792
70	0x3c498014	0.012298603
71	0x3e3c4804	0.18386847
72	0xbe27be28	-0.16381133
73	0x3ecdc8b6	0.40192193
74	0x3ea1a968	0.3157456
75	0xbe9a1141	-0.3009129
76	0xbc2918d8	-0.010320865
77	0xbd1cfa5b	-0.038324695
78	0xbdbdd2ad	-0.09268699
79	0xbd3612ed	-0.044451643
80	0xbdd9bde0	-0.10631919
81	0xbbb47dd4	-0.005508164
82	0xbe2389f8	-0.159706
83	0xbc18f1bf	-0.0093349805
84	0x3e3817ad	0.17977782
85	0xbe02517d	-0.12726398
86	0xbd1025fd	-0.03519248
87	0xbe4e6967	-0.20157395
88	0xbbb1f40f	-0.0054307054
89	0xbe26918b	-0.16266458
90	0x3cdfc892	0.027317319
91	0xbdd61ecd	-0.104550935
92	0x3d8a88f1	0.06764401
93	0x3d981ec0	0.0742774
94	0x3d8b0c5e	0.06789468
95	0xbd8e83f9	-0.069587655
96	0x3e23896d	0.15970393
97	0x3decffc0	0.11572218
98	0x3bca9281	0.0061820154
99	0x3e176028	0.14782774
100	0xbdaca9ba	-0.0843081
101	0xbe5ee464	-0.21766812
102	0x3d3f056d	0.046636034
103	0x3ca9f32e	0.02074584
104	0x3ce50338	0.027955636
105	0xbdadadea	-0.08480437
106	0x3e015f8b	0.12634103
107	0x3ddf3007	0.10897832
108	0xbdcbee19	-0.09957523
109	0xbd34e0be	-0.044159643
110	0xbe2d9cc0	-0.16954327
111	0xbe2d4c36	-0.16923603
112	0xbcdc952c	-0.0269266
113	0xbd805af5	-0.06267349
114	0xbde286df	-0.11060881
115	0xbd57a9ec	-0.052652285
116	0xbe2b7655	-0.16744359
117	0x3db9dacf	0.090749376
118	0x3e5c8b4b	0.21537511
119	0x3e0a68f3	0.13516597
120	0xbc3dd753	-0.011586982
121	0xbcfa53a1	-0.030557455
122	0xbd5c71f9	-0.05381963
123	0xbd05de67	-0.032682803
124	0xbe25bb7e	-0.16184804
125	0x3e32e599	0.17470397
126	0xbd06f079	-0.032944176
127	0x3df173af	0.11789643
128	0x3df0c71c	0.11756727
129	0x3d980b0e	0.074239835
130	0xbd8cd75a	-0.068770126
131	0x3d155e4e	0.03646689
132	0xbded9cd7	-0.116021805
133	0x3d20ee22	0.0392896
134	0x3e156e2e	0.14592811
135	0xbd5196a3	-0.05116905
136	0x3d8e918f	0.06961357
137	0xbcdbdefa	-0.026839722
138	0x3e290a72	0.16507891
139	0xbe08646d	-0.1331956
140	0xbdc62b6b	-0.0967625
141	0xbd2f3835	-0.042778213
142	0xbd662100	-0.056183815
143	0x3dd833d6	0.10556762
144	0xbcfd0eeb	-0.030890903
145	0x3e3b5553	0.18294267
146	0xbdc97774	-0.09837237
147	0xbd587195	-0.052842695
148	0xbe4f038a	-0.20216194
149	0xbe5e6e33	-0.21721725
150	0x3d1556d1	0.036459748
151	0x3ed998be	0.42499346
152	0x3e281dd4	0.16417629
153	0x3d0bd596	0.03413924
154	0x3dc74f13	0.09731879
155	0xbe68e796	-0.22744593
156	0x3d395618	0.04524812
157	0xbcf2e531	-0.029650303
158	0x3dbf603b	0.093445264
159	0xbd684b86	-0.05671265
160	0x3e3a4355	0.18189748
161	0xbdc6021d	-0.09668372
162	0x3cd073f6	0.02544592
163	0xbe43f307	-0.19135676
164	0x3e7692f5	0.24079497
165	0x3d0110f6	0.031510316
166	0xbe002009	-0.1251222
167	0xbe23b721	-0.15987827
168	0x3df2b527	0.11850958
169	0xbdb1fbef	-0.08690631
170	0x3e23ddd4	0.1600259
171	0x3d56f4df	0.05247962
172	0x3d1cc6b8	0.03827545
173	0x3d08fda8	0.03344503
174	0x3c926b92	0.01787356
175	0xba4f11c8	-0.0007899073
176	0x3d654b0f	0.055979785
177	0x3e0cfdeb	0.13768737
178	0xbe844653	-0.25834903
179	0xbd8e27c9	-0.06941182
180	0xbd432a56	-0.047647797
181	0x3e400d7f	0.18755148
182	0xbc1ad838	-0.009450965
183	0xbe07e77a	-0.13271895
184	0x3e005700	0.12533188
185	0x3e1080b4	0.14111596
186	0xbd738e47	-0.059461858
187	0x3c37027a	0.011170024
188	0x3dc97a8f	0.09837829
189	0x3e852b93	0.26009807
190	0xbe05613c	-0.13025373
191	0xbcc94952	-0.024571095
192	0xbcc84984	-0.024449117
193	0x3ea011e7	0.31263658
194	0xbd8cb0bf	-0.06869649
195	0x3e004fb0	0.12530398
196	0xbe29dd65	-0.16588362
197	0x3d6406ea	0.055670656
198	0x3d0c55da	0.034261562
199	0x3e9e7774	0.3095051
200	0x3d406d59	0.046979282
201	0x3cd47bd8	0.02593796
202	0x3e328710	0.17434335
203	0x3d9de3bf	0.07709455
204	0x3dff57d9	0.124679275
205	0x3e95ac8a	0.292332
206	0x3e9002a5	0.28127018
207	0x3cebc520	0.02878052
208	0x3d32b428	0.04362884
209	0x3ed336bd	0.412527
210	0x3e837422	0.2567454
211	0x3e3abd70	0.18236327
212	0x3dabaf2f	0.08383023
213	0x3b2c2140	0.0026264936
214	0xbd131457	-0.03590807
215	0x3c4a0432	0.012330102
216	0xbd845e3d	-0.06463287
217	0x3c2ecefb	0.010669465
218	0xbcbce7f2	-0.023059819
219	0xbd242286	-0.040071987
220	0xbdf067e4	-0.117385656
221	0x3d6db2bb	0.05803178
222	0x3e043ed2	0.12914589
223	0x3d83300e	0.0640565
224	0xbd1c8520	-0.038212895
225	0x3de121af	0.10992753
226	0x3dd0b358	0.10190457
227	0xbcb8d1d8	-0.022560999
228	0xbc8e1a0c	-0.017346404
229	0xbe5b2e10	-0.2140429
230	0x3df6ae5a	0.12044974
231	0xbc92500b	-0.017860433
232	0x3d091456	0.03346666
233	0xbb8ddf31	-0.004329585
234	0x3e37a8a6	0.17935428
235	0xbd68a0b1	-0.056793872
236	0xbd585f1a	-0.05282507
237	0x3c5fba2b	0.013655226
238	0xbe9e03e7	-0.30862352
239	0xbdcfa36e	-0.101385936
240	0x3d228aeb	0.039683264
241	0x3de15a7c	0.11003587
242	0x3d18fa5b	0.037348133
243	0xbd9c68c1	-0.07637168
244	0x3e00c448	0.12574875
245	0xbda2a7d9	-0.07942171
246	0x3e13fd7c	0.14452165
247	0xbdb4234b	-0.08795794
248	0x3ddba03c	0.10723922
249	0x3da0b426	0.078468606
250	0x3c27c380	0.010239482
251	0xbcaf2a09	-0.021382349
252	0x3e07f98e	0.13278791
253	0xbe02e564	-0.12782818
254	0x3dc0d9c5	0.09416536
255	0xbdd53276	-0.10410015

fc2.bias f4 [64]
0	0x3bcd3ea2	0.00626357
1	0xbc49349e	-0.012280611
2	0xbadcfa40	-0.0016859248
3	0xbb93c7ff	-0.0045099254
4	0x3c8753bd	0.016519422
5	0x3c3a50e3	0.011371824
6	0xbc616318	-0.013756536
7	0xbc5b8c31	-0.013400123
8	0x3c1707dc	0.009218182
9	0xbc3bd49d	-0.011464265
10	0xbca573ea	-0.020196874
11	0xbb86ad38	-0.0041100048
12	0xbb5f27d3	-0.0034050837
13	0x3bc21f90	0.0059241727
14	0xb982fad4	-0.00024982414
15	0xbb73ef1d	-0.003722138
16	0xbc25b484	-0.010113839
17	0xbc585db1	-0.0132059315
18	0x3bab76da	0.005232674
19	0xbbd47f56	-0.006484906
20	0x3b88cb75	0.0041746446
21	0xba70404e	-0.00091648556
22	0xbbbc0c02	-0.005738736
23	0xbb22da79	-0.0024849458
24	0x3bf7741e	0.007551684
25	0x3c188c93	0.009310859
26	0xbc0963f4	-0.008385647
27	0x39f64baa	0.0004697715
28	0xbb7783a3	-0.003776767
29	0x3bdbee61	0.0067117666
30	0x3bc4c201	0.0060045724
31	0xbc506ed0	-0.012721732
32	0xbac367e5	-0.0014908282
33	0xbbd896a3	-0.006609754
34	0x3c08749e	0.008328585
35	0xbc2460b2	-0.01003282
36	0xbc5018c1	-0.012701214
37	0xbceb78ea	-0.02874418
38	0x3a2c1c7c	0.0006565524
39	0x3b04d786	0.0020270064
40	0xbc27d8fe	-0.010244606
41	0x3c6152bf	0.013752638
42	0x3bf1a15d	0.0073739723
43	0xbaa8587f	-0.0012843757
44	0x3c12aa6a	0.008951763
45	0x3cb359ef	0.02189347
46	0x3bf5a9bd	0.007497041
47	0xbc141083	-0.00903714
48	0xbb076d03	-0.0020664341
49	0x3b3e7ce0	0.002906613
50	0x3ba8a6de	0.0051468452
51	0x3c117635	0.00887828
52	0x3a98b0e8	0.0011649402
53	0x3c266bf7	0.010157577
54	0xbbf6fd27	-0.0075375023
55	0x3c2739bb	0.010206635
56	0xbcd26a6d	-0.025685513
57	0x3b633784	0.003467054
58	0xbca7a310	-0.020463496
59	0xb935b1ea	-0.00017327783
60	0xbc3c12f1	-0.011479125
61	0xbb953d1c	-0.004554404
62	0xbc3f1481	-0.011662603
63	0x3c0b2270	0.008492097

fc3.weight f4 [9, 64]
0	0xbd007060	-0.03135717
1	0xbd0040ed	-0.031311918
2	0xbd02b617	-0.031911936
3	0x3caa07dd	0.020755703
4	0x3ca1fc6d	0.019773686
5	0x3d10e5a9	0.03537527
6	0xbcfeb2d8	-0.031091139
7	0xbcd01e98	-0.025405213
8	0xbcb67c4a	-0.022276063
9	0x3d2490b9	0.04017708
10	0x3c878b89	0.016546028
11	0x3b54e8ae	0.003248732
12	0xbb147b30	-0.0022656433
13	0xbd046ff2	-0.032333322
14	0xbcd0c253	-0.025483286
15	0x3c961afc	0.018323414
16	0xbca7ef6f	-0.020499913
17	0xbbfc223b	-0.0076945103
18	0x3ca322ef	0.019914119
19	0x3cdc8c0c	0.026922248
20	0xbccf9097	-0.0253375
21	0xbc134e64	-0.008990858
22	0x3d0c6de9	0.034284506
23	0xbca34307	-0.019929422
24	0x3c8453b5	0.016153196
25	0xbcefc806	-0.029270183
26	0xbcb026bf	-0.02150285
27	0x3ce09523	0.027414864
28	0x3d169932	0.036767192
29	0x3c9f45f6	0.01944254
30	0x3ce85c6a	0.028364379
31	0xbd048fdb	-0.032363754
32	0xbcda6e6f	-0.026663987
33	0x3c9b1c5c	0.018934421
34	0xbc197a4f	-0.00936754
35	0x3be3d99e	0.006953432
36	0x3d09eb03	0.03367139
37	0x3c284972	0.010271417
38	0xbce51c93	-0.027967727
39	0xbc467698	-0.012113236
40	0x3ce734b9	0.028223382
41	0xbc2e3103	-0.0106318025
42	0x3c827845	0.01592649
43	0x3ce54568	0.027987197
44	0x3cdbaaca	0.026814837
45	0xbc916f3b	-0.017753234
46	0xbcbe2940	-0.023213029
47	0x3cdd0d4a	0.026983876
48	0xbc7fe112	-0.015617626
49	0xbd088838	-0.033333033
50	0x3d0c8d52	0.03431446
51	0x3ccce7b7	0.025012834
52	0xbc9e5d20	-0.019331515
53	0x3d130282	0.035891064
54	0xbc0044a4	-0.007828865
55	0x3d108d91	0.03529126
56	0x3d462db1	0.04838342
57	0xbd2d7dd4	-0.042356327
58	0x3caea380	0.021318197
59	0x3d04f1e4	0.032457247
60	0x3d0f2c2c	0.034954235
61	0x3ca11fe5	0.019668529
62	0x3d06fb70	0.032954633
63	0x3d18380c	0.037162825
64	0x3bde0e78	0.006776627
65	0xbc24920b	-0.010044585
66	0x3b03b918	0.0020099338
67	0x3c89e8c2	0.01683462
68	0xbcbe3959	-0.023220705
69	0x3c0e0cc8	0.0086700395
70	0x3c5dfab2	0.01354854
71	0x3d2030ba	0.03910897
72	0x3c13a274	0.0090109
73	0x3aa8d30c	0.001288028
74	0x3cfd9e40	0.030959249
75	0xbc6b4146	-0.014358824
76	0x3cbcd77a	0.023051966
77	0xbd12f5ea	-0.035879053
78	0x3cb06586	0.021532785
79	0xbc20d099	-0.009815359
80	0xbc04d18c	-0.0081066005
81	0x3cc9d29a	0.024636555
82	0xbbe77384	-0.007063331
83	0x3cc8a64c	0.024493359
84	0x3c847e86	0.016173612
85	0x3d2402bf	0.04004168
86	0x3bf594aa	0.007494529
87	0xbc04162d	-0.008061928
88	0xbc97b03e	-0.018516656
89	0xbd25f21b	-0.040514093
90	0x3bc19a8d	0.0059083165
91	0xbbe092de	-0.0068534454
92	0x3c420ff7	0.011844627
93	0xbd116439	-0.03549597
94	0xbb7285c6	-0.0037006005
95	0xbc39149a	-0.011296416
96	0xbc012780	-0.007882953
97	0x3d1525f2	0.03641314
98	0xbd287145	-0.041123647
99	0x3d0e0159	0.034669254
100	0xbc4c1528	-0.012456216
101	0x3bf1af20	0.007375613
102	0x3b80ba95	0.0039284923
103	0xbcc0e377	-0.023545964
104	0xbb8bec9b	-0.004270149
105	0xbb690272	-0.0035554436
106	0xbc4a41dc	-0.012344804
107	0x3d2119b1	0.03933114
108	0x3bde1fd7	0.006778698
109	0xbc8d26ee	-0.017230477
110	0xbcc2effb	-0.023796072
111	0x3c065eae	0.008201284
112	0x3cdc2299	0.026871966
113	0xbba5057b	-0.0050360537
114	0x3cb487aa	0.022037346
115	0x3c440e9b	0.011966373
116	0x3cda75d1	0.026667507
117	0xbc000ba0	-0.007815272
118	0x3d04e4d8	0.032444805
119	0xbc82aa4f	-0.01595035
120	0x3c89da1d	0.016827637
121	0xbb1be5c5	-0.0023788076
122	0x3c7ae6c6	0.01531381
123	0x39b6f7a4	0.00034898252
124	0x3ca1aa18	0.019734427
125	0x3cbe71a1	0.023247542
126	0xbbf51265	-0.0074789994
127	0xbb8619a8	-0.004092414
128	0xbc80b42c	-0.015710913
129	0x3c870caa	0.01648553
130	0xbbd25a80	-0.00641948
131	0x3cc91a20	0.02454859
132	0xbbe26a80	-0.0069096684
133	0xbad275fd	-0.0016056892
134	0xbbd10b16	-0.0063794954
135	0xbc4c58ba	-0.012472326
136	0xbd2d5505	-0.04231741
137	0x3c1aef87	0.009456522
138	0x3d0163bb	0.03158925
139	0xbc166e58	-0.009181581
140	0x3cb5a3af	0.022172777
141	0x3c8f857f	0.01751971
142	0xbb326e88	-0.0027226526
143	0x3c881cb3	0.016615247
144	0x3c87f320	0.016595423
145	0xbb05f361	-0.0020439255
146	0x3b69ffd7	0.003570547
147	0x3bc047de	0.0058679422
148	0xbbdce8b0	-0.0067416057
149	0xbc4dfd06	-0.0125725325
150	0xbb9f5393	-0.0048622577
151	0xbca21f8d	-0.019790435
152	0xbb30b738	-0.0026964676
153	0xbcb128d1	-0.021625908
154	0xbb106b1e	-0.0022036503
155	0x3c28ab2c	0.010294717
156	0x3c02e2d6	0.007988652
157	0x3c9b80fd	0.018982405
158	0xbc2c32fa	-0.010510201
159	0x3c2c1af2	0.010504471
160	0xbb4b532f	-0.0031024923
161	0xbcabaae9	-0.02095552
162	0xbba5d9a2	-0.0050613442
163	0x3c26302e	0.010143323
164	0x3c98e194	0.018662252
165	0x3c7a05e5	0.015260194
166	0xbcae89dd	-0.021305973
167	0x3cc1a0d9	0.023636268
168	0x3c451a45	0.012030189
169	0x3cd1bbf2	0.025602315
170	0x3c2d97f1	0.010595308
171	0xbc72850a	-0.014802227
172	0xbb978fd6	-0.004625301
173	0xbc71688e	-0.0147344
174	0xbbf714e0	-0.0075403303
175	0x3c8b924c	0.017037533
176	0xb92abfdc	-0.00016283937
177	0xbc648ff1	-0.013950334
178	0xbc1e3aa2	-0.009657534
179	0xbba01815	-0.0048856833
180	0xbb3865a2	-0.002813675
181	0x3c7b632b	0.015343468
182	0x3d0aacfb	0.033856373
183	0xbae30c83	-0.0017322454
184	0x3cc8d1a1	0.024514021
185	0x3b5035b8	0.00317703
186	0x3cf40292	0.029786382
187	0xbc18f1b7	-0.009334973
188	0x3b2e2350	0.002657134
189	0xbcfece88	-0.031104341
190	0x3c9db773	0.019252514
191	0x3c564ba1	0.013079555
192	0x3c707dd7	0.01467844
193	0x3d214de3	0.03938092
194	0x3cc086b4	0.023501731
195	0x3ce4a382	0.027909998
196	0xbd4d7d74	-0.05016847
197	0xbd36616b	-0.0445265
198	0x3d1210cd	0.035660554
199	0x3cebaf5f	0.028770147
200	0xbcd7e43c	-0.026353948
201	0xbcb64399	-0.02224903
202	0x3cb0ce95	0.021582881
203	0xbce9ec8b	-0.028555175
204	0x3d6ce99c	0.057839975
205	0x3d30df97	0.043181982
206	0x3d4549f3	0.048166227
207	0xbc1e448a	-0.009659896
208	0x3d443337	0.047900405
209	0x3b98f696	0.004668067
210	0xbd072f03	-0.03300382
211	0xbc54bcf8	-0.012984507
212	0x3d03fda1	0.0322243
213	0x3d424a24	0.047433987
214	0xbd974dff	-0.073879234
215	0xbc9550ab	-0.018226942
216	0xbc4a0e4a	-0.012332508
217	0xba8ede7e	-0.0010900048
218	0x3c9fe4be	0.019518252
219	0xbc68ce32	-0.014209317
220	0xbcdc7f22	-0.02691609
221	0x3c971495	0.018442431
222	0xbcb04041	-0.021515014
223	0x3d20874b	0.039191525
224	0x3cf3de3e	0.02976906
225	0xbd0790af	-0.033096965
226	0x3c048c0d	0.008090031
227	0x3b7046a5	0.0036663201
228	0x3a277357	0.00063877314
229	0xbbde5e94	-0.006786177
230	0x3cd49c96	0.025953572
231	0x3bea4e03	0.007150413
232	0xbcc5d1f7	-0.02414797
233	0x3cfa40de	0.03054851
234	0xbc7d3e62	-0.015456768
235	0xbd0fc675	-0.035101373
236	0xbd4c8154	-0.049928024
237	0x3ca8a080	0.020584345
238	0x3c6d5f30	0.0144880265
239	0xbcacbed3	-0.021087086
240	0x3c6f31db	0.014599289
241	0x3c44eb48	0.012018986
242	0xbd24e885	-0.04026081
243	0xbc2cf36e	-0.010556085
244	0x3d369d01	0.044583324
245	0xbcab6faf	-0.020927278
246	0x3da0faf8	0.078603685
247	0xbcca8994	-0.024723805
248	0xbcfc9951	-0.030834826
249	0x3d3ca30a	0.046053924
250	0xbbc7cba6	-0.006097275
251	0xbd4cb0b3	-0.0499732
252	0xbd263e0a	-0.04058651
253	0xbd228210	-0.03967482
254	0xbcfac3bb	-0.03061091
255	0xbcc65503	-0.024210459

fc3.bias f4 [9]
0	0xbc009aee	-0.007849438
1	0xba0ef5b1	-0.0005453481
2	0xbc634eb3	-0.013873744
3	0x3c989aa3	0.018628424
4	0xbb01a657	-0.0019782984
5	0xbc551082	-0.013004424
6	0xb8e0f8dc	-0.00010727506
7	0x3b92e342	0.0044826576
8	0x3c6756c8	0.014119811

actor.0.weight f4 [64, 21]
0	0xbeb4ee5a	-0.35338098
1	0x3d8b31a0	0.067965746
2	0x3e004f37	0.12530218
3	0xbd07c307	-0.033144977
4	0x3e338a42	0.1753321
5	0xbe11d561	-0.14241554
6	0xbdda872d	-0.10670314
7	0xbc6303bd	-0.013855872
8	0xbe3b5df5	-0.1829756
9	0xbe6e40fb	-0.23266976
10	0xbe7917f6	-0.24325547
11	0xbd1de849	-0.038551603
12	0x3e9affd3	0.30273303
13	0x3dd62607	0.10456472
14	0xbe62fbef	-0.22166418
15	0x3dc5371c	0.09629652
16	0x3eda4aa0	0.4263506
17	0xbdfd4497	-0.12366598
18	0xbcb86920	-0.022511065
19	0xbd08fd87	-0.033444908
20	0x3d4585d4	0.04822333
21	0x3cf631ed	0.030053103
22	0xbe6fbfbb	-0.23412983
23	0x3bd8d881	0.006617606
24	0xbc99c906	-0.018772613
25	0xbb2566da	-0.0025238306
26	0xbdbcd5fa	-0.092205
27	0x3e0b2b02	0.13590625
28	0x3d0b2456	0.0339702
29	0xbd97dd03	-0.074152015
30	0x39a4eec0	0.000314584
31	0xbd40e543	-0.04709364
32	0x3e8048eb	0.25055632
33	0xbe71387c	-0.23556703
34	0xbc36564f	-0.011128976
35	0x3da6c121	0.08142305
36	0xbd3d0525	-0.046147484
37	0x3e4db69e	0.20089194
38	0x3e965d6b	0.29368147
39	0x3d907bc6	0.07054858
40	0xbda2bcfd	-0.07946203
41	0x3d1adb80	0.037806988
42	0x3daf47e9	0.08558638
43	0x3e5908de	0.21194789
44	0x3dbff29e	0.093724474
45	0x3e0de0f9	0.13855352
46	0x3dcebae4	0.1009424
47	0x3bd8c784	0.006615581
48	0xbd99a9e7	-0.075031094
49	0x3ded2e01	0.1158104
50	0xbe16a7a7	-0.14712392
51	0xbe4cb797	-0.19991909
52	0x3de95c46	0.11394553
53	0xbc428637	-0.01187282
54	0xbdd5203c	-0.10406539
55	0xbd324cb9	-0.0435302
56	0xbe75d38e	-0.24006483
57	0x3daeeb8a	0.08541019
58	0x3e07cf46	0.13262662
59	0xbc8f9406	-0.017526638
60	0xbe368287	-0.1782323
61	0xbe3cc19c	-0.18433231
62	0xbd5da4d3	-0.054112267
63	0xbd89ed37	-0.06734698
64	0xbd111b87	-0.035426643
65	0xbddc8f99	-0.107695766
66	0xbdbd3841	-0.09239245
67	0xbdb10009	-0.08642585
68	0x3dfb043e	0.122566685
69	0xbdd0d6ca	-0.10197218
70	0xbd17ca92	-0.03705842
71	0x3d88eb71	0.06685532
72	0x3d9c74c9	0.076394625
73	0x3cf529fb	0.029927244
74	0xbe072970	-0.13199401
75	0x3e2599d6	0.16171965
76	0x3d7a8b93	0.061168265
77	0xbc5b44b0	-0.013383076
78	0xbd8fa500	-0.07013893
79	0x3d7d01a9	0.06176916
80	0xbe6c1b53	-0.23057298
81	0xbdc97f19	-0.09838695
82	0xbe8e559e	-0.27799696
83	0x3c1c8a1a	0.00955441
84	0xbe1bfc0c	-0.15232867
85	0xbe65c935	-0.22440036
86	0xbd08e792	-0.033423968
87	0xbddd3207	-0.108005576
88	0xbcffc4e0	-0.031221807
89	0x3dbc4229	0.091923065
90	0xbc2c5cda	-0.010520184
91	0x3c4615c3	0.012090149
92	0x3d7957a6	0.060874604
93	0x3e82cbb5	0.2554604
94	0xbc971eca	-0.018447299
95	0x3ca58a3c	0.020207517
96	0x3e72eeb5	0.23723872
97	0xbe416fcc	-0.18890303
98	0x3e13cf89	0.14434637
99	0x3d085705	0.033286113
100	0xbcb886a0	-0.022525132
101	0xbcc00634	-0.023440458
102	0xbe490649	-0.19631304
103	0xbd984c4d	-0.07436428
104	0x3d7aaa00	0.06119728
105	0xbe45b774	-0.19308263
106	0x3c5ed736	0.013601115
107	0x3d850b68	0.06496316
108	0x3db2cbb0	0.087302566
109	0x3e3770e2	0.17914155
110	0x3e1efb48	0.15525544
111	0xbd68013c	-0.056641802
112	0xbdff440b	-0.1246415
113	0xbc3cda8e	-0.011526717
114	0x3d167483	0.036732208
115	0xbd30f7ce	-0.043205075
116	0x3e6e60bd	0.2327909
117	0xbe216a11	-0.15763117
118	0x3d721d30	0.059109867
119	0x3e0cabdc	0.13737434
120	0x3e030cd8	0.12797868
121	0xbe63cbfe	-0.22245786
122	0x3c3d2570	0.01154457
123	0x3dcce194	0.10003963
124	0x3dd3afe4	0.10336283
125	0x3c4d4fac	0.012531202
126	0xbdf67879	-0.12034697
127	0xbd8e975a	-0.06962462
128	0xbc7a9168	-0.015293457
129	0xbd2a1c73	-0.041531038
130	0x3e34570d	0.17611332
131	0xbe2045a4	-0.15651566
132	0xbc085155	-0.008320172
133	0xbc87274e	-0.016498234
134	0xbcdd34b6	-0.027002674
135	0xbd6fdbf7	-0.058559384
136	0x3e7b912b	0.24567096
137	0x3e45c03f	0.19311617
138	0xbc792819	-0.015207314
139	0xbe6403c8	-0.22267067
140	0x3e860b36	0.26180428
141	0xbde2b73a	-0.11070104
142	0xbe0b8cdb	-0.13627951
143	0x3e3595fa	0.17732993
144	0x3d76b514	0.060231283
145	0x3d965b77	0.07341664
146	0x3cd82044	0.026382573
147	0x3dd3b06c	0.10336384
148	0x3c63f53b	0.013913448
149	0x3d286c2d	0.04111879
150	0x3e18c354	0.14918262
151	0x3d8b72f6	0.068090364
152	0xbd0ac33d	-0.0338776
153	0xbda5676d	-0.080763675
154	0x3ca1a48f	0.019731788
155	0x3e29a01f	0.16564988
156	0x3b1f068f	0.0024265384
157	0xbedd2cff	-0.43198392
158	0xbdb6eb8d	-0.089316465
159	0x3e2149b7	0.15750776
160	0x3e393b7b	0.18089096
161	0xbd0b5690	-0.0340181
162	0x3e44960f	0.19197868
163	0xbd251ce0	-0.04031074
164	0xbd6ef6e2	-0.058340915
165	0xbd72445c	-0.059147224
166	0x3ddee7fd	0.10884092
167	0x3c8c0961	0.017094316
168	0xbdda4b07	-0.106588416
169	0xbe4a2461	-0.1974044
170	0xbceeabeb	-0.029134711
171	0x3e0ce52b	0.13759296
172	0x3db69f19	0.08917064
173	0xbe4eef6f	-0.20208524
174	0xbe0ec45e	-0.13942096
175	0xbe0bfc77	-0.13670526
176	0x3d3bc900	0.045845985
177	0x3dfb1453	0.12259736
178	0x3a63a3be	0.0008683762
179	0xbe2829cc	-0.16422194
180	0x3dcdbfc0	0.10046339
181	0xbe3250a9	-0.17413582
182	0xbc9286b9	-0.017886506
183	0xbdc07d53	-0.09398904
184	0xbcf77f43	-0.03021205
185	0xbe0ba85c	-0.13638443
186	0xbdfe26c2	-0.12409736
187	0xbdeb6f7b	-0.114958726
188	0xbdc4fa2b	-0.09618028
189	0xbd9585b9	-0.07300896
190	0x3dedacd2	0.116052285
191	0x3e4774c3	0.19478135
192	0x3ceb8aba	0.028752673
193	0x3ceaa42e	0.02864274
194	0xbcfd5037	-0.030922038
195	0xbe5df7b2	-0.2167652
196	0x3c33b593	0.010968584
197	0x3db7e6a8	0.08979541
198	0xbe0d12c4	-0.1377669
199	0xbd9e82a9	-0.07739765
200	0xbd8498bf	-0.064744465
201	0xbe174480	-0.14772224
202	0xbe38650b	-0.18007295
203	0x3d9a600e	0.07537852
204	0xbe1cce62	-0.15313104
205	0x3e30b094	0.17254859
206	0x3e220670	0.15822768
207	0x3e11a184	0.1422177
208	0x3db3983d	0.087692715
209	0xbde2e420	-0.11078668
210	0x3e2ccba0	0.16874552
211	0x3d5e8ca8	0.05433336
212	0x3dc0c677	0.09412854
213	0x3df354d0	0.11881411
214	0xbc2c5a4a	-0.010519573
215	0x3d813068	0.06308061
216	0xbe2522db	-0.16126578
217	0x3cba76ad	0.022761667
218	0xbd90048e	-0.07032119
219	0x3dbe2014	0.09283462
220	0xbeb230a8	-0.34802747
221	0x3d61db0e	0.055140547
222	0x3d45af5c	0.04826294
223	0x3dc4471e	0.09583877
224	0x3c7130d9	0.014721119
225	0xbd85fce3	-0.06542375
226	0x3dedd87f	0.11613559
227	0x3e507ac9	0.20359339
228	0xbdadddef	-0.08489596
229	0xbdad6856	-0.08467166
230	0xbd2d4983	-0.042306434
231	0x3d082d8f	0.033246573
232	0xbda57fbd	-0.08081005
233	0x3e27c287	0.163828
234	0xbd80c6cb	-0.06287917
235	0x3ba1e399	0.004940462
236	0xbd6947a4	-0.056953087
237	0xbb3496fd	-0.0027555816
238	0x3c7e6481	0.015526892
239	0x3e28ee9a	0.1649727
240	0x3e075983	0.1321774
241	0x3e6984c6	0.22804555
242	0x3c9899e5	0.01862807
243	0xbe4cc703	-0.19997792
244	0xbc518d7e	-0.012790082
245	0xbc8c26af	-0.01710829
246	0x3e0ee9be	0.13956353
247	0x3c6d8e8d	0.014499319
248	0xbd846486	-0.06464486
249	0xbe4336ba	-0.19063845
250	0x3cf8cec3	0.03037203
251	0xbd5caf72	-0.053878255
252	0x3e3b53a9	0.18293633
253	0xbd13cd99	-0.036084745
254	0x3ddee936	0.10884325
255	0xbd79e7a8	-0.06101194

actor.0.bias f4 [64]
0	0xbc3f7284	-0.0116850175
1	0xbc465177	-0.012104384
2	0xbcb771b1	-0.02239308
3	0x3d0cba27	0.034357216
4	0x3a5a1864	0.00083196745
5	0xbc2e6967	-0.010645247
6	0xbcfc10fb	-0.030769816
7	0x3c2f4e5f	0.0106998375
8	0x3ce7d8b4	0.028301574
9	0xbc4b2660	-0.012399286
10	0xb8410ed6	-4.6028603e-05
11	0xbaeb3b24	-0.0017946702
12	0xbbf795df	-0.007555708
13	0x3b27cedc	0.0025605476
14	0xbc1a4146	-0.009414976
15	0xbc0e817f	-0.008697866
16	0x3c5bc1af	0.013412877
17	0xbb4966e7	-0.00307315
18	0x3c85f4ec	0.01635214
19	0x3c8994ea	0.01679464
20	0x3bf2ccd0	0.0074096695
21	0x3c9921e6	0.018692922
22	0xbd25f646	-0.040518068
23	0xbc0673c3	-0.008206311
24	0x3cd1c038	0.025604352
25	0x3bbcc9e9	0.0057613743
26	0xbc460659	-0.012086474
27	0x38d417fa	0.00010113414
28	0x3ba372a2	0.0049880305
29	0x3cd7e032	0.026352022
30	0x3be4c450	0.00698141
31	0xbb842dd8	-0.0040337853
32	0xbc9287a3	-0.017886942
33	0xbb53ebf0	-0.0032336675
34	0xbc178b2e	-0.009249492
35	0x3c125eaa	0.0089337025
36	0xbba57497	-0.005049299
37	0x3c06449a	0.008195067
38	0x3c51c8e4	0.012804244
39	0x3c80c2b6	0.015717845
40	0x3a07fb7b	0.0005187315
41	0x3c3db630	0.011579081
42	0xbbbe2832	-0.0058031315
43	0xbc80a744	-0.015704758
44	0xbce486e7	-0.027896358
45	0xbc9ca11f	-0.019119797
46	0x3ae940de	0.0017795821
47	0x3cbf7c40	0.023374677
48	0x3bb3e5fa	0.005490062
49	0x3bad727b	0.005293188
50	0x3ba9fe6d	0.0051878006
51	0xbb829e86	-0.0039861826
52	0x3c13e486	0.009026652
53	0xb9129a5f	-0.00013981153
54	0xbcc0ad18	-0.023520038
55	0xbc0b6149	-0.008507081
56	0x3a4f09dd	0.0007897893
57	0xbca7ecfa	-0.020498741
58	0x3c897464	0.016779132
59	0x3c8364b1	0.016039224
60	0xbc108769	-0.008821347
61	0xbce17aca	-0.02752437
62	0xbb272201	-0.0025502446
63	0xbb8eaaaa	-0.004353841

actor.2.weight f4 [64, 64]
0	0xbd09e633	-0.0336668
1	0x3dc88dae	0.09792648
2	0xbe2bfb70	-0.16795135
3	0x3b22ea26	0.0024858802
4	0xbd7a1c24	-0.061061993
5	0x3db21a59	0.08696432
6	0x3db61b61	0.08891941
7	0xbe36088d	-0.177767
8	0xbe2b1145	-0.16705807
9	0x3e2c012f	0.16797327
10	0xbe56632e	-0.20936272
11	0xbbfdc073	-0.007743889
12	0xbd7f152c	-0.06227605
13	0x3dcf3e8e	0.10119353
14	0xbe47d011	-0.19512965
15	0xbd5457e3	-0.051841628
16	0xbe49c81b	-0.1970524
17	0x3e06e185	0.13171966
18	0x3e4deb49	0.20109285
19	0xbdf2aabe	-0.11848973
20	0x3cebb6e3	0.02877373
21	0xbdf91db7	-0.12163871
22	0x3d85c678	0.065319955
23	0xbd815d7d	-0.063166596
24	0xbceaa69a	-0.028643895
25	0x3e3d817d	0.18506427
26	0xbe887660	-0.26652813
27	0xbdd01a2d	-0.10161243
28	0x3de0b545	0.109720744
29	0xbe5dfea4	-0.21679169
30	0xbe60e2d7	-0.21961533
31	0xbdef88b1	-0.11695994
32	0xbe4998f8	-0.19687259
33	0x3e1f3e54	0.1555112
34	0x3caf2e5a	0.021384407
35	0xbe26bbf5	-0.16282637
36	0x3e140a6d	0.14457102
37	0xbd806e89	-0.06271083
38	0xbd4155d3	-0.04720099
39	0x3d04138c	0.032245204
40	0x3d47dc9f	0.048794385
41	0x3e88b39d	0.26699534
42	0xbd1505e7	-0.036382582
43	0xbd42016e	-0.047364645
44	0x3d603d25	0.054745812
45	0x3d77e82f	0.060524162
46	0xbd4dce19	-0.05024538
47	0xbdc21396	-0.09476392
48	0x3cefb58c	0.029261373
49	0x3d306a1a	0.043069936
50	0x3d4b4301	0.049624447
51	0xbde3ec86	-0.11129098
52	0x3d92e98d	0.071734525
53	0x3d618d50	0.055066407
54	0x3e809228	0.25111508
55	0x3da34744	0.07972577
56	0xbd31166c	-0.043234274
57	0xbd87145a	-0.06595679
58	0xbde0bb7d	-0.109732606
59	0xbdc351cf	-0.09537088
60	0xbd3aa85f	-0.045570727
61	0x3e036f3b	0.128354
62	0xbe994092	-0.29932076
63	0xbc7daeae	-0.015483541
64	0xbc141390	-0.009037867
65	0x3d021ed6	0.03176769
66	0x3d776d08	0.060406715
67	0xbd68f1d5	-0.056871254
68	0xbe375bef	-0.17906164
69	0xbe49174b	-0.19637792
70	0x3c498014	0.012298603
71	0x3e3c4804	0.18386847
72	0xbe27be28	-0.16381133
73	0x3ecdc8b6	0.40192193
74	0x3ea1a968	0.3157456
75	0xbe9a1141	-0.3009129
76	0xbc2918d8	-0.010320865
77	0xbd1cfa5b	-0.038324695
78	0xbdbdd2ad	-0.09268699
79	0xbd3612ed	-0.044451643
80	0xbdd9bde0	-0.10631919
81	0xbbb47dd4	-0.005508164
82	0xbe2389f8	-0.159706
83	0xbc18f1bf	-0.0093349805
84	0x3e3817ad	0.17977782
85	0xbe02517d	-0.12726398
86	0xbd1025fd	-0.03519248
87	0xbe4e6967	-0.20157395
88	0xbbb1f40f	-0.0054307054
89	0xbe26918b	-0.16266458
90	0x3cdfc892	0.027317319
91	0xbdd61ecd	-0.104550935
92	0x3d8a88f1	0.06764401
93	0x3d981ec0	0.0742774
94	0x3d8b0c5e	0.06789468
95	0xbd8e83f9	-0.069587655
96	0x3e23896d	0.15970393
97	0x3decffc0	0.11572218
98	0x3bca9281	0.0061820154
99	0x3e176028	0.14782774
100	0xbdaca9ba	-0.0843081
101	0xbe5ee464	-0.21766812
102	0x3d3f056d	0.046636034
103	0x3ca9f32e	0.02074584
104	0x3ce50338	0.027955636
105	0xbdadadea	-0.08480437
106	0x3e015f8b	0.12634103
107	0x3ddf3007	0.10897832
108	0xbdcbee19	-0.09957523
109	0xbd34e0be	-0.044159643
110	0xbe2d9cc0	-0.16954327
111	0xbe2d4c36	-0.16923603
112	0xbcdc952c	-0.0269266
113	0xbd805af5	-0.06267349
114	0xbde286df	-0.11060881
115	0xbd57a9ec	-0.052652285
116	0xbe2b7655	-0.16744359
117	0x3db9dacf	0.090749376
118	0x3e5c8b4b	0.21537511
119	0x3e0a68f3	0.13516597
120	0xbc3dd753	-0.011586982
121	0xbcfa53a1	-0.030557455
122	0xbd5c71f9	-0.05381963
123	0xbd05de67	-0.032682803
124	0xbe25bb7e	-0.16184804
125	0x3e32e599	0.17470397
126	0xbd06f079	-0.032944176
127	0x3df173af	0.11789643
128	0x3df0c71c	0.11756727
129	0x3d980b0e	0.074239835
130	0xbd8cd75a	-0.068770126
131	0x3d155e4e	0.03646689
132	0xbded9cd7	-0.116021805
133	0x3d20ee22	0.0392896
134	0x3e156e2e	0.14592811
135	0xbd5196a3	-0.05116905
136	0x3d8e918f	0.06961357
137	0xbcdbdefa	-0.026839722
138	0x3e290a72	0.16507891
139	0xbe08646d	-0.1331956
140	0xbdc62b6b	-0.0967625
141	0xbd2f3835	-0.042778213
142	0xbd662100	-0.056183815
143	0x3dd833d6	0.10556762
144	0xbcfd0eeb	-0.030890903
145	0x3e3b5553	0.18294267
146	0xbdc97774	-0.09837237
147	0xbd587195	-0.052842695
148	0xbe4f038a	-0.20216194
149	0xbe5e6e33	-0.21721725
150	0x3d1556d1	0.036459748
151	0x3ed998be	0.42499346
152	0x3e281dd4	0.16417629
153	0x3d0bd596	0.03413924
154	0x3dc74f13	0.09731879
155	0xbe68e796	-0.22744593
156	0x3d395618	0.04524812
157	0xbcf2e531	-0.029650303
158	0x3dbf603b	0.093445264
159	0xbd684b86	-0.05671265
160	0x3e3a4355	0.18189748
161	0xbdc6021d	-0.09668372
162	0x3cd073f6	0.02544592
163	0xbe43f307	-0.19135676
164	0x3e7692f5	0.24079497
165	0x3d0110f6	0.031510316
166	0xbe002009	-0.1251222
167	0xbe23b721	-0.15987827
168	0x3df2b527	0.11850958
169	0xbdb1fbef	-0.08690631
170	0x3e23ddd4	0.1600259
171	0x3d56f4df	0.05247962
172	0x3d1cc6b8	0.03827545
173	0x3d08fda8	0.03344503
174	0x3c926b92	0.01787356
175	0xba4f11c8	-0.0007899073
176	0x3d654b0f	0.055979785
177	0x3e0cfdeb	0.13768737
178	0xbe844653	-0.25834903
179	0xbd8e27c9	-0.06941182
180	0xbd432a56	-0.047647797
181	0x3e400d7f	0.18755148
182	0xbc1ad838	-0.009450965
183	0xbe07e77a	-0.13271895
184	0x3e005700	0.12533188
185	0x3e1080b4	0.14111596
186	0xbd738e47	-0.059461858
187	0x3c37027a	0.011170024
188	0x3dc97a8f	0.09837829
189	0x3e852b93	0.26009807
190	0xbe05613c	-0.13025373
191	0xbcc94952	-0.024571095
192	0xbcc84984	-0.024449117
193	0x3ea011e7	0.31263658
194	0xbd8cb0bf	-0.06869649
195	0x3e004fb0	0.12530398
196	0xbe29dd65	-0.16588362
197	0x3d6406ea	0.055670656
198	0x3d0c55da	0.034261562
199	0x3e9e7774	0.3095051
200	0x3d406d59	0.046979282
201	0x3cd47bd8	0.02593796
202	0x3e328710	0.17434335
203	0x3d9de3bf	0.07709455
204	0x3dff57d9	0.124679275
205	0x3e95ac8a	0.292332
206	0x3e9002a5	0.28127018
207	0x3cebc520	0.02878052
208	0x3d32b428	0.04362884
209	0x3ed336bd	0.412527
210	0x3e837422	0.2567454
211	0x3e3abd70	0.18236327
212	0x3dabaf2f	0.08383023
213	0x3b2c2140	0.0026264936
214	0xbd131457	-0.03590807
215	0x3c4a0432	0.012330102
216	0xbd845e3d	-0.06463287
217	0x3c2ecefb	0.010669465
218	0xbcbce7f2	-0.023059819
219	0xbd242286	-0.040071987
220	0xbdf067e4	-0.117385656
221	0x3d6db2bb	0.05803178
222	0x3e043ed2	0.12914589
223	0x3d83300e	0.0640565
224	0xbd1c8520	-0.038212895
225	0x3de121af	0.10992753
226	0x3dd0b358	0.10190457
227	0xbcb8d1d8	-0.022560999
228	0xbc8e1a0c	-0.017346404
229	0xbe5b2e10	-0.2140429
230	0x3df6ae5a	0.12044974
231	0xbc92500b	-0.017860433
232	0x3d091456	0.03346666
233	0xbb8ddf31	-0.004329585
234	0x3e37a8a6	0.17935428
235	0xbd68a0b1	-0.056793872
236	0xbd585f1a	-0.05282507
237	0x3c5fba2b	0.013655226
238	0xbe9e03e7	-0.30862352
239	0xbdcfa36e	-0.101385936
240	0x3d228aeb	0.039683264
241	0x3de15a7c	0.11003587
242	0x3d18fa5b	0.037348133
243	0xbd9c68c1	-0.07637168
244	0x3e00c448	0.12574875
245	0xbda2a7d9	-0.07942171
246	0x3e13fd7c	0.14452165
247	0xbdb4234b	-0.08795794
248	0x3ddba03c	0.10723922
249	0x3da0b426	0.078468606
250	0x3c27c380	0.010239482
251	0xbcaf2a09	-0.021382349
252	0x3e07f98e	0.13278791
253	0xbe02e564	-0.12782818
254	0x3dc0d9c5	0.09416536
255	0xbdd53276	-0.10410015

actor.2.bias f4 [64]
0	0x3bcd3ea2	0.00626357
1	0xbc49349e	-0.012280611
2	0xbadcfa40	-0.0016859248
3	0xbb93c7ff	-0.0045099254
4	0x3c8753bd	0.016519422
5	0x3c3a50e3	0.011371824
6	0xbc616318	-0.013756536
7	0xbc5b8c31	-0.013400123
8	0x3c1707dc	0.009218182
9	0xbc3bd49d	-0.011464265
10	0xbca573ea	-0.020196874
11	0xbb86ad38	-0.0041100048
12	0xbb5f27d3	-0.0034050837
13	0x3bc21f90	0.0059241727
14	0xb982fad4	-0.00024982414
15	0xbb73ef1d	-0.003722138
16	0xbc25b484	-0.010113839
17	0xbc585db1	-0.0132059315
18	0x3bab76da	0.005232674
19	0xbbd47f56	-0.006484906
20	0x3b88cb75	0.0041746446
21	0xba70404e	-0.00091648556
22	0xbbbc0c02	-0.005738736
23	0xbb22da79	-0.0024849458
24	0x3bf7741e	0.007551684
25	0x3c188c93	0.009310859
26	0xbc0963f4	-0.008385647
27	0x39f64baa	0.0004697715
28	0xbb7783a3	-0.003776767
29	0x3bdbee61	0.0067117666
30	0x3bc4c201	0.0060045724
31	0xbc506ed0	-0.012721732
32	0xbac367e5	-0.0014908282
33	0xbbd896a3	-0.006609754
34	0x3c08749e	0.008328585
35	0xbc2460b2	-0.01003282
36	0xbc5018c1	-0.012701214
37	0xbceb78ea	-0.02874418
38	0x3a2c1c7c	0.0006565524
39	0x3b04d786	0.0020270064
40	0xbc27d8fe	-0.010244606
41	0x3c6152bf	0.013752638
42	0x3bf1a15d	0.0073739723
43	0xbaa8587f	-0.0012843757
44	0x3c12aa6a	0.008951763
45	0x3cb359ef	0.02189347
46	0x3bf5a9bd	0.007497041
47	0xbc141083	-0.00903714
48	0xbb076d03	-0.0020664341
49	0x3b3e7ce0	0.002906613
50	0x3ba8a6de	0.0051468452
51	0x3c117635	0.00887828
52	0x3a98b0e8	0.0011649402
53	0x3c266bf7	0.010157577
54	0xbbf6fd27	-0.0075375023
55	0x3c2739bb	0.010206635
56	0xbcd26a6d	-0.025685513
57	0x3b633784	0.003467054
58	0xbca7a310	-0.020463496
59	0xb935b1ea	-0.00017327783
60	0xbc3c12f1	-0.011479125
61	0xbb953d1c	-0.004554404
62	0xbc3f1481	-0.011662603
63	0x3c0b2270	0.008492097

actor.4.weight f4 [9, 64]
0	0xbd007060	-0.03135717
1	0xbd0040ed	-0.031311918
2	0xbd02b617	-0.031911936
3	0x3caa07dd	0.020755703
4	0x3ca1fc6d	0.019773686
5	0x3d10e5a9	0.03537527
6	0xbcfeb2d8	-0.031091139
7	0xbcd01e98	-0.025405213
8	0xbcb67c4a	-0.022276063
9	0x3d2490b9	0.04017708
10	0x3c878b89	0.016546028
11	0x3b54e8ae	0.003248732
12	0xbb147b30	-0.0022656433
13	0xbd046ff2	-0.032333322
14	0xbcd0c253	-0.025483286
15	0x3c961afc	0.018323414
16	0xbca7ef6f	-0.020499913
17	0xbbfc223b	-0.0076945103
18	0x3ca322ef	0.019914119
19	0x3cdc8c0c	0.026922248
20	0xbccf9097	-0.0253375
21	0xbc134e64	-0.008990858
22	0x3d0c6de9	0.034284506
23	0xbca34307	-0.019929422
24	0x3c8453b5	0.016153196
25	0xbcefc806	-0.029270183
26	0xbcb026bf	-0.02150285
27	0x3ce09523	0.027414864
28	0x3d169932	0.036767192
29	0x3c9f45f6	0.01944254
30	0x3ce85c6a	0.028364379
31	0xbd048fdb	-0.032363754
32	0xbcda6e6f	-0.026663987
33	0x3c9b1c5c	0.018934421
34	0xbc197a4f	-0.00936754
35	0x3be3d99e	0.006953432
36	0x3d09eb03	0.03367139
37	0x3c284972	0.010271417
38	0xbce51c93	-0.027967727
39	0xbc467698	-0.012113236
40	0x3ce734b9	0.028223382
41	0xbc2e3103	-0.0106318025
42	0x3c827845	0.01592649
43	0x3ce54568	0.027987197
44	0x3cdbaaca	0.026814837
45	0xbc916f3b	-0.017753234
46	0xbcbe2940	-0.023213029
47	0x3cdd0d4a	0.026983876
48	0xbc7fe112	-0.015617626
49	0xbd088838	-0.033333033
50	0x3d0c8d52	0.03431446
51	0x3ccce7b7	0.025012834
52	0xbc9e5d20	-0.019331515
53	0x3d130282	0.035891064
54	0xbc0044a4	-0.007828865
55	0x3d108d91	0.03529126
56	0x3d462db1	0.04838342
57	0xbd2d7dd4	-0.042356327
58	0x3caea380	0.021318197
59	0x3d04f1e4	0.032457247
60	0x3d0f2c2c	0.034954235
61	0x3ca11fe5	0.019668529
62	0x3d06fb70	0.032954633
63	0x3d18380c	0.037162825
64	0x3bde0e78	0.006776627
65	0xbc24920b	-0.010044585
66	0x3b03b918	0.0020099338
67	0x3c89e8c2	0.01683462
68	0xbcbe3959	-0.023220705
69	0x3c0e0cc8	0.0086700395
70	0x3c5dfab2	0.01354854
71	0x3d2030ba	0.03910897
72	0x3c13a274	0.0090109
73	0x3aa8d30c	0.001288028
74	0x3cfd9e40	0.030959249
75	0xbc6b4146	-0.014358824
76	0x3cbcd77a	0.023051966
77	0xbd12f5ea	-0.035879053
78	0x3cb06586	0.021532785
79	0xbc20d099	-0.009815359
80	0xbc04d18c	-0.0081066005
81	0x3cc9d29a	0.024636555
82	0xbbe77384	-0.007063331
83	0x3cc8a64c	0.024493359
84	0x3c847e86	0.016173612
85	0x3d2402bf	0.04004168
86	0x3bf594aa	0.007494529
87	0xbc04162d	-0.008061928
88	0xbc97b03e	-0.018516656
89	0xbd25f21b	-0.040514093
90	0x3bc19a8d	0.0059083165
91	0xbbe092de	-0.0068534454
92	0x3c420ff7	0.011844627
93	0xbd116439	-0.03549597
94	0xbb7285c6	-0.0037006005
95	0xbc39149a	-0.011296416
96	0xbc012780	-0.007882953
97	0x3d1525f2	0.03641314
98	0xbd287145	-0.041123647
99	0x3d0e0159	0.034669254
100	0xbc4c1528	-0.012456216
101	0x3bf1af20	0.007375613
102	0x3b80ba95	0.0039284923
103	0xbcc0e377	-0.023545964
104	0xbb8bec9b	-0.004270149
105	0xbb690272	-0.0035554436
106	0xbc4a41dc	-0.012344804
107	0x3d2119b1	0.03933114
108	0x3bde1fd7	0.006778698
109	0xbc8d26ee	-0.017230477
110	0xbcc2effb	-0.023796072
111	0x3c065eae	0.008201284
112	0x3cdc2299	0.026871966
113	0xbba5057b	-0.0050360537
114	0x3cb487aa	0.022037346
115	0x3c440e9b	0.011966373
116	0x3cda75d1	0.026667507
117	0xbc000ba0	-0.007815272
118	0x3d04e4d8	0.032444805
119	0xbc82aa4f	-0.01595035
120	0x3c89da1d	0.016827637
121	0xbb1be5c5	-0.0023788076
122	0x3c7ae6c6	0.01531381
123	0x39b6f7a4	0.00034898252
124	0x3ca1aa18	0.019734427
125	0x3cbe71a1	0.023247542
126	0xbbf51265	-0.0074789994
127	0xbb8619a8	-0.004092414
128	0xbc80b42c	-0.015710913
129	0x3c870caa	0.01648553
130	0xbbd25a80	-0.00641948
131	0x3cc91a20	0.02454859
132	0xbbe26a80	-0.0069096684
133	0xbad275fd	-0.0016056892
134	0xbbd10b16	-0.0063794954
135	0xbc4c58ba	-0.012472326
136	0xbd2d5505	-0.04231741
137	0x3c1aef87	0.009456522
138	0x3d0163bb	0.03158925
139	0xbc166e58	-0.009181581
140	0x3cb5a3af	0.022172777
141	0x3c8f857f	0.01751971
142	0xbb326e88	-0.0027226526
143	0x3c881cb3	0.016615247
144	0x3c87f320	0.016595423
145	0xbb05f361	-0.0020439255
146	0x3b69ffd7	0.003570547
147	0x3bc047de	0.0058679422
148	0xbbdce8b0	-0.0067416057
149	0xbc4dfd06	-0.0125725325
150	0xbb9f5393	-0.0048622577
151	0xbca21f8d	-0.019790435
152	0xbb30b738	-0.0026964676
153	0xbcb128d1	-0.021625908
154	0xbb106b1e	-0.0022036503
155	0x3c28ab2c	0.010294717
156	0x3c02e2d6	0.007988652
157	0x3c9b80fd	0.018982405
158	0xbc2c32fa	-0.010510201
159	0x3c2c1af2	0.010504471
160	0xbb4b532f	-0.0031024923
161	0xbcabaae9	-0.02095552
162	0xbba5d9a2	-0.0050613442
163	0x3c26302e	0.010143323
164	0x3c98e194	0.018662252
165	0x3c7a05e5	0.015260194
166	0xbcae89dd	-0.021305973
167	0x3cc1a0d9	0.023636268
168	0x3c451a45	0.012030189
169	0x3cd1bbf2	0.025602315
170	0x3c2d97f1	0.010595308
171	0xbc72850a	-0.014802227
172	0xbb978fd6	-0.004625301
173	0xbc71688e	-0.0147344
174	0xbbf714e0	-0.0075403303
175	0x3c8b924c	0.017037533
176	0xb92abfdc	-0.00016283937
177	0xbc648ff1	-0.013950334
178	0xbc1e3aa2	-0.009657534
179	0xbba01815	-0.0048856833
180	0xbb3865a2	-0.002813675
181	0x3c7b632b	0.015343468
182	0x3d0aacfb	0.033856373
183	0xbae30c83	-0.0017322454
184	0x3cc8d1a1	0.024514021
185	0x3b5035b8	0.00317703
186	0x3cf40292	0.029786382
187	0xbc18f1b7	-0.009334973
188	0x3b2e2350	0.002657134
189	0xbcfece88	-0.031104341
190	0x3c9db773	0.019252514
191	0x3c564ba1	0.013079555
192	0x3c707dd7	0.01467844
193	0x3d214de3	0.03938092
194	0x3cc086b4	0.023501731
195	0x3ce4a382	0.027909998
196	0xbd4d7d74	-0.05016847
197	0xbd36616b	-0.0445265
198	0x3d1210cd	0.035660554
199	0x3cebaf5f	0.028770147
200	0xbcd7e43c	-0.026353948
201	0xbcb64399	-0.02224903
202	0x3cb0ce95	0.021582881
203	0xbce9ec8b	-0.028555175
204	0x3d6ce99c	0.057839975
205	0x3d30df97	0.043181982
206	0x3d4549f3	0.048166227
207	0xbc1e448a	-0.009659896
208	0x3d443337	0.047900405
209	0x3b98f696	0.004668067
210	0xbd072f03	-0.03300382
211	0xbc54bcf8	-0.012984507
212	0x3d03fda1	0.0322243
213	0x3d424a24	0.047433987
214	0xbd974dff	-0.073879234
215	0xbc9550ab	-0.018226942
216	0xbc4a0e4a	-0.012332508
217	0xba8ede7e	-0.0010900048
218	0x3c9fe4be	0.019518252
219	0xbc68ce32	-0.014209317
220	0xbcdc7f22	-0.02691609
221	0x3c971495	0.018442431
222	0xbcb04041	-0.021515014
223	0x3d20874b	0.039191525
224	0x3cf3de3e	0.02976906
225	0xbd0790af	-0.033096965
226	0x3c048c0d	0.008090031
227	0x3b7046a5	0.0036663201
228	0x3a277357	0.00063877314
229	0xbbde5e94	-0.006786177
230	0x3cd49c96	0.025953572
231	0x3bea4e03	0.007150413
232	0xbcc5d1f7	-0.02414797
233	0x3cfa40de	0.03054851
234	0xbc7d3e62	-0.015456768
235	0xbd0fc675	-0.035101373
236	0xbd4c8154	-0.049928024
237	0x3ca8a080	0.020584345
238	0x3c6d5f30	0.0144880265
239	0xbcacbed3	-0.021087086
240	0x3c6f31db	0.014599289
241	0x3c44eb48	0.012018986
242	0xbd24e885	-0.04026081
243	0xbc2cf36e	-0.010556085
244	0x3d369d01	0.044583324
245	0xbcab6faf	-0.020927278
246	0x3da0faf8	0.078603685
247	0xbcca8994	-0.024723805
248	0xbcfc9951	-0.030834826
249	0x3d3ca30a	0.046053924
250	0xbbc7cba6	-0.006097275
251	0xbd4cb0b3	-0.0499732
252	0xbd263e0a	-0.04058651
253	0xbd228210	-0.03967482
254	0xbcfac3bb	-0.03061091
255	0xbcc65503	-0.024210459

actor.4.bias f4 [9]
0	0xbc009aee	-0.007849438
1	0xba0ef5b1	-0.0005453481
2	0xbc634eb3	-0.013873744
3	0x3c989aa3	0.018628424
4	0xbb01a657	-0.0019782984
5	0xbc551082	-0.013004424
6	0xb8e0f8dc	-0.00010727506
7	0x3b92e342	0.0044826576
8	0x3c6756c8	0.014119811
