checkpoints/mappo_actor_comm_rad_exp_-1run_0_lumberjacks.pth (torch, 27450 bytes, 12 tensors)

fc1.weight f4 [64, 22]
-0.1302425 -0.25708646 0.11222757 -0.13908412 -0.09285698 -0.2087288 -0.007164375 0.033451255
-0.10854458 0.03531814 0.016600087 0.14718947 0.09439033 0.13891174 -0.071030214 0.02759358
0.07856148 -0.16848363 0.086719655 -0.089522466 -0.13530402 -0.16404253 -0.0872304 -0.11881052
-0.15000547 0.103513524 0.018624999 0.020935219 -0.058392312 -0.1741927 0.04681412 0.36155063
0.00094903656 0.18678536 0.07157642 0.06240713 -0.25790772 0.22437958 0.018405274 -0.16483732
-0.04628948 -0.02275333 -0.19406621 0.48706263 -0.018273681 0.16350749 -0.017896233 0.25440866
0.06870584 -0.25131398 0.23186657 -0.021176986 -0.23896709 -0.026287189 0.10193835 0.07783331
0.022353726 0.058603793 0.25392446 0.12726997 0.1736041 -0.043167643 -0.03837187 0.19472432
0.099873625 0.13332987 -0.21717818 -0.0071418346 0.035985127 -0.14065531 0.22305985 0.07850337
0.09978987 -0.07338209 0.14699842 0.022158584 0.20813005 0.009673524 0.35664436 -0.12819584
0.14428963 0.07849666 0.15749699 -0.016990483 -0.04693405 0.074794166 -0.07713258 -0.07985997
0.26186875 0.07971936 0.0914111 0.004043795 0.021254884 -0.06576462 -0.29908162 0.24924147
0.019564023 -0.023107786 0.09227767 0.093468666 -0.019538159 -0.14905706 -0.07335403 -0.10915991
-0.04057209 -0.061676115 -0.09279531 -0.12867306 -0.036205806 -0.24270725 0.03164459 0.032874726
-0.105567716 0.19112226 -0.12904719 0.03360295 0.08170429 0.26757407 -0.15134753 0.12159079
0.08034043 0.13393012 -0.076977916 -0.015797162 -0.00526155 -0.21182264 -0.03577544 -0.08009615
0.0112353545 0.0010201894 0.0006842603 0.053530917 -0.084412836 0.11868776 0.16918364 0.15786876
0.03281292 -0.28655708 0.0035941228 -0.3778125 -0.11731939 -0.26681846 0.15251413 0.17250706
0.04683556 0.0342198 -0.19219096 -0.026404126 0.14488871 -0.10280392 0.15897194 0.07158589
-0.09739638 -0.07533741 -0.15125343 -0.06831921 0.07970219 0.17632869 0.09168235 0.13177302
0.050446026 -0.041862246 0.026638284 -0.2113679 0.07183782 0.25396225 0.010559835 -0.08408677
0.019807441 -0.017643536 0.2215851 -0.014256666 -0.19920594 0.055441447 0.043123357 -0.022242242
-0.013098147 0.001296916 0.090729505 0.22566456 -0.13039431 0.08176549 -0.013608294 0.083715364
0.057391882 -0.0904338 -0.113887526 0.13332173 0.110843495 0.14389798 -0.25899345 -0.18250577
-0.14646347 0.0027879851 -0.08552179 0.1097035 -0.015915843 0.06184231 -0.1339443 0.092302985
0.15405351 -0.22248198 0.018038394 0.13627231 -0.117415294 0.18153803 -0.3266747 0.08959114
0.11919323 -0.03088544 -0.11506951 -0.20161651 -0.03768617 -0.07660816 0.18014245 -0.08238467
0.10181376 0.17064492 -0.07912406 -0.026462171 -0.24632365 -0.18465565 0.23424639 -0.056863043
0.015874628 -0.102405004 0.09965419 -0.056938257 0.12607807 -0.083705515 0.017750606 0.08237822
-0.04844831 -0.054986183 -0.038713165 0.11371109 -0.009432633 0.1956083 0.20063573 0.037875813
-0.013455204 0.06439275 -0.04201371 0.22180142 -0.04495978 -0.14781573 0.017340664 0.075183384
-0.056880355 -0.025213627 0.009172779 0.0014440655 -0.09201811 -0.06845198 0.122091785 0.1590523
00000000: 4a5e 05be d6a0 83be 91d7 e53d 116c 0ebe
00000010: cd2b bebd 01bd 55be 22c3 eabb 2f04 093d
00000020: 9f4c debd c1a9 103d e8fc 873c d6b8 163e
00000030: b84f c13d e13e 0e3e 4a78 91bd ee0b e23c
00000040: d7e4 a03d f986 2cbe 139a b13d 8e57 b7bd
00000050: 238d 0abe c4fa 27be daa5 b2bd ee52 f3bd
00000060: 099b 19be e6fe d33d 7493 983c 5680 ab3c
00000070: c72c 6fbd 925f 32be 2ac0 3f3d 2a1d b93e
00000080: c4c8 783a a944 3f3e a896 923d 9e9e 7f3d
00000090: 7b0c 84be c3c3 653e a8c6 963c 1dcb 28be
000000a0: 0a9a 3dbd 3165 babc 4bb9 46be 4660 f93e
000000b0: b0b2 95bc 826e 273e 1f9b 92bc da41 823e
000000c0: a6b5 8c3d 3aac 80be 6e6e 6d3e 5c7b adbc
000000d0: cab3 74be 3b58 d7bc 0ec5 d03d 1267 9f3d
000000e0: 291f b73c 880a 703d 6302 823e 0f53 023e
000000f0: 46c5 313e 8ed0 30bd d22b 1dbd d065 473e
00000100: 8b8a cc3d a087 083e f563 5ebe 0d06 eabb
00000110: 2465 133d f207 10be cd69 643e 60c6 a03d
00000120: a25e cc3d 5949 96bd c186 163e eb85 b53c
00000130: 0b20 553e b37d 1e3c 179a b63e c545 03be
00000140: a9c0 133e dbc2 a03d e446 213e a02f 8bbc
00000150: eb3d 40bd af2d 993d b0f7 9dbd a08d a3bd
00000160: a913 863e e743 a33d be35 bb3d d081 843b
00000170: b91e ae3c 9aaf 86bd 3a21 99be 2839 7f3e
00000180: bb44 a03c 8a4c bdbc 13fc bc3d 806c bf3d
00000190: 7d0e a0bc 6aa2 18be a33a 96bd 3b8f dfbd
000001a0: eb2e 26bd 18a0 7cbd 780b bebd dfc2 03be
000001b0: 8a4c 14bd 4088 78be c29d 013d a6a7 063d
000001c0: e333 d8bd 8eb5 433e f224 04be 3fa3 093d
000001d0: 9454 a73d 78ff 883e d9fa 1abe 9804 f93d
000001e0: 8689 a43d fa24 093e 99a6 9dbd 0d69 81bc
000001f0: 1569 acbb 09e8 58be 4589 12bd 7309 a4bd
00000200: 7e14 383c e0b7 853a ee5f 333a 3c43 5b3d
00000210: a3e0 acbd 9112 f33d 7a3e 2d3e 59a8 213e
00000220: d766 063d 9cb7 92be 608b 6b3b a470 c1be
00000230: 2645 f0bd 6e9c 88be aa2c 1c3e b1a5 303e
00000240: a5d6 3f3d 102a 0c3d b5cd 44be 774d d8bc
00000250: b55d 143e dd8a d2bd 8ac9 223e a09b 923d
00000260: c177 c7bd 804a 9abd 2ee2 1abe f1ea 8bbd
00000270: e73a a33d 828f 343e f5c3 bb3d 82ef 063e
00000280: 7ea0 4e3d bf77 2bbd 8838 da3c d470 58be
00000290: b51f 933d 5707 823e 2803 2d3c af35 acbd
000002a0: 3743 a23c 2d89 90bc 34e7 623e cb94 69bc
000002b0: a4fc 4bbe 9216 633d 1ea2 303d 5d35 b6bc
000002c0: 9c99 56bc 48fd a93a 64d0 b93d 9c14 673e
000002d0: 1686 05be aa74 a73d 52f5 5ebc f672 ab3d
000002e0: c013 6b3d 5b35 b9bd dd3d e9bd 7e85 083e
000002f0: ea01 e33d fe59 133e ca9a 84be cbe2 3abe
00000300: 85fa 15be a1b6 363b 0c26 afbd 3bac e03d
00000310: f161 82bc 5d4e 7d3d b228 09be 5909 bd3d
00000320: 34c0 1d3e 51d2 63be 41c5 933c f88a 0b3e
00000330: 6e77 f0bd 1be5 393e e841 a7be 8f7b b73d
00000340: 951b f43d 7603 fdbc 90a9 ebbd 8f74 4ebe
00000350: d05c 1abd bde4 9cbd 4377 383e 4bb9 a8bd
00000360: bc83 d03d 8bbd 2e3e cc0b a2bd 32c7 d8bc
00000370: 443c 7cbe 5f16 3dbe 49de 6f3e 39e9 68bd
00000380: 820b 823c b7b9 d1bd 7f17 cc3d 1738 69bd
00000390: 9c1a 013e cc6d abbd b869 913c eab5 a83d
000003a0: bc71 46bd 3139 61bd b291 1ebd 5ce1 e83d
000003b0: 558b 1abc 8b4d 483e 7473 4d3e ab23 1b3d
000003c0: 3773 5cbc 59e0 833d 9116 2cbd e91f 633e
000003d0: bf27 38bd 025d 17be 020e 8e3c bff9 993d
000003e0: 60fb 68bd cf8c cebc 6c49 163c cc46 bd3a
000003f0: fe73 bcbd 8d30 8cbd 420b fa3d 9bde 223e

fc1.bias f4 [64]
-0.003888902 0.010762807 0.024376335 0.018687027 -0.017464368 -0.01295766 0.007761852 0.006920754
0.0133345565 -0.020247042 0.012149199 -0.010247604 -0.0072687026 0.009195333 0.014363962 0.012626484
-0.003755154 -0.0070227324 0.005564927 -0.008880212 -0.016422939 0.00102318 -0.012413296 -0.008341315
0.011506485 0.0005588667 -0.018029861 -0.026492657 -0.024931578 0.019860212 -0.022158265 0.0030470544
0.013231664 -0.01903738 -0.012061286 0.015346476 0.008650006 -0.0154579105 -0.0053931316 0.008734844
-0.018477352 -0.0049439585 -0.016713576 0.011015172 -0.0113567235 0.0075281584 0.020687422 -0.013148992
-0.020046787 -0.015334015 0.018239556 -0.016454691 0.0080049755 -0.021289801 -0.016219852 -0.013515122
0.004090384 0.0008235808 -0.0040057367 0.014537704 0.012757037 -7.7566125e-05 0.0033270116 0.0076755024
00000000: f3dc 7ebb 7c56 303c e1b0 c73c 8915 993c
00000010: 6f11 8fbc 5d4c 54bc 2257 fe3b 7ec7 e23b
00000020: 2f79 5a3c 20dd a5bc 6f0d 473c 91e5 27bc
00000030: 4c2e eebb 06a8 163c d356 6b3c 50df 4e3c
00000040: 0819 76bb f31e e6bb fe59 b63b 4f7e 11bc
00000050: 6689 86bc 391c 863a 2361 4bbc 03aa 08bc
00000060: b285 3c3c e980 123a 5cb3 93bc 2107 d9bc
00000070: 4f3d ccbc e2b1 a23c 4085 b5bc 17b1 473b
00000080: 9fc9 583c 48f4 9bbc b39c 45bc c96f 7b3c
00000090: c1b8 0d3c 2d43 7dbc deb8 b0bb 971c 0f3c
000000a0: d15d 97bc ee00 a2bb e9ea 88bc fb78 343c
000000b0: 8d11 3abc c5ae f63b ab78 a93c df6e 57bc
000000c0: 2939 a4bc 853b 7bbc 1f6b 953c fdcb 86bc
000000d0: 4d27 033c f367 aebc 7fdf 84bc 886e 5dbc
000000e0: a108 863b 92e5 573a 8e42 83bb 8d2f 6e3c
000000f0: e402 513c ffaa a2b8 fe09 5a3b c882 fb3b

fc2.weight f4 [64, 64]
-0.18358433 -0.04500196 0.17017862 0.28496805 0.3526944 -0.07872831 -0.017426932 -0.06833362
0.051883213 -0.11836284 -0.10841231 -0.07215711 0.10196191 0.1937195 0.047697358 -0.047771774
0.004330711 -0.11864671 -0.23632011 0.05728399 0.066596255 -0.07110836 0.12471751 -0.15932499
0.04007661 0.044795476 0.14135368 0.13268246 0.022299634 -0.024641255 0.31262285 -0.04961923
0.0029045516 0.04232234 0.046751045 0.0047407155 -0.038129576 0.010331535 -0.09694189 -0.08291244
0.060146216 -0.04357731 0.0013124533 -0.041786537 -0.048689764 -0.009923859 0.09945786 0.03798796
-0.059234142 0.28666788 0.032314397 0.119103044 -0.21288355 0.17405668 0.34649888 0.31933573
0.11076642 0.08564433 0.099436365 0.06376443 0.16729961 -0.15398085 0.08179923 0.00029247848
-0.09892984 0.14340053 0.086480774 -0.07738305 -0.103479005 0.0023348625 -0.07773893 0.09955424
0.1153009 -0.1492016 -0.20666401 0.07082588 0.08862545 0.03834221 -0.029052636 0.108324885
-0.0026791932 0.0353767 0.30658218 0.0881708 -0.039355148 0.058293402 -0.23938312 0.1338935
0.19465032 -0.071486875 -0.20364042 -0.03306848 -0.1627674 -0.14559686 -0.065105304 -0.018112272
-0.113855764 0.15976754 -0.07691865 0.124795735 -0.027287066 0.26792154 -0.1896056 -0.010579199
0.21153803 -0.026312808 0.034963828 0.15468736 0.03460228 -0.058001447 0.36167046 -0.09281398
-0.17130345 0.09351226 -0.03580869 -0.024136268 -0.025886264 -0.09679949 -0.08085075 -0.043558564
0.023920123 0.1306799 0.026688926 0.13973363 0.1562887 0.0111266 -0.16556753 -0.20004801
0.09054147 0.040206414 0.07133997 0.22959954 0.11122103 0.1833649 0.070121795 0.025469292
-0.20293087 0.03149498 0.11980146 0.055754576 0.040823985 -0.09046067 0.015428305 -0.037208803
-0.011496728 0.0085970685 -0.031979095 -0.18552227 -0.023840453 0.11017609 -0.21314849 0.18145338
-0.116910145 0.06514469 -0.1886578 0.044415973 0.12827894 -0.0007276486 -0.22995862 -0.053309966
0.21793719 0.17273793 0.1456805 0.1935398 0.17506951 -0.08361188 0.06756069 0.22517931
-0.101308785 0.2764033 0.09502327 -0.04091397 0.013176557 0.0067857304 0.04302795 -0.13049307
-0.23082694 0.10739479 -0.19353156 -0.25504234 0.045195423 -0.28759655 0.10282333 0.09681561
-0.03079793 -0.009991279 -0.12167878 0.09020872 0.20297787 -1.5988699e-05 0.010210638 0.05901179
0.10691751 -0.05782045 0.26105028 0.019794246 0.0118414 -0.19792086 -0.06879514 -0.14044334
-0.029799702 0.3450197 0.25837395 0.020822942 0.028069427 0.14875294 -0.0632883 0.08764694
0.09388368 0.022622395 0.06082218 0.3399104 -0.17197709 -0.15689251 -0.050183244 -0.039354753
0.031806603 0.03607655 -0.33442706 -0.12704909 -0.1884667 0.06241477 0.09876515 -0.031927485
-0.03397067 0.2111992 -0.118272156 0.016972592 0.060093824 -0.23831986 -0.04416064 0.075464696
-0.14231817 -0.10630965 0.0033093325 0.14364108 0.052101538 0.026285967 0.011856342 -0.2333973
-0.13401224 -0.1576444 0.07514397 0.022811836 -0.01216394 -0.12949736 -0.0848858 -0.12848036
-0.032863174 -0.09187477 -0.08590611 -0.0048532463 0.17199372 0.0153228175 -0.028646084 0.116919026
00000000: 88fd 3bbe fa53 38bd 4e43 2e3e 55e7 913e
00000010: 5c94 b43e 4f3c a1bd edc2 8ebc 7ff2 8bbd
00000020: 7e83 543d 3768 f2bd 4607 debd 1bc7 93bd
00000030: 68d1 d03d 685e 463e 4e5e 433d 56ac 43bd
00000040: a3e8 8d3b 0cfd f2bd e6fd 71be 9ea2 6a3d
00000050: 9e63 883d 43a1 91bd e56b ff3d 1726 23be
00000060: 5f27 243d 767b 373d 05bf 103e e9dd 073e
00000070: b9ad b63c 75dc c9bc 1a10 a03e 893d 4bbd
00000080: 4a5a 3e3b 315a 2d3d 067e 3f3d 0158 9b3b
00000090: c22d 1cbd 9945 293c 7889 c6bd ffcd a9bd
000000a0: e15b 763d 1f7e 32bd a006 ac3a 5c28 2bbd
000000b0: eb6e 47bd ae97 22bc 90b0 cb3d 4399 1b3d
000000c0: 809f 72bd 22c6 923e 1a5c 043d 4cec f33d
000000d0: 25fe 59be ea3b 323e 4d68 b13e f97f a33e
000000e0: 81d9 e23d 4b66 af3d 4ba5 cb3d ed96 823d
000000f0: 9750 2b3e 28ad 1dbe 5b86 a73d cc57 9939
00000100: ba9b cabd 97d7 123e d51c b13d 017b 9ebd
00000110: cdec d3bd 7e04 193b 9735 9fbd 18e3 cb3d
00000120: e122 ec3d 4ec8 18be bb9f 53be 290d 913d
00000130: 4381 b53d b90c 1d3d cbff edbc 70d9 dd3d
00000140: 6795 2fbb 29e7 103d 57f8 9c3e e492 b43d
00000150: dd32 21bd 10c5 6e3d d920 75be 611b 093e
00000160: 6a52 473e b667 92bd 1d87 50be d172 07bd
00000170: 7fac 26be 5817 15be ee55 85bd 3060 94bc
00000180: 362d e9bd 1a9a 233e 8687 9dbd e894 ff3d
00000190: 2089 dfbc 032d 893e f827 42be 6054 2dbc
000001a0: 6d9d 583e f58d d7bc 3b36 0f3d 5d66 1e3e
000001b0: 1fbb 0d3d ed92 6dbd df2c b93e 4215 bebd
000001c0: 2c6a 2fbe 5b83 bf3d 22ac 12bd 6cb9 c5bc
000001d0: 6e0f d4bc d03e c6bd 1495 a5bd 776a 32bd
000001e0: 22f4 c33c f4d0 053e bca2 da3c 5516 0f3e
000001f0: 250a 203e 584c 363c 898a 29be 63d9 4cbe
00000200: ce6d b93d 7baf 243d b11a 923d 241c 6b3e
00000210: dac7 e33d 02c4 3b3e 049c 8f3d faa4 d03c
00000220: 1ccd 4fbe e100 013d 785a f53d e95e 643d
00000230: 0d37 273d 7243 b9bd 00c7 7c3c 4268 18bd
00000240: c65c 3cbc b8da 0c3c 83fc 02bd 8df9 3dbe
00000250: 0e4d c3bc 00a4 e13d 9943 5abe eace 393e
00000260: 966e efbd 946a 853d 832f 41be 86ed 353d
00000270: 8e5b 033e acbf 3eba 467a 6bbe 8d5b 5abd
00000280: ed2a 5f3e 36e2 303e 452d 153e 4c2f 463e
00000290: 6c45 333e b53c abbd 425d 8a3d 6895 663e
000002a0: fb7a cfbd bc84 8d3e 8f9b c23d 6895 27bd
000002b0: 7ce2 573c d55a de3b 133e 303d fa9f 05be
000002c0: e65d 6cbe cdf1 db3d 232d 46be e994 82be
000002d0: d61e 393d db3f 93be 0a95 d23d 4347 c63d
000002e0: f14b fcbc 76b2 23bc b932 f9bd 59bf b83d
000002f0: 6ed9 4f3e 781f 86b7 854a 273c 59b6 713d
00000300: 91f7 da3d 23d5 6cbd 62a8 853e 8b27 a23c
00000310: 6e02 423c c4ab 4abe 77e4 8cbd 61d0 0fbe
00000320: 811e f4bc 6ca6 b03e 9749 843e e094 aa3c
00000330: dbf1 e53c b152 183e 4c9d 81bd 3d80 b33d
00000340: 1646 c03d 9a52 b93c ae20 793d bc08 ae3e
00000350: c31a 30be 6ea8 20be f28c 4dbd 7332 21bd
00000360: a447 023d 01c5 133d 063a abbe 2819 02be
00000370: 6afd 40be a1a6 7f3d 6245 ca3d 65c6 02bd
00000380: d424 0bbd 9a44 583e ac38 f2bd 1b0a 8b3c
00000390: f124 763d 1f0a 74be cae1 34bd 3c8d 9a3d
000003a0: dbbb 11be e0b8 d9bd 63e1 583b a616 133e
000003b0: 6c68 553d ab55 d73c 1a41 423c b4ff 6ebe
000003c0: 813a 09be 896d 21be 15e5 993d e3df ba3c
000003d0: 434b 47bc f59a 04be 9bd8 adbd 5b90 03be
000003e0: 899b 06bd d728 bcbd 8bef afbd fb07 9fbb
000003f0: 1f1f 303e 8e0c 7b3c 31ab eabc 3e73 ef3d

fc2.bias f4 [64]
-0.0041973838 0.019489642 0.016357556 0.019498006 0.011117589 0.01669571 0.0005820346 -0.008775976
-0.0041662925 -0.0014447484 0.0028344796 0.017372195 0.009167968 0.008967236 -0.007101876 0.011093563
-0.017555902 -0.011484588 -0.011438045 -0.024456806 -0.0068077818 0.016553706 0.006521425 0.017316697
-0.025298946 0.008457192 -0.006744206 0.006876011 0.007985588 0.017828042 0.008159634 0.009799618
-0.002546182 -0.0106761325 0.014223005 0.0022141412 0.0009214788 0.006213169 0.01059551 -0.009737273
-0.017655112 0.01713561 0.007494076 0.0083116535 0.02103631 -0.013625502 -0.007657795 -0.0073552867
0.020740677 0.005662357 -0.00838206 -0.020707387 -0.017522978 -0.013967882 0.003549803 -0.009008116
-0.018872662 -0.0043582087 0.010620391 -0.003213137 -0.014450071 -0.013510532 -0.014247387 0.014203578
00000000: 358a 89bb bea8 9f3c 4800 863c 48ba 9f3c
00000010: 8c26 363c 71c5 883c ae93 183a 1cc9 0fbc
00000020: 6585 88bb b65d bdba adc2 393b 2250 8e3c
00000030: 3f35 163c 50eb 123c dbb6 e8bb c7c1 353c
00000040: 65d1 8fbc da29 3cbc a366 3bbc a459 c8bc
00000050: d013 dfbb a39b 873c aeb1 d53b bfdb 8d3c
00000060: bc3f cfbc 0990 0a3c 80fe dcbb 2950 e13b
00000070: fcd5 023c 1d0c 923c fcaf 053c 948e 203c
00000080: d8dd 26bb f2ea 2ebc 9b07 693c 201b 113b
00000090: 658f 713a d797 cb3b ca98 2d3c 1589 1fbc
000000a0: 74a1 90bc fb5f 8c3c de90 f53b 9a2d 083c
000000b0: 5754 ac3c 7f3d 5fbc 3eee fabb 9e04 f1bb
000000c0: 5ae8 a93c 4b8b b93b e854 09bc 8aa2 a9bc
000000d0: 598c 8fbc 8bd9 64bc d0a3 683b c796 13bc
000000e0: d79a 9abc 4ecf 8ebb 2601 2e3c 7e93 52bb
000000f0: febf 6cbc 475b 5dbc df6d 69bc 20b6 683c

fc3.weight f4 [5, 64]
-0.0036550513 -0.026758496 -0.021896195 -0.030399334 -0.013943129 -0.02569264 0.016345466 -0.0027289717
0.008960342 0.0062565412 -0.01772423 -0.024433091 0.0058541554 -0.015595596 0.0067467764 -0.013969765
0.010992805 0.0107580125 0.017491104 0.027382094 0.0060460404 -0.029101126 -0.016765337 -0.033002794
0.017062765 0.0069068354 0.032843586 -0.021686962 -0.018265586 -0.032947864 -0.005638524 0.010440484
-0.0020784435 0.012784422 -0.012443625 -0.011501903 0.018509462 -0.009151515 -0.019679667 0.025210552
0.029470947 -0.028458465 -0.024718821 -0.020979648 -0.0060537523 0.024467329 -0.014864291 0.013653514
-0.018949771 -0.017549494 0.008115454 0.009134417 -0.0060052904 0.020721024 -0.0067547564 0.011749311
0.031413313 0.011354653 -0.014115008 0.019290304 0.023984054 0.016515372 0.023618657 -0.028205518
-0.042700414 0.018801909 0.029896596 0.03476771 0.06569691 0.014097091 0.022643404 -0.02691482
-0.03438893 0.053751454 -0.0060589323 0.006089018 0.04163034 0.06695865 -0.04409615 0.050906114
-0.05757905 -0.07205551 -0.07194021 -0.049965538 0.0036869778 0.033781506 -0.007777697 0.054510202
-0.03424866 0.009408836 -0.065062635 0.023714842 -0.0059548216 0.03608825 0.0040115146 0.0023686246
-0.009852548 0.021413546 0.00074514287 0.009402427 0.010175314 0.005784388 -0.0205659 -0.07597784
-0.020492533 0.018351123 -0.010046481 -0.013976432 0.021290833 -0.08774361 -0.008599006 0.039214473
0.07425181 0.00041290594 -0.05323977 -0.07417883 -0.037742782 -0.009128182 0.072090305 0.0057812855
-0.055870835 0.017363349 0.018749818 0.007570788 -0.04450124 -0.0074673644 -0.037888017 0.04579592
0.003382398 0.007995984 -0.01619481 0.008750305 0.029705634 0.049174823 -0.024551293 -0.013927741
-0.046037946 0.0018546812 0.085233025 0.032113206 0.006239139 0.03906639 0.051572617 -0.004368544
-0.06331313 0.035474982 -0.044294357 0.005465734 0.025832161 0.0292878 -0.016281022 0.050756384
0.005298689 -0.026777646 0.0321924 -0.05276379 0.022637276 -0.016999254 0.0325367 0.016119247
-0.023315903 -0.06250294 0.019519495 -0.033796813 0.017488534 -0.046110626 0.007365876 0.01639724
-0.037621588 0.029212156 0.026787262 0.020341726 0.055135254 -0.013671143 -0.004748172 -0.038626384
-0.015486165 0.0048474767 0.014722405 -0.04033003 0.00048624212 -0.035425436 -0.007435159 0.004480892
-0.025047582 0.028469162 0.054858737 -0.037728317 -0.0457533 0.018315045 0.03083541 0.07424045
0.040790793 -0.0046724724 -0.017832816 -0.027125474 -0.05264842 -0.055423122 -0.020540094 0.029796788
0.02149102 -0.030985726 -0.028458884 -0.005197167 -0.059711386 -0.03899722 0.058698874 -0.041237917
0.04755224 0.06821423 0.032725897 0.048764814 0.032750215 -0.011177265 0.025728721 -0.07009737
0.03547444 -0.046176154 0.00355492 -0.0072710738 0.0076390533 -0.0008883537 0.006246729 -0.030141614
0.015058202 0.047508024 -0.011637191 -0.011721563 -0.009452763 0.06182188 0.0010663449 0.030226892
-0.002469366 -0.023001904 -0.0055612135 -0.009989372 -0.05647686 0.06550924 0.047254648 0.012859384
-0.045496456 -0.020998491 0.033916894 0.07818136 0.06611706 0.011208565 -0.03134985 -0.0144147
0.07954908 0.007181607 0.0074063307 -0.0104387 0.06641624 0.00909126 0.025624922 -0.044086255
00000000: 9689 6fbb a234 dbbc a65f b3bc 0608 f9bc
00000010: b971 64bc 5f79 d2bc ede6 853c 8cd8 32bb
00000020: 66ce 123c ac03 cd3b 6832 91bc e827 c8bc
00000030: 37d4 bf3b ac84 7fbc 1014 dd3b 71e1 64bc
00000040: 2a1b 343c 6042 303c 8149 8f3c 6a50 e03c
00000050: dd1d c63b 7c65 eebc 7657 89bc f02d 07bd
00000060: 36c7 8b3c bc52 e23b ff86 063d dba8 b1bc
00000070: b6a1 95bc 57f4 06bd 5ec3 b8bb 900e 2b3c
00000080: 7f36 08bb c175 513c 59e0 4bbc 7a72 3cbc
00000090: 28a1 973c 3cf0 15bc 4137 a1bc 5c86 ce3c
000000a0: 0e6d f13c ba21 e9bc 207f cabc 83dd abbc
000000b0: 8e5e c6bb b56f c83c 5b89 73bc fdb2 5f3c
000000c0: 8d3c 9bbc f5c3 8fbc aef6 043c 86a8 153c
000000d0: 07c8 c4bb 23bf a93c 0157 ddbb 2f80 403c
000000e0: 3fab 003d de08 3a3c a242 67bc b306 9e3c
000000f0: 357a c43c 3f4b 873c ea7b c13c 420f e7bc
00000100: a1e6 2ebd 7606 9a3c b5e9 f43c 9668 0e3d
00000110: 1a8c 863d 7cf7 663c a97e b93c 787c dcbc
00000120: 68db 0cbd 7c2a 5c3d 028a c6bb 6386 c73b
00000130: 9384 2a3d 9e21 893d 2a9e 34bd ee82 503d
00000140: 03d8 6bbd d791 93bd 6455 93bd aaa8 4cbd
00000150: 39a1 713b 7a5e 0a3d 0ddc febb 1746 5f3d
00000160: 5348 0cbd 8527 1a3c 8f3f 85bd a145 c23c
00000170: aa20 c3bb 46d1 133d 0673 833b ed3a 1b3b
00000180: 956c 21bc 766b af3c b155 433a a30c 1a3c
00000190: 5cb6 263c f78a bd3b d179 a8bc 459a 9bbd
000001a0: f5df a7bc 1855 963c ff99 24bc 68fd 64bc
000001b0: 1d6a ae3c ecb2 b3bd d8e2 0cbc 5b9f 203d
000001c0: 5511 983d 4c7b d839 f211 5abd 12eb 97bd
000001d0: 2d98 1abd 5f8e 15bc 15a4 933d f070 bd3b
000001e0: d1d8 64bd 953d 8e3c 3899 993c 5f14 f83b
000001f0: ef46 36bd cbb0 f4bb 7730 1bbd 8194 3b3d
00000200: 39ab 5d3b 9601 033c faaa 84bc 705d 0f3c
00000210: 3b59 f33c 8a6b 493d cb1f c9bc 2e31 64bc
00000220: 4992 3cbd c618 f33a a78e ae3d 2389 033d
00000230: b171 cc3b 1404 203d cf3d 533d 0126 8fbb
00000240: 50aa 81bd 374e 113d 006e 35bd e619 b33b
00000250: f89d d33c f8ec ef3c c75f 85bc ede5 4f3d
00000260: a0a0 ad3b cb5c dbbc 2edc 033d d81e 58bd
00000270: cf71 b93c 0542 8bbc 3445 053d 830c 843c
00000280: fe00 bfbc 8b01 80bd 59e7 9f3c 876e 0abd
00000290: 1d44 8f3c 7fde 3cbd 725d f13b 8153 863c
000002a0: 1819 1abd 554e ef3c f670 db3c b1a3 a63c
000002b0: 81d5 613d eefc 5fbc 8e96 9bbb b336 1ebd
000002c0: afb9 7dbc 95d7 9e3b 3e36 713c 1a31 25bd
000002d0: 50ee fe39 431a 11bd a2a2 f3bb 72d4 923b
000002e0: 9630 cdbc 2938 e93c 8eb3 603d 0289 1abd
000002f0: d067 3bbd 6f09 963c 8b9a fc3c 610b 983d
00000300: 3f14 273d 8a1b 99bb 2016 92bc 3e36 debc
00000310: dfa5 57bd 5b03 63bd b343 a8bc 6518 f43c
00000320: f00d b03c c7d5 fdbc 9b22 e9bc ff4c aabb
00000330: ed93 74bd 8dbb 1fbd 3b6e 703d 17e9 28bd
00000340: 23c6 423d e7b3 8b3d 970b 063d 9dbd 473d
00000350: 1725 063d d920 37bc 0ac5 d23c 368f 8fbd
00000360: a54d 113d 3523 3dbd a9f9 683b 3042 eebb
00000370: 0651 fa3b 68e0 68ba 5cb1 cc3b 8ceb f6bc
00000380: adb6 763c c697 423d eba9 3ebc cc0b 40bc
00000390: c3df 1abc f138 7d3d 99c4 8b3a 639e f73c
000003a0: 16d5 21bb 7d6e bcbc d73a b6bb 77aa 23bc
000003b0: 4854 67bd b529 863d 178e 413d 2ab0 523c
000003c0: 7e5a 3abd 0705 acbc 71ec 0a3d 8d1d a03d
000003d0: 6268 873d 21a4 373c b368 00bd a22b 6cbc
000003e0: a1ea a23d b053 eb3b ceb0 f23b 1507 2bbc
000003f0: 3d05 883d 82f3 143c 5beb d13c ca93 34bd

fc3.bias f4 [5]
-0.020272793 0.0070700403 0.007759508 -0.0065422533 0.008739507
00000000: 2113 a6bc ccab e73b 7943 fe3b 6660 d6bb
00000010: 2630 0f3c

actor.0.weight f4 [64, 22]
-0.1302425 -0.25708646 0.11222757 -0.13908412 -0.09285698 -0.2087288 -0.007164375 0.033451255
-0.10854458 0.03531814 0.016600087 0.14718947 0.09439033 0.13891174 -0.071030214 0.02759358
0.07856148 -0.16848363 0.086719655 -0.089522466 -0.13530402 -0.16404253 -0.0872304 -0.11881052
-0.15000547 0.103513524 0.018624999 0.020935219 -0.058392312 -0.1741927 0.04681412 0.36155063
0.00094903656 0.18678536 0.07157642 0.06240713 -0.25790772 0.22437958 0.018405274 -0.16483732
-0.04628948 -0.02275333 -0.19406621 0.48706263 -0.018273681 0.16350749 -0.017896233 0.25440866
0.06870584 -0.25131398 0.23186657 -0.021176986 -0.23896709 -0.026287189 0.10193835 0.07783331
0.022353726 0.058603793 0.25392446 0.12726997 0.1736041 -0.043167643 -0.03837187 0.19472432
0.099873625 0.13332987 -0.21717818 -0.0071418346 0.035985127 -0.14065531 0.22305985 0.07850337
0.09978987 -0.07338209 0.14699842 0.022158584 0.20813005 0.009673524 0.35664436 -0.12819584
0.14428963 0.07849666 0.15749699 -0.016990483 -0.04693405 0.074794166 -0.07713258 -0.07985997
0.26186875 0.07971936 0.0914111 0.004043795 0.021254884 -0.06576462 -0.29908162 0.24924147
0.019564023 -0.023107786 0.09227767 0.093468666 -0.019538159 -0.14905706 -0.07335403 -0.10915991
-0.04057209 -0.061676115 -0.09279531 -0.12867306 -0.036205806 -0.24270725 0.03164459 0.032874726
-0.105567716 0.19112226 -0.12904719 0.03360295 0.08170429 0.26757407 -0.15134753 0.12159079
0.08034043 0.13393012 -0.076977916 -0.015797162 -0.00526155 -0.21182264 -0.03577544 -0.08009615
0.0112353545 0.0010201894 0.0006842603 0.053530917 -0.084412836 0.11868776 0.16918364 0.15786876
0.03281292 -0.28655708 0.0035941228 -0.3778125 -0.11731939 -0.26681846 0.15251413 0.17250706
0.04683556 0.0342198 -0.19219096 -0.026404126 0.14488871 -0.10280392 0.15897194 0.07158589
-0.09739638 -0.07533741 -0.15125343 -0.06831921 0.07970219 0.17632869 0.09168235 0.13177302
0.050446026 -0.041862246 0.026638284 -0.2113679 0.07183782 0.25396225 0.010559835 -0.08408677
0.019807441 -0.017643536 0.2215851 -0.014256666 -0.19920594 0.055441447 0.043123357 -0.022242242
-0.013098147 0.001296916 0.090729505 0.22566456 -0.13039431 0.08176549 -0.013608294 0.083715364
0.057391882 -0.0904338 -0.113887526 0.13332173 0.110843495 0.14389798 -0.25899345 -0.18250577
-0.14646347 0.0027879851 -0.08552179 0.1097035 -0.015915843 0.06184231 -0.1339443 0.092302985
0.15405351 -0.22248198 0.018038394 0.13627231 -0.117415294 0.18153803 -0.3266747 0.08959114
0.11919323 -0.03088544 -0.11506951 -0.20161651 -0.03768617 -0.07660816 0.18014245 -0.08238467
0.10181376 0.17064492 -0.07912406 -0.026462171 -0.24632365 -0.18465565 0.23424639 -0.056863043
0.015874628 -0.102405004 0.09965419 -0.056938257 0.12607807 -0.083705515 0.017750606 0.08237822
-0.04844831 -0.054986183 -0.038713165 0.11371109 -0.009432633 0.1956083 0.20063573 0.037875813
-0.013455204 0.06439275 -0.04201371 0.22180142 -0.04495978 -0.14781573 0.017340664 0.075183384
-0.056880355 -0.025213627 0.009172779 0.0014440655 -0.09201811 -0.06845198 0.122091785 0.1590523
00000000: 4a5e 05be d6a0 83be 91d7 e53d 116c 0ebe
00000010: cd2b bebd 01bd 55be 22c3 eabb 2f04 093d
00000020: 9f4c debd c1a9 103d e8fc 873c d6b8 163e
00000030: b84f c13d e13e 0e3e 4a78 91bd ee0b e23c
00000040: d7e4 a03d f986 2cbe 139a b13d 8e57 b7bd
00000050: 238d 0abe c4fa 27be daa5 b2bd ee52 f3bd
00000060: 099b 19be e6fe d33d 7493 983c 5680 ab3c
00000070: c72c 6fbd 925f 32be 2ac0 3f3d 2a1d b93e
00000080: c4c8 783a a944 3f3e a896 923d 9e9e 7f3d
00000090: 7b0c 84be c3c3 653e a8c6 963c 1dcb 28be
000000a0: 0a9a 3dbd 3165 babc 4bb9 46be 4660 f93e
000000b0: b0b2 95bc 826e 273e 1f9b 92bc da41 823e
000000c0: a6b5 8c3d 3aac 80be 6e6e 6d3e 5c7b adbc
000000d0: cab3 74be 3b58 d7bc 0ec5 d03d 1267 9f3d
000000e0: 291f b73c 880a 703d 6302 823e 0f53 023e
000000f0: 46c5 313e 8ed0 30bd d22b 1dbd d065 473e
00000100: 8b8a cc3d a087 083e f563 5ebe 0d06 eabb
00000110: 2465 133d f207 10be cd69 643e 60c6 a03d
00000120: a25e cc3d 5949 96bd c186 163e eb85 b53c
00000130: 0b20 553e b37d 1e3c 179a b63e c545 03be
00000140: a9c0 133e dbc2 a03d e446 213e a02f 8bbc
00000150: eb3d 40bd af2d 993d b0f7 9dbd a08d a3bd
00000160: a913 863e e743 a33d be35 bb3d d081 843b
00000170: b91e ae3c 9aaf 86bd 3a21 99be 2839 7f3e
00000180: bb44 a03c 8a4c bdbc 13fc bc3d 806c bf3d
00000190: 7d0e a0bc 6aa2 18be a33a 96bd 3b8f dfbd
000001a0: eb2e 26bd 18a0 7cbd 780b bebd dfc2 03be
000001b0: 8a4c 14bd 4088 78be c29d 013d a6a7 063d
000001c0: e333 d8bd 8eb5 433e f224 04be 3fa3 093d
000001d0: 9454 a73d 78ff 883e d9fa 1abe 9804 f93d
000001e0: 8689 a43d fa24 093e 99a6 9dbd 0d69 81bc
000001f0: 1569 acbb 09e8 58be 4589 12bd 7309 a4bd
00000200: 7e14 383c e0b7 853a ee5f 333a 3c43 5b3d
00000210: a3e0 acbd 9112 f33d 7a3e 2d3e 59a8 213e
00000220: d766 063d 9cb7 92be 608b 6b3b a470 c1be
00000230: 2645 f0bd 6e9c 88be aa2c 1c3e b1a5 303e
00000240: a5d6 3f3d 102a 0c3d b5cd 44be 774d d8bc
00000250: b55d 143e dd8a d2bd 8ac9 223e a09b 923d
00000260: c177 c7bd 804a 9abd 2ee2 1abe f1ea 8bbd
00000270: e73a a33d 828f 343e f5c3 bb3d 82ef 063e
00000280: 7ea0 4e3d bf77 2bbd 8838 da3c d470 58be
00000290: b51f 933d 5707 823e 2803 2d3c af35 acbd
000002a0: 3743 a23c 2d89 90bc 34e7 623e cb94 69bc
000002b0: a4fc 4bbe 9216 633d 1ea2 303d 5d35 b6bc
000002c0: 9c99 56bc 48fd a93a 64d0 b93d 9c14 673e
000002d0: 1686 05be aa74 a73d 52f5 5ebc f672 ab3d
000002e0: c013 6b3d 5b35 b9bd dd3d e9bd 7e85 083e
000002f0: ea01 e33d fe59 133e ca9a 84be cbe2 3abe
00000300: 85fa 15be a1b6 363b 0c26 afbd 3bac e03d
00000310: f161 82bc 5d4e 7d3d b228 09be 5909 bd3d
00000320: 34c0 1d3e 51d2 63be 41c5 933c f88a 0b3e
00000330: 6e77 f0bd 1be5 393e e841 a7be 8f7b b73d
00000340: 951b f43d 7603 fdbc 90a9 ebbd 8f74 4ebe
00000350: d05c 1abd bde4 9cbd 4377 383e 4bb9 a8bd
00000360: bc83 d03d 8bbd 2e3e cc0b a2bd 32c7 d8bc
00000370: 443c 7cbe 5f16 3dbe 49de 6f3e 39e9 68bd
00000380: 820b 823c b7b9 d1bd 7f17 cc3d 1738 69bd
00000390: 9c1a 013e cc6d abbd b869 913c eab5 a83d
000003a0: bc71 46bd 3139 61bd b291 1ebd 5ce1 e83d
000003b0: 558b 1abc 8b4d 483e 7473 4d3e ab23 1b3d
000003c0: 3773 5cbc 59e0 833d 9116 2cbd e91f 633e
000003d0: bf27 38bd 025d 17be 020e 8e3c bff9 993d
000003e0: 60fb 68bd cf8c cebc 6c49 163c cc46 bd3a
000003f0: fe73 bcbd 8d30 8cbd 420b fa3d 9bde 223e

actor.0.bias f4 [64]
-0.003888902 0.010762807 0.024376335 0.018687027 -0.017464368 -0.01295766 0.007761852 0.006920754
0.0133345565 -0.020247042 0.012149199 -0.010247604 -0.0072687026 0.009195333 0.014363962 0.012626484
-0.003755154 -0.0070227324 0.005564927 -0.008880212 -0.016422939 0.00102318 -0.012413296 -0.008341315
0.011506485 0.0005588667 -0.018029861 -0.026492657 -0.024931578 0.019860212 -0.022158265 0.0030470544
0.013231664 -0.01903738 -0.012061286 0.015346476 0.008650006 -0.0154579105 -0.0053931316 0.008734844
-0.018477352 -0.0049439585 -0.016713576 0.011015172 -0.0113567235 0.0075281584 0.020687422 -0.013148992
-0.020046787 -0.015334015 0.018239556 -0.016454691 0.0080049755 -0.021289801 -0.016219852 -0.013515122
0.004090384 0.0008235808 -0.0040057367 0.014537704 0.012757037 -7.7566125e-05 0.0033270116 0.0076755024
00000000: f3dc 7ebb 7c56 303c e1b0 c73c 8915 993c
00000010: 6f11 8fbc 5d4c 54bc 2257 fe3b 7ec7 e23b
00000020: 2f79 5a3c 20dd a5bc 6f0d 473c 91e5 27bc
00000030: 4c2e eebb 06a8 163c d356 6b3c 50df 4e3c
00000040: 0819 76bb f31e e6bb fe59 b63b 4f7e 11bc
00000050: 6689 86bc 391c 863a 2361 4bbc 03aa 08bc
00000060: b285 3c3c e980 123a 5cb3 93bc 2107 d9bc
00000070: 4f3d ccbc e2b1 a23c 4085 b5bc 17b1 473b
00000080: 9fc9 583c 48f4 9bbc b39c 45bc c96f 7b3c
00000090: c1b8 0d3c 2d43 7dbc deb8 b0bb 971c 0f3c
000000a0: d15d 97bc ee00 a2bb e9ea 88bc fb78 343c
000000b0: 8d11 3abc c5ae f63b ab78 a93c df6e 57bc
000000c0: 2939 a4bc 853b 7bbc 1f6b 953c fdcb 86bc
000000d0: 4d27 033c f367 aebc 7fdf 84bc 886e 5dbc
000000e0: a108 863b 92e5 573a 8e42 83bb 8d2f 6e3c
000000f0: e402 513c ffaa a2b8 fe09 5a3b c882 fb3b

actor.2.weight f4 [64, 64]
-0.18358433 -0.04500196 0.17017862 0.28496805 0.3526944 -0.07872831 -0.017426932 -0.06833362
0.051883213 -0.11836284 -0.10841231 -0.07215711 0.10196191 0.1937195 0.047697358 -0.047771774
0.004330711 -0.11864671 -0.23632011 0.05728399 0.066596255 -0.07110836 0.12471751 -0.15932499
0.04007661 0.044795476 0.14135368 0.13268246 0.022299634 -0.024641255 0.31262285 -0.04961923
0.0029045516 0.04232234 0.046751045 0.0047407155 -0.038129576 0.010331535 -0.09694189 -0.08291244
0.060146216 -0.04357731 0.0013124533 -0.041786537 -0.048689764 -0.009923859 0.09945786 0.03798796
-0.059234142 0.28666788 0.032314397 0.119103044 -0.21288355 0.17405668 0.34649888 0.31933573
0.11076642 0.08564433 0.099436365 0.06376443 0.16729961 -0.15398085 0.08179923 0.00029247848
-0.09892984 0.14340053 0.086480774 -0.07738305 -0.103479005 0.0023348625 -0.07773893 0.09955424
0.1153009 -0.1492016 -0.20666401 0.07082588 0.08862545 0.03834221 -0.029052636 0.108324885
-0.0026791932 0.0353767 0.30658218 0.0881708 -0.039355148 0.058293402 -0.23938312 0.1338935
0.19465032 -0.071486875 -0.20364042 -0.03306848 -0.1627674 -0.14559686 -0.065105304 -0.018112272
-0.113855764 0.15976754 -0.07691865 0.124795735 -0.027287066 0.26792154 -0.1896056 -0.010579199
0.21153803 -0.026312808 0.034963828 0.15468736 0.03460228 -0.058001447 0.36167046 -0.09281398
-0.17130345 0.09351226 -0.03580869 -0.024136268 -0.025886264 -0.09679949 -0.08085075 -0.043558564
0.023920123 0.1306799 0.026688926 0.13973363 0.1562887 0.0111266 -0.16556753 -0.20004801
0.09054147 0.040206414 0.07133997 0.22959954 0.11122103 0.1833649 0.070121795 0.025469292
-0.20293087 0.03149498 0.11980146 0.055754576 0.040823985 -0.09046067 0.015428305 -0.037208803
-0.011496728 0.0085970685 -0.031979095 -0.18552227 -0.023840453 0.11017609 -0.21314849 0.18145338
-0.116910145 0.06514469 -0.1886578 0.044415973 0.12827894 -0.0007276486 -0.22995862 -0.053309966
0.21793719 0.17273793 0.1456805 0.1935398 0.17506951 -0.08361188 0.06756069 0.22517931
-0.101308785 0.2764033 0.09502327 -0.04091397 0.013176557 0.0067857304 0.04302795 -0.13049307
-0.23082694 0.10739479 -0.19353156 -0.25504234 0.045195423 -0.28759655 0.10282333 0.09681561
-0.03079793 -0.009991279 -0.12167878 0.09020872 0.20297787 -1.5988699e-05 0.010210638 0.05901179
0.10691751 -0.05782045 0.26105028 0.019794246 0.0118414 -0.19792086 -0.06879514 -0.14044334
-0.029799702 0.3450197 0.25837395 0.020822942 0.028069427 0.14875294 -0.0632883 0.08764694
0.09388368 0.022622395 0.06082218 0.3399104 -0.17197709 -0.15689251 -0.050183244 -0.039354753
0.031806603 0.03607655 -0.33442706 -0.12704909 -0.1884667 0.06241477 0.09876515 -0.031927485
-0.03397067 0.2111992 -0.118272156 0.016972592 0.060093824 -0.23831986 -0.04416064 0.075464696
-0.14231817 -0.10630965 0.0033093325 0.14364108 0.052101538 0.026285967 0.011856342 -0.2333973
-0.13401224 -0.1576444 0.07514397 0.022811836 -0.01216394 -0.12949736 -0.0848858 -0.12848036
-0.032863174 -0.09187477 -0.08590611 -0.0048532463 0.17199372 0.0153228175 -0.028646084 0.116919026
00000000: 88fd 3bbe fa53 38bd 4e43 2e3e 55e7 913e
00000010: 5c94 b43e 4f3c a1bd edc2 8ebc 7ff2 8bbd
00000020: 7e83 543d 3768 f2bd 4607 debd 1bc7 93bd
00000030: 68d1 d03d 685e 463e 4e5e 433d 56ac 43bd
00000040: a3e8 8d3b 0cfd f2bd e6fd 71be 9ea2 6a3d
00000050: 9e63 883d 43a1 91bd e56b ff3d 1726 23be
00000060: 5f27 243d 767b 373d 05bf 103e e9dd 073e
00000070: b9ad b63c 75dc c9bc 1a10 a03e 893d 4bbd
00000080: 4a5a 3e3b 315a 2d3d 067e 3f3d 0158 9b3b
00000090: c22d 1cbd 9945 293c 7889 c6bd ffcd a9bd
000000a0: e15b 763d 1f7e 32bd a006 ac3a 5c28 2bbd
000000b0: eb6e 47bd ae97 22bc 90b0 cb3d 4399 1b3d
000000c0: 809f 72bd 22c6 923e 1a5c 043d 4cec f33d
000000d0: 25fe 59be ea3b 323e 4d68 b13e f97f a33e
000000e0: 81d9 e23d 4b66 af3d 4ba5 cb3d ed96 823d
000000f0: 9750 2b3e 28ad 1dbe 5b86 a73d cc57 9939
00000100: ba9b cabd 97d7 123e d51c b13d 017b 9ebd
00000110: cdec d3bd 7e04 193b 9735 9fbd 18e3 cb3d
00000120: e122 ec3d 4ec8 18be bb9f 53be 290d 913d
00000130: 4381 b53d b90c 1d3d cbff edbc 70d9 dd3d
00000140: 6795 2fbb 29e7 103d 57f8 9c3e e492 b43d
00000150: dd32 21bd 10c5 6e3d d920 75be 611b 093e
00000160: 6a52 473e b667 92bd 1d87 50be d172 07bd
00000170: 7fac 26be 5817 15be ee55 85bd 3060 94bc
00000180: 362d e9bd 1a9a 233e 8687 9dbd e894 ff3d
00000190: 2089 dfbc 032d 893e f827 42be 6054 2dbc
000001a0: 6d9d 583e f58d d7bc 3b36 0f3d 5d66 1e3e
000001b0: 1fbb 0d3d ed92 6dbd df2c b93e 4215 bebd
000001c0: 2c6a 2fbe 5b83 bf3d 22ac 12bd 6cb9 c5bc
000001d0: 6e0f d4bc d03e c6bd 1495 a5bd 776a 32bd
000001e0: 22f4 c33c f4d0 053e bca2 da3c 5516 0f3e
000001f0: 250a 203e 584c 363c 898a 29be 63d9 4cbe
00000200: ce6d b93d 7baf 243d b11a 923d 241c 6b3e
00000210: dac7 e33d 02c4 3b3e 049c 8f3d faa4 d03c
00000220: 1ccd 4fbe e100 013d 785a f53d e95e 643d
00000230: 0d37 273d 7243 b9bd 00c7 7c3c 4268 18bd
00000240: c65c 3cbc b8da 0c3c 83fc 02bd 8df9 3dbe
00000250: 0e4d c3bc 00a4 e13d 9943 5abe eace 393e
00000260: 966e efbd 946a 853d 832f 41be 86ed 353d
00000270: 8e5b 033e acbf 3eba 467a 6bbe 8d5b 5abd
00000280: ed2a 5f3e 36e2 303e 452d 153e 4c2f 463e
00000290: 6c45 333e b53c abbd 425d 8a3d 6895 663e
000002a0: fb7a cfbd bc84 8d3e 8f9b c23d 6895 27bd
000002b0: 7ce2 573c d55a de3b 133e 303d fa9f 05be
000002c0: e65d 6cbe cdf1 db3d 232d 46be e994 82be
000002d0: d61e 393d db3f 93be 0a95 d23d 4347 c63d
000002e0: f14b fcbc 76b2 23bc b932 f9bd 59bf b83d
000002f0: 6ed9 4f3e 781f 86b7 854a 273c 59b6 713d
00000300: 91f7 da3d 23d5 6cbd 62a8 853e 8b27 a23c
00000310: 6e02 423c c4ab 4abe 77e4 8cbd 61d0 0fbe
00000320: 811e f4bc 6ca6 b03e 9749 843e e094 aa3c
00000330: dbf1 e53c b152 183e 4c9d 81bd 3d80 b33d
00000340: 1646 c03d 9a52 b93c ae20 793d bc08 ae3e
00000350: c31a 30be 6ea8 20be f28c 4dbd 7332 21bd
00000360: a447 023d 01c5 133d 063a abbe 2819 02be
00000370: 6afd 40be a1a6 7f3d 6245 ca3d 65c6 02bd
00000380: d424 0bbd 9a44 583e ac38 f2bd 1b0a 8b3c
00000390: f124 763d 1f0a 74be cae1 34bd 3c8d 9a3d
000003a0: dbbb 11be e0b8 d9bd 63e1 583b a616 133e
000003b0: 6c68 553d ab55 d73c 1a41 423c b4ff 6ebe
000003c0: 813a 09be 896d 21be 15e5 993d e3df ba3c
000003d0: 434b 47bc f59a 04be 9bd8 adbd 5b90 03be
000003e0: 899b 06bd d728 bcbd 8bef afbd fb07 9fbb
000003f0: 1f1f 303e 8e0c 7b3c 31ab eabc 3e73 ef3d

actor.2.bias f4 [64]
-0.0041973838 0.019489642 0.016357556 0.019498006 0.011117589 0.01669571 0.0005820346 -0.008775976
-0.0041662925 -0.0014447484 0.0028344796 0.017372195 0.009167968 0.008967236 -0.007101876 0.011093563
-0.017555902 -0.011484588 -0.011438045 -0.024456806 -0.0068077818 0.016553706 0.006521425 0.017316697
-0.025298946 0.008457192 -0.006744206 0.006876011 0.007985588 0.017828042 0.008159634 0.009799618
-0.002546182 -0.0106761325 0.014223005 0.0022141412 0.0009214788 0.006213169 0.01059551 -0.009737273
-0.017655112 0.01713561 0.007494076 0.0083116535 0.02103631 -0.013625502 -0.007657795 -0.0073552867
0.020740677 0.005662357 -0.00838206 -0.020707387 -0.017522978 -0.013967882 0.003549803 -0.009008116
-0.018872662 -0.0043582087 0.010620391 -0.003213137 -0.014450071 -0.013510532 -0.014247387 0.014203578
00000000: 358a 89bb bea8 9f3c 4800 863c 48ba 9f3c
00000010: 8c26 363c 71c5 883c ae93 183a 1cc9 0fbc
00000020: 6585 88bb b65d bdba adc2 393b 2250 8e3c
00000030: 3f35 163c 50eb 123c dbb6 e8bb c7c1 353c
00000040: 65d1 8fbc da29 3cbc a366 3bbc a459 c8bc
00000050: d013 dfbb a39b 873c aeb1 d53b bfdb 8d3c
00000060: bc3f cfbc 0990 0a3c 80fe dcbb 2950 e13b
00000070: fcd5 023c 1d0c 923c fcaf 053c 948e 203c
00000080: d8dd 26bb f2ea 2ebc 9b07 693c 201b 113b
00000090: 658f 713a d797 cb3b ca98 2d3c 1589 1fbc
000000a0: 74a1 90bc fb5f 8c3c de90 f53b 9a2d 083c
000000b0: 5754 ac3c 7f3d 5fbc 3eee fabb 9e04 f1bb
000000c0: 5ae8 a93c 4b8b b93b e854 09bc 8aa2 a9bc
000000d0: 598c 8fbc 8bd9 64bc d0a3 683b c796 13bc
000000e0: d79a 9abc 4ecf 8ebb 2601 2e3c 7e93 52bb
000000f0: febf 6cbc 475b 5dbc df6d 69bc 20b6 683c

actor.4.weight f4 [5, 64]
-0.0036550513 -0.026758496 -0.021896195 -0.030399334 -0.013943129 -0.02569264 0.016345466 -0.0027289717
0.008960342 0.0062565412 -0.01772423 -0.024433091 0.0058541554 -0.015595596 0.0067467764 -0.013969765
0.010992805 0.0107580125 0.017491104 0.027382094 0.0060460404 -0.029101126 -0.016765337 -0.033002794
0.017062765 0.0069068354 0.032843586 -0.021686962 -0.018265586 -0.032947864 -0.005638524 0.010440484
-0.0020784435 0.012784422 -0.012443625 -0.011501903 0.018509462 -0.009151515 -0.019679667 0.025210552
0.029470947 -0.028458465 -0.024718821 -0.020979648 -0.0060537523 0.024467329 -0.014864291 0.013653514
-0.018949771 -0.017549494 0.008115454 0.009134417 -0.0060052904 0.020721024 -0.0067547564 0.011749311
0.031413313 0.011354653 -0.014115008 0.019290304 0.023984054 0.016515372 0.023618657 -0.028205518
-0.042700414 0.018801909 0.029896596 0.03476771 0.06569691 0.014097091 0.022643404 -0.02691482
-0.03438893 0.053751454 -0.0060589323 0.006089018 0.04163034 0.06695865 -0.04409615 0.050906114
-0.05757905 -0.07205551 -0.07194021 -0.049965538 0.0036869778 0.033781506 -0.007777697 0.054510202
-0.03424866 0.009408836 -0.065062635 0.023714842 -0.0059548216 0.03608825 0.0040115146 0.0023686246
-0.009852548 0.021413546 0.00074514287 0.009402427 0.010175314 0.005784388 -0.0205659 -0.07597784
-0.020492533 0.018351123 -0.010046481 -0.013976432 0.021290833 -0.08774361 -0.008599006 0.039214473
0.07425181 0.00041290594 -0.05323977 -0.07417883 -0.037742782 -0.009128182 0.072090305 0.0057812855
-0.055870835 0.017363349 0.018749818 0.007570788 -0.04450124 -0.0074673644 -0.037888017 0.04579592
0.003382398 0.007995984 -0.01619481 0.008750305 0.029705634 0.049174823 -0.024551293 -0.013927741
-0.046037946 0.0018546812 0.085233025 0.032113206 0.006239139 0.03906639 0.051572617 -0.004368544
-0.06331313 0.035474982 -0.044294357 0.005465734 0.025832161 0.0292878 -0.016281022 0.050756384
0.005298689 -0.026777646 0.0321924 -0.05276379 0.022637276 -0.016999254 0.0325367 0.016119247
-0.023315903 -0.06250294 0.019519495 -0.033796813 0.017488534 -0.046110626 0.007365876 0.01639724
-0.037621588 0.029212156 0.026787262 0.020341726 0.055135254 -0.013671143 -0.004748172 -0.038626384
-0.015486165 0.0048474767 0.014722405 -0.04033003 0.00048624212 -0.035425436 -0.007435159 0.004480892
-0.025047582 0.028469162 0.054858737 -0.037728317 -0.0457533 0.018315045 0.03083541 0.07424045
0.040790793 -0.0046724724 -0.017832816 -0.027125474 -0.05264842 -0.055423122 -0.020540094 0.029796788
0.02149102 -0.030985726 -0.028458884 -0.005197167 -0.059711386 -0.03899722 0.058698874 -0.041237917
0.04755224 0.06821423 0.032725897 0.048764814 0.032750215 -0.011177265 0.025728721 -0.07009737
0.03547444 -0.046176154 0.00355492 -0.0072710738 0.0076390533 -0.0008883537 0.006246729 -0.030141614
0.015058202 0.047508024 -0.011637191 -0.011721563 -0.009452763 0.06182188 0.0010663449 0.030226892
-0.002469366 -0.023001904 -0.0055612135 -0.009989372 -0.05647686 0.06550924 0.047254648 0.012859384
-0.045496456 -0.020998491 0.033916894 0.07818136 0.06611706 0.011208565 -0.03134985 -0.0144147
0.07954908 0.007181607 0.0074063307 -0.0104387 0.06641624 0.00909126 0.025624922 -0.044086255
00000000: 9689 6fbb a234 dbbc a65f b3bc 0608 f9bc
00000010: b971 64bc 5f79 d2bc ede6 853c 8cd8 32bb
00000020: 66ce 123c ac03 cd3b 6832 91bc e827 c8bc
00000030: 37d4 bf3b ac84 7fbc 1014 dd3b 71e1 64bc
00000040: 2a1b 343c 6042 303c 8149 8f3c 6a50 e03c
00000050: dd1d c63b 7c65 eebc 7657 89bc f02d 07bd
00000060: 36c7 8b3c bc52 e23b ff86 063d dba8 b1bc
00000070: b6a1 95bc 57f4 06bd 5ec3 b8bb 900e 2b3c
00000080: 7f36 08bb c175 513c 59e0 4bbc 7a72 3cbc
00000090: 28a1 973c 3cf0 15bc 4137 a1bc 5c86 ce3c
000000a0: 0e6d f13c ba21 e9bc 207f cabc 83dd abbc
000000b0: 8e5e c6bb b56f c83c 5b89 73bc fdb2 5f3c
000000c0: 8d3c 9bbc f5c3 8fbc aef6 043c 86a8 153c
000000d0: 07c8 c4bb 23bf a93c 0157 ddbb 2f80 403c
000000e0: 3fab 003d de08 3a3c a242 67bc b306 9e3c
000000f0: 357a c43c 3f4b 873c ea7b c13c 420f e7bc
00000100: a1e6 2ebd 7606 9a3c b5e9 f43c 9668 0e3d
00000110: 1a8c 863d 7cf7 663c a97e b93c 787c dcbc
00000120: 68db 0cbd 7c2a 5c3d 028a c6bb 6386 c73b
00000130: 9384 2a3d 9e21 893d 2a9e 34bd ee82 503d
00000140: 03d8 6bbd d791 93bd 6455 93bd aaa8 4cbd
00000150: 39a1 713b 7a5e 0a3d 0ddc febb 1746 5f3d
00000160: 5348 0cbd 8527 1a3c 8f3f 85bd a145 c23c
00000170: aa20 c3bb 46d1 133d 0673 833b ed3a 1b3b
00000180: 956c 21bc 766b af3c b155 433a a30c 1a3c
00000190: 5cb6 263c f78a bd3b d179 a8bc 459a 9bbd
000001a0: f5df a7bc 1855 963c ff99 24bc 68fd 64bc
000001b0: 1d6a ae3c ecb2 b3bd d8e2 0cbc 5b9f 203d
000001c0: 5511 983d 4c7b d839 f211 5abd 12eb 97bd
000001d0: 2d98 1abd 5f8e 15bc 15a4 933d f070 bd3b
000001e0: d1d8 64bd 953d 8e3c 3899 993c 5f14 f83b
000001f0: ef46 36bd cbb0 f4bb 7730 1bbd 8194 3b3d
00000200: 39ab 5d3b 9601 033c faaa 84bc 705d 0f3c
00000210: 3b59 f33c 8a6b 493d cb1f c9bc 2e31 64bc
00000220: 4992 3cbd c618 f33a a78e ae3d 2389 033d
00000230: b171 cc3b 1404 203d cf3d 533d 0126 8fbb
00000240: 50aa 81bd 374e 113d 006e 35bd e619 b33b
00000250: f89d d33c f8ec ef3c c75f 85bc ede5 4f3d
00000260: a0a0 ad3b cb5c dbbc 2edc 033d d81e 58bd
00000270: cf71 b93c 0542 8bbc 3445 053d 830c 843c
00000280: fe00 bfbc 8b01 80bd 59e7 9f3c 876e 0abd
00000290: 1d44 8f3c 7fde 3cbd 725d f13b 8153 863c
000002a0: 1819 1abd 554e ef3c f670 db3c b1a3 a63c
000002b0: 81d5 613d eefc 5fbc 8e96 9bbb b336 1ebd
000002c0: afb9 7dbc 95d7 9e3b 3e36 713c 1a31 25bd
000002d0: 50ee fe39 431a 11bd a2a2 f3bb 72d4 923b
000002e0: 9630 cdbc 2938 e93c 8eb3 603d 0289 1abd
000002f0: d067 3bbd 6f09 963c 8b9a fc3c 610b 983d
00000300: 3f14 273d 8a1b 99bb 2016 92bc 3e36 debc
00000310: dfa5 57bd 5b03 63bd b343 a8bc 6518 f43c
00000320: f00d b03c c7d5 fdbc 9b22 e9bc ff4c aabb
00000330: ed93 74bd 8dbb 1fbd 3b6e 703d 17e9 28bd
00000340: 23c6 423d e7b3 8b3d 970b 063d 9dbd 473d
00000350: 1725 063d d920 37bc 0ac5 d23c 368f 8fbd
00000360: a54d 113d 3523 3dbd a9f9 683b 3042 eebb
00000370: 0651 fa3b 68e0 68ba 5cb1 cc3b 8ceb f6bc
00000380: adb6 763c c697 423d eba9 3ebc cc0b 40bc
00000390: c3df 1abc f138 7d3d 99c4 8b3a 639e f73c
000003a0: 16d5 21bb 7d6e bcbc d73a b6bb 77aa 23bc
000003b0: 4854 67bd b529 863d 178e 413d 2ab0 523c
000003c0: 7e5a 3abd 0705 acbc 71ec 0a3d 8d1d a03d
000003d0: 6268 873d 21a4 373c b368 00bd a22b 6cbc
000003e0: a1ea a23d b053 eb3b ceb0 f23b 1507 2bbc
000003f0: 3d05 883d 82f3 143c 5beb d13c ca93 34bd

actor.4.bias f4 [5]
-0.020272793 0.0070700403 0.007759508 -0.0065422533 0.008739507
00000000: 2113 a6bc ccab e73b 7943 fe3b 6660 d6bb
00000010: 2630 0f3c
