checkpoints/ppo_actor_None_lumberjacks.pth (torch, 177124 bytes, 8 tensors)

actor.0.weight f4 [128, 75]
000000 6b 29 7c bc 11 5c 4a 3d 00 26 ae bd 6e 84 ac 3d
       -0.015390734 0.049404208 -0.08503342 0.084236965
000010 78 5a 91 3d 91 8f ea bd a9 36 57 bd 18 10 4d bc
       0.07097334 -0.11453164 -0.052542362 -0.012516044
000020 08 02 b0 bd 1a 54 e2 bb 16 35 c5 bd e0 a4 de bd
       -0.085941374 -0.0069069983 -0.09629266 -0.10871291
000030 93 e1 1e 3c 65 41 3a 3d f1 61 22 3d c3 c1 46 3d
       0.009697336 0.04547252 0.039644185 0.04852463
000040 d1 25 a0 bd a8 42 c5 bd 8c a8 41 3d 22 bc 8f bd
       -0.07819713 -0.09631854 0.04727988 -0.07018305
000050 0d 2c c3 bd db fb 6a bc db 0f 9f bd d9 71 4e 3d
       -0.095298864 -0.014342274 -0.07766696 0.050401542
000060 2c 90 76 bd 78 96 6c 3d ea 1f f4 3c 86 e2 91 3d
       -0.060196087 0.057760686 0.029800374 0.07123284
000070 22 2e d5 bd e8 1d db bd 19 d7 1d 3d 0f e1 9d 3c
       -0.1040919 -0.106990635 0.03853521 0.019272355
000080 f3 93 3c bd 66 75 c0 bc f4 d1 c7 bc 4a 68 99 bc
       -0.046039533 -0.02349348 -0.024392106 -0.018726487
000090 a3 f7 e1 3c 00 22 ac 3c f6 f0 e6 3d 85 fb 67 bc
       0.027583903 0.021012306 0.112764284 -0.014159088
0000a0 0d 90 b3 3d a0 4f c9 3d ba c1 c3 3d 35 ea 5a 3d
       0.0876771 0.098296404 0.09558435 0.053446013
0000b0 53 14 c5 bd e5 f0 0d 3d 4d 08 5b bd 71 d8 18 3d
       -0.09623017 0.034653563 -0.053474713 0.03731579
0000c0 0d 90 9d bd b9 24 9e 39 31 b7 ac 3d 18 7f 6e bd
       -0.07693491 0.0003016347 0.084333785 -0.058226675
0000d0 7f 06 0b 3d 0c f9 c5 bd 7c 95 ce 3d 28 f3 28 3d
       0.033941742 -0.096666425 0.10087106 0.041247517
0000e0 6b 7a 77 bd 73 17 9c 3b a0 e7 96 3d 2b 75 fb bb
       -0.06041948 0.0047635376 0.07368398 -0.0076738796
0000f0 b7 52 26 3d ea 9a e6 bd 1e 53 d9 bc a0 59 05 3c
       0.040606227 -0.11260016 -0.026528891 0.008139044
000100 dc 7f 46 3d c4 0f ce bd cb ba a5 3d ec 23 71 3d
       0.04846178 -0.10061601 0.080922686 0.05887215
000110 b7 92 44 3c cc 03 dd 3d 33 22 2d 3d 64 99 d3 bd
       0.01199787 0.1079174 0.042268943 -0.10331991
000120 c3 80 c0 bd 51 92 e5 bd e0 8c d1 bc 5f b2 fa bb
       -0.09399559 -0.11209548 -0.02557987 -0.007650658
000130 3d 77 d6 ba bd 53 a9 bd 14 bc 4a 3d b2 1c 51 bd
       -0.001636244 -0.08267925 0.04949577 -0.051052757
000140 15 22 2d 3c ea 67 c1 bd 20 50 d5 3c 7e f9 c1 bc
       0.010567208 -0.09443648 0.026039183 -0.023678537
000150 06 eb de 3d da 6a 57 bd 4a ff 60 3d ff 36 e4 bc
       0.10884671 -0.052592136 0.054930963 -0.027858255
000160 05 4b 9f 3d 07 56 15 3d 44 b1 28 3d 9b ab 6a bb
       0.07777981 0.036458995 0.04118468 -0.0035807851
000170 7c 85 90 bd 7c a1 6f bc 7d 62 ea bd 02 07 87 3d
       -0.0705671 -0.014625903 -0.114445664 0.065931335
000180 00 f1 eb 3b 56 4f 67 bd 12 3a c6 3d c6 fc 6c 3c
       0.0072003603 -0.056472145 0.09679045 0.014464563
000190 66 c3 7b bd 3f db 9e 3d 1e 99 00 3d 32 6a 85 3b
       -0.061465643 0.077566616 0.031396024 0.0040714974
0001a0 41 8a 4a bd df b8 0a 3d 94 67 60 3d f1 a8 d6 bd
       -0.049448255 0.033867713 0.05478628 -0.10481442
0001b0 ec 03 b5 bd bf 7a e0 bd d6 97 de 3c 54 2e a4 3d
       -0.08838639 -0.10960912 0.02717201 0.08016649
0001c0 15 e2 c0 3c 32 18 b2 bc df a5 dc 3b 33 16 3e bc
       0.023545304 -0.021740053 0.0067336406 -0.011601972
0001d0 ba 73 44 bd 23 e2 47 3d 19 3f 2c bd ba fe 98 bd
       -0.047961928 0.048799645 -0.042052362 -0.0747046
0001e0 3f af 8c 3d 7f 9e 65 3d 66 22 1a 3d 4a 14 c4 3d
       0.06869363 0.056059357 0.03763046 0.09574182
0001f0 46 8c b1 3c 61 5c 0a 3d ee 46 64 bd 65 3b ac 3d
       0.021673333 0.033779506 -0.055731706 0.08409766
000200 05 67 e6 bd 4b 7e 08 bd 7e da 7c bd 3a 4a 68 bd
       -0.11250118 -0.033323567 -0.061731808 -0.056711413
000210 37 91 2f 3d 82 1b e6 3c 31 4c 3f bd b4 98 b6 3c
       0.042863097 0.028089289 -0.04670352 0.022289611
000220 62 a8 d2 bd b9 6e e2 3d c1 55 c4 bd c4 52 e4 3c
       -0.10286023 0.11056275 -0.09586669 0.027871497
000230 c7 b9 4c bd f3 55 4e 3c 11 83 b6 bd cd 33 af 3b
       -0.04998186 0.012593734 -0.08911718 0.0053467513
000240 11 c4 b6 bd 82 21 82 3d a4 70 91 bd c6 0d 28 3d
       -0.089241154 0.06354047 -0.071015626 0.04102876
000250 2e e0 35 3c 7a ca 60 3d 04 b9 14 3c 2d ed 20 3d
       0.011100812 0.054880597 0.009077314 0.03928869
000260 44 67 cd 3d dd 86 30 3d 7a 94 0d bd 18 af b9 3c
       0.10029462 0.043097366 -0.034565426 0.022666499
000270 0b 4b 8d bd cd cc 25 bd be 65 e6 3d 45 97 1e ba
       -0.06899079 -0.040478516 0.112498745 -0.00060497626
000280 ab af 90 bd cc 76 c5 bd 6c 39 cb bd 6e 0b 57 bd
       -0.07064756 -0.09641799 -0.09923062 -0.052501135
000290 72 c4 38 bd 54 ff 0e bd 19 41 c0 bd ab 46 90 3d
       -0.04510922 -0.03491147 -0.093874164 0.07044729
0002a0 25 39 5b 3d 79 8b 4c bc df 31 c7 3d c4 2e 2f 3d
       0.053521294 -0.012484425 0.09726309 0.04276921
0002b0 b7 74 ba bd f4 5f 17 3d 29 a2 5c 3d 70 17 02 bd
       -0.09104293 0.036956742 0.053865585 -0.031760633
0002c0 b9 53 ed 3c ac ee da 3d 56 37 52 bc 01 d4 e2 bd
       0.028970586 0.10690054 -0.012830576 -0.11075593
0002d0 1c b7 28 bc d7 72 e3 bd ef 4c e2 bd aa 54 17 3b
       -0.010297563 -0.11105888 -0.1104983 0.0023091235
0002e0 86 a3 88 bd 8f e0 07 bd e2 ec 5d bb 9d ca 18 3d
       -0.066718146 -0.03317314 -0.0033863117 0.037302602
0002f0 19 ae 2a 3b b2 0b 78 bd da c3 11 bd 71 7e db 3d
       0.0026043712 -0.06055803 -0.03558717 0.10717476
000300 d2 2c 0b bd 3f 6b 0a bd 4d d1 6b bc 7a 99 5f 3d
       -0.03397829 -0.033793684 -0.014393163 0.054589726
000310 51 53 b2 bc 51 a3 a0 bd 2f 80 d7 bc 82 35 3d bd
       -0.021768244 -0.0784365 -0.02630624 -0.046193607
000320 58 f7 72 3d c0 74 44 3c 45 8e ce 3c d2 3f ac 3b
       0.059317917 0.011990726 0.025214324 0.0052566314
000330 eb ea 98 bd 25 d9 94 3c 6a 8b a3 bd 51 96 c6 3c
       -0.07466682 0.018169949 -0.079855755 0.024241598
000340 6c a5 ff bb 14 a0 ca bd 09 c5 61 3c 8c b6 19 bd
       -0.0078017022 -0.09893814 0.013779887 -0.037527606
000350 62 84 e4 bd 49 20 88 bd a7 84 13 3c 5f d0 3c bd
       -0.111580625 -0.06646783 0.009003795 -0.046097156
000360 c0 73 37 3d 49 cd 0e bd d9 b9 43 bd c0 10 c2 3d
       0.044788122 -0.034863744 -0.04778466 0.09475851
000370 46 94 ec bc 94 77 13 bd 7d 1f 13 bd 60 1b d4 bd
       -0.028879296 -0.03600271 -0.0359187 -0.10356784
000380 1a d3 18 39 b8 ae b7 3d 1a 35 1a bd c0 d9 e9 bd
       0.00014574491 0.08968872 -0.037648298 -0.11418486
000390 35 92 59 bd 6f 4f e1 bd d6 49 a2 3c 31 28 86 3d
       -0.05311795 -0.11001479 0.019810598 0.06550635
0003a0 e2 4f 98 bd 4c 33 c8 3c a1 66 da 3d 5b e8 ca bd
       -0.074371114 0.024438523 0.10664106 -0.099075995
0003b0 d2 68 95 3c 62 96 cd bd 8e ad ae bd e4 08 9b 3d
       0.018238459 -0.10038449 -0.08529197 0.07570055
0003c0 3a 7f 86 bd 48 e2 80 3d fe b9 e6 3d b5 b9 c6 3c
       -0.06567235 0.0629316 0.11265944 0.024258474
0003d0 40 38 51 bd b8 6c e4 bd ab 57 a8 bd 12 ed da bd
       -0.051079035 -0.11153549 -0.08219846 -0.10689749
0003e0 68 ea 1f 3c 06 fd b4 bd a4 1f 73 bd dd d4 89 3d
       0.009760477 -0.08837323 -0.059356347 0.067300536
0003f0 b4 f3 37 bd a7 cb d4 bd b7 d3 d9 bd 1f c4 92 bd
       -0.044910148 -0.10390406 -0.106360845 -0.071663134

actor.0.bias f4 [128]
000000 38 d3 bd 3d be 20 b6 3d 42 e8 dc bd 22 19 d5 3d
       0.092688024 0.08892964 -0.10786487 0.10405184
000010 1d 07 be 3d c3 d8 9c bd 4e 09 cc bd 96 43 e1 3d
       0.092787005 -0.076585315 -0.09962712 0.10999219
000020 a6 73 32 3a 34 7e 83 bc 46 ab 64 3d b3 af 02 bd
       0.0006807394 -0.01605139 0.0558274 -0.03190584
000030 4d 17 28 bc fa ee 70 bd 17 7c e2 bd f3 70 19 bc
       -0.010259462 -0.058821656 -0.110588245 -0.009365308
000040 aa 2f c8 3d 25 aa fa 3c ba ae c8 3d 0e 8c 73 bb
       0.09774716 0.03059871 0.097989514 -0.0037162337
000050 eb 07 d9 3d 30 54 b2 bd 3d 1d a4 3d 79 e2 a9 bd
       0.10597213 -0.08707464 0.08013389 -0.08295149
000060 03 a0 d9 3d 6d 2b 89 3c 57 10 8e bd dc 45 cf 3d
       0.10626223 0.01674434 -0.0693671 0.101207465
000070 c2 0b 76 3b 02 0d b3 3d e6 91 f9 bc 86 4b 54 3d
       0.003754363 0.087427154 -0.030465078 0.051829837
000080 cc 01 d9 3d 87 d1 d9 bb ba ec 87 3c fd dd 3e bd
       0.10596046 -0.006647292 0.016592372 -0.046598423
000090 49 6a 84 3c 1e ab de bd 6d 10 60 bd f3 a5 e1 3d
       0.016163962 -0.10872482 -0.054703165 0.110179804
0000a0 ef d0 23 3d 5b 2d a0 bd c9 e0 fc bc 27 c3 09 3d
       0.039994176 -0.07821151 -0.030868905 0.033633377
0000b0 02 41 66 3d ea 1c 6e 3d 5c 1a 15 bc 0e e0 e0 bd
       0.05621434 0.058133043 -0.009100523 -0.10980235
0000c0 35 12 2d 3d 7c 0f 44 3d 6a 5a c9 bd 7a 64 c1 bc
       0.04225369 0.04786633 -0.09831698 -0.023607481
0000d0 b9 74 30 3d a5 3c 4a bd 6d 6d 5a bd 31 41 84 3d
       0.043080065 -0.04937424 -0.053327013 0.06457747
0000e0 d3 c8 8e bc d2 7a 19 bc fe fa fd 3b 37 da a5 bd
       -0.017429745 -0.009367662 0.007750868 -0.08098262
0000f0 af d8 bc bd 86 5b 0c 3d 75 07 d1 3d 1d 1e f8 3b
       -0.092210166 0.03426697 0.102065004 0.007571949
000100 54 2f b9 bd b6 14 f5 3c db 3e 6c 3d 37 9a 32 bb
       -0.0904223 0.029917102 0.05767713 -0.0027252564
000110 ed 6a 6f 3c c6 ff cd 3d a4 8d 9a bc f7 ce 8a bd
       0.014612895 0.100585505 -0.018866368 -0.06777757
000120 3a 37 a4 3d 25 a9 26 bd 46 1c a0 bd df c5 d9 3d
       0.08018346 -0.040688653 -0.07817893 0.10633444
000130 b2 a4 1e 3d ad ce 39 bd c0 f2 c4 bd bf 49 b4 3d
       0.038731284 -0.045363117 -0.096166134 0.088031285
000140 80 63 d4 bd f1 43 95 bd 78 41 96 3d 9a 6b 88 3c
       -0.103705406 -0.072883494 0.07336706 0.01665287
000150 fc 4d 8e bd 3f 1d 69 3d e2 92 77 3d 40 6c ce 3d
       -0.06948468 0.056912657 0.060442813 0.10079241
000160 d8 77 33 3d 0a 5a e5 3d 04 f3 04 bd 90 a6 76 3d
       0.043815464 0.11198814 -0.03245832 0.06021744
000170 15 5e 05 bd 71 51 e6 3d dd 74 db 3d 49 2a 58 3d
       -0.032560427 0.112460025 0.10715649 0.0527747
000180 63 2a e0 3d f9 9f eb bd 7f 42 91 bc 55 f9 64 bd
       0.109455846 -0.11505122 -0.017731903 -0.055901844
000190 e3 8f e1 3d 15 5c 5d bc f7 ba a1 bd 6b 12 25 bd
       0.11013772 -0.013510724 -0.07896989 -0.040300768
0001a0 0b fb 0d 3d 32 3b bd 3d 51 56 b2 3b a9 cd d8 3d
       0.03466324 0.09239806 0.0054424186 0.105861016
0001b0 74 ec a7 3d 41 db c1 3d 1d 5e 54 bd f1 fb 91 bc
       0.08199397 0.094656475 -0.051847566 -0.01782033
0001c0 34 f4 ff 3c 12 8e 25 bc 2e 81 11 3d fe 72 a2 3d
       0.031244375 -0.010104673 0.035523586 0.07932089
0001d0 cc 74 16 3d fd 74 dd bd 38 9a d8 bd 0f 2b 79 bd
       0.03673248 -0.10813329 -0.1057629 -0.06083208
0001e0 8a 81 a9 bd 83 a4 ab ba e3 30 d6 3d 5f 96 29 bc
       -0.08276661 -0.0013095293 0.10458543 -0.010350793
0001f0 20 ae a8 bd 93 45 14 3d 56 8f 21 bd 18 a6 c1 bd
       -0.08236337 0.036199164 -0.039443336 -0.09455508

actor.2.weight f4 [128, 128]
000000 f9 ea 8c bd 9b c1 87 3d 74 18 17 3d 2b f5 67 3d
       -0.06880755 0.06628724 0.036888555 0.056630295
000010 b1 95 a9 3d 8c a0 8d 3c 53 cf 81 bc 59 ee 55 bc
       0.082805045 0.017288469 -0.01584593 -0.013057315
000020 6c c5 64 3d 1c 1e 43 3c e1 bb 74 3d 9c 81 20 3d
       0.05585234 0.011909034 0.059749488 0.039186105
000030 1b 4c 04 3d 2a 07 56 3d 2c 21 85 3d 99 96 90 3d
       0.032299142 0.052252926 0.06500468 0.07059974
000040 45 fc f2 3b 4c a3 8d bd a7 7d b3 bd dc 26 e9 bc
       0.007415327 -0.06915912 -0.08764201 -0.028460912
000050 38 34 fc 3c 83 34 89 bd ac 5d 94 3d eb 4b 58 3d
       0.030786619 -0.06699469 0.07244429 0.052806776
000060 ae 5c 4d 3b 63 fd a5 3d 78 01 42 3d c0 87 62 bd
       0.003133576 0.0810497 0.047364682 -0.055305243
000070 7e dd 15 bc 00 4a 1c 3c 5f 6e 8e bd 50 5e ac 3d
       -0.009147046 0.009539127 -0.06954645 0.08416426
000080 df 70 c2 bb a0 4a 1f 3d 9a 6c 5c bd f2 1a 05 3b
       -0.0059338654 0.038889527 -0.053814508 0.002031025
000090 29 e6 4f 3d 46 6e b1 3d 0b f3 ac bd 8b 7b a0 bc
       0.050756607 0.08663611 -0.08444794 -0.01959016
0000a0 4a 79 2f bd fd 10 5e bd a4 38 38 bd 91 24 4b 3d
       -0.04284028 -0.05421542 -0.04497589 0.04959542
0000b0 58 c3 38 bc f5 29 14 bc 48 22 55 3d 86 68 8b 3d
       -0.011277042 -0.009043206 0.052034646 0.06807046
0000c0 cd f8 5b bd b0 f3 20 3c 19 eb 3c bd 97 e6 f7 bc
       -0.05370407 0.009823725 -0.046122644 -0.030261321
0000d0 c6 46 75 3c 32 10 ad bc ba e7 ed bc d1 c9 32 bd
       0.014970487 -0.021125887 -0.02904116 -0.0436495
0000e0 b0 89 13 bd 38 49 f6 bc 2e 7c 93 bd 8f 63 e1 3a
       -0.03601998 -0.03006421 -0.0720142 0.0017195808
0000f0 f0 dd 9f 3d ba 1a 63 bd 36 6b 94 bc 23 84 3a bc
       0.07806003 -0.05544541 -0.018117528 -0.011384043
000100 47 46 95 3d fe dd f3 bc 01 60 fa bc c6 4f 3f bd
       0.07288795 -0.02976894 -0.030563356 -0.046706937
000110 06 e1 9e 3c 1a be f0 bc e6 27 3b 3d 2e 71 b3 3d
       0.019394409 -0.029387522 0.045692347 0.08761822
000120 8c df fa bc 8f 8a 83 3d 56 d6 64 3c fe c7 91 bc
       -0.030624174 0.06422912 0.013967117 -0.017795559
000130 ab 09 91 3c 2f 84 87 3d fe 2f 9a bd 7c 4c 96 3d
       0.017704805 0.06617009 -0.07528685 0.07338807
000140 eb f3 8d bd fa 5b 07 3d 1e ac 98 bd 55 13 9e 3d
       -0.06931289 0.0330467 -0.07454704 0.07718531
000150 bc f6 7d 3d cf 59 38 bd cd e9 6d 3c b5 a1 a4 bc
       0.062002882 -0.045007523 0.0145210745 -0.02009664
000160 ab 96 84 3d 9a 2b 5e bb 71 4b f4 bb 92 2b 94 3d
       0.0647405 -0.00339005 -0.0074552824 0.07234873
000170 42 09 4a bd b9 6f c6 bc 2f 67 2c 3d 26 16 a8 3d
       -0.049325235 -0.024223195 0.04209059 0.082073495
000180 6d 4b 46 3d b0 23 b9 bc 4b f8 18 3d 75 23 08 3d
       0.048411775 -0.022600025 0.037346166 0.03323694
000190 c3 cc e1 bc de e8 7d 3d 88 52 31 3d 05 14 8b bc
       -0.027563458 0.061989658 0.0432916 -0.01697732
0001a0 af bf 6f bd c8 c2 d3 bb 17 33 a8 3c 91 04 3f 3d
       -0.058532413 -0.0064624287 0.020532174 0.046635214
0001b0 46 3f 46 bd f5 7a 96 3d 6e 4a 14 3d 48 46 aa 3d
       -0.048400186 0.07347671 0.036203794 0.08314186
0001c0 a9 d0 a9 3b ba 9a 9f 3d 17 ca 17 bd 16 c2 97 3d
       0.005182345 0.077931836 -0.037057962 0.07410066
0001d0 aa cd ab bd df 05 47 bb 11 8c a1 bc 2e 8e 7f 3c
       -0.08388837 -0.003036849 -0.01972011 0.015597863
0001e0 11 01 38 bc 87 c3 83 3d 2e dd 9b bd 68 7c 86 3d
       -0.011230723 0.06433778 -0.07610546 0.06566697
0001f0 95 71 1b 3d e5 a6 29 3d 12 ad 66 bd 7a ac ea bc
       0.037950117 0.04141893 -0.056317396 -0.028646696
000200 69 9a f9 bb ac 5a 2f bd 76 db 34 3d 79 71 5a 3d
       -0.007617284 -0.04281108 0.044154607 0.053330872
000210 0d 7e e6 3c 49 d0 ab 3d 91 99 1d bc a3 b5 72 3d
       0.028136278 0.083893366 -0.009619133 0.059255254
000220 95 06 1c bd c1 7e 87 3d 3a c3 86 bd cb 2b 77 bd
       -0.038092215 0.06615973 -0.06580205 -0.0603445
000230 61 ba 54 3d 81 86 9b bd 5c 3f 81 3d b1 fe 15 bd
       0.051935557 -0.07594014 0.06310913 -0.036619846
000240 2e 7c 45 3d 83 7b 9e bc 95 98 94 3d 12 de 9d bc
       0.04821413 -0.019346004 0.07255665 -0.01927093
000250 8d dd 49 bd da 72 43 3d ff 31 a8 bd 0c ac ad bc
       -0.049283553 0.047716953 -0.08212661 -0.021200202
000260 0c ec cd bc 17 24 1f bd 16 52 b6 3b 7e 74 77 3d
       -0.02513697 -0.038852777 0.0055639846 0.06041383
000270 29 bc ac bb cf 45 4b 3d e9 37 43 bd ca b8 30 bd
       -0.005271454 0.04962712 -0.047660742 -0.04314498
000280 36 33 d4 3c 91 58 11 3d b3 a9 4f 3b 82 8d 74 3c
       0.025903326 0.035484854 0.0031686842 0.014926316
000290 d3 c9 52 bd 30 b9 26 bc 3a ea aa bd cf b1 ed bc
       -0.051462006 -0.010175988 -0.083454564 -0.02901545
0002a0 f0 5b 47 3d 18 0e 93 3d af 55 91 bd a1 7d 8e bc
       0.048671663 0.071804225 -0.07096421 -0.017393889
0002b0 e2 df 25 3a 6a 29 7c 3c 34 47 a6 bd c6 5c 99 bd
       0.00063276116 0.015390733 -0.0811905 -0.07488398
0002c0 80 4d 12 3c 1a 16 9f 3c 5e dd 85 bd e1 0a 12 3d
       0.00892961 0.019419719 -0.06536363 0.035654906
0002d0 94 2c 57 3d bc 92 46 bd ab 31 f5 3c 39 22 89 bd
       0.052532747 -0.04847978 0.02993091 -0.066959806
0002e0 47 e4 17 bd 04 93 5e bb 78 a8 92 bd 74 45 41 3d
       -0.037082937 -0.003396214 -0.07161039 0.047185376
0002f0 cc 70 04 3c a1 d4 48 bc 37 77 82 bd 2a 84 4a bd
       0.0080835335 -0.012257726 -0.06370395 -0.049442448
000300 01 38 70 3d ed 68 8b bd 60 0d a3 3d 39 65 ba bc
       0.05864716 -0.068071224 0.079615355 -0.022753345
000310 3b d0 22 bb 5c 18 ac 3d b9 e5 02 3d d6 ec 26 3d
       -0.0024843353 0.08403084 0.03195736 0.040753208
000320 15 0c 2b 3d 8f ca 8f 3d 88 eb 31 3c 70 c4 4d 3d
       0.04175957 0.07021057 0.010859378 0.050236166
000330 60 85 6c bc b4 95 5c 3d 70 6e 27 3d d9 c1 15 3d
       -0.014436096 0.053853706 0.040876806 0.03656182
000340 c3 fc 85 bd 73 64 aa 3d 34 18 73 bd c2 79 e7 bc
       -0.06542351 0.083199404 -0.059349254 -0.0282563
000350 f7 da 49 bc 7c e7 66 bd e7 bd 88 bd 5a b1 3f 3d
       -0.012320272 -0.056373104 -0.06676846 0.046799995
000360 ed 26 91 3d c0 07 0c 3c aa 5c 48 3d f7 68 5e 3d
       0.07087503 0.00854677 0.048916496 0.05429932
000370 5e 6a c7 3b 53 36 4a 3d a0 46 b3 3d fc 34 96 bd
       0.006085678 0.049368214 0.08753705 -0.07334325
000380 9f 31 61 bc c7 54 ae bb 33 5a db 3c 9c 15 6e bd
       -0.013744741 -0.005320165 0.026776409 -0.058126077
000390 4c fa 56 bb 68 f0 02 3d fd be b0 3d 06 74 84 bc
       -0.0032802997 0.03196755 0.08630178 -0.016168606
0003a0 e4 57 6e 3d 7d 42 68 bd c6 07 3a bc 23 d1 a4 bd
       0.058189288 -0.056704033 -0.011354392 -0.08047702
0003b0 23 a9 77 3b 5b 70 85 3d 23 1d 84 3d 79 67 7a bc
       0.0037790022 0.06515571 0.0645087 -0.015283459
0003c0 12 3a 5d 3d d2 94 62 3d 1a ce af 3d 06 b5 de bc
       0.05401046 0.055317707 0.08584233 -0.027185928
0003d0 b4 7b 67 3c ab 78 68 bd b0 f4 14 3d 8a 29 ae bd
       0.014128614 -0.056755703 0.036366165 -0.08504017
0003e0 4e ae 32 3d 8c 9a 8f bd 9f 7a a2 3d bb 07 12 bd
       0.04362326 -0.07011899 0.07933544 -0.035651904
0003f0 9b 48 21 3d ba 12 ee bc 43 8c 4a bd c2 70 a4 3d
       0.039375883 -0.029061664 -0.04945017 0.08029319

actor.2.bias f4 [128]
000000 16 31 12 3c 16 bf 11 bd 55 dd 81 3b 20 59 e6 bc
       0.008922836 -0.035582624 0.0039631524 -0.02811867
000010 91 7c 3c bc d7 30 cd 3b e2 04 b5 bd 97 61 aa bd
       -0.011504308 0.0062619257 -0.08838822 -0.08319395
000020 4b 04 bc 3c 67 e9 0f 3d f5 5d b2 3d dc f1 64 3d
       0.022951266 0.0351347 0.08709327 0.055894718
000030 2c de 3e 3d 67 df 7a 3d b9 ba e7 ba f4 2e a6 3d
       0.0465986 0.06124821 -0.0017679549 0.08114424
000040 e0 2a 49 bd 83 be 83 3d 66 82 17 3d 54 95 9a bd
       -0.049113154 0.064328216 0.036989592 -0.07548013
000050 38 50 8b 3d cf e8 f1 3c 31 4e 91 3d 53 15 97 3d
       0.0680241 0.029529957 0.07094992 0.07377114
000060 81 bc 8e bd 93 6a 70 b7 55 88 19 3d d7 45 9c bd
       -0.06969548 -1.43299285e-05 0.037483532 -0.076305084
000070 0f 02 9d bd 4a c1 92 3a 0a 7e ab 3d df 2b 99 3d
       -0.07666408 0.0011196521 0.083736494 0.07479071
000080 81 32 e9 3c 01 c1 07 3d d9 cb 41 bb be f8 21 3c
       0.028466465 0.033143047 -0.0029570966 0.009885965
000090 98 9e 17 bc 4c f5 07 bd 4b 43 16 bd 09 23 00 bb
       -0.00925412 -0.033192918 -0.03668527 -0.0019552133
0000a0 3b d8 35 3d 64 72 a1 39 f6 d2 80 bd 5f a7 ea 3b
       0.044395667 0.0003079354 -0.062902376 0.0071610655
0000b0 41 91 4a bd b3 ed a9 3d 59 5a 8b 3d f0 98 b0 3c
       -0.04945493 0.08297291 0.06804342 0.021557301
0000c0 b9 c1 98 bc 21 db 94 bd d7 59 bf bc 07 d8 9f bc
       -0.018647062 -0.07268358 -0.023358269 -0.01951219
0000d0 ba 9e 87 bd 50 45 10 3d f7 c9 05 bd 0f 0a 3a 3d
       -0.066220716 0.03522235 -0.03266331 0.04541975
0000e0 55 4c b4 bd ba b8 27 3d 93 bf b3 3d 57 9a 13 bd
       -0.08803622 0.040947653 0.08776774 -0.03603586
0000f0 f0 ce f4 3c 95 81 62 bc 7c 1c 41 3d 47 c3 27 bd
       0.029883832 -0.01382484 0.047146305 -0.040957715
000100 df 53 98 3d 1d 7a a6 3d 81 74 33 bd 2c 35 96 bb
       0.07437872 0.0812876 -0.04381228 -0.0045839753
000110 28 64 91 3d 55 6c 8d 3c c8 a6 dc bb 1f 08 b4 3d
       0.070991814 0.01726357 -0.006733749 0.087906115
000120 f5 40 91 3c e6 0b ff 3c fd e0 96 3d 91 ab 38 3b
       0.01773117 0.031133603 0.07367132 0.0028178433
000130 64 42 1e 39 95 2a 20 3d 72 18 01 bd dc 9e 49 bd
       0.00015092787 0.03910311 -0.031517453 -0.049223766
000140 3f fa a9 3d 8c 63 88 3d 17 aa fb bb de 58 85 3d
       0.08299684 0.06659612 -0.0076801884 0.06511091
000150 bf 61 72 3d 0d e2 2b 3d a5 1b 3f bd 6a cc 75 bc
       0.05917525 0.041963626 -0.046657223 -0.015002349
000160 a4 34 77 ba 07 f0 af bc e5 d5 01 3d df f9 83 bc
       -0.00094301463 -0.021476759 0.031698126 -0.016110359
000170 2e c9 40 3c 82 17 e8 bc fc f1 09 bd 8f 2a df 3c
       0.011766715 -0.028331522 -0.03367804 0.027241973
000180 c4 aa f0 3c de e6 99 3d c1 88 e4 bc f8 04 3a 3d
       0.029378302 0.075147375 -0.02789724 0.045414895
000190 31 01 9b 3d 52 cd ba bc 9e 90 00 3d 31 47 88 3d
       0.075685866 -0.022802982 0.031387918 0.06654204
0001a0 05 92 52 3c 25 0f 3a bd 50 9c 3c 3d 3d 55 7f bd
       0.012852197 -0.0454246 0.04604751 -0.06233715
0001b0 81 31 ad 3d 09 89 a6 3c 9e 39 99 bd 37 61 03 bd
       0.08456708 0.020329015 -0.07481693 -0.032075133
0001c0 37 c0 21 bc d2 b8 3f 3d 5a 22 26 3a 59 7c 05 ba
       -0.009872488 0.046807118 0.0006337516 -0.00050920766
0001d0 8d b3 02 bd 13 41 07 bc 42 71 87 3d bd 45 8b 3c
       -0.031909514 -0.008255261 0.06613399 0.017001027
0001e0 7c 5f 82 bc 73 53 b7 3c eb 09 7d 3d 55 c0 a0 3d
       -0.015914671 0.022378659 0.061777037 0.078491844
0001f0 3b 4d e3 b9 9f db a2 bd ae 84 55 bc 6a 2c 4c bd
       -0.00043354355 -0.07952046 -0.013032122 -0.049847044

actor.4.weight f4 [128, 128]
000000 d1 eb fd 3c b2 73 f9 3c e2 2a 95 3d 02 23 51 3d
       0.030996235 0.030450676 0.0728357 0.051058777
000010 56 18 b8 bc 3a 6f 61 3c 0c 72 97 3b c0 af 00 3b
       -0.022472542 0.013759429 0.0046217497 0.0019636005
000020 9c 09 46 bc f8 5d 9f 3d 7b 50 7c 3d f8 38 6b 3d
       -0.012087252 0.07781595 0.06160019 0.057427377
000030 25 3f a6 bd a7 79 ad bd 3c f3 cc 3b fc 54 63 3d
       -0.081175126 -0.08470469 0.0062545817 0.05550097
000040 ee 8a 27 bc 9e 77 8e 3c 27 a6 9f bb a8 97 06 bd
       -0.0102259945 0.017391022 -0.004872102 -0.032859474
000050 7e 3f d5 3c 3b ba 6a bd c9 69 77 bd a7 42 85 bc
       0.026031252 -0.05730651 -0.06040362 -0.016267134
000060 79 68 81 bd 74 a5 91 3c 65 ec 28 3c 3d 82 29 bd
       -0.06318755 0.01777909 0.010310267 -0.04138397
000070 9a 6f fa bc 28 cf af bd a7 36 b4 3d f9 74 06 bd
       -0.030570794 -0.08584434 0.087994866 -0.032826398
000080 b5 39 48 3d 94 10 de bc c9 5e dd 3c e3 3d fe bc
       0.04888316 -0.027107514 0.027022736 -0.03103537
000090 1b 65 89 bd 23 d4 8c 3d 5e 0a 0a bc d7 30 b3 3d
       -0.067087375 0.06876399 -0.008425323 0.0874955
0000a0 e4 69 35 3d 9f 5e 54 bd 6c 46 31 bc 25 e1 8b bc
       0.04429044 -0.05184805 -0.010820013 -0.01707513
0000b0 fb cf 7e bd ea 6c 31 3c d4 cb 99 bd 7b 19 7c 3d
       -0.062210064 0.01082919 -0.0750958 0.061547738
0000c0 5f 58 58 3d 90 d4 63 bd 94 5b af 3d ee d2 00 bd
       0.052818652 -0.055622637 0.08562389 -0.03145116
0000d0 3e 7c 11 3d 0c 3c 70 3d 7a 75 82 bd 10 a2 87 bd
       0.035518877 0.058651015 -0.06370063 -0.06622708
0000e0 31 d4 f1 3c b0 6a 99 bd 91 62 89 bd 69 85 89 3d
       0.029520126 -0.07491052 -0.06708253 0.06714899
0000f0 0d 64 64 3c 1a 4c b1 3c b8 4c d3 3c 00 bf 32 ba
       0.01393987 0.021642733 0.025793418 -0.00068186224
000100 6b e4 5f 3d 0a c3 5f bd 37 c6 23 bd 17 e1 72 bc
       0.054661196 -0.054629363 -0.039983954 -0.014824173
000110 c7 01 4a bd c0 78 5d bd 0e 1b 16 bd 8a e4 50 3c
       -0.0493181 -0.054070234 -0.036646895 0.0127498
000120 9d c7 61 3d 2c 7c ad bd c7 fb 95 3d 1a fd f4 bc
       0.055122007 -0.084709495 0.07323413 -0.029905844
000130 5a 53 00 bd 09 1e b2 3d d1 83 92 3d 36 f8 94 3b
       -0.03132949 0.08697135 0.07154048 0.0045461906
000140 aa aa 92 bd d9 ad 57 3d 38 90 e5 3c 86 33 a1 bc
       -0.07161458 0.05265603 0.02802287 -0.019677889
000150 c6 01 c5 bb 5c b1 d5 bc e7 c2 a3 3d c3 5c 03 3c
       -0.0060121743 -0.026085548 0.07996159 0.008017722
000160 82 77 75 3d 15 d0 b1 3d 6f 0a 23 3c 6b 20 4e bc
       0.059928425 0.086822666 0.009951218 -0.012580971
000170 1c 96 ae bd 79 9d d9 3c d7 53 81 bd 15 1b d4 3c
       -0.08524725 0.026564347 -0.06314819 0.02589182
000180 c0 48 a7 3d 49 84 a8 3d 7d 07 e8 3c 73 4b e1 3c
       0.08168173 0.082283564 0.028323883 0.027501797
000190 99 64 ab 3d 18 a9 01 bd c4 28 01 bd fe 24 95 3d
       0.08368797 -0.0316554 -0.031533018 0.07282446
0001a0 7d cf ad bb 72 bb a9 3c 65 0f 9d bd f8 0e 22 3d
       -0.0053042755 0.020719264 -0.07668952 0.039565057
0001b0 4f a5 24 bd 92 3a 00 3d eb cb e2 bc 50 02 aa 3c
       -0.040196713 0.031305857 -0.027685126 0.020753056
0001c0 00 d3 90 bc 46 31 57 3c 79 23 7b bd b9 29 6f 3b
       -0.017678738 0.013134306 -0.061313126 0.0036493375
0001d0 3d 8f 4b 3d d5 49 21 3d e2 a9 76 3d 74 b4 5b 3d
       0.04969715 0.039377052 0.060220607 0.05363889
0001e0 b4 c5 97 3c 68 c4 51 bd 8d 7e 78 3c e7 a2 b2 bd
       0.01852689 -0.0512127 0.015166891 -0.087224774
0001f0 18 81 13 3b 86 8d 65 3d 74 e9 2d 3d 29 b3 93 bd
       0.0022507366 0.05604317 0.042458966 -0.072119065
000200 f3 1d 66 bb fb 4c 9b 3d 60 72 48 bd 8f 75 7e bd
       -0.0035113066 0.07583042 -0.0489372 -0.06212383
000210 81 59 6c 3d dd ef 8f bb 33 47 86 3c af 96 2a bd
       0.057702545 -0.0043926076 0.016391372 -0.04164761
000220 50 9d 94 3d 00 99 b9 3c b2 1e 9a bd 99 e3 ad 3d
       0.072565675 0.022655964 -0.07525386 0.084906764
000230 32 01 83 3d 58 66 aa 3c bd 01 21 bc 1c 00 db bb
       0.06396712 0.020800754 -0.009827075 -0.0066833626
000240 e5 08 91 3d cd 9d a0 bd 46 03 71 3d 92 2a ee bc
       0.070817746 -0.07842598 0.058841012 -0.029073033
000250 93 6f 01 bd d2 a4 f4 3c 99 f7 a5 bd 23 95 8a bc
       -0.031600546 0.029863749 -0.08103866 -0.016916817
000260 2b b4 1a bb 4e d2 0c 3d 08 de 8b bb 0e 67 a1 3d
       -0.0023605924 0.03438025 -0.0042684115 0.07880984
000270 3a 4f d1 3b 4e a7 af 3b e9 4b 80 3d b9 9d 32 bc
       0.0063876184 0.0053605204 0.06264479 -0.010901862
000280 68 a3 7d bc f6 a7 a9 3d c3 ab ce 3b d0 3b b6 3b
       -0.015480854 0.08283989 0.0063070967 0.0055613294
000290 bf 24 b0 bd c4 eb 37 bd ea e7 9b bc 41 e0 93 bd
       -0.08600759 -0.044902578 -0.019031484 -0.072205074
0002a0 50 68 88 bc fe 68 2f bc 0a 56 af 3d ac 0d 23 bd
       -0.016651303 -0.010706184 0.085613325 -0.03980796
0002b0 81 ab 86 bd 5a 8e a7 bd 78 c7 55 bd 7e 22 59 bd
       -0.065756805 -0.08181448 -0.05219218 -0.05301141
0002c0 54 a4 a7 3d ca b4 fa bc 45 c2 13 bd af 27 af 3d
       0.0818564 -0.030603785 -0.03607394 0.08552491
0002d0 85 b6 ec bc 69 3e 93 bd 7e da 80 3d 56 7b 13 3d
       -0.028895626 -0.07189638 0.06291674 0.036006294
0002e0 03 21 8e 3d c9 63 a2 3d 6f 8f b9 3a 33 cc 78 bc
       0.0693989 0.07929189 0.0014157126 -0.015185404
0002f0 72 bd 80 bd 03 49 2a 3d 3b 2a 56 b8 e4 5a 0c bd
       -0.06286134 0.041573536 -5.1060906e-05 -0.034266368
000300 d9 87 5e bd bf 33 8f 3d 6e a4 9b 3d 0a 77 95 bd
       -0.054328773 0.06992292 0.07599722 -0.072980955
000310 66 bd 83 bd f1 e9 af bd db 61 f2 bc c1 bc ab bd
       -0.06432609 -0.08589543 -0.029587677 -0.08385611
000320 fe 1f cf 3b b1 9c 41 bc 5d d9 0c 3c c8 53 4c 3c
       0.0063209524 -0.011817143 0.008596745 0.012471147
000330 5e a5 49 3d d2 b6 0f bd ed 0e 4e 3d 49 72 88 3d
       0.049229972 -0.03508646 0.050307203 0.06662423
000340 e0 7b 74 bd 7e a9 b1 bd 23 84 a8 3d 0b 9a 86 bc
       -0.05968845 -0.08674906 0.08228328 -0.016430875
000350 93 20 83 3d 57 2a 81 bd d4 ce 33 bd 60 62 37 bd
       0.064026974 -0.06306904 -0.04389842 -0.044771552
000360 d8 2e 09 3d 13 79 06 bd b0 10 4b 3d 5e cf ab bc
       0.03349194 -0.03283031 0.04957646 -0.020972904
000370 1c f8 04 3d c2 38 a1 bd 88 f2 88 bd 58 ef 57 bd
       0.032463178 -0.07872154 -0.06686884 -0.05271849
000380 13 df 9e bd c5 36 54 bd c1 2c 77 3d d8 34 88 3d
       -0.07757392 -0.051810045 0.060345415 0.06650704
000390 4b 61 9b 3d 7b b9 84 bd 66 b8 37 3d cb 79 a6 bd
       0.075869165 -0.0648069 0.04485359 -0.08128699
0003a0 d3 eb a1 3d 5a 82 ac ba 09 4b c7 bc ec ed 2e 3d
       0.07906308 -0.0013161406 -0.024327772 0.04270737
0003b0 01 d2 9b bd ef 6a 9d bd 69 ee 9b 3c 26 b0 69 bd
       -0.076084144 -0.076864116 0.019034581 -0.057052754
0003c0 a2 7d 8a bd c5 5b 50 bd 81 b3 0d 3c 16 57 8f 3c
       -0.06762244 -0.05086877 0.008648754 0.01749758
0003d0 01 5b 09 3d 83 57 8e 3b 6b 2e bb 3b f6 78 a1 3d
       0.033534054 0.0043439283 0.0057123206 0.078843996
0003e0 06 53 49 bc 75 f9 81 bd d8 5f ee bc 6b fb ae 3d
       -0.012287861 -0.06346408 -0.029098436 0.08544048
0003f0 e6 a3 8a bb 39 60 c8 bc 12 ee 81 bd 52 35 92 bd
       -0.004230964 -0.024459945 -0.063442364 -0.07139076

actor.4.bias f4 [128]
000000 c1 a6 6e bd 47 a9 88 bd 30 62 b7 bc 34 4a 20 bc
       -0.058264498 -0.06672912 -0.022385687 -0.009783316
000010 2d 37 db ba 18 65 37 bd 5d 0c a2 3d 35 4b 9e bd
       -0.0016724818 -0.044774145 0.07912514 -0.07729188
000020 54 62 0e bd 9d cf 3b bd fc 20 85 bd ef 49 6c 3d
       -0.03476174 -0.045852292 -0.06500432 0.057687696
000030 f2 6a 25 3c 79 83 25 3d e6 b2 81 bd a5 d6 e9 3c
       0.0100962985 0.040408585 -0.0633295 0.028544733
000040 89 52 9c 3d 38 d2 9a 3d a9 d8 55 bd c3 82 a4 bd
       0.0763293 0.07559627 -0.052208576 -0.08032753
000050 85 9a ba 3c 33 2e 58 bd a9 7c 35 3d 53 53 cf bc
       0.022778759 -0.052778434 0.04430834 -0.025308287
000060 cc d0 17 bd c7 d6 23 bd 76 e5 b3 3d b3 dd 4e 3c
       -0.03706436 -0.03999975 0.087840006 0.012626099
000070 42 2b 41 3d 27 39 b2 bd 38 24 2e 3d 15 36 87 bd
       0.047160394 -0.08702307 0.04251501 -0.06602112
000080 09 a3 3b bd cb 77 92 3c a6 cb 6b 3d 11 66 0f bd
       -0.04580978 0.017879387 0.05756726 -0.035009447
000090 2e 7f 72 3d fd 4f 14 3d 61 59 f9 3c 8d 87 3e bd
       0.05920332 0.036209095 0.030438127 -0.04651599
0000a0 76 57 ab 3d 43 4d 91 bb 16 58 96 bc 37 dd 17 3c
       0.08366291 -0.004434259 -0.01835255 0.00926905
0000b0 60 06 72 3c 7f eb 1c bd a1 62 8d 3d 65 98 3b bd
       0.014772028 -0.038310524 0.069035776 -0.04579963
0000c0 ef 5d 87 3d 1f 7f b1 bb 0f f4 e8 bb 50 55 ae 3d
       0.06609713 -0.0054167653 -0.007109172 0.08512366
0000d0 a6 74 20 3d b7 63 4c 3d cb 7a b9 bc 14 e5 af bd
       0.039173745 0.049899783 -0.02264156 -0.08588615
0000e0 27 73 04 3d 62 29 4d 3d 4c 12 46 bd 72 af a0 bd
       0.03233638 0.050088294 -0.048357293 -0.078459635
0000f0 af 5f 43 3d a4 8b b3 3c 7a f8 aa bd 87 8f 96 3c
       0.047698673 0.021917172 -0.083481744 0.018378986
000100 54 e8 b9 3c ba 88 95 bb c5 91 92 3d 2b 8d b3 3c
       0.02269379 -0.004563418 0.071567096 0.0219179
000110 27 72 83 3c ec 73 a5 3d 7f d2 42 bc 93 f0 67 bd
       0.016045643 0.08078751 -0.0118910065 -0.056625914
000120 84 1f cd bc d8 5a 3b 3d 71 69 a2 3d 8a 53 5f 3d
       -0.025039442 0.045740932 0.079302676 0.05452303
000130 7d 54 a4 bd 3f f6 2f bd ec 59 7f bd 8f 11 ab 3d
       -0.08023927 -0.042959448 -0.062341616 0.083529584
000140 17 b6 7f 3c da b5 56 bd 46 7f 9f 3d c1 1c 27 3c
       0.015607378 -0.05241952 0.07787947 0.010199727
000150 05 3b 82 3d 43 b2 0e 3d 24 6d 98 bd dd 9b e9 bc
       0.06358913 0.034837972 -0.07442692 -0.028516704
000160 e5 49 41 3d 7a 96 3a bd 77 53 34 ba 0b 82 87 bd
       0.047189612 -0.045553662 -0.00068788923 -0.066166006
000170 e6 e3 a6 3c bf 88 8d bd 58 7f 3e 3c a0 24 85 bd
       0.020372342 -0.06910848 0.011627041 -0.06501126
000180 03 71 96 3d aa 22 4b 3c 2b 26 91 bd 6f 41 ac bc
       0.07345774 0.012398401 -0.07087358 -0.021027295
000190 6d c9 91 3c 29 24 ad bd bd 28 e9 3b 19 ab a6 3d
       0.017796243 -0.084541626 0.007115452 0.08138103
0001a0 41 8c 02 bd 57 98 9e bd 24 e7 b4 3d 8b 3f 47 3c
       -0.031872038 -0.077439 0.08833149 0.012161146
0001b0 5c 14 d1 bc 0c 4a 63 bd 5c 28 8e bd c3 57 1b 3d
       -0.025522403 -0.05549054 -0.06941292 0.037925493
0001c0 13 1f 8e bd e4 db 04 bd fe 2e 47 bd 31 67 44 3d
       -0.06939521 -0.032436267 -0.0486288 0.047949973
0001d0 2e 82 71 bd 87 b7 8b 3d 22 18 ef 3c 04 39 0e 3c
       -0.05896204 0.068221144 0.029186312 0.008680586
0001e0 f3 8f 35 bd 07 9c df bc 2c a7 79 bd 9f ac 84 3d
       -0.044326734 -0.02729608 -0.060950443 0.06478237
0001f0 26 e9 30 bd c5 ba b2 bd 28 13 98 3d 11 d2 09 3c
       -0.043191098 -0.0872703 0.07425529 0.0084119

actor.6.weight f4 [5, 128]
000000 7b 7e 85 3d b2 76 ac 3d 32 24 9d bd 3d a2 17 3d
       0.06518265 0.08421077 -0.07672919 0.037019957
000010 7c 83 14 3d 69 c5 36 bd a5 64 83 bd 6b 61 8b bd
       0.036258206 -0.04462186 -0.06415681 -0.068056904
000020 af fd 9e bd be 1e 4b 3d 2a 58 99 3d d2 fb 52 bb
       -0.0776323 0.049589865 0.07487519 -0.0032193554
000030 4f d3 cb bc 3b af 7c 3c a8 ab a3 bd c8 b3 91 3d
       -0.024881033 0.015422638 -0.07991725 0.07114369
000040 47 dd ad 3b b8 3d a6 bd 87 90 37 3d f1 de 54 bd
       0.0053059193 -0.08117241 0.044815566 -0.051970426
000050 b0 77 c4 3c b0 8e 85 3c 44 0d 01 3b 72 ca b3 3d
       0.023982853 0.01630339 0.0019691745 0.08778848
000060 47 f5 8c bd d9 60 90 bc 89 43 95 bd 5a 1c a0 bc
       -0.068827204 -0.017624306 -0.07288272 -0.01954477
000070 c0 22 58 bd ac 48 9d 3c d1 ab 65 3d 12 83 a1 3d
       -0.052767515 0.019199692 0.05607206 0.07886328
000080 2c 5e b4 3d b7 8f 34 3d 8a 4b 0b 3d 22 41 a2 bc
       0.08807024 0.04408237 0.034007587 -0.019806448
000090 c1 4b 6d 3d 65 5b 98 3d ae 15 39 3d 79 e5 94 bc
       0.057933573 0.07439307 0.04518669 -0.018175827
0000a0 64 3e a4 3d a3 0a 89 bc 07 c9 9e 3c 1d c6 a4 bd
       0.080197126 -0.016728705 0.019382967 -0.080455996
0000b0 cf b3 7e 3d 18 ec 2b 3d 64 8e 57 bc cb ab 7f 3c
       0.062183198 0.041973203 -0.013156507 0.0156049235
0000c0 11 78 84 bc c6 70 0f 3d 35 75 36 3d 2d 29 ae 3d
       -0.016170533 0.03501966 0.04454537 0.085039474
0000d0 ba 86 a4 3b cc 90 80 3d 70 d3 93 bd f0 a5 4e 3d
       0.0050209435 0.06277618 -0.07218063 0.05045122
0000e0 da 0d a9 3c 31 24 64 bd de a2 fa 3a 61 9b 08 bd
       0.020636488 -0.055698577 0.0019122025 -0.033351306
0000f0 88 00 92 3d c2 31 53 bd 6a 6a a7 bd d4 d3 94 bd
       0.071290076 -0.051561125 -0.08174594 -0.072669655
000100 e4 45 09 bd 4b 7b a5 3d e7 3e 43 3d a4 0a a2 3d
       -0.03351392 0.08080157 0.04766741 0.07912186
000110 a3 43 ad 3c a1 7a 20 3d cb 68 a7 bc e1 6f a7 3d
       0.021150416 0.039179448 -0.020435711 0.08175636
000120 23 3a f0 3b 51 7e 09 3c 2a 73 9c 3d 97 e1 8f bc
       0.007331149 0.008391933 0.07639153 -0.017563624
000130 b7 e7 5a 3d 9f fd 9c 3d 55 b6 ae 3d 70 52 60 3b
       0.053443637 0.07665562 0.08530871 0.0034228824
000140 4e a9 82 3d 73 18 74 3d 9f 49 25 3b 6f 48 ca bc
       0.063799486 0.05959363 0.0025220884 -0.024692742
000150 82 d3 10 3c 1e b6 34 bd 4f 01 a7 bc d2 74 ed bc
       0.00883949 -0.044118993 -0.020386366 -0.028986368
000160 57 b5 a6 3d f0 49 3b 3d a7 9d 72 bd 89 4f 85 bc
       0.081400566 0.04572481 -0.05923238 -0.016273277
000170 59 20 20 bd 0b 7f 8d 3d 6a bf 2b 3d 94 07 c2 3c
       -0.03909335 0.06908997 0.041930594 0.023685254
000180 24 90 ca bc 83 95 93 bd 51 71 63 3d 1d 46 b2 bd
       -0.024726935 -0.072062515 0.05552799 -0.08704779
000190 b1 0e e4 bc 75 da a0 bd 6d 09 04 3c 17 b3 99 3c
       -0.027839037 -0.07854167 0.008058888 0.018762155
0001a0 22 4c 44 bc 43 4e 30 3d cc 1a ae bb 3b 62 9e 3d
       -0.011981042 0.043043386 -0.005313253 0.0773358
0001b0 5c 94 a0 b8 a6 c7 56 bc 56 20 e2 3c d0 ed 8e 3c
       -7.6570286e-05 -0.013109123 0.02760331 0.017447382
0001c0 77 d4 df bc 23 ff 5a bc d8 01 ff bc c3 39 8e 3d
       -0.02732299 -0.013366493 -0.031128809 0.06944611
0001d0 9b 6a 5d bd 7b 4c e3 bc a9 39 97 bd 2f 8b 9e 3d
       -0.054056745 -0.02774643 -0.07384045 0.07741391
0001e0 c1 7d e3 bc 22 39 4a 3d 8c cb 59 bd a5 c9 aa bd
       -0.027769925 0.049370892 -0.053172633 -0.08339242
0001f0 9e 46 36 3d 63 49 c1 bc 45 ed 26 3d 0e 9b 4e bd
       0.04450094 -0.023594564 0.04075362 -0.05044084
000200 28 1a 8a bd 28 87 59 3d 4c f5 98 3d c2 b7 84 bd
       -0.0674327 0.05310741 0.07468662 -0.064803615
000210 c2 ae 8c bd 53 0b 72 bc 86 01 b4 3d c2 b7 1e bd
       -0.0686927 -0.014773208 0.08789353 -0.038749464
000220 92 8f da bc ed 52 68 bb 2d 6c a0 bd b9 46 81 3d
       -0.026679788 -0.0035449818 -0.07833133 0.063123174
000230 9e cf 21 3d b6 63 16 3c c2 8f 90 3c 69 3e e2 3a
       0.03950464 0.009179046 0.017646674 0.0017261031
000240 99 0c a4 bc 11 c8 9e bd 17 1a 8a 3d 58 32 8c bd
       -0.020025538 -0.077530034 0.067432575 -0.0684554
000250 86 ba 41 3b 1d 53 0a bc 6c 7e c1 bc 87 a7 74 3d
       0.002956064 -0.008442667 -0.023619853 0.05973008
000260 b8 d1 0c bc be 24 f1 3c 16 d4 98 3d 9e 8f f7 bc
       -0.008594923 0.029436465 0.07462327 -0.03021985
000270 0e 2b 84 3d 1c 8a 86 bc 26 be e7 bc b1 cf 2c bd
       0.064535245 -0.016423278 -0.028288912 -0.042190257
000280 23 e1 2a 3d e8 52 96 bd 03 75 6a 3d b3 85 33 bb
       0.041718613 -0.07340032 0.057240497 -0.0027392923
000290 05 89 14 3c 4c f6 e3 3c f8 d9 1d bd ae 6d 8b 3d
       0.009065871 0.027827404 -0.03853795 0.06808029
0002a0 59 50 82 bd 85 92 92 bd 1c 12 b3 3d c4 3a 05 3b
       -0.06362981 -0.07156853 0.087436885 0.0020329216
0002b0 a8 c8 ae 3a 1f 24 1d 3d 4e 40 61 bd d9 34 ed bc
       0.0013334947 0.038364526 -0.054992966 -0.028955864
0002c0 4c 5a af 3d e0 2f 97 bd 0c 57 a3 3c 9d 12 4d bd
       0.08562145 -0.07382178 0.019938968 -0.05006658
0002d0 8b 21 a8 3c b2 6e 8f bd b2 c8 6a bc aa c9 ef 3c
       0.020523807 -0.07003535 -0.014330076 0.029270966
0002e0 4d bc 22 3c 60 9c 75 3d 02 be 6f bd 04 a0 0d bd
       0.00993259 0.059963584 -0.058530815 -0.03457643
0002f0 33 e0 39 3d 8c 30 a4 bc 97 4c 15 bd f9 93 b2 3d
       0.04537983 -0.02004268 -0.036449995 0.0871963
000300 59 92 39 3d 43 42 8b 3d 31 76 9f bd 6e 8e 7a bd
       0.045305584 0.06799748 -0.07786215 -0.061170988
000310 67 d8 08 bd fb 87 4f 3d e7 74 1a bd 8a f7 6c bd
       -0.033409502 0.05066679 -0.037709143 -0.05785326
000320 b5 d0 8f bc c4 c1 3c bd 8c b2 86 3d 88 25 89 bd
       -0.017555574 -0.046083227 0.06577024 -0.06696612
000330 38 03 45 bd db 15 e3 bc cc fa 8d bd ee 0c 95 bd
       -0.048098773 -0.027720382 -0.06932601 -0.07277857
000340 e9 5b 8b bd 3c fc 75 bd 50 cb 09 3d ae 08 a8 bd
       -0.0680464 -0.060055003 0.03364116 -0.082047805
000350 be 4d 23 3c b2 e4 81 3d ec cc 08 3d 7c 3b 57 bd
       0.009967266 0.06342448 0.033398554 -0.052546963
000360 d2 ba 50 bb 57 ec 97 bd f1 3b 06 3d d8 27 b1 3d
       -0.0031849635 -0.07418125 0.03277201 0.08650178
000370 c6 fd 8e bd 8a cc 9d bd 2d 41 8c bd 7c 3a 0e 3d
       -0.06981997 -0.07705028 -0.06848369 0.034723744
000380 6d fd 5c bd d1 58 6c 3d 81 ee 22 3d 7e dd 65 3d
       -0.053952623 0.05770189 0.039778236 0.056119435
000390 cc 82 84 bd 70 f6 11 3c 9c 30 10 3c a1 55 2e bd
       -0.0647026 0.008908853 0.008800652 -0.04256213
0003a0 ab cb 4e bc aa 4d 9f 3d 81 b7 55 bc d1 98 ed 3c
       -0.0126218 0.07778485 -0.013044239 0.029003533
0003b0 21 0b 6f 3d d5 3a a2 3c 24 6a 88 bd 66 86 82 bd
       0.058360223 0.019803444 -0.0666087 -0.06373291
0003c0 2c 6e 79 3d 30 f2 eb 3c 19 de e3 bb c3 a7 39 bd
       0.060896084 0.028802007 -0.0069539663 -0.045326006
0003d0 58 73 ec 3c 21 98 8e bd 8a 96 9b bd b1 9c 76 3d
       0.028863594 -0.0696261 -0.075970724 0.060208026
0003e0 e7 64 81 bc f4 be 95 bc 7f 84 76 3d cc 5c 9f 3d
       -0.015795184 -0.01827953 0.060184952 0.077813715
0003f0 64 16 f3 bc e7 4f 35 3b 5a c7 30 bd 39 fa 0e bd
       -0.029673763 0.0027666034 -0.043158866 -0.0349066

actor.6.bias f4 [5]
000000 bd 1c f2 bc 5b a7 85 3d a8 a0 d0 bb 02 f8 24 3d
       -0.02955472 0.06526061 -0.006366808 0.04027558
000010 e9 ce 7c bd
       -0.061720762
