checkpoints/ppo_critic_0_catmouse.pth (torch, 147304 bytes, 7 tensors)

critic.0.weight f4 [128, 21]
000000 87 a2 a9 3d 22 4f 37 3e 1d 47 29 be 51 3a 2b 3d
       0.08282953 0.1790128 -0.16531034 0.04180366
000010 6d 76 54 be 33 ff f3 3d bc 48 28 3e 2a c2 cd 3c
       -0.20748301 0.1191391 0.16433996 0.025116999
000020 38 3e fb 3b 43 de d3 bd cb 47 6e be 98 57 c2 3d
       0.007667329 -0.103451274 -0.23269574 0.094893634
000030 31 38 a1 bd 84 c4 0e bd 78 ca 50 bc 39 7d f2 bd
       -0.07872046 -0.03485538 -0.012743585 -0.118402906
000040 48 83 16 be 82 11 85 bd 59 f1 77 bd 78 7e 81 be
       -0.14698517 -0.0649748 -0.0605329 -0.252918
000050 4f f9 57 be 86 84 0c be b7 a3 5b 3d 7a 6f fa 3d
       -0.21091197 -0.13722429 0.053622928 0.12228294
000060 5a ee e3 bd df 72 88 3d 32 64 db bd 29 96 db bd
       -0.11129446 0.06662535 -0.1071247 -0.10722
000070 a6 c9 bd bb 74 72 66 3c 4a 57 06 3e d4 e9 0b 3e
       -0.0057918606 0.014065374 0.13119236 0.13663417
000080 13 19 e4 3d 06 86 ba bc b7 76 0b bd 5c 95 cc 3b
       0.11137595 -0.022768985 -0.034048762 0.006243391
000090 06 21 b0 bd e7 5d b1 bd f9 d6 e9 3c 1b e1 1e bc
       -0.08600049 -0.086604886 0.02854489 -0.009697224
0000a0 1f 2c 5e 3e 7b d4 35 be fb d2 a1 bd f0 7c c4 3d
       0.21696518 -0.17756836 -0.079015695 0.095941424
0000b0 c5 03 3b be d7 57 43 3e 77 a8 a9 bd ca 33 46 be
       -0.18263157 0.19076477 -0.08284085 -0.19355693
0000c0 21 29 23 bc f8 9e ce 3b 83 a5 9c 3d 91 ec 12 be
       -0.009958536 0.0063055716 0.07648756 -0.14348055
0000d0 d7 a0 0b be 43 f2 48 3d 59 57 91 bd b8 9a 9f 3d
       -0.13635574 0.049059164 -0.07096738 0.07793182
0000e0 cc cd 48 be ff a3 e2 3d b4 74 97 bd 6f 0c 0f be
       -0.19609755 0.11066436 -0.07395306 -0.13969587
0000f0 dc cf 3f bd 01 97 b0 bd 6c cb 29 bd 78 96 e9 3c
       -0.04682909 -0.08622552 -0.041453764 0.028514132
000100 37 e3 28 be ff 05 0c 3d 08 58 d0 bc e4 ab 71 3e
       -0.16492926 0.034185406 -0.025432602 0.23600727
000110 c8 1e 6e 3c 4c 57 95 bd e0 69 6f bd 28 f5 02 3e
       0.014533706 -0.07292041 -0.05845058 0.12788832
000120 2d 0d 03 bd 44 e1 bf 3d 89 3b 0c 3e ab 7b 17 bd
       -0.031994987 0.09369138 0.13694586 -0.036983173
000130 0b 7c a3 bd 41 60 2a 3e 22 76 ac 3d ab 59 83 bd
       -0.07982644 0.1663828 0.084209695 -0.06413587
000140 48 04 97 3d a4 f4 bc bc 8f 06 29 3e 41 fd 88 3d
       0.073738635 -0.023065872 0.16506408 0.06688929
000150 00 cc 8c 3d 04 72 19 be 68 41 1e be d8 d9 5b be
       0.068748474 -0.149849 -0.15454638 -0.2146982
000160 d0 b3 e9 3d 7c f9 15 3e 21 83 73 bb b3 66 79 bd
       0.1141125 0.14645952 -0.0037157016 -0.060888957
000170 6c 1b 34 be 2c 4c 03 be c2 b9 27 be 79 4e 00 3e
       -0.17588586 -0.12822026 -0.16379455 0.12529935
000180 26 cb 76 bc c1 03 80 bb 26 41 0e be 12 77 7e 3c
       -0.015063083 -0.0039066975 -0.1389204 0.015531318
000190 3c 91 7f bd 40 0d b7 bd e5 66 a8 bd a5 63 32 bd
       -0.062394366 -0.08938074 -0.082227506 -0.04355206
0001a0 07 e3 d1 bc 22 92 33 be c3 1c ce 3d e1 93 45 be
       -0.02562095 -0.17536214 0.100640796 -0.19294693
0001b0 ba 1f 5f be e2 2d a9 bd 0b 72 fe bd 8a 8c ae 3d
       -0.21789446 -0.082607046 -0.12424096 0.085228994
0001c0 18 c6 b2 3d 2d 21 66 3c c4 f1 11 3d 96 5f 2c 3d
       0.0872919 0.014045996 0.035630956 0.042083345
0001d0 93 b7 72 be ff e0 ef bb 3a a4 66 be 15 11 1d be
       -0.2370284 -0.007320523 -0.22523585 -0.15338548
0001e0 6e 0b 27 be 58 f9 26 be e1 ac 0f be b1 ef 4d be
       -0.16312954 -0.16306055 -0.14030792 -0.20110966
0001f0 a2 6c a5 bd 03 42 8f bd d4 bf 83 bd d6 18 05 3e
       -0.08077361 -0.069950126 -0.06433073 0.12997755
000200 6c 9b 02 3d cf 42 c8 3d 7e 7f 80 be 3a ca b1 3d
       0.031886503 0.09778368 -0.2509727 0.0868115
000210 61 0c 9f bd 7b a4 25 3d 26 66 1c be e5 27 84 3b
       -0.07766033 0.040440064 -0.15273342 0.004033076
000220 ab 30 69 bd 92 cb 7a 3d 2c 1d d2 3c 90 9b d8 3c
       -0.05693118 0.061229296 0.025648676 0.026441365
000230 82 70 87 3d cb 87 56 be 35 da f7 3d 2d 4d e7 bd
       0.06613256 -0.20950238 0.121021666 -0.11294017
000240 38 e5 c5 3d d1 2c 3a be 11 9d 50 be 54 a3 12 3d
       0.09662861 -0.18181159 -0.20372416 0.035800293
000250 4a 33 67 3e 16 07 24 be a7 51 61 3d 92 2c 09 3e
       0.22578159 -0.16018328 0.05500951 0.13395908
000260 ea 72 18 be 86 bb da bb a7 3d 9a bd f8 79 10 be
       -0.14887586 -0.0066751866 -0.075312905 -0.14109027
000270 46 ab 7f 3e 13 86 1d 3e 7e 96 a1 3d 11 64 ec 3d
       0.2496768 0.15383177 0.07890032 0.11542524
000280 a9 f6 7a bd 11 42 60 3e 06 ea 14 be de 2d 80 3e
       -0.06127039 0.21900202 -0.14542398 0.25034994
000290 36 35 79 bc 8d b9 2b 3e 12 1c 13 3e 54 4e 2c be
       -0.01521044 0.16770001 0.14366177 -0.16826755
0002a0 11 0c fc bd f3 1e 55 3e 62 d3 02 bb ae 9c 2f be
       -0.12306989 0.20812587 -0.001996242 -0.17149612
0002b0 db a2 09 be 7e dd 42 3e 3d 82 ca 3d ad 0a 5f 3e
       -0.1344103 0.19029805 0.09888122 0.21781416
0002c0 f0 80 00 be f5 69 3e 3b 34 4e 12 3e 30 fa f7 bd
       -0.12549186 0.0029054855 0.14287645 -0.12108266
0002d0 e7 4d 60 3e 04 56 27 3e a1 7a 31 be 3b 86 24 3b
       0.21904717 0.16341406 -0.17331935 0.0025104422
0002e0 a0 77 74 bc 5b 6f 76 3e 67 4a 0f 3e 3c b1 41 3e
       -0.014921099 0.24065916 0.13993226 0.18915266
0002f0 e0 9c d9 3d 7f 33 fd 3d d8 08 61 3e ac 06 35 be
       0.10625625 0.12363338 0.2197603 -0.17678326
000300 ce 7c 0c 3e fc 85 f9 bd 69 16 44 be 19 51 88 3d
       0.13719484 -0.121837586 -0.19149174 0.06656093
000310 77 88 cf 3a ff a5 27 3e 41 ea 23 be c0 2d 4a 3e
       0.0015833516 0.16371916 -0.1600733 0.19744015
000320 6c 8a 9f 3d 91 ca 66 bd 58 54 e8 bd 89 03 31 be
       0.07790074 -0.056345526 -0.11344212 -0.17286505
000330 46 6e a6 bc f9 ea f3 3d e1 52 57 3c 2b 1d dd 3d
       -0.020316254 0.11910052 0.013142318 0.10796579
000340 9a 09 32 3e fb b2 55 be 61 82 a9 bd 0a 25 32 3e
       0.17386475 -0.20869057 -0.08276821 0.17396942
000350 a6 4d df 3d 69 17 b0 3c 93 b7 8c be d9 24 e4 bd
       0.10903482 0.021495538 -0.27483806 -0.11139841
000360 26 4c 16 3e b2 02 08 be 5d 7f 11 3e 6d 70 4b be
       0.14677486 -0.13282278 0.14208741 -0.19867106
000370 d7 fb bb 3d 9b 6d 69 be 6d 07 56 3d f7 25 07 be
       0.09178894 -0.22795717 0.052253176 -0.13198076
000380 c1 23 18 be 96 2b 94 bc 83 58 cc bd 0a 36 03 3e
       -0.14857389 -0.01808719 -0.0997782 0.12813583
000390 2f 24 32 bd 23 a4 71 be 1d 0c f3 bd a9 76 26 3e
       -0.04349154 -0.2359777 -0.11867545 0.16256203
0003a0 12 69 4e 3e c2 5b a9 bd 73 87 fa 3d 03 22 7b 3d
       0.20157269 -0.082694545 0.12232866 0.061311733
0003b0 85 2e f7 bb 12 c0 03 3e 65 f4 14 3e 99 ce b0 bd
       -0.0075433874 0.12866238 0.14546354 -0.086331554
0003c0 9c ac d9 bd 43 6a 35 be 4c 81 37 3e af c1 05 bd
       -0.10628626 -0.17716317 0.17920417 -0.032655414
0003d0 86 88 7b bd 31 4a 16 3e 96 bb 3b be 48 5e c9 bd
       -0.061409496 0.1467674 -0.18333277 -0.09832436
0003e0 cc 8c 34 bd 86 f1 d7 3d 63 5d 1f 3d 3b 5f cb bd
       -0.044079587 0.10544114 0.03890742 -0.09930273
0003f0 80 87 1a 3e 5f d0 49 3e 29 42 f9 3c c4 70 37 3e
       0.15090752 0.19708394 0.030427055 0.1791411

critic.0.bias f4 [128]
000000 43 5e d7 bd ad 10 50 3c 7a 52 e1 bb 21 28 84 bc
       -0.10516026 0.012699288 -0.006876287 -0.016132416
000010 db 6a b8 3d 51 3c c4 bd 99 a1 06 be 69 d6 13 3e
       0.09004756 -0.09581817 -0.13147582 0.1443726
000020 d2 f4 00 3e 05 61 f7 bd df 47 a4 3d 01 18 c8 bd
       0.12593392 -0.12079052 0.08021521 -0.097702034
000030 ca 43 22 3e 21 5f 07 be 90 5f 5a bd 15 8a a1 bd
       0.15846172 -0.13219883 -0.05331379 -0.07887665
000040 1b 5f d9 3d b9 cc 56 3e 58 ab 63 be c5 f0 d6 3c
       0.10613843 0.20976533 -0.22233331 0.026237855
000050 8a b3 60 3e 15 03 e3 bd f0 5e 8a 3e 7e 8a ab bc
       0.21943489 -0.11084572 0.27025557 -0.020940062
000060 17 65 86 bd 0b ba 0f be fb cc 1d 3e a7 fd 3b be
       -0.0656225 -0.14035814 0.15410225 -0.1835848
000070 33 ce 2a be 44 c6 2d 3e 29 2d 74 3e ea 27 00 be
       -0.16680221 0.16970164 0.23845352 -0.12515226
000080 e8 24 24 3d ad 17 c9 bd 3f 05 9f bd b0 f9 06 3c
       0.04007426 -0.09818969 -0.077646725 0.008238241
000090 1d 9d 1c 3e 5b 42 b7 bd 5a 6e 8a be b0 de dc bc
       0.15294309 -0.08948203 -0.27037317 -0.026961654
0000a0 f0 65 63 be af f4 5f 3d 88 8b 53 3e 67 b6 72 3d
       -0.22206855 0.054676708 0.20658696 0.059255984
0000b0 36 29 8a be aa 5a 81 3e df fe 24 3e f0 86 81 be
       -0.26984566 0.25264484 0.1611285 -0.25298262
0000c0 56 61 15 be 4f 7a 95 be 86 d1 84 3e 08 8e 33 bd
       -0.14587912 -0.29194877 0.25941104 -0.043836623
0000d0 98 28 d9 bd 8d d0 6b bd e5 53 92 3e 20 02 8e be
       -0.10603446 -0.057571936 0.2857963 -0.27735996
0000e0 99 98 5e 3e bc 86 5b bd 0e 26 9a 3d 9f b2 19 3d
       0.21737899 -0.05359529 0.075267896 0.037523862
0000f0 06 83 80 be 50 b4 05 3e ed 35 86 be 17 68 76 3e
       -0.25099963 0.13057065 -0.26213017 0.24063145
000100 e5 df 59 3e 28 01 53 3e 72 03 01 3e d9 93 6c be
       0.21276815 0.2060591 0.1259897 -0.23103274
000110 80 c5 15 be eb c9 af bd 7f 53 7d 3c ee 32 f8 bd
       -0.14626122 -0.08583435 0.015461802 -0.12119089
000120 0b d8 08 3e a3 25 87 3e 7f f8 1b be 6e 31 25 3a
       0.13363664 0.26395902 -0.15231512 0.0006301616
000130 49 61 95 3b 19 d9 87 be 20 38 4f 3e ce ee 50 3d
       0.0045587164 -0.2653282 0.20236254 0.051008992
000140 ee c8 30 3e c2 c3 90 be 94 ab 26 bd c0 94 d4 3d
       0.17264149 -0.2827435 -0.040690973 0.10379934
000150 f1 72 4c 3b 05 38 8f 3e 91 d1 f4 bd ee 20 c9 bd
       0.003119644 0.27972427 -0.11954034 -0.09820734
000160 1b 0f b7 3d 3a 57 ce 3d 62 f7 fa bd 8b b0 03 3e
       0.08938428 0.10075231 -0.12254216 0.12860315
000170 f5 87 1e 3e 8e 00 b8 bc b6 99 b7 bd d0 72 16 bb
       0.15481551 -0.022461202 -0.08964865 -0.0022956617
000180 57 cd ae bc 48 2e a9 bd 3b 0f ab bd d0 d1 41 be
       -0.021338148 -0.082607806 -0.08352514 -0.18927693
000190 6b 09 0a be 78 47 1e 3e 5a bb 55 be 2e 3e 28 3d
       -0.13480155 0.1545695 -0.2087225 0.041074924
0001a0 3f 60 16 3e 36 ba 89 be 7e 68 cb bd 84 3f d0 bd
       0.14685152 -0.2689988 -0.0993204 -0.10168365
0001b0 71 51 8f 3d 15 e1 88 bd ee 0d 6e bc 7c b7 93 be
       0.069979556 -0.06683556 -0.014529688 -0.28850925
0001c0 e8 a7 b3 3d 1c f0 3e bd d1 7d d1 3d 3c 0d 82 bd
       0.0877226 -0.046615705 0.10229076 -0.063501805
0001d0 b6 a9 c5 3c 00 e4 cb 3c ac 66 8f 3d f1 94 cf 3d
       0.024128776 0.024888992 0.07002005 0.1013583
0001e0 48 4a 86 be fd c0 9b 3d ce 84 e2 3d 87 93 af bc
       -0.26228547 0.07605169 0.11060487 -0.021432651
0001f0 74 c1 dd 3d 51 1a c0 bd cd 2f 03 be 3d 6c 2b 3b
       0.10827914 -0.093800195 -0.12811203 0.0026157044

critic.2.weight f4 [128, 128]
000000 12 22 8b 3d 2e da 0f ba 86 62 db 3d e5 db 6c bc
       0.06793608 -0.00054875284 0.10712151 -0.014456724
000010 dd 8a 37 3d d9 6a 34 3d fc 7c af 3d 4f 7b 74 bd
       0.044810165 0.04404721 0.08568761 -0.05968791
000020 31 1a 5a bd d9 2b 86 3d 19 25 a3 3d ba 42 94 bd
       -0.053247634 0.06551332 0.0796606 -0.072392896
000030 23 b4 91 bc dd 94 b9 bd f2 da 4e 3d bb 53 55 bc
       -0.017786091 -0.090615965 0.05050177 -0.013020451
000040 0a 9d 57 3d b7 80 d1 bd 59 7b 17 bd 14 1e 13 3d
       0.05264 -0.102296285 -0.036982868 0.035917357
000050 bc 99 fb bd f4 f9 14 3d 3f e2 c4 bd 01 7c 61 3d
       -0.12285182 0.036371186 -0.096134655 0.0550499
000060 b5 cd 82 3d e7 09 e2 3c 4d 01 04 3b 19 8b f1 bc
       0.06386892 0.027592612 0.0020142377 -0.029485272
000070 ed a3 f7 3c df 40 c3 bd 1c 06 d8 3b 11 1a 2e bd
       0.030229533 -0.095338576 0.006592525 -0.042505328
000080 f7 c0 5f 3d c1 8d 2d 3d e6 1e aa bd 92 53 ec bd
       0.054627385 0.042371515 -0.08306675 -0.11539377
000090 25 c2 e1 bc d7 37 9a 3d aa 04 0b 3d 91 2f 3e bd
       -0.027558396 0.07530182 0.033939995 -0.04643208
0000a0 fd 8a be bc 27 d1 63 bc b1 1b b9 bc a3 a8 56 3c
       -0.023259634 -0.013904846 -0.022596212 0.01310173
0000b0 08 fc 19 bd 16 3a f4 bd b9 39 dc bd 5c b3 5b bc
       -0.03759387 -0.119251415 -0.10753197 -0.013409462
0000c0 ad 8f fa ba 7b 69 f9 3d 05 6d 41 bd 9c 0c d7 3d
       -0.0019116305 0.12178322 -0.04722311 0.10500452
0000d0 c9 96 29 3c f9 e8 86 3d e6 86 b7 bd 70 f7 1f bd
       0.010350891 0.06587405 -0.08961277 -0.039054334
0000e0 ff b1 80 3b 98 eb a7 bd 15 8a 95 bd 3f c5 44 3c
       0.003927469 -0.08199233 -0.07301728 0.012009918
0000f0 28 e1 d8 3d cf 2f ce bc f4 73 3c 3d 6b b6 f7 bd
       0.1058982 -0.025169281 0.04600902 -0.1209534
000100 91 54 ed bd b1 5d e2 3c 5b 15 e5 3c 9c 53 82 3d
       -0.115883954 0.027632566 0.027964285 0.063636035
000110 65 2b d6 3d f6 c7 90 3b d7 b0 20 bd 18 aa d2 bd
       0.104574956 0.0044183685 -0.039231148 -0.10286349
000120 10 e8 e7 3b f2 51 83 3c 11 54 8b 3d ff 9c 34 bc
       0.0070772246 0.016030286 0.06803144 -0.011023759
000130 5c fd e2 bb eb fe fb 3d 34 4b 58 bd 49 7f 5d 3d
       -0.0069271754 0.12304481 -0.052806094 0.054076467
000140 93 4d f8 bd 1a f1 0b bd a4 15 50 3d d2 6d 0e bd
       -0.12124171 -0.03416548 0.050801888 -0.0347727
000150 c5 da 0a 3d 2b d4 7a bd 2b d4 aa ba 63 f4 06 3b
       0.03390004 -0.061237495 -0.0013033202 0.0020592443
000160 34 05 25 bd a7 31 b5 bc 01 89 0c 3d 23 e2 32 3c
       -0.040288165 -0.022118403 0.034310345 0.010918173
000170 63 83 b6 ba 20 37 f2 bb 68 bd a2 bd 99 a5 f6 bd
       -0.0013924654 -0.0073918253 -0.079462826 -0.12043304
000180 b4 0c 98 bd 89 78 ec bc 1f 7a 4f bd dd b1 1a 3d
       -0.07424298 -0.02886607 -0.050653573 0.03776728
000190 6a 5b 99 bb 1f 43 87 3c a1 12 f8 3d 28 b3 f4 bd
       -0.004680087 0.016511498 0.12112928 -0.11948234
0001a0 ae 28 c7 bd 65 04 fe 3d a8 8d b9 bc 51 f8 cd 3d
       -0.09724556 0.12403182 -0.022650555 0.10057128
0001b0 60 83 1f bd f8 9a aa bd 8e b1 15 bc 8d e2 fd bc
       -0.03894365 -0.08330339 -0.009136571 -0.030991817
0001c0 d1 0d 8c 3d 33 26 68 bb 43 d3 0d 3d bc 11 41 bd
       0.06838573 -0.003542316 0.034625303 -0.047136053
0001d0 d7 98 26 bb f3 8c ec bc 7e 93 b4 bc c1 ba a3 39
       -0.002542069 -0.028875804 -0.022042986 0.00031228925
0001e0 8f df 1e 3c 65 3f 97 bd 60 45 93 bb d4 6b e5 ba
       0.009696855 -0.073851384 -0.004494354 -0.0017503449
0001f0 ea e8 d9 bd 26 94 b6 bc 26 41 11 3d 06 19 a2 bd
       -0.10640128 -0.02228744 0.03546252 -0.07914929
000200 32 5c d3 bd 1c 56 96 ba 43 4b e6 3c 4f 28 e7 3d
       -0.10320319 -0.0011469754 0.02811206 0.11286985
000210 e7 4d 48 3d fc c2 9e bd d7 c1 01 be 0c 80 49 3d
       0.04890242 -0.07752034 -0.126716 0.04919438
000220 54 45 a6 3c d8 8c 32 bd f1 d5 00 bc f2 2e a7 bd
       0.02029673 -0.04359135 -0.007863508 -0.08163251
000230 99 f2 0f bb db fa 1c bd 39 17 c1 bc 89 bf cf 3d
       -0.0021964668 -0.038325172 -0.023570644 0.10143954
000240 98 49 85 3c 69 67 06 bd ed 5e b1 bb 3f b1 cd bd
       0.016270444 -0.032813463 -0.0054129274 -0.10043573
000250 7c 1d 49 bd a5 d3 52 3c 6f 5d 9f 3d 85 f3 04 be
       -0.049100384 0.012867843 0.07781493 -0.1298352
000260 1f 68 b1 bd 4c d8 a4 bd 90 59 8d bc e3 cd fa 3c
       -0.08662438 -0.08049068 -0.01725462 0.030615753
000270 d0 ba 09 bd 6e ef 54 3c 76 a1 83 3d be fb 73 bd
       -0.033625424 0.012996538 0.064272806 -0.059566252
000280 d4 03 8f 3d cd 7a 06 3d 62 7f 81 bd b7 76 54 bd
       0.06983152 0.032831956 -0.063231245 -0.051871028
000290 a8 26 50 bc 59 0c fa bd 59 17 da bd bb 5b f8 3d
       -0.012704529 -0.122093864 -0.106489845 0.12126871
0002a0 b6 ba 1b 3d 8a b0 85 b9 da 44 b0 3d de cd ae bd
       0.03801986 -0.0002549927 0.086068824 -0.0853536
0002b0 3d c8 a4 3c 42 51 e4 3d 71 f2 89 3c bb 9f a1 bd
       0.020115012 0.11148311 0.016839238 -0.07891794
0002c0 e1 d7 d7 bb d6 3e 55 bd 27 de 1e bc c3 77 c9 bd
       -0.006587014 -0.05206188 -0.00969652 -0.09837296
0002d0 9a c4 a5 bc a8 af 92 bd 1f 8c fd 3d f3 04 8f bd
       -0.020235348 -0.0716241 0.123802416 -0.06983366
0002e0 8c 89 cc 3d 8a cc 89 3d c3 36 c1 bc f1 c8 38 bd
       0.099871725 0.06728466 -0.023585683 -0.045113508
0002f0 c6 ae 3a bd 25 87 d4 bd 14 59 a2 bd 8d 3f af 3d
       -0.045576833 -0.10377339 -0.079271466 0.08557043
000300 0a 9c 9e 3c 14 e9 e6 3d 2d ab 34 bd b6 ea 89 bd
       0.019361515 0.11274925 -0.04410856 -0.06734221
000310 23 79 fe 3c 44 dc 63 3d 4a 7b 4e 3d 6c 19 38 3d
       0.031063622 0.055629984 0.050410546 0.04494612
000320 e9 5e 05 3d 2c 08 6b 3d 56 c8 5e bd f0 5e 33 bd
       0.032561217 0.05738084 -0.054390274 -0.04379171
000330 02 28 74 3d 40 e2 dd bd d9 c9 d1 3d 9d d3 48 3b
       0.059608467 -0.108341694 0.102435775 0.003064371
000340 3a f5 ec 3c bd e2 f3 bd 4e e1 ab bd 99 de 81 3b
       0.028925527 -0.11908481 -0.08392583 0.0039633033
000350 53 38 b9 3c 8c 2e 0a bd ac d6 19 bd 2b 68 98 bd
       0.022609865 -0.033735797 -0.037558243 -0.074417435
000360 5f 99 85 3c df 8c c9 3b a8 11 9c bd ce 10 61 3d
       0.016308485 0.0061508263 -0.07620555 0.054947667
000370 a6 9c 6c bd b2 cd c8 3d ac 2c 0c bd 49 87 93 3d
       -0.05776658 0.09804858 -0.03422229 0.07203538
000380 8c 69 4d 3d 48 32 03 3d b8 b4 40 bd 2b 39 9e bd
       0.050149485 0.032030374 -0.047047347 -0.07725748
000390 a2 ee b0 bd ba dc de bb 2a cf a2 bd 6c 32 a3 3d
       -0.086392656 -0.006801215 -0.0794967 0.079686016
0003a0 a3 ba f1 3c 82 9a 3e bd 98 0e 24 3d 03 40 a7 bd
       0.02950794 -0.04653407 0.04005298 -0.08166506
0003b0 ee 5e a3 3d 0c 46 48 bd 1e a0 3b bd 12 24 03 3d
       0.07977091 -0.048894927 -0.045806997 0.03201682
0003c0 85 27 95 3c 4d 4a 7e bd e6 63 a7 bc bc be a8 bd
       0.018207321 -0.062082577 -0.020433377 -0.08239505
0003d0 7c c4 75 3c b5 4f cc 3c 04 54 30 bd e0 85 92 3d
       0.015000459 0.024940351 -0.043048874 0.07154441
0003e0 66 35 d3 bd 7d a2 1f bd 70 c7 b7 3d 98 b3 e0 3c
       -0.10312919 -0.03897332 0.089735866 0.027429387
0003f0 ec 40 94 3d aa 42 44 39 cf e3 85 bd d8 03 f1 3c
       0.07238945 0.00018716851 -0.06537592 0.029420778

critic.2.bias f4 [128]
000000 1b 15 d9 bd 6f 0b 37 3d c6 db 5d 3d 12 ad d3 3d
       -0.10599729 0.04468864 0.05416467 0.10335745
000010 4a e4 8c 3d 6f 07 cf bd 48 91 fb 3d fc 85 39 bd
       0.0687948 -0.1010884 0.122835696 -0.045293793
000020 c1 d2 a6 bd 0e 93 ea bb 5b 6f b5 bd 46 79 f0 bd
       -0.08145667 -0.0071586436 -0.0885913 -0.11741881
000030 12 0e 2c 3c 0b 91 ce 3d a8 01 d5 3d 60 89 d2 bb
       0.0105014015 0.100862585 0.104007065 -0.006425068
000040 8e 6a d7 3d 0f 15 c4 bd 29 5b b4 3d ad 4f f3 3d
       0.105183706 -0.09574329 0.0880645 0.11880431
000050 61 d3 62 3d 03 93 da 3d b7 24 c9 3a a2 78 41 bd
       0.055377368 0.106725715 0.0015346025 -0.047234185
000060 8c 3b ac bd ec db cc 3d 1c 8f 05 be aa 95 d3 3c
       -0.08409795 0.10002884 -0.13042873 0.025828201
000070 9b e0 b0 bd 5e ce a9 3d 72 d4 45 3d 2f 96 a0 3d
       -0.0863659 0.082913145 0.048298307 0.07841145
000080 15 7a 6b 3d 4f 82 b5 bd 22 75 cf 3d fd c3 cc bd
       0.057489473 -0.08862745 0.10129763 -0.09998319
000090 27 27 af bc df 2f 9c bd 5e 16 f3 bd 8f 3d d0 3b
       -0.021380974 -0.07626318 -0.118695006 0.0063549946
0000a0 7b d8 20 3d 3f 2d 09 3d 49 12 f0 3d 8d b1 75 bd
       0.039268952 0.033490416 0.117222376 -0.05998378
0000b0 b3 c6 04 3e 87 eb 7b 3d a8 fb d2 bd 37 1a f5 3d
       0.12966423 0.061503913 -0.10301906 0.11967891
0000c0 6e 34 28 bd c4 09 ee bd aa 59 96 3d 18 3c 78 bc
       -0.041065626 -0.116229564 0.07341321 -0.015151046
0000d0 4c 69 d9 bc 23 4d 34 bb c1 55 de 3d b9 73 95 3d
       -0.026539467 -0.0027511797 0.108562 0.07297463
0000e0 bb e9 25 3d d1 58 5d 3c b8 2d d6 3d 26 bb f0 3b
       0.040506106 0.013509945 0.10457939 0.0073465286
0000f0 7f 73 99 bd ae 5f 81 3d 33 3e 96 bc 29 58 ef 3c
       -0.07492732 0.063170776 -0.018340206 0.029216843
000100 9e bd 67 3c 58 7d cd bd b6 6c b3 3d 72 11 dc 3d
       0.014144329 -0.10033673 0.08760969 0.10745515
000110 b7 50 98 3d 06 c0 fc bd 7c 97 29 3d 54 d4 20 3d
       0.0743727 -0.12341313 0.041404232 0.039264992
000120 cd 83 01 be 1d 99 90 3c 4a fc 97 bc 49 53 ae bc
       -0.12647934 0.017651135 -0.018552918 -0.021279948
000130 b6 8d a2 bc 03 8d b2 3d 94 03 ae ba 8f 68 cf 3d
       -0.019842964 0.08718302 -0.0013276213 0.10127365
000140 7c 9c a3 3d dc 3c b0 bc bd 29 d0 3c 69 f5 c0 bd
       0.079888314 -0.021513395 0.025410527 -0.09421808
000150 58 65 7b bd 5d 5d 7d 3b a0 7a 16 3d 1d ff f6 3b
       -0.061375946 0.0038660385 0.036738038 0.007537736
000160 f6 2b 93 bd 34 a0 f2 bd 81 07 dd 3d 63 8c bb bc
       -0.07186119 -0.118469626 0.10792447 -0.02289409
000170 d5 48 0e 3d c3 04 c4 bd 87 a4 c6 bd e0 7c c2 bb
       0.034737427 -0.09571221 -0.0969935 -0.0059352964
000180 dd 6e 84 3d ff 9c b3 bd ac 5b de bd 30 4c 9a 3d
       0.06466458 -0.08770179 -0.10857329 0.07534063
000190 71 58 fd bd 46 29 03 bd ab fc 6e 3d d4 ba cc b8
       -0.123703845 -0.032021783 0.05834643 -9.7622775e-05
0001a0 ca 7f 99 bc 0d c1 d1 3c bf 4f 8d bd 1e f5 99 bc
       -0.018737692 0.02560475 -0.06899976 -0.018793639
0001b0 eb 58 14 3c d5 d5 d0 bd e5 f0 13 be c1 c9 dc 3d
       0.009054403 -0.10197035 -0.14447363 0.10780669
0001c0 ea e2 a2 bd 30 8d c5 3d 7c c2 18 3a 2f 83 46 bd
       -0.07953437 0.0964607 0.000582732 -0.04846495
0001d0 e2 ab eb bc ae 60 e9 3d 51 02 89 3d b3 a9 99 3d
       -0.028768484 0.11395393 0.06689895 0.07503071
0001e0 49 9e 22 bd 9e 02 35 bd 58 c6 e4 3c f2 f0 36 bd
       -0.039701734 -0.04419195 0.027926609 -0.044663377
0001f0 a4 b5 94 3d c9 7a 26 3d 22 fc 8c 3c 65 4d 22 3b
       0.07261208 0.04064444 0.01721007 0.002476537

critic.4.weight f4 [128, 128]
000000 9b 86 e0 bd c2 3b 73 3d 44 3a b2 3c 98 ba bf 3c
       -0.10963174 0.05938316 0.021756299 0.023404405
000010 8e c3 6f 3b e3 12 74 bd c5 d8 83 3d 36 8a f9 bc
       0.0036585066 -0.059588324 0.0643783 -0.030461412
000020 56 c8 78 bd 63 4d f0 bd af 64 e1 bb b2 f7 b6 bd
       -0.06073793 -0.1173351 -0.0068784575 -0.08933963
000030 b5 7a 20 3d 68 39 23 bd 96 b7 b0 3a 5d 3b 08 be
       0.039179523 -0.03984967 0.0013482447 -0.13303895
000040 fa 16 a5 3d 45 e9 42 bd 5e 54 c3 3d 42 66 ff 3d
       0.08061023 -0.047585744 0.09537576 0.12470676
000050 2f 7d 08 3e a5 f0 03 bd 97 f4 c6 bd 9c af b8 bd
       0.13329004 -0.03221192 -0.097146206 -0.0901787
000060 87 b7 f7 bd 77 ce 92 3d 41 71 4c bc 62 f1 0b 3e
       -0.12095552 0.07168286 -0.012478174 0.13666299
000070 96 5d 83 bd 1d aa e9 bc 10 38 55 3a 18 de 16 3e
       -0.064143345 -0.0285235 0.0008133659 0.1473316
000080 ff 48 10 3b 82 2e 0a 3d a9 3c 10 3e 22 56 e9 bd
       0.0022016165 0.03373576 0.1408564 -0.11393382
000090 65 ba 35 3c bf b7 f0 3c c8 ef a6 ba 2d bd 2f bd
       0.011091803 0.029384492 -0.0012736255 -0.04290502
0000a0 01 48 c5 3d d9 4d 2d bc 34 ea ef 3b 82 1b d2 bc
       0.09632874 -0.010577642 0.0073216204 -0.025647882
0000b0 b6 2b 27 3d 1c 98 d7 3d ee 41 82 3c 46 f1 cf 3d
       0.04081317 0.105270594 0.015900578 0.10153441
0000c0 26 17 ec 3c 85 be 3b bc 0a ad c4 bc 84 17 08 bd
       0.028819632 -0.011458998 -0.024008293 -0.03322555
0000d0 f4 66 2e bd c3 ed 39 bd c1 6e 19 3d 90 f4 34 3d
       -0.042578653 -0.045392763 0.03745914 0.044178545
0000e0 2d bb 20 3d 94 c4 13 3d ba ce 05 bd 69 da 02 be
       0.039241005 0.036076143 -0.032667853 -0.1277863
0000f0 16 69 be bc 91 be 2a 3c a6 08 cc bd 8d f0 19 bc
       -0.023243468 0.010421411 -0.09962587 -0.009395731
000100 5e 03 36 bd 63 36 00 be c7 51 b5 3d 6a d0 96 3d
       -0.044436805 -0.12520747 0.088534884 0.073639706
000110 82 f2 30 bd 37 da 06 be ed 32 13 bd 08 97 30 3d
       -0.043200023 -0.1316918 -0.03593724 0.043112785
000120 1a 47 d2 bd 62 3b b0 bb 60 f3 da bb 28 33 80 bd
       -0.10267468 -0.0053781727 -0.0066818446 -0.06259757
000130 24 5a d7 bd de 15 cd 3d 8b 25 ba 3c 19 13 7c 3c
       -0.1051524 0.100139365 0.02272298 0.015385413
000140 91 73 f3 3d b5 db bc 3d fa ea 08 be fa 56 b7 bc
       0.11887277 0.09221593 -0.13370886 -0.02238034
000150 b9 d2 d0 bd 8d 1f c4 bd 55 c7 21 bd 7e 71 00 be
       -0.10196442 -0.0957633 -0.03949674 -0.12543294
000160 3f d3 ff bd 18 c6 a1 bd 54 5e c1 3d 41 51 f5 bd
       -0.12491464 -0.078991115 0.0944182 -0.119783886
000170 ae 98 0a be b6 3b 10 be 2b 98 70 3b b0 76 1f 3d
       -0.13534805 -0.14085278 0.0036711793 0.03893155
000180 9f 6e 25 3d ce ac fa bd 1f 10 47 3d 67 57 66 bc
       0.0403887 -0.12239991 0.04859936 -0.014058924
000190 52 66 ba bd 56 19 aa 3d 4b be 9f 3c 9b 2f 32 3d
       -0.09101547 0.08305614 0.019499918 0.04350243
0001a0 f9 27 cf 3d f2 2b ee 3d bf b0 24 bd 62 e2 06 3e
       0.10115046 0.11629476 -0.04020762 0.13172296
0001b0 ea c0 f2 3d bb 54 9e bd 79 de 8a bd e6 6a dc 3d
       0.11853202 -0.07731005 -0.067807145 0.10762577
0001c0 d9 b6 b4 bd 52 71 8b 3c f3 75 48 3d e2 e3 b0 bd
       -0.08823938 0.017021809 0.04894061 -0.08637215
0001d0 3a f4 25 bd 05 de d2 3d 67 ca a4 3c 47 cb 0c bd
       -0.040516116 0.10296253 0.020116044 -0.034373548
0001e0 ed 04 ec bd ed db 92 bc f3 ec 17 bd 8d 6c 18 3d
       -0.11524377 -0.017927134 -0.037091207 0.037212897
0001f0 1a f6 c3 3d d7 9f df 3d f4 47 80 bd 45 20 a5 bd
       0.095684245 0.10919159 -0.06263724 -0.080627955
000200 5a 30 c0 bc 71 6a cc bd 03 a9 03 be d3 b5 ed bd
       -0.023460556 -0.099812396 -0.12857442 -0.11606946
000210 43 56 88 bd 20 69 6b 3d 79 5f 30 bc 4e c9 13 3d
       -0.06657078 0.057473302 -0.01076495 0.03608065
000220 6d 1c 03 bc e2 f6 74 3a 33 2b bc 3d 6d d6 c1 3d
       -0.008002383 0.000934465 0.09187927 0.094647266
000230 ca e5 fb bd ea 5d 16 bd fe 5a e6 bc cb c5 85 3d
       -0.12299688 -0.036710657 -0.02811956 0.06531867
000240 1d 58 12 3c 57 8b 59 bc 28 1c db bd a2 20 0c 3c
       0.008932141 -0.01327785 -0.1069873 0.008552702
000250 03 67 99 bd bd 97 05 be 60 c9 d9 3d 20 e5 c3 3d
       -0.07490351 -0.13046165 0.10634112 0.095651865
000260 4e 36 97 3d 31 6a 79 bd a9 0a 4a 3c 8b a1 da bd
       0.07383405 -0.060892288 0.012331643 -0.10675343
000270 1f fb ed 3d 96 3e 4c bd 7e 08 c2 bd 78 cd 5d bd
       0.11620163 -0.049864374 -0.09474276 -0.05415103
000280 5b 91 99 bd 7e c3 48 3d 77 b9 37 3c 01 99 8b 3c
       -0.074984275 0.04901456 0.011213652 0.017040731
000290 60 4a 34 bd 0d 98 a3 3c ff a6 f9 3d 4c c0 1d 3c
       -0.044016242 0.019969964 0.12190055 0.009628367
0002a0 97 b0 58 bd be 21 92 bc 76 00 7d 3c 54 c8 b3 3d
       -0.052902784 -0.017838355 0.015442004 0.08778444
0002b0 e8 c0 fa bd 8d 05 6c 3c 13 88 88 3d 88 2d 6c bd
       -0.12243825 0.01440562 0.06666579 -0.05766061
0002c0 4d 26 0d be 50 e6 a9 3d b2 b8 ae 3c e7 d9 a7 bc
       -0.13784142 0.08295882 0.021328304 -0.020489646
0002d0 36 78 28 bc 2c 18 0d 3e 7a ee b8 bd 64 62 c2 bd
       -0.010282567 0.13778752 -0.09029861 -0.09491423
0002e0 18 4d 0f bd 89 f7 2c 3d 46 3c a6 bd fc 7b fd 3d
       -0.03498563 0.042228255 -0.08116965 0.12377164
0002f0 7b 7c 09 3e b2 9d 05 3d e3 fd 00 3d d2 9a 1d bc
       0.13426392 0.032621093 0.031492125 -0.009619432
000300 88 cc f8 bc a9 7d cd 3d 98 a2 18 bd eb 6d b7 bd
       -0.030370966 0.100337334 -0.037264436 -0.08956512
000310 e2 4f c3 bd d0 05 14 3e c3 f2 31 3b 78 cc dc bd
       -0.09536721 0.14455342 0.0027152754 -0.10781187
000320 16 7e a9 3d 4b ff e4 3c 58 6d 0a bb 9d 22 98 3c
       0.08276002 0.027953764 -0.0021122303 0.018571192
000330 68 ca 49 3c 06 1b 2a 3c 4e 4a 33 bd dc 9f d3 bd
       0.012316324 0.010382419 -0.043772034 -0.10333225
000340 c7 76 29 3c 55 b5 08 bd 5d 49 27 3d 6f 8e a5 bc
       0.01034326 -0.033376057 0.04084145 -0.02020952
000350 04 0f 26 3d a2 76 8a 3d a9 89 16 3d 7f ee 01 3e
       0.040541664 0.06760909 0.036752377 0.12688635
000360 0e fd 6e bc e9 80 22 3b 4e 72 d2 bd 98 32 92 3d
       -0.0145867 0.0024796075 -0.10275708 0.07138556
000370 20 89 ca 3d 09 72 70 bb 77 3d 0b 3d 87 c6 f3 bc
       0.09889436 -0.0036689064 0.033994164 -0.029757751
000380 c3 8b dd bd e5 37 65 3d 07 00 65 3d 82 06 fc bd
       -0.10817673 0.05596151 0.05590823 -0.12305929
000390 0b 2f 73 3d 36 93 1f bd 2e 20 6b bd b2 8d 88 bd
       0.059371036 -0.03895875 -0.057403736 -0.06667651
0003a0 f5 e1 9f 3c 37 38 66 bd ea b7 c2 3c 3e 9c 76 bd
       0.019516924 -0.056205954 0.023769338 -0.060207598
0003b0 e9 0d 36 3d 0a 66 94 3d 7c f5 1b bc 27 4b 04 be
       0.04444686 0.07246025 -0.009518977 -0.12919293
0003c0 14 08 bb 3c fa 47 84 bd 18 59 54 bc 12 0a fd 3d
       0.022831 -0.06459041 -0.012960695 0.123554364
0003d0 b5 a8 5c bc aa eb 6b bd c2 97 3f bd 3b 19 24 3c
       -0.013467957 -0.057597794 -0.046775587 0.010015781
0003e0 ff b5 92 3d e3 91 cb 3d 71 e2 b8 3c b6 18 d8 bd
       0.07163619 0.09939935 0.022568913 -0.10551588
0003f0 59 ee 53 bd be 18 ba bd 64 69 43 3d d4 e7 08 3e
       -0.051740978 -0.090867504 0.04770793 0.13369685

critic.4.bias f4 [128]
000000 d7 68 c0 3d c5 34 f4 bc db a4 8b bc fa de 36 bd
       0.093949966 -0.029810319 -0.017046383 -0.04464624
000010 b4 f6 95 3d 48 7c 97 3d 28 f0 d0 3d 5b c3 f1 bc
       0.073224455 0.07396752 0.10202056 -0.029512098
000020 a7 42 60 bc f6 d1 4d bd 58 dc 7c bd f4 a5 48 3d
       -0.013687766 -0.050249062 -0.061733574 0.04898639
000030 50 5c 0d 3d c0 97 fd 3d 1e 08 a7 3d 72 47 1b 3d
       0.034511864 0.1238246 0.08155845 0.037909932
000040 f4 6b 94 3d 20 1c 31 bc b5 e0 be bd 22 a7 50 bd
       0.07247153 -0.010809928 -0.09320203 -0.05094064
000050 52 39 a1 3b 56 87 ea bc 4b af 0a 3d 7a cc d4 3c
       0.004920163 -0.028628986 0.03385858 0.025976408
000060 8b f7 e9 bc a1 57 ac 3d da b3 6d bd 14 84 03 bd
       -0.02856042 0.084151514 -0.058032848 -0.03210838
000070 cd 00 43 3d a1 0e ec 3b 94 30 ae 3c 48 f8 0e bd
       0.047608186 0.0072038923 0.021263398 -0.03490475
000080 e6 88 41 3d 10 b1 88 bc 4c 09 14 3c 3f 17 b1 3c
       0.047249697 -0.016685992 0.00903542 0.02161753
000090 a4 8a 41 bd 5d 11 30 3d db c0 02 3d df 15 8b bd
       -0.04725136 0.04298531 0.031922203 -0.06791281
0000a0 41 90 5e 3c 1c fd f0 bb 70 24 43 bd 52 13 89 bc
       0.0135841975 -0.0073543917 -0.04764217 -0.016732845
0000b0 c6 9b 9e bd 1b 83 b8 3d d9 67 05 ba 15 e6 fe bd
       -0.07744555 0.090093814 -0.0005089022 -0.124462284
0000c0 25 1b 5b bd 63 94 8b bc ce 43 37 bd b4 0b ec bd
       -0.053492684 -0.01703853 -0.044742398 -0.1152567
0000d0 7f 88 7a bd 18 0d 13 bd bc 54 c6 bd 5e c0 6d bd
       -0.06116533 -0.03590116 -0.096841305 -0.058044784
0000e0 92 4b 64 bd 2d e8 50 3d 6e fc 71 bc 6c 0a cd bd
       -0.055736132 0.05100267 -0.014769657 -0.100117534
0000f0 e2 a3 bf 3c 10 6e c6 bd f6 cd 65 bd f1 0f aa 3c
       0.023393575 -0.096889615 -0.056104623 0.020759555
000100 62 fb a8 3d d0 4c b0 3d db 2c 91 3d de de 80 bd
       0.082510725 0.08608401 0.070886336 -0.062925085
000110 f8 e8 6f bd 79 44 ee bd 85 45 bd bd 8a af dc bc
       -0.058571786 -0.11634154 -0.092417754 -0.026939172
000120 1a 4b b6 bd 7e 2d f3 3d 61 08 16 bd 5a dd d8 3a
       -0.08901043 0.11873911 -0.036629084 0.001654546
000130 c0 29 d6 bd be 19 51 3d ab 0b e1 3d 4c 5a 9e bd
       -0.10457182 0.05104994 0.109885536 -0.077320665
000140 cd 5d ed 3d 06 3f ee bd 0d 2c e9 bc b9 a5 d4 bd
       0.11590157 -0.116331145 -0.028463388 -0.103831716
000150 8d 26 37 bd ce 79 93 bd bd 22 a7 3d 03 b8 8d 3c
       -0.0447145 -0.07200967 0.08160923 0.017299658
000160 e6 fd 8a bd cd 3c 72 bd 12 e1 86 bd 33 8a 89 bc
       -0.067867085 -0.059140015 -0.065858975 -0.016789531
000170 2f 47 10 3d 26 dc ec bd 17 71 ae 3c 71 ba 8c 3d
       0.035224136 -0.115654275 0.02129416 0.068714984
000180 cd ad 97 bd 09 03 d1 bd 87 8b e4 bc 3d d0 ad 3d
       -0.07406197 -0.10205657 -0.027898563 0.08486984
000190 a8 eb 9f 3c b4 75 ba 3c fe 84 13 3b ab a1 52 bd
       0.01952155 0.022761203 0.002250969 -0.05142371
0001a0 7b 80 98 3c 0a 58 a2 3d f9 42 a2 3d 8d f7 29 bb
       0.018615952 0.07926948 0.0792293 -0.0025934905
0001b0 e6 82 64 bd 27 9e 40 bc 72 78 c1 3d e9 cc 9b 3c
       -0.055788897 -0.011756456 0.09446801 0.019018607
0001c0 f2 39 db bb dd 41 ec bd 27 3b 15 3d c9 79 a5 bd
       -0.006690257 -0.11536 0.036433365 -0.08079869
0001d0 eb e2 9b bd 40 8a d5 3d 7f b8 21 3b 7b f4 92 3c
       -0.076116405 0.1042676 0.0024676619 0.017938843
0001e0 3c b2 9b bd fc fd 27 bd 84 df cb 3d 4d ae c8 3d
       -0.07602355 -0.041013703 0.099547416 0.0979887
0001f0 10 74 5b 3d 42 ef d1 3a e9 db f0 3c ce 1c a9 bc
       0.053577483 0.0016016739 0.029401736 -0.020643618

critic.6.weight f4 [1, 128]
000000 45 7c 1d 3f 95 2c 27 bf 03 e2 23 bf 6b 04 26 3f
       0.61517745 -0.653024 -0.6401674 0.6485049
000010 a6 4e 22 3f 30 a5 17 3f a8 3b 19 3f f9 21 23 bf
       0.6340126 0.5923643 0.59856653 -0.63723713
000020 02 e9 17 3f aa a2 26 bf 46 8c 1b bf 88 05 21 bf
       0.59339917 -0.65091956 -0.60760915 -0.62899065
000030 8c 92 1c bf b4 d7 14 3f 10 ec 14 3f 40 d5 1d 3f
       -0.6116111 0.58141637 0.581727 0.6165352
000040 42 55 2a 3f 56 d1 26 3f 4b 77 20 bf 4f 80 1f bf
       0.66536343 0.6516317 -0.62682027 -0.6230516
000050 53 e9 14 3f 68 83 19 3f a4 e7 2a 3f fd 8a 1f bf
       0.58168525 0.59966135 0.66759706 -0.62321454
000060 a3 e9 1d bf 89 a2 1e 3f 26 b3 19 bf 76 35 22 3f
       -0.61684626 0.6196676 -0.60038984 0.63362825
000070 94 26 1f 3f 72 2e 20 3f 66 ed 1f 3f a1 cd 1e bf
       0.6216824 0.6257087 0.62471616 -0.62032515
000080 a6 3b 1d bf d0 68 27 bf 91 72 26 3f b1 fa 28 bf
       -0.6141914 -0.65394306 0.65018564 -0.66007525
000090 79 5f 23 bf 86 03 1e bf b8 e5 1e 3f 3b 11 23 bf
       -0.63817555 -0.61724126 0.62069273 -0.63698167
0000a0 dc 4f 27 bf dc 78 19 3f 8c d0 24 bf c9 eb 14 3f
       -0.6535623 0.5995004 -0.6438072 0.5817228
0000b0 f2 ce 1a bf 77 8e 20 3f e4 9b 24 3f 5a ef 1f bf
       -0.60472023 0.62717384 0.6430037 -0.62474597
0000c0 4e e2 1f 3f e3 99 17 3f 5c d5 15 bf 52 03 19 bf
       0.6245469 0.5921919 -0.58528686 -0.5977069
0000d0 87 58 18 bf 2d 45 17 bf 2a 5a 14 bf da d9 14 bf
       -0.5951008 -0.5908993 -0.5795008 -0.58144915
0000e0 6c db 17 3f ad 3a 15 bf 75 21 27 bf 87 8e 1f bf
       0.59319186 -0.5829266 -0.65285426 -0.62326854
0000f0 c3 ce 14 bf bb 84 16 bf ae 6a 17 bf 5c c9 18 bf
       -0.58127993 -0.5879628 -0.59147155 -0.5968225
000100 3e af 20 3f c2 00 21 3f 2a 87 24 3f d5 20 22 3f
       0.627674 0.6289178 0.64268744 0.6333135
000110 ef f4 28 bf e9 8b 18 bf 23 86 14 bf ff 1a 27 bf
       -0.6599874 -0.59588486 -0.58017176 -0.6527557
000120 e6 83 29 bf c4 4e 18 3f 5c 2e 1b 3f 4f bc 29 3f
       -0.66216886 0.59495187 0.60617614 0.6630296
000130 b4 87 15 bf 96 1e 23 3f 76 de 1c 3f 59 f3 19 bf
       -0.5841019 0.63718545 0.6127695 -0.60136944
000140 a9 93 18 3f 48 27 26 bf b6 3e 15 3f 19 0a 18 bf
       0.5960031 -0.6490369 0.58298814 -0.5939041
000150 b2 4b 1f 3f 98 a4 1b bf ba 69 1b 3f 2d c0 29 3f
       0.62224877 -0.60798025 0.607082 0.6630886
000160 da 55 23 bf 01 8b 26 bf 7b 1b 29 bf 6a 93 1d bf
       -0.63802874 -0.65055853 -0.66057557 -0.6155306
000170 4e 6f 27 bf 66 bf 1c bf 6c 08 1a bf 1e a3 26 3f
       -0.6540421 -0.6122955 -0.601691 0.6509265
000180 d0 56 21 bf 09 f2 1c bf 13 f4 17 bf bb 6b 28 3f
       -0.6302309 -0.61306816 -0.593568 0.65789384
000190 ce df 2b 3f dd 87 28 bf 4f ab 1d 3f 61 7e 22 3f
       0.67138374 -0.6583231 0.6158952 0.6347409
0001a0 c5 91 20 3f 81 08 1d 3f bc db 29 3f fd 5b 21 3f
       0.62722427 0.613411 0.66350913 0.6303099
0001b0 0b 90 16 3f e0 8c 1e 3f fc 76 19 3f 1f 3a 15 3f
       0.5881354 0.6193371 0.5994718 0.5829181
0001c0 59 b4 19 3f e6 0d 24 bf 6d 97 21 bf 44 af 16 bf
       0.60040814 -0.6408371 -0.6312168 -0.58861184
0001d0 ec 72 1b bf dc 53 16 3f ef 3e 2a bf 26 70 29 bf
       -0.6072223 0.5872171 -0.6650228 -0.6618675
0001e0 25 62 24 bf be a4 1a bf e2 6e 28 3f a5 82 26 3f
       -0.64212257 -0.60407627 0.65794194 0.650431
0001f0 16 d6 18 3f ce 3a 21 3f 86 5e 16 bf 98 ff 29 3f
       0.5970167 0.62980354 -0.5873798 0.6640563
