final_repo/algorithms/ippo_algorithm/checkpoints/ppo_actor_0env_comp_exp_1_run_0_catmouse.pth (torch, 151820 bytes, 8 tensors)

actor.0.weight f4 [128, 21]
0	0xbe4802f4	-0.19532377
1	0x3e2d1b36	0.16904911
2	0xbe0e304a	-0.13885608
3	0xbde4c5c9	-0.11170537
4	0x3bd5ba9b	0.0065224892
5	0x3d8885cc	0.06666145
6	0x3be04117	0.006843697
7	0x3dda5828	0.10661346
8	0x3d154e67	0.036451723
9	0x3e85104f	0.25989005
10	0xbda1c5d8	-0.07899064
11	0x3e05ee6e	0.13079235
12	0x3e24f28d	0.16108151
13	0xbdf077e5	-0.11741618
14	0xbe69328a	-0.22773185
15	0xbe4fcca9	-0.20292915
16	0x3e0feab0	0.1405437
17	0xbda100a6	-0.07861452
18	0xbe1321c1	-0.14368345
19	0x3e204de9	0.1565472
20	0xbdb0072f	-0.0859512
21	0xbdc0ea69	-0.0941971
22	0x3e0b4765	0.13601454
23	0x3e19ffb2	0.15038946
24	0x3d3cc03d	0.04608177
25	0xbe3992f2	-0.18122461
26	0xbe0e69cc	-0.13907546
27	0x3e357b37	0.17722784
28	0x3e330e94	0.1748603
29	0xbe1b008c	-0.15136927
30	0xbe235bd1	-0.15952994
31	0x3cd57bfa	0.026060093
32	0xbe404b56	-0.18778738
33	0xbe531dbc	-0.20616812
34	0xbd82bea1	-0.06384016
35	0x3c20587e	0.009786723
36	0x3d6b792f	0.057488617
37	0xbe1c59cf	-0.15268634
38	0x3e634ef4	0.22198087
39	0x3e545fa8	0.20739615
40	0xbde576e0	-0.11204314
41	0xbe390633	-0.18068771
42	0x3e7dc05f	0.24780415
43	0x3de1179d	0.10990832
44	0xbddbb6b7	-0.107282095
45	0x3e68a595	0.22719415
46	0x3dcf8952	0.10133614
47	0x3d991774	0.074751765
48	0x3db7e80c	0.08979806
49	0xbe682a0b	-0.22672288
50	0xbd3a9dd6	-0.04556068
51	0x3d5414e8	0.05177775
52	0xbe685998	-0.22690427
53	0xbdf6b1f2	-0.12045659
54	0xbe6262c7	-0.22107993
55	0xbe399b1c	-0.18125576
56	0x3e0e9f8a	0.13928047
57	0x3e3fb910	0.1872294
58	0x3e2a934d	0.16657753
59	0x3e4923a9	0.1964251
60	0xbe2a49eb	-0.1662976
61	0x3dbe0cb8	0.0927977
62	0xbbbcfcdf	-0.0057674493
63	0x3e21acba	0.15788546
64	0xbd6e4a08	-0.05817607
65	0xbd7ef654	-0.062246636
66	0xbb8522ac	-0.004062971
67	0x3cc91ab3	0.024548864
68	0x3d89c503	0.0672703
69	0x3d24d6af	0.0402438
70	0xbdf830ef	-0.12118708
71	0xbe27e701	-0.16396715
72	0x3e4794ef	0.19490407
73	0x3e6a8683	0.22902875
74	0x3bac7114	0.0052625034
75	0xbd8a04d4	-0.06739202
76	0x3e4f87ab	0.20266597
77	0xbe7e2c7b	-0.24821655
78	0xbd253904	-0.040337577
79	0xbc8afd20	-0.016966403
80	0xbe6f45be	-0.23366448
81	0xbdc25d4f	-0.094904535
82	0x3ca326b0	0.019915909
83	0x3d908231	0.07056082
84	0x3e32fc01	0.17478944
85	0xbdd8986d	-0.10575948
86	0x3deebcd8	0.11657113
87	0xbe556cf7	-0.20842348
88	0xbe11d48d	-0.14241238
89	0x3d2c48a5	0.042061467
90	0xbe2fe2b3	-0.17176323
91	0xbdaae09d	-0.08343623
92	0x3e4a198a	0.19736305
93	0x3e9fd3cd	0.3121628
94	0x3e6dadae	0.23210785
95	0x3e470a90	0.19437623
96	0x3e6a3405	0.22871406
97	0xbdb0a1f7	-0.08624642
98	0xbd32785d	-0.04357182
99	0xbe3ce86b	-0.18448035
100	0x3df7ed7c	0.121058434
101	0xbd892a20	-0.06697488
102	0xbc80c666	-0.015719604
103	0x3d8e4134	0.0694603
104	0x3e0c0330	0.13673091
105	0xbdbce40d	-0.09223185
106	0xbe477033	-0.19476394
107	0xbdc3eb7a	-0.09566398
108	0xbe1e7fec	-0.15478486
109	0xbe1e97eb	-0.1548764
110	0xbc82591f	-0.015911637
111	0xbe1401c2	-0.14453796
112	0x3ddf7b37	0.10912173
113	0xbdc92a30	-0.098225
114	0xbe0bf1f5	-0.13666518
115	0x3d88ffa3	0.06689384
116	0xbe9b4f63	-0.30334005
117	0x3dae0931	0.08497847
118	0x3c633b23	0.01386908
119	0x3e6bbf11	0.23022105
120	0x3e68ecf2	0.22746637
121	0x3e741564	0.23836285
122	0x3cb03e0f	0.021513967
123	0xbe30d10e	-0.17267248
124	0x3df06dc0	0.11739683
125	0xbe26df45	-0.16296108
126	0x3dfffad2	0.12499012
127	0xbde5ef42	-0.112272754
128	0xbe086d3b	-0.13322918
129	0xbde6dff2	-0.11273183
130	0xbd71736d	-0.05894797
131	0x3df071ac	0.11740431
132	0x3c0be299	0.008537912
133	0x3df3dbaa	0.11907132
134	0xbe441e88	-0.19152272
135	0x3e52b3da	0.2057642
136	0x3d19d1f5	0.037553746
137	0x3c5a67e1	0.013330431
138	0xbe491e63	-0.19640498
139	0xbd8b6402	-0.06806184
140	0xbba7f8ae	-0.0051260805
141	0x3d4fb034	0.05070515
142	0xbea9042c	-0.33010995
143	0xbe365363	-0.17805247
144	0xbcc13da0	-0.023588955
145	0x3dd8285a	0.105545714
146	0x3d00fab0	0.031489074
147	0x3d9fc3c9	0.07801015
148	0xbe017911	-0.1264384
149	0x3e13e776	0.14443764
150	0x3ddfcb29	0.109274216
151	0xbe46d20c	-0.19416064
152	0xbe183260	-0.14862967
153	0x3e5b6876	0.21426567
154	0xbdde1d87	-0.10845476
155	0x3d5ca019	0.05386362
156	0x3dd60d8a	0.10451801
157	0x3d9cc6f0	0.07655132
158	0x3dbf476a	0.09339793
159	0x3e612295	0.21985848
160	0x3d38777e	0.04503583
161	0xbe4fadfc	-0.20281214
162	0xbc968d4a	-0.018377919
163	0xbce1c18f	-0.027558116
164	0x3dccbcb1	0.099969275
165	0xbe06016e	-0.13086483
166	0xbe30e75d	-0.17275758
167	0xbe3af5bf	-0.18257807
168	0xbda8fd05	-0.08251385
169	0x3e40a9f8	0.18814838
170	0x3e0bc14a	0.13647953
171	0xbdf26b89	-0.11836917
172	0x3d4f2bf6	0.050579034
173	0xbd41a2a7	-0.047274258
174	0xbd470791	-0.0485912
175	0x3d6aa437	0.057285514
176	0xba9f91ca	-0.0012174186
177	0xbe0af6f2	-0.13570765
178	0xbddd292d	-0.10798869
179	0xbd5dfa4e	-0.054193787
180	0x3e7e553a	0.24837199
181	0x3de733bc	0.112891644
182	0x3d48e0ae	0.049042396
183	0x3e080464	0.13282925
184	0x3dd4945f	0.10379862
185	0x3e36939e	0.17829749
186	0xbe2f9419	-0.17146339
187	0x3e092f2c	0.13396901
188	0x3ce12e3d	0.027487868
189	0xbd9bd357	-0.07608669
190	0xbe26d766	-0.16293105
191	0xbcfed193	-0.031105792
192	0xbd208084	-0.039185062
193	0x3e3c8e6e	0.18413708
194	0x3d847945	0.06468443
195	0xbd12de75	-0.035856683
196	0xbe637c9a	-0.222155
197	0xbd69bb36	-0.057063304
198	0xbe197b7a	-0.14988509
199	0xbe483edf	-0.19555233
200	0xbe667811	-0.22506739
201	0xbe67c691	-0.22634341
202	0xbe636107	-0.22204982
203	0x3e4f531b	0.20246546
204	0x3e8be5af	0.27323672
205	0x3db933fa	0.09043117
206	0xbe0e6edd	-0.13909478
207	0x3d53f568	0.05174771
208	0xbde3e1fb	-0.11127087
209	0xbd00b883	-0.031425964
210	0x3ceaae21	0.028647484
211	0xbd4f4ef9	-0.050612424
212	0x3e0588a4	0.13040406
213	0x3dacd294	0.08438602
214	0x3da07401	0.07834626
215	0xbd14bfa6	-0.036315583
216	0xbddd9eb4	-0.10821286
217	0xbe53d412	-0.20686367
218	0x3e223296	0.1583961
219	0x3d88a28c	0.06671628
220	0xbdf8bab5	-0.121449865
221	0xbe6e9833	-0.23300247
222	0x3e16ebd2	0.14738396
223	0xbd68505a	-0.056717254
224	0xbd8d337c	-0.068945855
225	0x3eb77f61	0.3583937
226	0x3e432eab	0.19060771
227	0xbe54bffa	-0.20776358
228	0xbe0afcd2	-0.13573006
229	0xbaf2e560	-0.0018531494
230	0x3c5cf071	0.01348506
231	0x3a878e64	0.0010342118
232	0xbd8d9e51	-0.06914962
233	0xbd5bc7fe	-0.053657524
234	0x3d59fad3	0.05321772
235	0x3e0c9a02	0.13730624
236	0x3cde8c19	0.027166413
237	0xbe05afc0	-0.13055325
238	0x3e5628f6	0.20914063
239	0x3c16d154	0.009205181
240	0x3e253892	0.16134861
241	0xbe4c0700	-0.19924545
242	0x3e71ad93	0.2360137
243	0x3e5a9cdb	0.21348898
244	0x3e62acc1	0.22136213
245	0x3d59a313	0.053134035
246	0x3e14dd0a	0.14537445
247	0x3d094990	0.03351742
248	0xbdc707e8	-0.09718305
249	0xbe180a67	-0.14847718
250	0xbe170dee	-0.14751408
251	0xbe1caed9	-0.15301074
252	0x3d7c6727	0.06162181
253	0xbdeaef86	-0.11471467
254	0xbdf8369e	-0.121197924
255	0xbd9ff09a	-0.07809563

actor.0.bias f4 [128]
0	0xbd703e0a	-0.058652915
1	0xbe2b17da	-0.16708317
2	0x3e5e5208	0.2171098
3	0x3d92cff7	0.071685724
4	0x3e19a57a	0.1500453
5	0x3e191ae5	0.14951666
6	0xbe0ef4da	-0.13960591
7	0xbd9ef618	-0.077617824
8	0xbc2c81f5	-0.010529031
9	0x3cea9586	0.028635751
10	0x3c9d6d61	0.019217195
11	0xbe3622ec	-0.17786759
12	0x3db9b2cd	0.09067307
13	0xbd88283b	-0.06648298
14	0xbe3bb554	-0.1833089
15	0xbe680a2d	-0.22660132
16	0xbe00892d	-0.12552328
17	0xbab910f1	-0.0014119429
18	0xbda4231e	-0.080145106
19	0x3e2c5d70	0.16832519
20	0x3d0eee3e	0.034895174
21	0xbe393aec	-0.18088883
22	0x3dabb28e	0.08383666
23	0xbd81b4cc	-0.063333124
24	0xbe4be284	-0.19910628
25	0x3db1c329	0.08679802
26	0x3db2c249	0.08728463
27	0x3d5b0467	0.053470995
28	0x3b868e6b	0.004106333
29	0x3dfc0821	0.12306238
30	0xbe69c89a	-0.2283043
31	0xbd778220	-0.06042683
32	0xbe80358c	-0.25040853
33	0x3e08c484	0.13356215
34	0xbe0870ab	-0.1332423
35	0x3d664a92	0.05622346
36	0xbdc2fe4e	-0.09521161
37	0xbc863899	-0.01638441
38	0xbe2c4165	-0.16821821
39	0xbe081de6	-0.13292655
40	0x3e1d2652	0.1534665
41	0x3e25e509	0.16200651
42	0xbe4ec683	-0.20192914
43	0x3df20089	0.11816508
44	0xbe584c2f	-0.21122812
45	0xbda7f8aa	-0.08201726
46	0x3df33090	0.11874497
47	0x3e385dc2	0.18004516
48	0x3e20bd4d	0.15697213
49	0x3cc62136	0.024185758
50	0xbe281193	-0.16412954
51	0x3e45e1a6	0.1932436
52	0xbe14b99e	-0.14523932
53	0x3c9c5989	0.019085662
54	0xbe7876b1	-0.24264027
55	0xbdef0023	-0.11669948
56	0xbdf11f3c	-0.117735356
57	0x3d700ee0	0.058607936
58	0x3e2b5db1	0.16734959
59	0xbe4c03f8	-0.19923389
60	0xbde746c9	-0.11292798
61	0x3e0d87a2	0.13821271
62	0x3e1f26e6	0.15542182
63	0xbdf6a7f2	-0.12043752
64	0xbde42773	-0.11140337
65	0xbc36dd19	-0.011161112
66	0x3b3d2222	0.0028859456
67	0x3cf5e1e7	0.030014945
68	0x3e360a8d	0.17777462
69	0xbde9630a	-0.11395843
70	0xbe5d5c7d	-0.21617313
71	0x3da0e4b8	0.07856125
72	0x3d218c17	0.03944024
73	0xbe37b55c	-0.17940277
74	0x3ced91b2	0.029000137
75	0xbe16a2c8	-0.14710534
76	0x3dbbb73c	0.091658086
77	0xbd223d95	-0.03960951
78	0xbe64b288	-0.2233373
79	0xbe4704db	-0.19435446
80	0xbdd87e6a	-0.105709866
81	0xbe24c2fa	-0.16090003
82	0x3dfc7d80	0.12328625
83	0xbe43a342	-0.19105247
84	0xbde12ac7	-0.10994487
85	0xbd8c8c60	-0.06862712
86	0x3d047db0	0.032346427
87	0x3d28768b	0.041128676
88	0xbdd0f6e3	-0.1020334
89	0xbd0aef83	-0.033919822
90	0xbe4fa05d	-0.20276017
91	0xbdd92bd8	-0.10604066
92	0xbe65f37b	-0.22456162
93	0xbdad0847	-0.084488444
94	0x3e443826	0.19162044
95	0xbe1a986d	-0.15097208
96	0x3dc6fd45	0.09716276
97	0xbd88df2a	-0.0668319
98	0x3e0a3a5f	0.1349883
99	0x3e13f1f1	0.14447762
100	0x3e078923	0.13235907
101	0x3e113fcb	0.14184491
102	0x3cddc799	0.027072715
103	0x3dda7365	0.10666541
104	0xbd7390a2	-0.059464104
105	0x3c9bd509	0.019022482
106	0xbe1e8fe2	-0.15484574
107	0x3dbf7cc8	0.09349972
108	0x3dbf884f	0.09352171
109	0x3e4579c6	0.19284734
110	0x3e09c323	0.13453345
111	0x3df90aaf	0.12160241
112	0xbdfc82af	-0.123296134
113	0xbc1e07d7	-0.009645424
114	0x3d910bde	0.070823416
115	0xbd89613c	-0.06707999
116	0x3da11619	0.07865543
117	0xbdf1d540	-0.11808252
118	0x3d977563	0.073954366
119	0x3c3af0a7	0.011409915
120	0xbcdf9c3c	-0.027296178
121	0xbe173985	-0.14768036
122	0x3cb0cdd2	0.021582518
123	0xbded0b91	-0.11574472
124	0xbe21aa83	-0.15787701
125	0xbd1f500b	-0.038894694
126	0xbe48cc37	-0.19609152
127	0x3e091ba9	0.13389458

actor.2.weight f4 [128, 128]
0	0xbd8bbd82	-0.06823255
1	0x3dc955a1	0.098307855
2	0xbbdeb348	-0.0067962743
3	0xbd0ce685	-0.034399528
4	0x3dd0469e	0.10169719
5	0x3ccf731a	0.02532344
6	0x3d6a40fb	0.057190876
7	0xbccbe11d	-0.024887616
8	0xbd3096be	-0.04311251
9	0xbdf76c16	-0.12081163
10	0xbd47e405	-0.04880144
11	0xbdae8da7	-0.08523112
12	0xbd00a280	-0.031404972
13	0x3df93b96	0.12169568
14	0xbd196630	-0.03745097
15	0x3d0bed87	0.03416207
16	0xbc84ab3c	-0.016194932
17	0xbdf07caf	-0.117425315
18	0x3d681ad1	0.0566662
19	0x3e18cbdf	0.1492152
20	0x3cf87a68	0.030331805
21	0xbc916012	-0.017746005
22	0xbb8227d3	-0.0039720326
23	0xbcd1458e	-0.025545862
24	0xbc6c9d51	-0.014441804
25	0xbd452c51	-0.048137967
26	0xbceee9ff	-0.029164312
27	0x3c18d8da	0.009329045
28	0xbd124cad	-0.035717655
29	0x3d3045a0	0.04303515
30	0x3def2638	0.116772115
31	0xbdc084a7	-0.094003014
32	0x3c49e70b	0.012323151
33	0x3d836d3b	0.064173184
34	0x3ddd226b	0.1079758
35	0xbceb106c	-0.028694354
36	0xbd784504	-0.060612693
37	0xbd5536d4	-0.05205424
38	0x3db57dd2	0.08861889
39	0x3d1a9509	0.037739787
40	0xbd1d428c	-0.038393542
41	0xbd18012e	-0.0371105
42	0x3df90beb	0.12160476
43	0xbd92a178	-0.07159704
44	0x3d3e9ade	0.04653441
45	0xbd483417	-0.0488778
46	0xbbf8bc42	-0.0075908015
47	0x3e2eb352	0.17060593
48	0x3cf3ccff	0.029760836
49	0x3da7b536	0.0818886
50	0xbdb1c7dc	-0.08680698
51	0x3ce30f90	0.027717382
52	0x3be1e34c	0.006893551
53	0xbcbc7445	-0.02300466
54	0xbda91894	-0.08256641
55	0xbdb07444	-0.08615926
56	0x3d40f904	0.04711248
57	0x3d375085	0.044754524
58	0x3d9d9aea	0.07695563
59	0xbd272b61	-0.040812854
60	0x3c5282c8	0.0128485635
61	0x3d6a2c36	0.05717107
62	0xbd20743c	-0.03917335
63	0xbcc657bf	-0.024211762
64	0x39d1465b	0.00039916005
65	0xbdd43ea7	-0.103635125
66	0xbc946922	-0.018116537
67	0x3cedd66b	0.029032907
68	0xbca217ae	-0.019786682
69	0xbd6f49d3	-0.058420014
70	0x3dd19bde	0.102348074
71	0xbc221d00	-0.009894609
72	0xbd44ad16	-0.04801663
73	0xbbc9d8e8	-0.0061598904
74	0xbd6aab00	-0.057291985
75	0xbd6e5789	-0.05818895
76	0x3d2f1030	0.042740047
77	0x3dd6e055	0.10492007
78	0x3d7a6763	0.061133754
79	0x3c9f1b66	0.019422244
80	0x3d5d9b86	0.054103397
81	0xbc13bdc6	-0.0090174135
82	0xbc01aaf6	-0.007914295
83	0xbd9f4022	-0.07775904
84	0x3d13a9f5	0.036050756
85	0x3d619e98	0.055082887
86	0xbccd8d93	-0.025091922
87	0x3d2b5b35	0.04183503
88	0x3cbd7136	0.023125272
89	0x3ab9b1f1	0.001416741
90	0x3d4288c8	0.047493726
91	0xbdea781e	-0.11448692
92	0xbd466843	-0.048439275
93	0xbde1f145	-0.11032347
94	0x3a8f0dad	0.001091411
95	0x3da11af7	0.07866471
96	0x3ce19a34	0.02753935
97	0x3e25f672	0.16207293
98	0x3cc6a7b0	0.024249882
99	0x3c8cfb60	0.017209709
100	0xbdd94c9c	-0.10610315
101	0xbde9a92a	-0.114092186
102	0x3d9967a9	0.07490475
103	0xbdf0490a	-0.11732681
104	0x3dcdaab6	0.10042326
105	0xbdd96c0a	-0.1061631
106	0xba9fb6bc	-0.0012185196
107	0x3d612d4b	0.054974835
108	0x3d033f06	0.032042526
109	0xbdd59b0b	-0.10429963
110	0xbcf08c87	-0.029363884
111	0xbb6f679e	-0.0036530267
112	0xbda67fa9	-0.08129818
113	0x3daa34c2	0.08310844
114	0xbdb46931	-0.08809126
115	0x3d46bad3	0.048518013
116	0xbdac2fb9	-0.0840754
117	0xbd9726d3	-0.07380452
118	0x3ca0fca7	0.019651724
119	0xbcfe0adb	-0.031011036
120	0xbcb99c57	-0.022657556
121	0xbcf84afb	-0.030309191
122	0xbd45699f	-0.04819643
123	0xbc0f1f4d	-0.00873549
124	0x3e24abe3	0.16081195
125	0x3cef0ab5	0.02917991
126	0x3e10fc16	0.14158663
127	0xbd7170e4	-0.05894555
128	0xbd5f5b3d	-0.05453037
129	0xbcd08636	-0.025454622
130	0xbd2b5276	-0.041826688
131	0xbd52d138	-0.051469058
132	0x3cf4f796	0.029903214
133	0xbc626758	-0.013818584
134	0x3dd92194	0.10602108
135	0xbda610bd	-0.08108661
136	0x3ce89ef6	0.028396111
137	0x3dac8840	0.08424425
138	0xbd8baae1	-0.06819702
139	0x3d7347e1	0.05939472
140	0xbd8bd8a7	-0.068284325
141	0x3d4b91a9	0.04969946
142	0xbb23e8f9	-0.0025010689
143	0x3d162935	0.03666039
144	0xbc423003	-0.011852267
145	0xbdc8855e	-0.09791063
146	0x3ddc8e1d	0.107692935
147	0xbd82b199	-0.0638153
148	0x3d507b42	0.050898798
149	0x3d20c1cd	0.039247323
150	0xbc605fe9	-0.013694742
151	0x3dd16a92	0.10225405
152	0xbd57419f	-0.052552816
153	0x3d76e726	0.060279034
154	0xbca14ad7	-0.019689007
155	0x3bcee71a	0.0063141705
156	0xbd95ed28	-0.073206246
157	0xbe104115	-0.14087327
158	0x3d6b11c1	0.05738998
159	0xbe237238	-0.1596154
160	0x3db2456e	0.08704649
161	0x3d55e49e	0.05221998
162	0x3e247dbf	0.16063593
163	0x3b414d08	0.0029495377
164	0xbd79dc38	-0.061001033
165	0x3d6c1621	0.05763829
166	0xbd083c9a	-0.03326092
167	0x3d203148	0.0391095
168	0x3caf3c33	0.02139101
169	0xbd33a5eb	-0.043859404
170	0xbcc52aaf	-0.024068205
171	0xbc95e3d9	-0.018297123
172	0xbd81f4e0	-0.06345534
173	0xbce1b3f9	-0.027551638
174	0xbd6e6159	-0.058198307
175	0x3dbbde11	0.09173215
176	0xbd9ae329	-0.075628586
177	0x3c54cd92	0.012988465
178	0xbd040d7f	-0.032239433
179	0x3d7c4fc6	0.061599515
180	0x3d550cb6	0.052014075
181	0x3d8a8c5d	0.067650534
182	0xbdf86e1b	-0.12130376
183	0x3d202b40	0.039103746
184	0x3dcea5d4	0.10090223
185	0x3dbd58df	0.092454664
186	0x3dc86812	0.09785475
187	0xbd684e0e	-0.056715064
188	0x3be57773	0.007002765
189	0xbd7fdcf3	-0.062466573
190	0xbc0443bf	-0.008072793
191	0xbe2755f8	-0.16341388
192	0xb8cd434d	-9.7876975e-05
193	0x3c8199bd	0.015820378
194	0x3d97aa96	0.074055836
195	0xbc92b52d	-0.017908657
196	0xbd6dc6b6	-0.058050834
197	0x3d1081df	0.035280105
198	0xba32fcad	-0.0006827813
199	0xbc69dc46	-0.014273709
200	0x3c3f96e8	0.011693694
201	0xb9a6ea6c	-0.00031836645
202	0x3dcd0bd7	0.10012024
203	0xbde623d1	-0.112373
204	0xbd144d0c	-0.03620629
205	0x3d7f84b5	0.06238242
206	0xbdcc1d15	-0.099664845
207	0x3d7e32b1	0.06206006
208	0x3d476e80	0.048689365
209	0xbc450cc9	-0.012026974
210	0x3cf44b3a	0.029821027
211	0x3e23fce4	0.16014439
212	0xbd82a49b	-0.06379052
213	0xbdf71f41	-0.12066508
214	0x3cfa216f	0.03053352
215	0x3dae914c	0.08523807
216	0x3c2eb455	0.010663112
217	0x3cd627c7	0.026142014
218	0x3cc50685	0.02405096
219	0xbd009c8e	-0.031399302
220	0x3d9be975	0.07612888
221	0xbdbf576f	-0.093428485
222	0x3da1e8da	0.07905741
223	0x3c9c78e2	0.01910061
224	0xbd1d7cbf	-0.038449045
225	0x3d7bc9e5	0.06147184
226	0x3d3cdd2e	0.04610937
227	0xbb2099f5	-0.0024505828
228	0xbc800c51	-0.015630873
229	0x3d2deea0	0.0424639
230	0x3e0868b4	0.13321191
231	0x3d66fbdb	0.05639253
232	0x3d819ee3	0.06329133
233	0xbc8709bd	-0.016484136
234	0xbdc4b209	-0.0960427
235	0xbd8601d3	-0.06543317
236	0x3d9b9b82	0.0759802
237	0x3d42d034	0.04756184
238	0xbcf60ea0	-0.03003627
239	0x3d5803cc	0.052737996
240	0x3d286ce6	0.04111948
241	0x3dbf55aa	0.09342511
242	0x3c3677d5	0.011136969
243	0xbd81978f	-0.06327736
244	0xbc88a661	-0.016680898
245	0x3c8ee208	0.017441764
246	0xbdb76d06	-0.089563414
247	0x3db693b7	0.08914893
248	0xbd877283	-0.06613638
249	0xbd716db6	-0.05894252
250	0xbd663fd5	-0.05621322
251	0x3d4795b5	0.048726756
252	0x3dac1eb0	0.08404291
253	0x3d9bd39f	0.07608723
254	0x3ca6d3a8	0.020364597
255	0x3d61ee28	0.055158764

actor.2.bias f4 [128]
0	0xbcbfd8f1	-0.023418875
1	0x3d4bc4cf	0.04974824
2	0x3b9add4c	0.0047260877
3	0x3caa66f0	0.020801038
4	0x3d577bad	0.05260818
5	0x3d812a34	0.06306878
6	0x3b9e241d	0.0048260824
7	0xbd4eba00	-0.050470352
8	0x3cf65ef0	0.030074567
9	0xbd553fe1	-0.052062873
10	0xbdc2fcb2	-0.09520854
11	0x3d826a84	0.063679725
12	0xbd8fcc78	-0.07021421
13	0x3bbdcaec	0.0057920124
14	0xbd76b777	-0.06023356
15	0x3d356e35	0.044294555
16	0xbd71151f	-0.058858033
17	0xbd840ea9	-0.06448109
18	0xbdca2734	-0.09870759
19	0xbd8314db	-0.06400462
20	0x3cc25213	0.023720777
21	0x3d89714b	0.06711062
22	0x3c7b4b9e	0.015337853
23	0xbcda2b33	-0.026631927
24	0xbcef4ae6	-0.029210519
25	0xbd7fbf29	-0.062438164
26	0xbda625e0	-0.08112693
27	0xbcab51df	-0.020913063
28	0xbd2ef565	-0.042714495
29	0xbda2f02e	-0.07955967
30	0x3d5b6a68	0.053568274
31	0xbb38ed31	-0.002821755
32	0xbd380313	-0.044924807
33	0xbd0493be	-0.03236746
34	0x3d7472d5	0.059679825
35	0x3cfa6fa2	0.030570809
36	0xbcf74104	-0.030182369
37	0x3d8f3708	0.06992918
38	0xbc2eb6b0	-0.010663673
39	0x3d41f5b2	0.047353454
40	0x3c9acbf6	0.018896084
41	0x3d062117	0.0327464
42	0xbd720cba	-0.05909417
43	0xbd90dc9d	-0.07073329
44	0xbb899df8	-0.0041997395
45	0xbd8bd1be	-0.068271145
46	0xbcf19e93	-0.02949456
47	0x3d07b3a7	0.033130314
48	0x3d1a3a6f	0.037653383
49	0x3d7295eb	0.059225004
50	0xbd57cfd0	-0.05268842
51	0xbc738afa	-0.014864678
52	0x3d9f0fba	0.077666715
53	0xbbad7779	-0.0052937833
54	0xbd7941c2	-0.060853727
55	0xbd2d3e02	-0.042295463
56	0x3d293cc0	0.0413177
57	0xbca1edcd	-0.019766713
58	0xbd382ac2	-0.044962652
59	0xbdc478f4	-0.095933825
60	0xbd80dac8	-0.06291729
61	0xbb842152	-0.0040322924
62	0xbcac2872	-0.02101538
63	0x3d132c2c	0.035930797
64	0xbcf038e5	-0.029324004
65	0xbda92a7f	-0.082600586
66	0x3d5793d8	0.05263123
67	0x3d63809b	0.05554257
68	0x3c0dc16b	0.0086520715
69	0x3dab908b	0.08377179
70	0x3d111efd	0.035429943
71	0xbc96027d	-0.018311733
72	0x3c3e3bfd	0.011610982
73	0x3d3530b2	0.044235893
74	0xbc0bc4f4	-0.008530844
75	0x3cd05f67	0.025436116
76	0xbd4338d8	-0.047661632
77	0x3c329fef	0.010902389
78	0x3ca9ef33	0.020743942
79	0xbdc21278	-0.09476179
80	0xbcf76bf8	-0.03020285
81	0xbd965780	-0.07340908
82	0xbd1dec6b	-0.038555544
83	0x3c8a9de3	0.01692099
84	0xbd67ce45	-0.0565932
85	0x3da14608	0.078746855
86	0xbdaa8390	-0.08325875
87	0xbdef15db	-0.116740905
88	0xbd9d13fb	-0.076698266
89	0xbc18b422	-0.009320291
90	0x3d64b3b6	0.05583545
91	0xbd235214	-0.039873198
92	0xbd28fbcd	-0.04125576
93	0xbcf3541f	-0.029703198
94	0xbda9e92c	-0.08296427
95	0xbcfdd85d	-0.03098696
96	0x3dcfa6c7	0.10139232
97	0x3c841fbc	0.016128413
98	0xbb805334	-0.0039161686
99	0x3db19ace	0.08672105
100	0x3ba63f79	0.0050734845
101	0xbd42bafd	-0.047541607
102	0xbd4d0d88	-0.050061733
103	0x3b887edc	0.0041655134
104	0xbcc7b2dd	-0.02437728
105	0x3cfe13fa	0.031015385
106	0xbc134452	-0.008988457
107	0x3b9bbb0a	0.0047525214
108	0xbd450121	-0.04809678
109	0xbd86c752	-0.06580986
110	0xbd952eaf	-0.07284295
111	0x3d738c04	0.0594597
112	0xbcc4f83e	-0.024044152
113	0xbd0bd9f9	-0.03414342
114	0x3cccbbcd	0.024991894
115	0xbcbc15d5	-0.02295963
116	0x3d99c699	0.075085826
117	0x3d52ad9d	0.0514351
118	0x3cf97434	0.030450918
119	0x3d663d42	0.056210764
120	0x3d43d9fe	0.047815315
121	0x3da5671c	0.08076307
122	0x3dc2d420	0.09513116
123	0xbd34f88d	-0.04418235
124	0xbca6a1f5	-0.020340899
125	0x3ca240ae	0.019806232
126	0x3cfb84b6	0.03070293
127	0x3dcae9ae	0.09907852

actor.4.weight f4 [128, 128]
0	0xbd6e7d16	-0.05822476
1	0xbd7201d4	-0.059083775
2	0x38ea52c8	0.00011173409
3	0x3d256e26	0.04038825
4	0xbd888fd3	-0.06668057
5	0xbdb88379	-0.090094514
6	0xbd70adee	-0.058759622
7	0xbd495491	-0.049152914
8	0xbe008bb1	-0.12553288
9	0x3da4c1ab	0.08044752
10	0x3d70e468	0.058811575
11	0xbd830a74	-0.06398478
12	0x3ddea851	0.108719476
13	0x3d5f715a	0.05455146
14	0x3d28433d	0.04107975
15	0xbdaa2979	-0.083086915
16	0xbc087923	-0.0083296625
17	0x3d80e668	0.062939465
18	0x3cb083c5	0.021547208
19	0xbd9a8f5d	-0.075468756
20	0xbdb43145	-0.0879846
21	0xb909bd11	-0.00013135771
22	0xbe076249	-0.13221087
23	0x3c8b6453	0.017015612
24	0xb9a3aabe	-0.00031216996
25	0x3d218f14	0.03944309
26	0x3e22fe35	0.15917285
27	0x3d378bbb	0.04481099
28	0x3d941828	0.0723117
29	0xbd0a5e0f	-0.033781108
30	0xbd31d501	-0.043416027
31	0xbdac4342	-0.08411266
32	0x3cfc479c	0.030795865
33	0x3d0f4213	0.034975123
34	0xbd72a868	-0.059242636
35	0xbb8d6474	-0.0043149535
36	0xbd88a8c1	-0.06672812
37	0xbd9dc715	-0.077039875
38	0x3d032714	0.03201969
39	0xbd1d294a	-0.038369454
40	0x3cc1ae58	0.023642704
41	0x3c842bd0	0.016134173
42	0xbd93f0c4	-0.07223657
43	0x3e1ac658	0.15114725
44	0x3da82b2b	0.08211359
45	0x3cf43d07	0.029814256
46	0x3d3e40f0	0.046448648
47	0xbd20d3eb	-0.0392646
48	0xbd651c45	-0.055935163
49	0x3e17651f	0.14784668
50	0xbd2b8b49	-0.04188088
51	0xbd85ad27	-0.06527167
52	0x3d28e98d	0.041238356
53	0xbdbf9ee4	-0.09356478
54	0x3dd4059b	0.10352632
55	0xbe03eaa0	-0.12882471
56	0xbd8e18b2	-0.06938304
57	0xbceb6806	-0.028736126
58	0xbc1c9222	-0.009556325
59	0x3d8a6fd1	0.067596085
60	0x3cc2673d	0.023730868
61	0xbc6d59c2	-0.014486732
62	0x3c769a0e	0.015051378
63	0x3d853c0c	0.06505594
64	0x3d652a78	0.055948704
65	0x3d105045	0.0352328
66	0xbd2879ad	-0.041131664
67	0xbd472dcc	-0.04862766
68	0x3daf1981	0.08549786
69	0xb98002ab	-0.0002441605
70	0x3a7c3d09	0.0009622132
71	0x3d87cfd8	0.0663144
72	0xbc81f421	-0.01586348
73	0xbcc3b74b	-0.023891112
74	0x3b1073ad	0.0022041604
75	0xbce73983	-0.028225666
76	0xbd807dca	-0.06273992
77	0xbd0b39ef	-0.033990797
78	0xbcfbd64c	-0.030741833
79	0x3d3a4010	0.04547125
80	0x3d550ba4	0.052013054
81	0x3db3ddeb	0.08782562
82	0xba00e5a8	-0.0004917034
83	0xbd23c357	-0.039981212
84	0x3c9aa58c	0.018877767
85	0xbb5a9b72	-0.0033356813
86	0xbd088a7b	-0.03333519
87	0xbd1fb94c	-0.038995072
88	0xbd7b65eb	-0.061376493
89	0xbe1aa439	-0.15101708
90	0x3c91acc7	0.017782582
91	0xbc6ce091	-0.014457838
92	0xbd71d32c	-0.05903928
93	0xbd002a3f	-0.03129029
94	0x3c8c9a7e	0.017163511
95	0xbca3c38c	-0.019990705
96	0xbda48663	-0.08033445
97	0x3db625c9	0.08893926
98	0x3b6211e6	0.0034495532
99	0xbc192f77	-0.009349695
100	0x3c5a3c6b	0.013320069
101	0xbda8fb3d	-0.08251045
102	0x3d7d57d3	0.061851334
103	0xbd24c38d	-0.040225554
104	0x3c5fb603	0.013654235
105	0xbc2a2158	-0.010383926
106	0x3cf281a9	0.029602842
107	0xbd06d80a	-0.032920875
108	0x3df149c1	0.117816456
109	0xbdacc9b9	-0.08436913
110	0xbc64dcfb	-0.0139687015
111	0x3dd89ca0	0.10576749
112	0x3d7f01a1	0.062257413
113	0x3d4d4f6c	0.05012457
114	0xbc8d4169	-0.017243104
115	0xbb0d9f3d	-0.0021609806
116	0x3c87f404	0.016595848
117	0xbd3abf69	-0.0455927
118	0xbc76095a	-0.015016878
119	0x3d64cddf	0.055860396
120	0xbd861fe0	-0.065490484
121	0x3d88c8e5	0.066789426
122	0xbde5a8f9	-0.112138696
123	0x3b7379e9	0.0037151522
124	0xbda1a107	-0.07892042
125	0x3dd57a46	0.104237124
126	0xbd8aa7cf	-0.06770288
127	0xbdbea89b	-0.09309503
128	0x3cb4554f	0.022013335
129	0xbd24ff44	-0.040282503
130	0x3e3c8b38	0.18412483
131	0x3d0d5136	0.034501277
132	0xbdc5f78c	-0.096663564
133	0xbe0a98cb	-0.13534848
134	0x3ca01ff2	0.019546483
135	0x3d4d703c	0.050155863
136	0x3a5085b2	0.00079544925
137	0xbb970822	-0.004609124
138	0x3cce91c7	0.025215996
139	0xbe18eae8	-0.1493336
140	0x3dd05cec	0.101739734
141	0xbccdeb3d	-0.025136584
142	0x3d05d693	0.032675337
143	0x3d01bcff	0.03167438
144	0xbd56cf00	-0.052443504
145	0x3bd8ea59	0.0066197333
146	0x3d2b23dc	0.041782245
147	0x3cb096a3	0.021556204
148	0xbd6e9dc9	-0.058255944
149	0xbe14922f	-0.1450889
150	0xbd9a012c	-0.07519755
151	0xbb84325e	-0.0040343245
152	0x3d67226a	0.056429304
153	0xbccd60c8	-0.025070563
154	0x3e3d6d0e	0.18498632
155	0xbd6c726d	-0.057726312
156	0x3ce864a2	0.028368298
157	0x3d466e62	0.048445113
158	0xbd681c36	-0.05666753
159	0xbd567d24	-0.052365437
160	0x3af1296d	0.0018399187
161	0xbd7190c2	-0.058975942
162	0xbbef5c8a	-0.0073047327
163	0x3da392bd	0.079869725
164	0xbc952fe1	-0.018211307
165	0xbdd8996c	-0.10576138
166	0x3da1d9cc	0.079028696
167	0xbe0b2396	-0.13587794
168	0xbd5d90b8	-0.054093093
169	0xbd2c4e79	-0.042067025
170	0x3d2a1464	0.041523352
171	0x3dbac20f	0.09119045
172	0x3cdfbbe8	0.02731128
173	0xbd87b0aa	-0.06625493
174	0xbbb38c33	-0.0054793595
175	0xbdef6e20	-0.116909266
176	0xbc754eb8	-0.014972381
177	0x3e221a93	0.1583045
178	0x3dd4e0ff	0.10394477
179	0x3d80800e	0.062744245
180	0xbc0b286b	-0.008493523
181	0x3d125270	0.03572315
182	0x3d4ee0d7	0.050507393
183	0xbda17ae4	-0.07884768
184	0xbd9668ea	-0.073442295
185	0xbdbf473a	-0.09339757
186	0x3d773782	0.06035567
187	0xbd1ea9b9	-0.03873608
188	0xbe129662	-0.14315179
189	0xbd256499	-0.04037914
190	0x3dacded3	0.08440938
191	0xbccffcc5	-0.025389085
192	0x3d86a0dd	0.06573651
193	0x3d9cec9d	0.07662318
194	0x3d4d94a7	0.050190594
195	0x3b2a29cc	0.0025964854
196	0x3d83c6ad	0.06434379
197	0x3c2b98f6	0.01047348
198	0xbdc8199a	-0.09770508
199	0x3e120db0	0.14263034
200	0x3d9106e8	0.070813954
201	0x3d122354	0.035678223
202	0xbc268577	-0.010163656
203	0x3d7b1b25	0.061305184
204	0xbd31c6bb	-0.043402415
205	0xbd68888b	-0.056770843
206	0xbd68cec6	-0.05683782
207	0x3db3e0c6	0.087831065
208	0x3cc07856	0.02349488
209	0x3dcc8404	0.099861175
210	0xbd131b8e	-0.03591495
211	0x3cc5b237	0.024132831
212	0xbca618b8	-0.020275459
213	0x3dc147b3	0.09437504
214	0x3e346cf6	0.1761969
215	0x3c80f451	0.0157415
216	0xbd39cf48	-0.045363694
217	0xbe2f8d09	-0.17143644
218	0x3de85023	0.1134341
219	0xbc6dcef3	-0.014514673
220	0x3d8ca45f	0.06867289
221	0x3d667dec	0.056272432
222	0x3d58659e	0.052831285
223	0x3d9a7ad1	0.075429566
224	0x3c29ab33	0.0103557585
225	0xbd23d0d3	-0.039994072
226	0xbdca1b10	-0.09868443
227	0xbdf7dbc9	-0.121024676
228	0x3c67af84	0.014140967
229	0x3d08f486	0.03343632
230	0xbdb51986	-0.08842759
231	0xbca9c631	-0.020724388
232	0xbd26ac92	-0.04069192
233	0xbd8488cf	-0.06471407
234	0xbd39c91a	-0.0453578
235	0x3dee48a5	0.116349496
236	0xbb621c75	-0.0034501825
237	0x3cdbfa55	0.026852766
238	0xbda4c896	-0.08046071
239	0x3dacd50f	0.08439075
240	0xbd3f4b3f	-0.04670262
241	0xbb39f9e0	-0.0028377697
242	0x3d95fbea	0.073234394
243	0xbd73f2c4	-0.05955769
244	0x3c2d33a1	0.010571391
245	0xbcc0f4a9	-0.023554163
246	0xbd5769fe	-0.052591316
247	0xbd5c1868	-0.053734213
248	0xbcb33561	-0.021876039
249	0x3d9ca74a	0.07649095
250	0xbce00726	-0.027347159
251	0x3dd08c4d	0.1018301
252	0x3cb0b911	0.021572622
253	0x3ca49a85	0.020093212
254	0x3dafe4cb	0.08588561
255	0xbd8e65f0	-0.06953037

actor.4.bias f4 [128]
0	0x3d89fe96	0.067380115
1	0x3d0e174e	0.034690194
2	0x39f968c9	0.00047571052
3	0x3d19c03d	0.03753685
4	0xbd5fe0a7	-0.054657605
5	0xbd8751f8	-0.06607431
6	0x3e00b021	0.12567188
7	0xbd9ab81e	-0.07554649
8	0x3d802501	0.06257058
9	0xbcec1740	-0.02881968
10	0xbd87d1d7	-0.06631821
11	0xbcdfefa8	-0.027335957
12	0x3d2773f6	0.040882073
13	0x3cf44a4a	0.02982058
14	0x3d4a25b8	0.049352378
15	0xbda4cc83	-0.0804682
16	0x3cd7ab52	0.02632681
17	0x3d8e36eb	0.069440685
18	0xbcc67d1e	-0.024229582
19	0x3d561d8f	0.052274283
20	0x3dffb019	0.1248476
21	0x3d13fd1b	0.036130052
22	0x3cff1143	0.03113616
23	0x3da1e064	0.07904127
24	0xbd53e9cd	-0.05173664
25	0xbd06f2c8	-0.032946378
26	0x3d9accf2	0.075586215
27	0x3ddcaa6e	0.107746944
28	0x3dc1dc7e	0.09465884
29	0xbcc51594	-0.02405814
30	0x3d9fd0bd	0.078034855
31	0x3d3303c2	0.043704756
32	0xbc35fb4c	-0.011107277
33	0x3d9d0a45	0.076679744
34	0x3cc80685	0.024417171
35	0xbd60a701	-0.054846767
36	0x3d27c9fc	0.04096411
37	0x3d7d30ff	0.061814304
38	0xbd0bb8de	-0.03411185
39	0x3da831d1	0.08212627
40	0x3b4403f2	0.0029909578
41	0x3ddb8657	0.10718983
42	0xbd24624c	-0.040132806
43	0x3d0eb488	0.034840137
44	0xbdbf1d91	-0.09331811
45	0x3cd238b3	0.025661802
46	0xbd1b1c87	-0.037869003
47	0x3d06b147	0.03288391
48	0xbd6f08a0	-0.058357835
49	0x3d8c8b4c	0.06862506
50	0x3d364298	0.044497102
51	0x3d39b1b8	0.0453355
52	0xbd66b10d	-0.056321193
53	0x3c201600	0.00977087
54	0x3d6db58f	0.058034476
55	0x3b0870be	0.0020819153
56	0x3c3188fe	0.010835884
57	0xbca776b6	-0.020442348
58	0x3ca77820	0.020443022
59	0x3d4623cf	0.048373993
60	0x397b1b56	0.00023947409
61	0x3d87c580	0.06629467
62	0x3d9bcdf8	0.07607645
63	0xbcc1a341	-0.023637416
64	0x3d9e389b	0.077256404
65	0x3c16b43a	0.009198243
66	0x3c3e45db	0.0116133345
67	0x3cd11967	0.025524808
68	0x3cb766f3	0.022387957
69	0x3c8eb581	0.017420532
70	0xbb27cf23	-0.002560564
71	0x3d1e0945	0.03858306
72	0xbdc70b33	-0.09718933
73	0x3d8d7341	0.069067486
74	0xbd58130e	-0.052752547
75	0x3d2af863	0.041740786
76	0x3d5ea7b1	0.05435914
77	0xbc4906b7	-0.012269667
78	0xbdb14e3b	-0.086574994
79	0xbcf707f6	-0.030155163
80	0x3c9678aa	0.018368084
81	0x3dd79a88	0.10527521
82	0xbd843456	-0.06455295
83	0x3bef3f76	0.0073012663
84	0xbcd86214	-0.026413955
85	0x3b735dce	0.003713477
86	0xbd20fe9e	-0.039305322
87	0x3c007598	0.007840537
88	0xbd039f59	-0.032134388
89	0x3d247f80	0.040160656
90	0x3d819e8b	0.06329068
91	0xbb918013	-0.0044403165
92	0xbb69fc09	-0.0035703203
93	0x3d3eab96	0.046550356
94	0x3b8acd65	0.0042359107
95	0x3d112787	0.035438087
96	0xbdd205c5	-0.10255007
97	0x3d91a48e	0.071114644
98	0xbde2cb8b	-0.11073979
99	0xbcc470a6	-0.023979496
100	0xbd0b607a	-0.034027554
101	0x3cc86f8e	0.024467256
102	0x3d700a08	0.058603317
103	0xbd1a01aa	-0.037599243
104	0x3db598fb	0.08867069
105	0x3d6c51c1	0.057695154
106	0x3d110b25	0.03541102
107	0xbbb1ca02	-0.0054256925
108	0x3c859509	0.016306417
109	0x3ca4b5ba	0.020106185
110	0xbd3d195e	-0.04616677
111	0xbc77f5f3	-0.015134322
112	0x3b794929	0.0038037992
113	0xbd5648e7	-0.05231562
114	0xbd2feabc	-0.04294847
115	0xbd8bf67f	-0.06834125
116	0xbd83b6c4	-0.06431344
117	0xbc0e8312	-0.008698242
118	0xbc701142	-0.014652552
119	0x3c3185b7	0.010835103
120	0xbd4aa484	-0.0494733
121	0xbd665ddf	-0.056241866
122	0xbb269053	-0.0025415614
123	0xbd45b589	-0.04826883
124	0x3d1a5aac	0.037684128
125	0xbd31e82e	-0.043434314
126	0xbc752643	-0.014962736
127	0xbdc444a2	-0.09583403

actor.6.weight f4 [9, 128]
0	0x3d31d5b6	0.0434167
1	0x3d18d87c	0.03731583
2	0xbd24ecbe	-0.040264837
3	0xbdad67db	-0.084670745
4	0x3d849b02	0.06474878
5	0xbcd8b3ca	-0.026452918
6	0xbcadc880	-0.02121377
7	0x3d789aef	0.06069463
8	0xbce57072	-0.02800772
9	0x3cbdc5c3	0.02316559
10	0x3d794bd2	0.060863324
11	0x3d71c2e0	0.059023738
12	0xbc36870f	-0.011140599
13	0xbce48c0d	-0.027898813
14	0x3cb1f92e	0.021725263
15	0xbc7dd228	-0.015492
16	0x3d046bb7	0.032329287
17	0x3c55f25c	0.013058271
18	0x3daec64e	0.08533917
19	0x3c497d38	0.012297921
20	0xbddd1f57	-0.10796993
21	0x3c2b4ec1	0.010455788
22	0xbd8ce46a	-0.06879504
23	0xbc03ba20	-0.008039981
24	0x3ca6d0d0	0.020363241
25	0xbd21581e	-0.039390676
26	0x3a98eff9	0.0011668197
27	0xbd86e3b5	-0.065864004
28	0x3db1193b	0.086473905
29	0xbcb561a6	-0.022141289
30	0xbbc2eab6	-0.00594839
31	0xbcfe782e	-0.031063166
32	0xbd5d4418	-0.054020017
33	0x3c3772d3	0.01119681
34	0x3ca3cef8	0.019996151
35	0x3c145536	0.009053519
36	0xbc063901	-0.008192302
37	0x3d5c867a	0.053839184
38	0xbd9fc80a	-0.07801826
39	0x3c7d6472	0.015465843
40	0x3d608da8	0.054822594
41	0xbb45901a	-0.0030145706
42	0x3d199fec	0.03750603
43	0x3da09819	0.0784151
44	0x3d880155	0.06640879
45	0xbd0d5a8d	-0.034510184
46	0x3d5fbb6c	0.0546221
47	0xbdc48fb1	-0.095977195
48	0x3d994119	0.074831195
49	0xbd17426d	-0.036928583
50	0x3d8fa125	0.07013158
51	0x3c7da669	0.01548157
52	0xbd7d5b88	-0.06185487
53	0xbc7d2801	-0.015451432
54	0xbbf5e0e7	-0.007503617
55	0x3d24a964	0.040200606
56	0xbd24cd95	-0.04023512
57	0xbcbdb2fe	-0.02315664
58	0xbd6d6122	-0.05795396
59	0xbcfd7dd8	-0.030943796
60	0x3d21f825	0.03954329
61	0x3d621c57	0.05520281
62	0xbd121a33	-0.035669517
63	0x3d6d4bf7	0.057933774
64	0xbd870d87	-0.06594377
65	0xbdcf26f7	-0.10114854
66	0x3c99e9bf	0.018788217
67	0x3cc7a65d	0.02437132
68	0x3be6544b	0.0070290915
69	0xbde9a48a	-0.114083365
70	0x3d593e8e	0.053038172
71	0xbd23518e	-0.0398727
72	0x3d6ebeac	0.058287308
73	0xbdab23f9	-0.083564706
74	0xbc802f00	-0.015647411
75	0x3d8c8b37	0.068624906
76	0x3d160a78	0.036631078
77	0xbd9b1c7e	-0.07573794
78	0xbd550ba6	-0.052013062
79	0x3d26b4f0	0.0406999
80	0x3cffd512	0.03122953
81	0x3d3f0ddc	0.046644077
82	0xbdb1bdb3	-0.086787604
83	0xbd2edd9c	-0.042691812
84	0x3d7b58cc	0.06136398
85	0x3dc32eab	0.095303856
86	0x3cf08af3	0.029363131
87	0x3d67d861	0.05660284
88	0x3d726574	0.059178784
89	0x3b80dd52	0.0039326334
90	0xbd097f0a	-0.03356842
91	0xbd94b969	-0.07261927
92	0xbd9b1ab1	-0.0757345
93	0x3d6e7ee7	0.058226492
94	0xbcaf17ee	-0.021373715
95	0xbda61609	-0.081096716
96	0x3daebf28	0.08532554
97	0xbda5a78a	-0.08088596
98	0xbb177594	-0.0023110854
99	0xbd863ff9	-0.065551706
100	0x3dacba25	0.08433942
101	0x3dbd2282	0.092350975
102	0xbadca71e	-0.0016834473
103	0xbd2d5ea1	-0.042326573
104	0xbc90cef6	-0.017676812
105	0xbda015cd	-0.07816658
106	0x3bd0befa	0.0063704224
107	0x3d9a428c	0.07532224
108	0x3d1570fd	0.036484707
109	0xbdbc04e3	-0.091806196
110	0x3b93be1f	0.004508748
111	0x3c664559	0.01405462
112	0x3d9abeff	0.07555961
113	0x3d14c8b8	0.036324233
114	0xbd02b7bc	-0.031913504
115	0xbd015c2e	-0.03158205
116	0x3d555b59	0.05208907
117	0x3d8421cc	0.06451759
118	0xbd8648c7	-0.0655685
119	0x3d404624	0.04694189
120	0x3da7767f	0.08176898
121	0x3d0278eb	0.031853598
122	0xbd15ae1a	-0.03654299
123	0xbdac7138	-0.08420032
124	0xbd3b0c18	-0.04566583
125	0x3d1d94f5	0.038472135
126	0x3d9a708a	0.075409964
127	0x3d88265f	0.06647944
128	0xbc5611fb	-0.01306581
129	0x3d95e2d8	0.07318658
130	0xbd311e80	-0.043241978
131	0x3db9266f	0.09040534
132	0xbc8efc16	-0.017454188
133	0x3d59b8a0	0.053154588
134	0x3da6ff95	0.08154217
135	0x3da13129	0.07870705
136	0xbd489814	-0.048973158
137	0xbda9c22c	-0.082889885
138	0xbd51804f	-0.051147755
139	0xbc895df3	-0.016768431
140	0x3d9b49aa	0.0758241
141	0x3da75bd2	0.0817181
142	0x3c248d6d	0.010043484
143	0x3db6434e	0.08899556
144	0xbd903c93	-0.070428036
145	0x3c9a7f6d	0.01885959
146	0xbcaad827	-0.020855023
147	0xbc3c3740	-0.011487782
148	0xbe14569c	-0.14486164
149	0xbdb66ea7	-0.08907824
150	0x3d9025f4	0.07038489
151	0xbdb631f5	-0.08896247
152	0x3d12fadd	0.035883773
153	0xbd74620e	-0.059663825
154	0x3dd18b65	0.102316655
155	0x3d0c3b8f	0.034236487
156	0xbd6cd617	-0.05782136
157	0xbdbe76f9	-0.09300036
158	0xbdb7657c	-0.089549035
159	0xbd14c684	-0.03632213
160	0xbd65badd	-0.05608641
161	0xbdedff90	-0.1162101
162	0x3d8e0a71	0.06935585
163	0xbcd5b5bd	-0.026087636
164	0x3d479366	0.048724554
165	0xbba9b4a4	-0.0051790047
166	0x3cf7f326	0.03026731
167	0xbdacca3f	-0.08437013
168	0xbdde3854	-0.108505875
169	0xbbda7e50	-0.0066678897
170	0x3ca80304	0.02050925
171	0xbd525188	-0.051347286
172	0x3db756db	0.08952113
173	0xbd5a2056	-0.053253494
174	0x3dd5ab14	0.10433021
175	0xbd594390	-0.05304295
176	0xbc9ebb96	-0.019376557
177	0x3d1a9177	0.037736382
178	0xbc4ba32f	-0.012429043
179	0x3dc32551	0.09528602
180	0xbb0d61c9	-0.0021573177
181	0xbd49250f	-0.049107607
182	0x3cf53f5f	0.029937444
183	0xbd87a70d	-0.06623659
184	0xbd9ad7c2	-0.07560684
185	0xbda4fef0	-0.08056438
186	0x3d58125c	0.052751884
187	0xbd4e33e7	-0.050342467
188	0xbc805a07	-0.015667928
189	0xbd8b25ed	-0.06794343
190	0xbd120dea	-0.0356578
191	0x3dbd0f81	0.09231473
192	0x3d1f4c23	0.03889097
193	0x3ca56899	0.020191478
194	0x3c23e67e	0.010003684
195	0x3d4423ac	0.04788558
196	0x3d4fc4aa	0.050724663
197	0xbd44d002	-0.048049934
198	0x3d07cf29	0.033156548
199	0xbd026e71	-0.031843606
200	0x3a421f4e	0.00074051775
201	0x3c5c5213	0.013447302
202	0x3da2a763	0.07942083
203	0xbdba2fcf	-0.0909115
204	0x3d8d1d92	0.06890406
205	0x3d9807ee	0.074233875
206	0x3cedeb7b	0.02904295
207	0x3da05d1c	0.07830259
208	0x3c2394fe	0.009984253
209	0xbd83825a	-0.06421347
210	0xbcc253d2	-0.02372161
211	0xbd84eeba	-0.06490846
212	0xbbf416f6	-0.007449026
213	0x3d7d680d	0.06186681
214	0xbd2c6ff2	-0.042098947
215	0x3cdbff0f	0.02685502
216	0xbdbb19cb	-0.09135779
217	0xbdbe9bb5	-0.093070425
218	0xbbe66e67	-0.007032204
219	0xbbf0e241	-0.0073511903
220	0x3d5cbfa3	0.053893697
221	0x3ba29b22	0.004962341
222	0x3d9e97c3	0.0774379
223	0xbd033324	-0.032031193
224	0x3d9b02a4	0.07568863
225	0xbe093f5e	-0.13403079
226	0x3dc7e743	0.097609065
227	0x3d3808db	0.04493032
228	0xbd0bb1c9	-0.034105096
229	0xbd866b11	-0.0656339
230	0xbd9206ac	-0.07130179
231	0xbdc96f01	-0.098356254
232	0xbbbb3921	-0.0057135974
233	0x3d11b385	0.035571594
234	0x3c1b0f6c	0.009464126
235	0x3c17431f	0.0092323115
236	0x3d34d023	0.044143807
237	0xbda44d06	-0.080225036
238	0xbdf5f34c	-0.12009296
239	0xbb02ecd0	-0.0019977577
240	0xbb1a8625	-0.0023578492
241	0x3cf8fb4e	0.030393269
242	0x3db916d9	0.09037561
243	0x3d186229	0.037202988
244	0x3da9b989	0.08287341
245	0xbda516f8	-0.080610216
246	0x3c66e110	0.014091745
247	0x3d551011	0.052017275
248	0xbafe7c3e	-0.0019415689
249	0x3cce8d70	0.025213927
250	0x3da2d90a	0.07951553
251	0xbd99eb73	-0.075156115
252	0x3d57dcf8	0.052700967
253	0x3d364040	0.044494867
254	0xbc84c8f0	-0.016209096
255	0xbd6ed7b4	-0.05831118

actor.6.bias f4 [9]
0	0xbd1e4040	-0.038635492
1	0xbd2a1a39	-0.041528914
2	0x3daefc06	0.085441634
3	0x3ce03372	0.027368281
4	0xbd256e87	-0.04038861
5	0x3d11d1c8	0.035600454
6	0xbc55907b	-0.013034935
7	0x3c5e4a7f	0.013567566
8	0xbc0bbbf2	-0.008528696
