final_repo/algorithms/ippo_algorithm/checkpoints/ppo_critic_2num_agent_exp_3_run_0_catmouse.pth (torch, 147684 bytes, 7 tensors)

critic.0.weight f4 [128, 21]
000000 30 31 01 3e 82 84 fe bc ac 7a 99 bd a0 b5 89 bd
       0.1261642 -0.031069044 -0.07494101 -0.06724095
000010 b3 30 e7 3d 1b 97 42 be 0c cd b6 3d 3f 65 8b 3d
       0.112885855 -0.19002955 0.08925828 0.068064205
000020 13 0d 00 be 80 55 97 bd e5 6c 9a bd 99 62 4a bc
       -0.12504987 -0.07389355 -0.07540301 -0.012352609
000030 12 b3 86 3d 0b e9 15 3c 84 ee ee bd a5 c0 51 be
       0.06577124 0.0091498 -0.11666587 -0.20483644
000040 9d 33 d6 bd 00 1f 49 bc 2d b0 c3 3d 69 04 5a be
       -0.10459063 -0.012275457 0.09555087 -0.21290745
000050 1c aa d7 bd 84 c1 36 3e fb a7 83 3c 8c 44 1a 3e
       -0.10530493 0.17847258 0.01607131 0.15065211
000060 0f 81 f4 bc 0f ea 40 be 12 55 11 be c6 58 45 be
       -0.029846696 -0.18839286 -0.14192608 -0.19272146
000070 da d8 d5 bd e6 db 66 be a2 a4 0c 3e f4 b3 41 bd
       -0.10441752 -0.22544822 0.13734677 -0.047290757
000080 27 2b 3a bc 5c 26 97 bc 66 d9 20 3e 02 f4 5f bd
       -0.011362827 -0.018450908 0.15707931 -0.054676063
000090 c5 72 bd bd 00 2e 9c 3d 94 40 c2 3d 1c 9e 26 3d
       -0.09250406 0.07625961 0.094849735 0.04067813
0000a0 84 ff 59 3d 0d 9a 51 be e7 02 75 3e 7b 65 40 3e
       0.053222194 -0.20468922 0.23926888 0.18788712
0000b0 4c a8 35 bc 49 58 f3 3c c5 d5 52 3e 56 98 3d 3e
       -0.011087488 0.029705184 0.20589359 0.18515143
0000c0 59 4f 77 3d dc 1a de 3d 52 df 5a 3e 8a bf 63 bd
       0.060378406 0.10844967 0.21374252 -0.055602588
0000d0 09 1e 32 be f8 16 df bd c4 5a 3f 3e 82 b0 0b be
       -0.1739427 -0.10893053 0.18686968 -0.13641551
0000e0 df e6 8a 3b 9c f2 35 be cf 85 2d 3e 4b 08 24 3e
       0.0042389478 -0.1776833 0.16945575 0.16018789
0000f0 19 c6 ba 3d 05 a5 72 3c 29 50 78 3e e1 94 a9 bb
       0.091198154 0.014809852 0.24249329 -0.0051752185
000100 bb 03 48 3e c6 f7 36 3d 70 5c 71 3d 0b 88 54 bd
       0.19532673 0.04466989 0.058926046 -0.051887553
000110 fc 4c 85 3c 84 5f 12 be 67 c2 a5 3d fe 76 65 3e
       0.01627206 -0.14294249 0.0809372 0.22408673
000120 18 ca e0 bd a7 84 11 be 20 96 db 3d eb 37 ff 3d
       -0.10976046 -0.14210759 0.107219934 0.124618374
000130 fe f3 66 3e 56 a3 35 bd 63 63 7e 3c ae 98 69 3e
       0.22554013 -0.044345222 0.015526625 0.22812149
000140 54 3b 70 3e b7 c9 ac bd 67 fc 1e 3e 25 bd 58 3e
       0.23460132 -0.084369116 0.15525971 0.21165903
000150 e5 92 f1 bb 8c b8 7c 3e d6 60 aa 3c 93 0d 72 3e
       -0.0073722475 0.24679774 0.020798128 0.2363799
000160 9d 26 28 be 5d 31 e4 3c cd 3c 90 bd 29 21 ca 3d
       -0.1642098 0.02785557 -0.07042847 0.09869606
000170 8f fc 6b bd d8 14 1f be 66 64 04 be 7c 25 1c bd
       -0.057613906 -0.15535295 -0.12928924 -0.038121685
000180 9c be 26 3e de 28 e2 3b ed b4 53 bd a4 aa c2 3d
       0.16283649 0.0069018444 -0.051686216 0.09505203
000190 1f b6 73 3e 68 fa 09 3e 5b 44 f5 3d c6 dd 76 3e
       0.23799942 0.13474429 0.119759284 0.24108037
0001a0 e5 6f 20 3e 8a be 92 bd b8 01 0e bd 12 aa 03 be
       0.15667684 -0.07165249 -0.034669608 -0.12857845
0001b0 df d8 ac 3d ed 5f f1 3d 22 98 03 be 75 54 f2 3d
       0.084398024 0.117858745 -0.12851003 0.11832515
0001c0 c0 a5 dc 3d c1 ca 06 bd a1 1f 9c 3d 8a f2 d7 3d
       0.10773802 -0.032908205 0.0762322 0.105443075
0001d0 5f 39 50 be 59 76 46 be dc 8e 89 bd d7 7f e6 3d
       -0.20334385 -0.19381084 -0.067167014 0.11254852
0001e0 22 3e 04 be 7a 9c 7b 3d ec 26 1b be 9d 69 10 be
       -0.12914327 0.061428525 -0.15151566 -0.14102788
0001f0 7e 05 22 be 2c f2 04 be 67 b0 3b bd 82 fb 0d bd
       -0.15822408 -0.12983006 -0.045822527 -0.034663685
000200 55 8f 6c 3e 60 f0 a8 3d 0b 14 90 3d c2 f4 51 bd
       0.23101552 0.08248973 0.07035073 -0.05125881
000210 9d 1f cc bd 02 6a 5f 3e 20 76 ae bd c9 c0 1d be
       -0.09966967 0.21817783 -0.08518624 -0.15405573
000220 f9 e1 80 3e 2c 11 c0 3b a7 71 be 3d 3f a1 b2 bd
       0.25172403 0.005861422 0.09299021 -0.087221615
000230 57 b5 6b 3e 1a e3 98 3d 4d f1 02 be 88 6f 41 3e
       0.23018394 0.07465191 -0.12787361 0.18890202
000240 20 1b c5 bc 2d c0 d3 3d 38 11 8a 3d 1d e5 a9 3d
       -0.024060786 0.10339389 0.067415655 0.08295653
000250 39 86 34 be a9 44 31 3e 3c 90 3e 3d dd a5 5d be
       -0.17629327 0.17311348 0.04652427 -0.21645303
000260 87 4e 3a be 3a f7 bf 3b 24 36 6c be 69 28 80 be
       -0.18194018 0.005858329 -0.23067528 -0.2503083
000270 f1 d5 24 3e 5c 01 96 bd c6 b9 19 3d e6 84 40 be
       0.16097237 -0.07324478 0.037530683 -0.18800697
000280 95 91 9c 3c 8c 9c b9 3d 29 94 4d be 68 e2 0c be
       0.019112388 0.09063062 -0.2007605 -0.13758242
000290 f4 27 69 be 76 f0 2c be 2f 7a dd bd fc 74 e0 bd
       -0.22769147 -0.16888604 -0.1081432 -0.10959813
0002a0 86 27 3f be 04 38 3c be bc 18 7a be 8d de 47 3d
       -0.1866742 -0.18380743 -0.24423498 0.048796225
0002b0 5c cc 03 3e 97 20 4e bd 21 d6 06 bd c2 88 dc 3d
       0.12870926 -0.05032405 -0.032919053 0.10768272
0002c0 c3 f5 45 3d 23 07 0b 3e 4b a5 49 bd e6 2e 18 3e
       0.04833008 0.13576941 -0.0492299 0.1486164
0002d0 05 54 02 be bc 79 82 be ce cf 80 be 00 0b 12 be
       -0.12727363 -0.254835 -0.25158542 -0.14262009
0002e0 91 d9 e3 3d d7 31 2f 3e da 17 3d be a7 92 7a be
       0.11125482 0.17108856 -0.1846613 -0.24470006
0002f0 b0 98 75 3d 0c 49 7d 3e 56 3c 27 be 17 a7 3c 3e
       0.059960067 0.24734896 -0.1633161 0.18423115
000300 ba 9a 86 bd 55 52 53 3e a5 bb aa bb 8a c2 ef 3d
       -0.065724805 0.20636876 -0.0052103573 0.11707027
000310 0c 9f 02 3c ee 8a 13 3e bb ef 5a 3d 9c da 71 3e
       0.00797249 0.14408466 0.05345128 0.23618549
000320 57 1e cf 3d 34 7a 5f 3c a0 5e f7 bd 68 b0 7b 3e
       0.10113209 0.013639975 -0.12078595 0.24579012
000330 b5 95 e8 bd d3 9c 29 3d e9 62 15 3d 81 e3 22 3e
       -0.11356679 0.041409325 0.03647128 0.15907098
000340 b0 39 52 bd e3 e3 2b 3e 8b fc 6e be 36 6b 34 be
       -0.051324546 0.1678615 -0.23338525 -0.17619023
000350 51 15 af bd 3c 97 3e be d5 58 43 be 15 28 db 3d
       -0.08548988 -0.18612379 -0.19076855 0.107010044
000360 71 75 e9 3d 8d 56 47 be c6 b6 55 be 84 2e 74 be
       0.11399353 -0.1946661 -0.20870504 -0.2384587
000370 f3 11 1f be bb fc 30 3e a4 0c 3e bd c8 76 05 3e
       -0.15534191 0.17283909 -0.046398774 0.13033593
000380 be 6f 3a 3d 4c 70 63 be b4 29 de bd 1d bf 53 be
       0.045516722 -0.22210807 -0.10847798 -0.20678373
000390 ac 3b b9 bd 55 d0 15 be 38 dc 5f bd 0d 67 f1 ba
       -0.09044585 -0.14630254 -0.054653376 -0.0018417552
0003a0 45 24 1f 3e ff 8e 86 3d be 00 e8 bd 5e a2 e2 bd
       0.1554118 0.06570243 -0.113282666 -0.11066125
0003b0 0c f2 05 3e 10 44 65 be 2d ec 10 3e 12 d7 36 bd
       0.13080615 -0.22389245 0.14152594 -0.0446387
0003c0 2f 41 29 3e 60 8f e4 3d 3c c4 ac bd 76 50 1b be
       0.16528772 0.11160159 -0.08435866 -0.15167412
0003d0 7c 2d b4 3d 5e 32 1c bd c2 10 9f bd 7f 22 14 3e
       0.08797738 -0.03813397 -0.07766868 0.14466284
0003e0 c0 f1 9e 3d c5 91 51 be 50 26 3d 3d 2f d7 4a be
       0.07760954 -0.20465763 0.046179116 -0.19808649
0003f0 f0 44 b8 3d 9a 2f b8 3c ca 5c 04 be 6b dd cc 3d
       0.08997524 0.022483636 -0.12926021 0.100031696

critic.0.bias f4 [128]
000000 a5 20 7c be dd 6a 50 be f3 79 c4 bd 16 e8 26 3e
       -0.24621828 -0.20353265 -0.095935725 0.16299471
000010 6d e8 14 be bd 77 70 be 09 e3 83 3d 00 7c 5a bd
       -0.14541788 -0.23483177 0.06439788 -0.053340912
000020 04 f2 68 bd 8e dd 48 3e 74 d0 b6 bd a6 6e 81 be
       -0.05687143 0.19615766 -0.08926478 -0.2527973
000030 14 a5 ea 3d a8 60 87 bd d1 07 11 bd e9 f2 ad bd
       0.114572674 -0.066102326 -0.035407845 -0.08493597
000040 af f0 18 3e 85 52 d0 3d 64 b3 30 3e d6 02 45 be
       0.14935564 0.10171989 0.17255932 -0.19239363
000050 5b 81 6d be 7c eb 21 be b9 7f a2 3c 28 c4 46 3d
       -0.23193876 -0.15812486 0.019836294 0.048526913
000060 02 4e 91 bc 02 9f 71 3e af 0c 61 3e d1 42 0c bd
       -0.017737392 0.23595813 0.21977495 -0.03424341
000070 c4 20 1c 3e d5 2f 3e 3d 2c 97 8a 3d 2f 2e 44 bd
       0.15246874 0.046432335 0.06767115 -0.047895607
000080 b4 28 6c bd fa f5 c3 3d 91 99 55 be 4c d2 75 be
       -0.057656005 0.09568401 -0.20859362 -0.24006003
000090 0f 89 4c 3d cb 76 69 3d 83 4a 41 3e eb 5e b7 bd
       0.049935397 0.056998055 0.1887608 -0.08953651
0000a0 c5 20 85 3d df 6b 5c 3e bb bf 66 be dc 68 6f be
       0.06500391 0.21525525 -0.22534077 -0.23379844
0000b0 cf 5e 62 bd 29 44 9f 3d fc da fb 3c 61 c1 b2 bd
       -0.055266198 0.077766724 0.030744068 -0.0872829
0000c0 5d 8d de bd ad a9 60 3e 94 38 36 3d 8e 6d 3d 3e
       -0.10866807 0.21939726 0.04448755 0.18498823
0000d0 82 26 23 3e 6e f6 86 be b8 db 16 3e f6 e6 83 3e
       0.15932658 -0.26359886 0.14732254 0.25762147
0000e0 f4 37 b3 3d d8 57 14 3e 3d 43 fc 3b 49 f7 31 be
       0.087509066 0.14486635 0.007698445 -0.17379488
0000f0 93 d0 44 be ab 15 c7 bd 77 1a 35 3e d1 e6 1b 3d
       -0.1922019 -0.0972093 0.17685877 0.03806192
000100 41 0b fb 3c 58 df d2 3d 32 7d e9 bd 9a f4 9d 39
       0.030645015 0.10296506 -0.11400832 0.00030127616
000110 c0 36 be bd 9d b7 80 3d c6 18 69 bd ff c9 76 be
       -0.092877865 0.062850215 -0.05690839 -0.24100493
000120 50 90 49 3e 63 7e e0 bd 47 42 73 3e 32 ad c0 3d
       0.19683957 -0.10961606 0.23755752 0.094080344
000130 9c 57 e6 bd 30 44 d0 bd b3 06 19 be c7 d8 29 3e
       -0.11247179 -0.10169256 -0.14943962 0.165866
000140 4f 28 85 be 08 64 8c be 8f 0c 22 3e 46 3e 14 3e
       -0.26007316 -0.27420068 0.15825103 0.1447688
000150 92 2b 7a 3e ec 0a 8c 3d 8f 78 56 3d cd 54 05 3e
       0.24430683 0.06838021 0.052361067 0.1302063
000160 44 cd 31 3e 54 6f 43 bd 2c d7 38 bc 2c 46 1a be
       0.17363459 -0.047713593 -0.01128177 -0.15065831
000170 46 7a 44 3e b1 30 d9 3d 1c 66 39 be e8 45 56 3e
       0.19187269 0.1060499 -0.18105358 0.20925105
000180 12 9a 90 3e a8 8a 56 3d 53 4d 49 bd 96 2d 28 be
       0.28242546 0.052378327 -0.049146008 -0.1642364
000190 52 6b 67 3e 79 92 07 3e 6c 93 40 bd 4f 1f 31 3d
       0.22599533 0.13239469 -0.047015592 0.04324275
0001a0 6d 39 2f be 04 1a 80 be 39 a4 7a 3e 0e e0 ae bd
       -0.1711175 -0.25019848 0.24476708 -0.08538829
0001b0 98 8b 89 3d 6d ec 61 3b 1f 9b 83 be bc 40 00 be
       0.067160785 0.0034473196 -0.25704286 -0.12524694
0001c0 21 1d c6 bb a4 12 dd 3d 46 f4 6a 3e 6e 88 94 bd
       -0.006045953 0.10794571 0.22944745 -0.072525844
0001d0 aa 50 39 3b b9 3f 03 be b5 3f 57 3e b1 a6 04 bc
       0.002827684 -0.12817277 0.21020396 -0.008096383
0001e0 dd 15 11 3e f1 fd 3e bd da b7 a6 3d 86 ab ef bd
       0.14168496 -0.046628896 0.08140536 -0.117026374
0001f0 ea 5a 39 3e 97 f7 e4 3d 6d 51 af bd d4 6e 8b 3d
       0.18101087 0.111800365 -0.085604526 0.06808248

critic.2.weight f4 [128, 128]
000000 92 28 11 3d 59 4e cd 3d 9a 4f 8c 3b 1e 45 b9 3c
       0.03543908 0.10024709 0.00428195 0.022615965
000010 f5 fc 1f 3d 03 3a 0b 3d 8c bf b4 bd 6c 38 b5 3d
       0.039059598 0.03399087 -0.08825597 0.08848652
000020 cc 82 48 bd 74 51 71 bd 12 7d ae bc 39 99 32 3d
       -0.048952863 -0.05891557 -0.021299873 0.043603156
000030 8e 8a c5 bc 17 10 1f 3b 1f b1 1b 3d d3 56 a6 3d
       -0.02411392 0.0024271065 0.038010713 0.08122029
000040 29 fe 7d bb e1 41 d0 bc 64 b9 bf bd c9 4c a2 3c
       -0.0038756228 -0.025422039 -0.09361532 0.019812005
000050 2e 2b df 3d 59 70 cd 3d 97 f3 8c 3a 3b fa 2e 3d
       0.10896908 0.10031194 0.0010753748 0.042719107
000060 b7 04 3b bd 46 fb 08 39 43 f8 ee bd fc 93 a9 bd
       -0.045658793 0.00013063577 -0.11668446 -0.08280179
000070 4a 84 c3 bc 5b 01 3b 3d ec 71 bf bc f7 a4 af 3c
       -0.023866791 0.04565559 -0.023369752 0.021440966
000080 f4 7d a9 3a fc 13 d9 3d 3e a5 a1 bc 5f 55 a1 3c
       0.0012931214 0.10599515 -0.019732114 0.019694028
000090 13 21 c7 3d e5 6f 87 3c 03 b4 99 3b 05 bb 60 3c
       0.09723105 0.016532848 0.0046906485 0.013716464
0000a0 5b c4 aa bc 19 01 9e bd e0 45 a8 3d 24 f7 53 3c
       -0.020845583 -0.07715053 0.082164526 0.012937341
0000b0 bc 77 c8 3d 5c b2 c1 bd 8e 5a 90 bd e4 1a 10 bd
       0.097884625 -0.094578475 -0.07048522 -0.035181895
0000c0 f3 c8 e3 bc a4 35 34 3d 44 e5 15 bc 4a a3 3b bd
       -0.027805781 0.04399647 -0.0091488995 -0.04581002
0000d0 dd d0 2d 3c 88 91 ed bc 9c ca 40 bd c2 cd 70 bd
       0.010608879 -0.029000059 -0.047068223 -0.058789976
0000e0 c2 ba c6 bb cb 43 84 3d 03 1d e6 3d 30 2a c2 bc
       -0.0060647437 0.06458243 0.11236002 -0.023701757
0000f0 21 a9 9b 3d c7 ec 97 3c 64 df f6 bd c8 d9 e5 3d
       0.07600618 0.018545521 -0.12054327 0.11223179
000100 81 4d 69 3c e9 d0 58 bc 74 70 d2 3d 16 fe 28 3b
       0.01423967 -0.013233402 0.10275355 0.0025786213
000110 c7 65 fe 3c 9f db af bd ef 23 b2 3d fd 40 e3 3d
       0.03105439 -0.08586811 0.0869826 0.1109638
000120 52 5c 82 bd e3 01 df 3b 59 63 cd bd 78 8e 42 3d
       -0.06365265 0.006805645 -0.10028715 0.04749915
000130 3a 91 84 3c 98 07 71 3d 2a 33 c2 bc 0d 88 e0 bd
       0.01618253 0.058845133 -0.023706038 -0.109634496
000140 bc f4 5b bc 9f 2f 72 bc 5a 36 e1 3d 21 37 64 3d
       -0.013425048 -0.014781862 0.10996695 0.055716638
000150 07 32 a9 bd bb 32 f6 3b 2a f7 4f 3d 55 00 e0 bc
       -0.08261495 0.0075133718 0.050772823 -0.027343908
000160 9c 25 64 bd b5 d5 69 bd c8 ee b9 3c a8 f7 61 3c
       -0.05569993 -0.057088573 0.022696868 0.013791956
000170 fd cd 9f 3d ae 57 0a 3d 9f 88 31 3d 59 b6 a6 bd
       0.07802961 0.033775024 0.043343183 -0.08140249
000180 aa ac 98 bd 74 48 c9 3c a5 9c 29 3d 91 e0 ae 3d
       -0.07454808 0.024570681 0.041409153 0.085389264
000190 f7 39 31 3d 31 94 eb bc 98 11 98 3c 88 9d 5c bd
       0.04326817 -0.028757187 0.018563077 -0.05386117
0001a0 25 23 09 bd d6 a2 3a 3d be d2 32 3d c5 c3 0c 3d
       -0.033480782 0.04556545 0.04365801 0.034366388
0001b0 1b 6a 3a 3d 28 01 c6 3d 15 d6 55 3d 90 12 71 3d
       0.045511346 0.09668189 0.052206118 0.058855593
0001c0 f2 b0 c5 3d 5b 9a 04 bd 57 be ff bd 3b aa 00 3e
       0.0965289 -0.032373767 -0.12487476 0.12564938
0001d0 c0 17 36 3d dc fe 22 3c d7 da 5c 39 eb f3 db 3d
       0.044456244 0.0099484585 0.00021062359 0.10739883
0001e0 85 39 e3 3c fc b7 b3 3d d0 c9 24 bb fa 45 55 bd
       0.027737388 0.087753266 -0.0025144704 -0.052068688
0001f0 12 69 e1 bd 9e 53 10 3d 4b 86 ea bd bd b3 a8 bd
       -0.11006369 0.035235994 -0.114513956 -0.08237407
000200 e9 a0 1e bd e0 bc cd 3b 25 7a e4 3d 27 01 c0 3d
       -0.038727675 0.006278619 0.1115611 0.0937522
000210 0a 8b 3c 3c d7 3f df bd 96 94 dc 3d 02 7b 0e bd
       0.011507759 -0.10900848 0.10770528 -0.03478528
000220 98 15 ca bd 29 63 ae 3a 02 1e 67 bd de ba c1 bd
       -0.098674 0.0013304699 -0.056425102 -0.0945947
000230 04 db 87 bd 7e a5 83 bd f2 9e 28 bb fc ff ca bd
       -0.06633571 -0.064280495 -0.0025729504 -0.099121064
000240 b0 2a 8a 3c 10 30 17 bc 3c 4a c5 3d 7e 21 ac bd
       0.016866058 -0.009227768 0.096333 -0.08404826
000250 ec 74 17 bd 8c b2 e8 bc a1 8d 89 3d ae c7 1d 3d
       -0.03697674 -0.02840545 0.06716467 0.038520508
000260 21 8d ca bb 87 e1 0c bb b4 51 af 3d 35 00 9d 3d
       -0.0061813747 -0.002149673 0.085605055 0.07666055
000270 39 f7 b9 3d 81 22 a4 bd 09 e4 37 bd 70 0e 91 bd
       0.09080357 -0.080143936 -0.044895206 -0.07082832
000280 02 3c ca bd d2 21 d1 bd d8 0f 72 bd e0 18 d1 bd
       -0.09874727 -0.10211529 -0.05909714 -0.10209823
000290 b3 c9 e3 bd c3 55 df bb 4f 5c 30 3d ee 49 f6 3d
       -0.111224554 -0.0068156435 0.043056782 0.1202582
0002a0 20 96 c9 3c 88 78 86 3d 39 11 3c bd 4c c7 0f be
       0.024607718 0.06565958 -0.045914862 -0.1404087
0002b0 88 3f 9c bb 49 0a a9 3b 7b 2c 9d 3c bf fd a4 3c
       -0.0047683157 0.005158697 0.019186249 0.020140527
0002c0 9d 95 02 3e 22 a1 bc 3d a5 20 eb 3d 2e 67 e0 3d
       0.12752385 0.09210421 0.11480836 0.1095718
0002d0 7e 13 f2 bc 3b 1a b0 bd 47 ba 03 3e 57 38 64 bd
       -0.02955031 -0.08598753 0.12864028 -0.055717792
0002e0 8e f4 bc bc 21 93 8c bb 48 2b 23 bc 47 90 0e bd
       -0.023065832 -0.00429 -0.0099590495 -0.034805562
0002f0 93 4a 95 3c 28 c5 17 bc cc b6 20 3d 6c 21 6a 3d
       0.018224036 -0.009263314 0.03923683 0.05716078
000300 43 e3 b1 3c 79 c1 59 3d 30 3b b2 bc fc 96 40 bc
       0.021714812 0.053163026 -0.021756738 -0.0117547475
000310 1b 74 1c 3d 15 ac 73 bd ef 3a 55 3d c5 17 ce 3c
       0.038196664 -0.059490282 0.052058157 0.025157819
000320 2d 21 40 3c de b3 da bd d6 ee 5c 3d fd 38 da bd
       0.01172666 -0.10678838 0.05393871 -0.10655401
000330 fb e2 b3 3d ac 1c e3 3c 74 4a 7e bd 7a 4d b4 3d
       0.087835275 0.027723633 -0.062082723 0.0880384
000340 6b cf f6 bb 22 29 f8 bc 18 7a a1 bc 85 81 22 bd
       -0.0075320504 -0.030293051 -0.01971154 -0.0396743
000350 b3 da 0b 3d 75 34 3a bd 4b d9 25 3a dd f2 2a 3d
       0.034144115 -0.045460183 0.00063266297 0.04173552
000360 1f 32 44 3d 57 53 06 bd f5 c7 41 bd 46 a8 39 3c
       0.04789936 -0.032794323 -0.047309835 0.011331623
000370 35 56 1d 3d c1 4c 82 bd 14 75 3f bd 5f 08 47 3d
       0.03841229 -0.06362296 -0.046742514 0.048591968
000380 b8 fa 05 bc 89 b5 c2 bc 44 ca e9 bd ab 37 f9 3c
       -0.008177452 -0.023768203 -0.11415532 0.030422052
000390 4e 43 c0 bc 14 d4 38 3d 2d 33 3b 3d ee 8d bb bc
       -0.023469593 0.04512413 0.045703102 -0.022894826
0003a0 d8 a9 8e 3d cf 29 32 3d f4 4a ad 3c 45 8d 01 3e
       0.06965989 0.043496903 0.021153904 0.12651546
0003b0 4c 51 43 bd f9 e4 57 bc 9d 31 7b 3d e1 43 a9 bb
       -0.047684953 -0.01317715 0.06132661 -0.0051655625
0003c0 a7 fe 34 bc 3f 94 42 bc 83 e5 d9 3d aa 0a 03 ba
       -0.011047042 -0.011876165 0.10639479 -0.00049988425
0003d0 02 97 67 bc ee 73 2e 3d 72 60 e1 3d ec ea 05 bd
       -0.014135124 0.042591028 0.110047236 -0.032694742
0003e0 3b 51 ed 3d f0 6e d8 bc d2 dc 7c 3d 72 3d 65 bd
       0.11587759 -0.026420087 0.06173403 -0.055966802
0003f0 14 7c 71 3d 9a 17 da bc a4 fa 00 bd ea a8 11 bc
       0.05895622 -0.026622582 -0.03148903 -0.00889037

critic.2.bias f4 [128]
000000 b4 e1 96 bd db d2 16 bd 90 4a 32 bd e5 25 16 3d
       -0.07367268 -0.03682218 -0.04352814 0.036657233
000010 db cd 8b bd 50 b6 90 bd f9 81 85 bd 73 b2 a1 bd
       -0.06826373 -0.07066023 -0.06518931 -0.078953646
000020 ef c9 93 bd ce 37 80 bd d0 9a b0 bd 89 7f 6a bd
       -0.0721625 -0.06260644 -0.08623278 -0.057250533
000030 34 86 c9 bd b3 cd 48 3d cd a9 25 ba bc 30 26 3d
       -0.0984005 0.049024295 -0.0006319553 0.04057382
000040 38 0c f3 bd a3 91 0d bd c8 82 b1 3d a3 cb 97 bd
       -0.11867565 -0.034562718 0.08667523 -0.074118875
000050 9f 45 1a bd ec d8 68 bd 3a 67 e1 3d 77 b0 ca bd
       -0.037664052 -0.056847498 0.11006017 -0.09896939
000060 05 74 87 bd d6 77 29 bc a3 d0 85 3d d1 fd 8b 3c
       -0.06613926 -0.0103435125 0.06533935 0.017088803
000070 b9 f3 21 3d fb c0 ea 3d 2d 96 b6 3c fd 9c 70 bd
       0.039539073 0.11462589 0.022288406 -0.058743466
000080 23 cd b4 3d 0d 19 bd 3b 73 80 a4 3c 41 b2 0b bc
       0.08828189 0.0057708086 0.02008078 -0.008526386
000090 3f 87 a5 3d 39 53 8f bc e3 c9 e2 bd 7c ec d1 3c
       0.08082437 -0.017495738 -0.11073663 0.02562546
0000a0 93 6b 26 bd b4 73 82 3d 31 70 7d 3d 80 f2 e4 3b
       -0.040629935 0.06369725 0.061874572 0.006986916
0000b0 36 37 c5 3c aa 46 66 3c bd 2e 6d 3d 04 1d fe b8
       0.024074178 0.014054934 0.0579059 -0.000121170684
0000c0 a0 4e a3 bd 49 e0 08 3d d6 44 9b 3d c5 6d c3 bd
       -0.07973981 0.03341702 0.07581489 -0.09542421
0000d0 82 31 cf 3d fb 72 20 bd b6 19 d6 3d a6 1c bb 3d
       0.10116865 -0.039172154 0.10454123 0.09136324
0000e0 24 3a 3b 3c e7 31 5a 3d 71 bb 64 3d e6 88 55 bd
       0.011427436 0.053270247 0.05584282 -0.05213251
0000f0 ca 83 d7 bc 9c 55 c1 3d b7 ca 87 bc b6 0c d3 3d
       -0.02630796 0.09440157 -0.016576154 0.10305159
000100 8b 76 c3 bd 4c 6e bf bd 31 22 f8 bc 88 3f d8 3d
       -0.09544095 -0.09347209 -0.030289741 0.105589926
000110 28 ab 8f bc f8 6f e5 3d 9c 91 4f 3d 6b ae bd bd
       -0.017537668 0.11202997 0.050675973 -0.09261783
000120 ec c9 08 bd b4 d6 c1 bd 3b 44 95 3d 7a 42 b6 bc
       -0.033395693 -0.094647795 0.072884046 -0.022248495
000130 94 f6 dd bc 20 6e 60 bd 3c ad c6 bd cf b3 ab 3d
       -0.027095117 -0.054792523 -0.097010106 0.08383905
000140 b4 62 c5 3d af 76 1b bd 4e 2c fb bb 83 6d 61 3d
       0.09637967 -0.037954982 -0.0076651936 0.05503608
000150 68 1f ea bd 43 7e c5 bd 76 79 8e 3d 6d c0 7f bd
       -0.114317715 -0.09643223 0.069567606 -0.06243937
000160 03 bc f7 bd c6 54 a0 bc 32 0a 50 bd b5 aa c8 3b
       -0.12096407 -0.019571673 -0.050790973 0.0061238655
000170 45 99 d6 3d ab 6d 4d bd 7d f0 73 bd 2b 52 17 bd
       0.104784526 -0.050153416 -0.05955552 -0.036943596
000180 a5 8e 43 3c cd c9 f0 bd ab 5e 67 bc 46 55 50 bd
       0.011935865 -0.117572404 -0.014121692 -0.050862573
000190 92 dd 13 3d 88 86 e2 3d d4 4a 68 bd b9 be 2c bd
       0.036099978 0.11060816 -0.056711987 -0.042174075
0001a0 57 5f b0 3c 45 42 21 3d cb bc 10 bd 4f c2 92 bd
       0.021529837 0.03936984 -0.035336297 -0.07165968
0001b0 f4 fd a4 3d dd e4 48 b9 50 96 10 3d 01 1c e8 3d
       0.0805625 -0.00019158745 0.0352996 0.11333466
0001c0 28 c9 67 bd 1d c7 8c 3d bb 5b c0 bc 8b 0f ed 3d
       -0.056588322 0.06873915 -0.02348124 0.1157523
0001d0 3f 4b 9c bd d3 d7 11 bd 56 ab 4f ba 04 67 4e bd
       -0.076315396 -0.035606217 -0.00079219544 -0.050391212
0001e0 1c a2 e3 bd 1d 4a 1b bd 3f 7c bc 3d ab c8 d7 3d
       -0.11114904 -0.037912477 0.092033856 0.10536321
0001f0 28 17 e2 bd 17 50 bf 3d d0 42 8f 3c 1d c0 78 bd
       -0.11039573 0.09341448 0.017487913 -0.06073009

critic.4.weight f4 [128, 128]
000000 f1 63 60 3c 3d 08 20 bc e0 f9 8d bd 20 8a 91 3d
       0.013695703 -0.009767589 -0.069324255 0.071064234
000010 5a aa 03 be 6f d8 e0 3c 8d 54 36 3b 4e 4d ac bd
       -0.12857953 0.027446954 0.0027821392 -0.08413182
000020 3d 64 bd bd 5a 82 0e 3e 2d 6b e0 bd 18 9e 20 3d
       -0.092476346 0.13916913 -0.10957942 0.03921327
000030 c5 38 85 bd 55 75 bb bd 07 2d 94 3c 9b bb b8 bd
       -0.065049686 -0.09153239 0.018087877 -0.09020158
000040 6b 15 a1 bd 02 f1 cd bd 1e e8 8c 3d 8e 41 1a be
       -0.07865413 -0.10055734 0.0688021 -0.1506407
000050 09 ad 57 3c 51 9d 22 3e 2b 0e ee 3b 5c 24 41 bd
       0.013163813 0.15880324 0.0072648725 -0.047153816
000060 49 1f 5f bd b6 f9 ad 3b 72 d5 dc 3c 0c 4f 69 bd
       -0.054473195 0.005309309 0.026957247 -0.05696015
000070 35 b7 3c 3d f5 87 99 3d 95 8c 84 bc f7 ec 11 3c
       0.046073157 0.07496635 -0.016180316 0.0089065945
000080 86 3c 47 3d 48 c2 0d be 82 2e ff 3d 0d 17 6d bd
       0.048641704 -0.13843644 0.124600425 -0.05788331
000090 32 0a 28 3e c7 6c 8f 3d a2 af b7 bd 38 92 99 bd
       0.16410139 0.070031695 -0.08969046 -0.07498592
0000a0 15 74 56 3d 59 2e e6 3d e5 d0 39 3c 4c 34 f5 3d
       0.0523568 0.11239309 0.011341308 0.119728655
0000b0 cb 4f db 3d eb 5b ed 3d 94 67 7d 3c f4 5a 07 bd
       0.10708579 0.115897976 0.0154665895 -0.033045724
0000c0 5e 65 96 bc d4 7b cc bc fc ff e2 3d 95 02 96 bd
       -0.018358883 -0.02496139 0.110839814 -0.07324711
0000d0 2a 9f 17 3d 81 3e 04 3d 6a 8e d0 3d 3b 05 71 3d
       0.037017025 0.03228617 0.10183413 0.05884288
0000e0 41 d2 db bd fa f9 f2 3c 49 95 96 3c e8 cd 36 3d
       -0.10733462 0.029660214 0.018381732 0.04462996
0000f0 da c1 4e 3b c6 5e ac 3d 2c 9f bf 3d 10 1d 25 3d
       0.003154865 0.08416514 0.093565315 0.04031092
000100 80 e1 66 bd f3 e3 86 bd 3d 04 75 bd ec 4b 46 3c
       -0.056367397 -0.065864466 -0.059818495 0.012103062
000110 c9 2e c2 3d 05 8b 87 bc af 4a d1 bd 00 f0 8b bd
       0.0948158 -0.016545782 -0.10219323 -0.06832886
000120 12 4e 1a be 8b 8c b3 3c 33 ac c8 3d cc 1e b1 3d
       -0.15068844 0.021917602 0.097984694 0.08648452
000130 85 32 4e 3c e8 b7 6e bd de af 63 bd 44 c0 08 3e
       0.012585287 -0.058280855 -0.055587642 0.13354594
000140 d5 a4 1e 3e 2b a8 c2 3a 9f 3b 00 3e 48 20 95 bc
       0.15492566 0.0014851143 0.12522744 -0.01820387
000150 a7 35 b4 bd 55 0f 81 bd e8 95 87 3d e6 77 17 bd
       -0.08799296 -0.063017525 0.06620389 -0.03697958
000160 a7 38 05 bd 03 18 8d 3d 1f 59 6c bc 1d 4d 53 bd
       -0.03252473 0.068893455 -0.014425545 -0.051587213
000170 86 15 bf 3c 39 3a 03 3c cf ab 2f bd d6 5f 27 3d
       0.023325693 0.008009487 -0.04288846 0.04086288
000180 f1 3c 00 be d5 ee 6f 3c 96 03 18 bd b7 5a ce bd
       -0.12523247 0.014644344 -0.037112795 -0.10075896
000190 4e 96 c2 bd 54 2d b0 3d a0 7a 05 3e 13 6f dc 3a
       -0.095013246 0.08602396 0.13035059 0.0016817771
0001a0 3c 66 8d 3c 16 23 0c bd 25 0f 0e 3e 9d 46 4f 3c
       0.017260663 -0.034213148 0.13872965 0.012651113
0001b0 02 4d c7 3d 74 66 f3 bc 28 80 08 3e b4 8d 0a 3e
       0.09731485 -0.02971194 0.13330138 0.13530618
0001c0 50 2d 9f bd d4 1b fe 3d d4 fd b8 bc 18 75 3c 3d
       -0.077723145 0.124076515 -0.022581972 0.046010107
0001d0 22 05 59 b7 b9 4c 29 bd cb 98 06 3e 5b c1 84 3c
       -1.2935403e-05 -0.041332934 0.13144223 0.01620548
0001e0 48 ae e7 bd ec d9 0d 3e a9 05 06 3e 25 88 91 3a
       -0.113125384 0.13852662 0.13088097 0.0011103196
0001f0 55 1e 4b bd a4 c9 ae 3d e3 45 83 3c da 6f 13 bc
       -0.049589474 0.08534554 0.016024536 -0.008998835
000200 94 9d 3f bc e6 6b 35 bd a0 d7 a4 bc cc 39 ea bd
       -0.011695284 -0.044292353 -0.02012235 -0.11436805
000210 a5 4d 90 bc 4f a3 98 3c e0 ac e5 3d b4 dd 35 bd
       -0.017615149 0.01863256 0.11214614 -0.044400886
000220 86 a5 78 3d 26 b4 1c bd 29 71 a0 3d e0 b2 a5 3d
       0.06070473 -0.03825774 0.078340836 0.08090758
000230 83 89 eb 3d 9a 7a c3 3d 24 d4 d0 bd 2a 30 58 3d
       0.11500838 0.09544869 -0.101967126 0.052780308
000240 44 0d 04 bb 10 2c 1a 3e 9b b6 9f bd f1 3a 22 3e
       -0.0020149508 0.15055871 -0.07798501 0.15842797
000250 2c ab aa bd 2f 61 90 3c 56 b3 76 bc 1d 32 01 3e
       -0.0833343 0.017624466 -0.015057405 0.12616773
000260 4a f7 ca 3d 30 08 45 3c 34 40 28 3d 58 37 1f 3d
       0.09910448 0.012025878 0.041076854 0.03887114
000270 f5 05 fe 3d 44 92 08 be 43 9f 95 bc b2 c9 c4 3d
       0.1240348 -0.13337046 -0.018264418 0.09608783
000280 d9 49 8d bc 29 54 3d 3d 44 6d 8b bd 1c 96 27 bc
       -0.017247127 0.04622284 -0.0680795 -0.01022866
000290 f2 3c af bd fc e2 f0 bd 5e f3 73 3d a7 76 e0 3d
       -0.08556546 -0.11762044 0.059558265 0.10960131
0002a0 6c 27 18 3d 0e e9 d6 bd e9 0b 88 bc 5f 6e 35 be
       0.03714697 -0.104936704 -0.016607242 -0.17717884
0002b0 f1 e5 45 bd a2 e2 39 bd 85 60 11 be 1c a3 b9 3d
       -0.048314992 -0.04538215 -0.14196976 0.09064314
0002c0 04 82 f8 3d fc 29 df bd a3 63 cb bd ca 7e 0a bd
       0.121341735 -0.1089668 -0.099311136 -0.03381232
0002d0 a0 ea 2c bd 3f 4c 12 3d c8 29 34 bc f0 40 0c bd
       -0.042215943 0.035717245 -0.01099629 -0.034241617
0002e0 94 66 c0 3c 86 99 91 bd 0c 7b 9a 3d 33 88 af bd
       0.023486413 -0.071093604 0.075430006 -0.085709
0002f0 02 8c 7c bb 3d de c3 bd 13 a7 dc bb 81 a9 99 bd
       -0.00385356 -0.09563873 -0.006733784 -0.075030334
000300 a2 68 17 bb f6 83 42 bc 28 bf ea 3d af 04 00 bd
       -0.0023103138 -0.011872282 0.114622414 -0.031254467
000310 94 04 71 bd eb 9b 8c bd b5 9f c0 3d 71 70 22 3d
       -0.058842257 -0.068656765 0.09405462 0.039658014
000320 87 81 09 3d cb a6 6a 3d 05 c3 24 bd 5b 20 10 be
       0.033570793 0.057287972 -0.040225048 -0.14074843
000330 cd 9d a3 bd b1 ee 9d 3c 9a 72 b2 bb fa 91 b8 bd
       -0.079890825 0.019278856 -0.0054457905 -0.09012218
000340 26 01 17 be ae 06 41 3c 50 1f 86 bd c8 18 c0 bd
       -0.14746532 0.011781378 -0.06548941 -0.09379727
000350 57 eb 1d 3e 57 57 b0 3d a6 d4 c4 3c 70 6d 6b 3d
       0.15421806 0.08610409 0.02402718 0.057477415
000360 03 04 db 3d c7 2c 13 be 99 6a d3 bd 7a 34 0f 3e
       0.106941245 -0.1437255 -0.10323066 0.13984862
000370 01 2e 68 3c 6c 74 8b bd 09 1d 9d 3d 6e 9d 53 bc
       0.014171124 -0.06809315 0.07671554 -0.012915952
000380 20 1d 6e 3d e0 9e 09 ba a0 8d 88 bc a1 86 11 3e
       0.058133245 -0.00052498095 -0.016669095 0.14211513
000390 8b 74 17 3e 0d 8c 43 3c 0c 55 5b bd f7 85 fc 3d
       0.14790551 0.011935246 -0.053547904 0.12330239
0003a0 32 c7 ab bd eb a8 72 bc 2d 4e 03 be 9b e2 f8 3d
       -0.08387603 -0.014810781 -0.1282279 0.121525966
0003b0 4d 50 ec 3c f8 f4 4d 3c d9 f3 16 bd 51 57 6d bd
       0.028846884 0.012570612 -0.036853645 -0.0579446
0003c0 80 7f 83 3b aa b2 c1 3c b9 0f ab 3d 15 ab bc bd
       0.004013002 0.023644764 0.08352608 -0.09212319
0003d0 e3 d3 b4 3d fa 42 d9 3d a7 ef 8c 3c d9 21 8c bc
       0.08829477 0.10608478 0.017204119 -0.017105984
0003e0 b6 c0 3c 3d 0d 6b aa bc 3e 09 0c be 9e ae 19 3d
       0.04608222 -0.020802999 -0.136754 0.037520044
0003f0 63 14 93 3d 16 bb f0 bd 19 99 b9 bc 0d 83 af 3d
       0.07181623 -0.11754434 -0.02265601 0.08569918

critic.4.bias f4 [128]
000000 65 e4 a7 3d 97 f3 c2 bd 42 48 e4 bd d6 44 12 3d
       0.0819786 -0.09519117 -0.111465946 0.03571018
000010 22 59 76 3c 9c 6f ad b9 91 7d 93 3c 52 3c 7d bd
       0.015035899 -0.00033080287 0.01800421 -0.061825104
000020 dc 6a aa bd 69 bc 9c bb ed 9a d6 bd 11 ec 6c bd
       -0.08321163 -0.0047832024 -0.104787685 -0.057842318
000030 2a d9 ab 3d 75 af e4 3d b9 2e c4 3d 17 f7 fb 3b
       0.0839103 0.11166278 0.09579224 0.0076893675
000040 99 d2 bf 3d 53 5a be bd 90 b6 d6 bd fb 13 c6 bd
       0.0936634 -0.09294572 -0.1048404 -0.0967178
000050 9c ac b8 bd 84 0c 69 bd 81 c2 a0 bd 05 04 9c bc
       -0.090172976 -0.0568967 -0.07849599 -0.019044885
000060 fd e3 89 3c f1 a9 b7 bd 39 f1 d9 bb 4e dc 37 3b
       0.016832346 -0.089679606 -0.0066510704 0.0028054896
000070 15 18 f5 3c df 6e e8 3c c6 15 9d 3d 45 f7 34 3c
       0.02991871 0.02837318 0.076701686 0.011045282
000080 a3 01 2b 3c 58 ca d0 3d 6c db e3 3d b0 79 55 3d
       0.010437402 0.10194844 0.11125836 0.052118003
000090 35 ec 7e bd e7 b2 80 3d 76 91 b8 bc 82 7c 49 bd
       -0.062236983 0.06284123 -0.022530299 -0.049191006
0000a0 1a 04 c7 3d e4 2b 59 3d 21 31 95 bd bb ee c5 bc
       0.09717579 0.053020373 -0.07284761 -0.024161687
0000b0 60 ce 5e bc 28 a1 e2 bd ac c9 dc 3c 14 81 8c 3d
       -0.013599008 -0.11065894 0.026951633 0.06860557
0000c0 97 c0 7d bd f0 62 5a bd df f9 42 3d 49 b2 19 3d
       -0.061951246 -0.05331701 0.047601577 0.03752354
0000d0 d8 61 ac 3d 0e 40 8d 3c fe 3e cd 3d 5e 87 c4 bd
       0.084171 0.017242458 0.100217804 -0.09596132
0000e0 c1 af dc 3d 84 3d 1a bd 26 4d 01 be 92 62 80 3c
       0.1077571 -0.037656322 -0.12627086 0.015672002
0000f0 6e 38 49 bd 79 da 0a 3d 89 c5 90 3d c6 af 94 3d
       -0.04912608 0.033899758 0.07068927 0.072600886
000100 e0 48 8f 3d f0 31 89 bc 38 07 2d bd 64 b3 47 bb
       0.06996322 -0.016747445 -0.042243212 -0.0030471915
000110 e3 f1 47 bd 1d b0 39 3d 10 e4 63 bd 92 bc b3 bd
       -0.048814666 0.04533397 -0.05563742 -0.08776201
000120 bf 1d b9 bd 9b a9 21 bd 64 2e 23 bd 61 5b 7a 3c
       -0.09038877 -0.03946839 -0.039839163 0.0152805755
000130 5f 50 4c 3d 2f 4a 1b bc b1 fd 54 3c 73 ce b3 bc
       0.049881335 -0.009478136 0.012999938 -0.021949029
000140 f1 d8 df 3d a2 0d 7d 3d b4 79 0b bd 4c a7 3c bd
       0.1093005 0.06178058 -0.034051612 -0.046057984
000150 c8 5c 8e bd 95 66 a3 3d fb 37 99 3d bd 2a 94 3d
       -0.0695129 0.0797855 0.074813806 0.07234714
000160 5e 84 bd 3d d2 ea 25 bd 30 ec 79 3c ff ed 10 bc
       0.09253763 -0.040507145 0.015254065 -0.008845805
000170 21 81 8f bd 1b 7f e4 3c 1d 19 28 3d 7b 14 9b 3c
       -0.07007051 0.02789264 0.041039575 0.018930664
000180 2b 07 bf bd 0c bd 12 3d dd c6 3f 3a af cd 0a bd
       -0.09327539 0.03582482 0.0007315705 -0.03388756
000190 88 db d0 3c bb d7 d1 bd 70 53 fe 3d a5 f2 5a 3d
       0.025495306 -0.102462254 0.12418258 0.05345406
0001a0 8d fe 99 bd d1 82 87 bd 63 c6 3e 3d 96 a2 9d bd
       -0.07519255 -0.06616748 0.046575915 -0.076970264
0001b0 16 52 7f 3d c1 ac 26 3c ce 96 88 bc 0e 73 d5 3d
       0.062334143 0.010173024 -0.016673472 0.104223356
0001c0 1f af 40 bc 7f b1 a8 bb 3e d6 6b 3d 7b 05 1a 3d
       -0.011760502 -0.0051481123 0.057577364 0.037602883
0001d0 55 c7 d5 3c e3 6b 0e 3d ee 64 33 bc d6 dd b0 bd
       0.026096025 0.034770858 -0.0109493565 -0.08636062
0001e0 a6 b6 a0 3c cd 51 e1 39 ec e4 95 bd 77 8d d1 3c
       0.019618344 0.0004297629 -0.07319054 0.025580151
0001f0 66 a6 1d bd e2 52 a3 bc 45 e2 e8 3d 40 20 c0 bd
       -0.038488768 -0.019936983 0.113712825 -0.09381151

critic.6.weight f4 [1, 128]
000000 3e b8 63 3f 3c 48 65 bf 6a 5a 5f bf c6 ad 65 bf
       0.88953006 -0.89563346 -0.87247336 -0.8971828
000010 ef b0 63 bf ff ab 63 bf 11 a2 5c 3f f7 ba 6e bf
       -0.88941854 -0.8893432 0.86184794 -0.93254036
000020 aa 32 6f bf 04 49 6f 3f aa 4b 5c bf 64 9e 6e 3f
       -0.9343668 0.9347079 -0.86052954 0.93210435
000030 85 92 63 3f ea be 5d 3f f7 35 61 3f 75 e8 6c 3f
       0.88895446 0.86619437 0.8797297 0.925422
000040 b5 1e 5d 3f 5f d6 70 bf 7f 78 5b bf eb 8a 6f bf
       0.8637498 -0.94077104 -0.8573074 -0.93571347
000050 46 aa 67 bf 8c 41 60 bf 04 f3 6f bf ee c6 66 3f
       -0.9049419 -0.87600017 -0.9373019 0.9014729
000060 2d 4e 64 3f ac c4 65 bf 52 56 6a bf 1d 82 64 3f
       0.89181787 -0.8975322 -0.91537964 0.8926104
000070 18 8c 5c 3f 55 15 5b bf 78 61 63 3f c0 85 66 3f
       0.86151266 -0.85579425 0.888206 0.90047836
000080 d3 07 64 bf bd b1 6b 3f bb 31 6c 3f d4 df 66 3f
       -0.8907444 0.9206808 0.9226338 0.90185285
000090 e7 74 6b bf a8 58 65 3f 0f 0f 6f bf 80 3e 5d 3f
       -0.91975254 0.89588404 -0.9338235 0.8642349
0000a0 58 14 65 3f 3b 74 5c bf 71 fb 5b bf 7e af 5a 3f
       0.8948417 -0.86114854 -0.85930544 0.8542403
0000b0 f2 af 62 3f dd eb 65 bf 8c dc 64 bf a5 b1 62 3f
       0.8854972 -0.89813024 -0.8939903 0.88552314
0000c0 07 04 64 bf ab c8 5e bf 75 a4 5a 3f b7 a5 5c 3f
       -0.89068645 -0.87024945 0.8540719 0.8619036
0000d0 9e da 5e 3f ee 0a 6c bf 81 c8 67 3f e3 3a 5f bf
       0.87052333 -0.9220418 0.9054032 -0.8719923
0000e0 49 96 6d 3f 9d 16 61 3f fb d0 59 bf f4 56 63 3f
       0.9280744 0.8792513 -0.85084504 0.88804555
0000f0 29 d6 6d 3f 28 63 62 3f bc 42 69 3f 1d 22 65 3f
       0.9290491 0.8843255 0.91117454 0.8950518
000100 ea 1c 63 3f 6f bf 5b 3f 1c 3f 61 3f 49 aa 6b 3f
       0.88715994 0.8583898 0.8798692 0.9205671
000110 1a 7a 5a bf c7 17 5c 3f 6e f9 5b 3f db 86 5a bf
       -0.8534256 0.8597378 0.85927474 -0.85362023
000120 d4 c8 6a bf 1e 44 6b bf 34 38 5e 3f da 24 67 bf
       -0.9171269 -0.91900814 0.8680451 -0.90290606
000130 3a b9 67 3f 8c 3a 67 3f ae 51 60 bf 2c 38 5d bf
       0.9051701 0.9032371 -0.87624633 -0.86413836
000140 2c 2d 5b 3f 0c 2e 69 3f 00 5b 67 3f f6 4c 61 3f
       0.856158 0.91085887 0.9037323 0.8800806
000150 18 02 5c bf 3f bf 6b 3f 3f 34 5e 3f 7c a6 69 3f
       -0.85940695 0.92088693 0.8679847 0.9126966
000160 da 51 5f 3f 59 ef 5f 3f 5d 53 66 bf c0 3d 63 bf
       0.8723427 0.8747459 -0.8997095 -0.887661
000170 1f db 64 bf 0e f0 65 3f 88 b6 6c bf b6 9b 6d bf
       -0.8939685 0.8981942 -0.9246602 -0.9281572
000180 ce 39 5d bf b1 03 6d bf 80 72 63 3f 08 96 65 3f
       -0.8641633 -0.9258376 0.8884659 0.89682055
000190 6a 33 5f 3f 81 dc 5b bf 03 4b 5c 3f 6a ef 6d 3f
       0.87187827 -0.8588334 0.8605196 0.9294344
0001a0 94 70 5f bf 5c 47 5f bf 3b 2f 6e 3f 57 2d 6f bf
       -0.87281156 -0.8721826 0.9304082 -0.9342856
0001b0 a6 3c 5e 3f 43 1c 6c 3f 67 36 5e bf 19 07 5a 3f
       0.8681129 0.92230624 -0.8680176 0.8516708
0001c0 0d 05 5f bf a8 ac 6f bf eb 66 62 bf 46 11 5c 3f
       -0.8711708 -0.9362283 -0.8843829 0.8596386
0001d0 7f bc 5f bf 10 c7 6f 3f 6b 38 65 3f e0 df 66 bf
       -0.87397 0.9366312 0.8953921 -0.90185356
0001e0 28 ce 5b 3f 6c e5 63 bf e0 0b 6c bf c6 1f 68 3f
       0.85861444 -0.89021945 -0.9220562 0.9067348
0001f0 82 bb 5f 3f 58 0c 62 bf ee 91 6c 3f 24 51 64 bf
       0.8739549 -0.88300085 0.9241017 -0.8918631
